Save-Models/model-lat8.pth (torch, 192738 bytes, 16 tensors)

encoder.0.weight f4 [128, 99]
00000000: 7f9f 92bc 415e fb3c 6c3d 2d3d 4165 fabc
00000010: 01d0 d1bd dc73 a83c bdde 5e3d 0c74 a13d
00000020: db8a bcbd 19b6 68bd b7af a7bd 46ee bf3c
00000030: 912b a4bd 2b36 89bd ea48 a43d b808 c7bc
00000040: 0d20 0ebd 0b76 1fbc 817e 2ebd 399e ce3d
00000050: 0e1e 82bd cdf5 41bd ea77 fabb 27a9 8fbd
00000060: 7b3a cf3d 673d d3bc 5c82 803c 2e54 473d
00000070: a19e dd3d 3b3b 45bd e900 1cbd 8648 e13d
00000080: a560 913d b189 e93d eb2d a03d 941c 9bbc
00000090: 79ba 9e3d 1491 87bd 597b 353b eaa9 90bd
000000a0: 4983 8dbd a1ff c13d 3844 893d 2405 4e3c
000000b0: 36f7 2dbd 1797 a23d 6f5d db3d 4b42 86bd
000000c0: d441 a83d c359 153b 5fcd ed3d c2f7 ce3d
000000d0: ec93 e13d 5147 af3d d278 113d 38d7 273d
000000e0: 0bf4 b33c 8f6e 393c e37a a2bb a3a6 83bd
000000f0: e8ac 3f3d 0f49 b83d b8ad 3bbd 5aca a3bd
00000100: 65a1 9d3d 0a8a 83bd f0f8 8ebd 3cb9 e5bc
00000110: d617 5cbd 8f83 68bd 4cb6 6e3d 3a6e 873c
00000120: e3fe ad3d aa47 863d 7e50 953d d63e 7cbd
00000130: 250a 2fbc 4068 bf3d 11ba 97bd 15ad d43c
00000140: 2406 2e3d 2036 4b3d d150 6ebb f33c 5b3d
00000150: 1e82 97bd f46b f0bc ac7e 263d 47fb c23d
00000160: 03a7 db3d 121b 903d d691 a73c 41d4 333d
00000170: 7dc2 a2bd c4fb 1fbb c399 60bd 823d 8dbd
00000180: 2131 77bd d0d9 9e3d dfe4 7f3c 3bbd 37bd
00000190: f405 18be 4f41 3ebe ec59 7dbd 2763 c1bd
000001a0: a1a0 acbd 28af 59bc 742b 84bd 2413 023c
000001b0: 21e2 d7bd f870 d23c 8516 5abd 3e04 bcbd
000001c0: 745d 1ebe 1c29 e5bd 1555 c6bd bba7 8dbd
000001d0: f9e3 80bc 2e46 06be 89fc 07be 1736 c8bc
000001e0: 7a1d 873d 604a 273d 22de 713d 9e94 18bd
000001f0: 716d d23c 1d9d 183d dc59 81bd 122b 83bc
00000200: 1668 6b3d e38c ddbd 8d60 cebc b761 7fbd
00000210: b1de 85bd 044d bcbd e65e 623d 4542 aebd
00000220: 9123 d0bd 01ac 9fbb 93ac 9f3d 1141 b5bd
00000230: 20dc ebbc 3d7a 5f3d 0f9c 223d cfc4 88bd
00000240: 547a b2bc bd07 15bd bbbd d33d 03ec 6839
00000250: b2a8 e33d 4c45 87bd 6c30 ce3d 41cb a1bc
00000260: 68ad 8d3d 840c b63c 7372 babc a452 a33d
00000270: 5387 e23c 2e0b d53d 1886 b83d 4ee3 dd3d
00000280: 3f63 0b3d 2597 7e3d 92d6 fa3d a084 22bd
00000290: f238 77bd 112f b3bc afe9 023e bd23 bcbc
000002a0: 859a 85bd 7993 a63b d1b6 1dbd 822c 19bd
000002b0: 4af8 8539 3e0d aa3c 94b1 903c 805a 003e
000002c0: 8389 d13d 33f0 553c fdff fa3d ecd3 803d
000002d0: fa10 80bc 0fcd 953d a3ce 85bb 9677 57bd
000002e0: d045 863d cf6f 013e 2317 13bc 528d 063e
000002f0: 41eb 19bd b885 47bd f68e 38bd 313c ab3d
00000300: c157 2ebd 9bb1 753d 4355 bb3d d3eb ae3c
00000310: a289 083e a335 213d 4cee 863d 9eb0 beba
00000320: fbab de3d 5bbb 4239 1f35 1f39 6740 9fbd
00000330: 2d16 e03d cca0 60bd 00c5 78bd b678 ac3d
00000340: 5ffb 0bbd a235 3f3a 234a 213d 1445 b23d
00000350: 47fc f7bc 0cc7 0cbc fd0b ed3c f582 cfbc
00000360: f37e b0bc 8725 973d 8e58 843d cc3f 993d
00000370: c2d2 9fbd 36da 24bd 0362 a03d b4f6 b0bd
00000380: 5abd 953d 7b2b 923d c542 e7bc 4acc 103b
00000390: 29e4 2b3c 4aea c23c 7a82 d0bc d4d6 a13d
000003a0: 2505 9ebd 55a7 503d e4a0 bdbd 5015 d4bd
000003b0: c9c8 d2bd fc18 e73c aa1e 933b b572 b8bd
000003c0: ad79 bd3c 04be 743d b9b1 16bd d333 0c3d
000003d0: 2c3c 23bd bc59 26bd c3bb 6dbd c749 223d
000003e0: 6950 5d3d 1004 ad3d 24f6 b1bd b973 c93c
000003f0: b764 c1ba 64b2 0d3b f45b 6cbd 6262 e3bd
-0.01789832 0.030684592 0.042294905 -0.03056586 -0.10244752 0.020563059 0.05441164 0.07883462
-0.09206172 -0.056814287 -0.08187812 0.023429047 -0.08016122 -0.06699785 0.0802172 -0.02429615
-0.034698535 -0.0097327335 -0.042601112 0.10088772 -0.06353389 -0.047353555 -0.0076436894 -0.07014685
0.10118576 -0.025786115 0.01568716 0.048664264 0.10821272 -0.04815219 -0.038086805 0.11000161
0.070985116 0.11403216 0.07821258 -0.018934526 0.077504106 -0.06619468 0.002769193 -0.070636585
-0.06909806 0.094725855 0.06702465 0.012574468 -0.042472087 0.07938974 0.107111804 -0.06555613
0.08215681 0.0022789098 0.11611437 0.1010585 0.11014542 0.085585244 0.035515614 0.040976733
0.021966955 0.011317863 -0.004958497 -0.06428268 0.046795756 0.0899831 -0.045819968 -0.0799758
0.07696799 -0.06422813 -0.06981075 -0.028042428 -0.05373367 -0.05676609 0.05827932 0.016532052
0.084958814 0.065566376 0.07290743 -0.061583363 -0.010683571 0.09346056 -0.07408536 0.025961438
0.042486325 0.049612164 -0.0036364088 0.053524923 -0.07397865 -0.029348351 0.040648147 0.095205836
0.10725214 0.07036413 0.020455282 0.043903593 -0.07947252 -0.0024411539 -0.05483414 -0.06896497
-0.060349587 0.07756388 0.015618532 -0.0448582 -0.14846021 -0.18579601 -0.061853334 -0.0944274
-0.08429075 -0.013286389 -0.064536005 0.007939134 -0.105411775 0.025688633 -0.053244133 -0.09180497
-0.15465337 -0.111894816 -0.09684197 -0.06916758 -0.015733706 -0.13112709 -0.13279928 -0.024439855
0.06597419 0.040842414 0.059049733 -0.037251107 0.025686951 0.03725921 -0.063159674 -0.016011748
0.05747231 -0.10817888 -0.025192523 -0.062349048 -0.06536616 -0.09194377 0.055266283 -0.08508734
-0.10163034 -0.0048727994 0.07796588 -0.08850301 -0.028791487 0.054559935 0.03969961 -0.06678163
-0.021786846 -0.036384333 0.103389226 0.00022213165 0.111161605 -0.06605014 0.100678295 -0.01975024
0.0691784 0.022222765 -0.022759652 0.07974747 0.027652418 0.10402523 0.09009951 0.108343706
0.034030195 0.06215586 0.12247957 -0.039677262 -0.06035704 -0.021873029 0.12784456 -0.02296626
-0.06523613 0.005083498 -0.038504425 -0.03739596 0.00025552727 0.020758267 0.0176628 0.12534523
0.102313064 0.013057756 0.12255857 0.06290421 -0.015633095 0.073145024 -0.004083471 -0.05260428
0.065562844 0.12640308 -0.008977684 0.13139847 -0.03757787 -0.04871151 -0.045058213 0.0836109
-0.042564157 0.05998383 0.09147122 0.021352684 0.13333753 0.039357793 0.0658842 -0.0014548486
0.108726464 0.00018571077 0.00015183211 -0.07775956 0.1094173 -0.054840848 -0.06073475 0.08421461
-0.034175273 0.00072940637 0.039377343 0.08704582 -0.030271662 -0.008592378 0.02893638 -0.025331
-0.02154491 0.07380205 0.06462203 0.074828714 -0.07803871 -0.040247165 0.07831194 -0.08640805
0.073115066 0.071371995 -0.02823008 0.0022094422 0.010491409 0.023793358 -0.025452841 0.07902303
-0.07715825 0.05094083 -0.09259203 -0.103556275 -0.10292203 0.028210156 0.0044897394 -0.09006254
0.023129309 0.059751526 -0.036790583 0.03422911 -0.039852306 -0.04061292 -0.05804039 0.03962114
0.054031763 0.084480405 -0.08689526 0.024591314 -0.0014754747 0.0021621222 -0.05770488 -0.111027494

encoder.0.bias f4 [128]
00000000: e2c1 39be 9e55 c13a 26c8 dbbd 1504 a9bd
00000010: fec2 003d 8c62 13be 2d40 aebd 9a02 10be
00000020: 678f efbc 28df 93be 9f32 b8bd 1d12 5ebd
00000030: b458 62be e736 57bd 988f e7bd c58b 513e
00000040: 3360 07bd ac2d 6dbe 018e afbd 3428 e1bd
00000050: c7a3 0ebe e5eb 24be 0bb0 3abe 5afb 933b
00000060: 35e1 a6bd b1c6 fabd 4855 9d3b 5fd7 45be
00000070: def7 57be 683c 10be b481 42be 9ddd 39be
00000080: 954d c3be 83a3 8ebd 16ab 123b d324 1cbe
00000090: 7075 96bd 444c bdbd 12e8 e8bb 4a84 53bd
000000a0: db80 58bc 2c9f 6cbe cf78 b5bd 2317 27be
000000b0: 40a8 2fbe bee9 4fbe afd6 b4bc 90cc 9bbc
000000c0: a428 b3bd 4a35 16be 84cc 4abe 79fb 01bc
000000d0: f7c2 6ebe 82c0 513c fdde 47bd be43 18be
000000e0: 2263 fdbd c9f2 06be bca0 9dbd e924 5ebe
000000f0: 967b a23d f714 2ebe 1795 a9be 5a30 c6bd
00000100: d64d 84be 62de 53bd 4b4f 03be c975 1bbd
00000110: 8b10 bcbe 8770 03be 698a f7bd f108 08bd
00000120: 9540 fcbd 3080 3dbe 8061 55be bc9a 01bc
00000130: d7fc 0fbe b768 92bd 3797 cabd c55a e5bd
00000140: bc3d 14be 7053 c4bb 5949 58be ab37 dbbd
00000150: 067c 95bd 7983 c1bd 2359 90be 5e06 01be
00000160: 97e4 3fbe 2d9a f03a c133 0dbe 4cb9 69be
00000170: d304 60be c035 4dbd 47a5 3ebe e91c 63bb
00000180: 9cf4 71be f313 f4bd 1780 2ebe cae4 3bbe
00000190: 97a5 35bd 5bdb efbd 0fe8 87bd 4a82 0abd
000001a0: 34a6 333d c803 2bbe 8b26 51be e715 a03d
000001b0: 3861 1cbe cca9 cbbd f455 403d a574 0ebc
000001c0: d474 12be df8b 87be 2597 31be e658 bebd
000001d0: 1025 59be 15db 24bd 2bb1 f3bc 0235 853b
000001e0: 1dad 1b3c 0ade 49be 0da5 ebbd e90a 43be
000001f0: f281 3bbe 33d7 47be 7f9a 05be be9b 263c
-0.18140367 0.0014750247 -0.10731535 -0.08252732 0.03143596 -0.14393061 -0.08508334 -0.14063492
-0.029243184 -0.28881192 -0.0899403 -0.054216493 -0.2210415 -0.052542593 -0.11306685 0.20463474
-0.033050727 -0.23161954 -0.08572007 -0.10993996 -0.13929664 -0.16105612 -0.18231218 0.0045160474
-0.081484236 -0.12244929 0.004801426 -0.19320439 -0.21090648 -0.14085543 -0.1899479 -0.18150945
-0.38145128 -0.06964781 0.0022379807 -0.15248422 -0.07346618 -0.09243062 -0.007107743 -0.051639833
-0.013214315 -0.23107594 -0.08860933 -0.1631742 -0.17154026 -0.2030401 -0.022075025 -0.019018441
-0.08747986 -0.14668766 -0.19804579 -0.007933491 -0.2331656 0.012802245 -0.048796643 -0.14869592
-0.12372424 -0.13178553 -0.07696673 -0.21693768 0.079337284 -0.17000185 -0.3312156 -0.09677191
-0.25840634 -0.051725753 -0.12823217 -0.037954126 -0.3673137 -0.12835895 -0.120869465 -0.033211652
-0.123170055 -0.18505931 -0.20837975 -0.007910427 -0.14061294 -0.07148879 -0.09892123 -0.111989535
-0.14476675 -0.005991392 -0.2112173 -0.10703977 -0.07299046 -0.094489045 -0.28193006 -0.12600085
-0.18739544 0.0018356495 -0.13789274 -0.22824591 -0.2187684 -0.050100088 -0.18617736 -0.0034654683
-0.23628467 -0.119178675 -0.1704105 -0.18348995 -0.044347372 -0.117117606 -0.066360585 -0.03381566
0.043859676 -0.16700661 -0.20424859 0.078166775 -0.15271461 -0.099444956 0.04695697 -0.008694802
-0.14302379 -0.264739 -0.17342813 -0.092943 -0.21205544 -0.040247995 -0.029747566 0.004065157
0.009501723 -0.19713607 -0.1150609 -0.1904713 -0.18311289 -0.19515686 -0.13047217 0.010168968

encoder.3.weight f4 [64, 128]
00000000: 59c9 d33d 52f0 8dbd d6b6 8dbc 095f 983d
00000010: 2404 a73d f0cd e9bc a349 31bd 68ba ca3c
00000020: 42a6 35bd e2dd 97bd 7030 b3bd 49e7 38bd
00000030: f4df 7bbd ddd3 d43c a8f7 a9bd a8df 3b3d
00000040: 9d05 b1bd c3e3 8d3d 2f24 013d 82d5 2abd
00000050: 8e54 e33c 5be3 1fbd d8c6 52bd ccdd f9bd
00000060: f4cc af3d 5d91 30bd 1176 d0bd 5b87 9d3d
00000070: a701 3fbd 18c7 aabc 0475 6fbd bb98 0abd
00000080: be69 513d 0d57 3f3b b89b b03c c1fd 23bd
00000090: d1be 22bd 093c 88bc 3a46 c2bc aadb 42bd
000000a0: c181 9b3d ff24 bc3c 3398 113d 4eba 8b3d
000000b0: ecb1 be3d dbd1 943d d01d 963d 9d43 b33d
000000c0: 6bd0 813d 5dad 70bc f5cf c0bd 7fd4 393c
000000d0: ca12 8cbd 2fcb 82bd 81ec 6abd 5042 d43d
000000e0: 25d2 efbd 1e8c c4bd 92ab c4bd ea89 28bd
000000f0: e9ff ff3b 2c46 983d 24a7 013e c8de b93d
00000100: 85ba a23d cec2 9c3d d926 833c 5eec abbd
00000110: 3fca 38bd 53bc 67bd 0359 bfbd e27a c73c
00000120: 3e11 883d ecb2 bcbc 00f4 74bb 9cea 2abd
00000130: e419 a23c 6c9b 763b 39ad 023d 39b2 c03d
00000140: 4edf 7fbd 5131 a03c a5e2 25bd 0f04 01be
00000150: 6b0f ac3d ad27 dc3c a3ec b7bd ee3c 73bd
00000160: bc97 563b 5f42 eb3c 5e43 6cbd a43f 24bd
00000170: e702 473d 44c6 5f3c ba37 a63d e55e 8b3d
00000180: 4dfe de3c 0b8d 953d 65ce 0b3c 5b88 913c
00000190: 4f75 79bd d81c 7cbd 6723 f0bc 6e4f 64bb
000001a0: 0a54 183c 7c16 513b b40d cdbc e6f6 fa3c
000001b0: ba8d 5d3d 00b6 bebd e20d e1bd b9e6 ba3d
000001c0: 6a02 3d3b 1009 03bd e511 633d d13c 6d3b
000001d0: e670 b53d 3783 99bd 78aa f6bc 5c01 2d3d
000001e0: 9ef9 67bd b28c e8bc b325 acbc a5d8 5d3d
000001f0: 2326 d2bc 549a 933c 068f 423d 642a 613c
00000200: 5fb4 963d 4208 3dbd dadd 39be 29a1 943d
00000210: 785e f0bc 5e45 bbbd 3426 7cbd 9819 3fbd
00000220: 34ed a33c 5678 64bd 66d5 3bbe f204 353d
00000230: 3f2f bdbd a07d 86bd 7836 9bbd 7476 c1bd
00000240: ed4f 05be 4ee8 edbc b482 ebbc df59 213d
00000250: b2d9 c7bd 7a34 2fbc a305 0d3d bfa2 9cbd
00000260: 06f3 0cbe 8485 7dbe 0b39 dbbd c8a2 543d
00000270: 5ca8 0c3d 94f6 563d a302 2f3d 01c4 4ebd
00000280: 876e 203e 0031 92bc abcf 8ebd 91b1 9b3d
00000290: 8b32 303b 0b82 e2bd 7568 1dbe fc45 893d
000002a0: c68c 6f3d b3fb 8f3d f22c 693c b229 103c
000002b0: be10 8a3d d795 9a3a f79f 0e3d 3761 4d3d
000002c0: bd5c 89bd 499a cd3b 00a9 afbd 2440 cbbd
000002d0: 35d4 2dbe b113 29bd e808 8fbd 4129 9aba
000002e0: aec5 23bd c92e 73bd eab3 f8bd 2c35 29be
000002f0: 50d4 ae3c f04e 13bd befe ee3d 1489 ad3a
00000300: 25c3 ac3c 9631 1abd 1030 aebd 6911 dabd
00000310: 485c 4bbc 078e 9cbd 2736 36be ee9a abbc
00000320: 1960 413c 0d06 80bd 266a b83b 6249 d6bd
00000330: 9a49 893d 0c11 7c3d fdc3 8b3d 3e11 943c
00000340: ac50 e3bc 7ad7 bdbd 099d a6bc 9a21 acbc
00000350: bf86 4c3c 874e 493c fe3b f5bd dc6c c53c
00000360: 6262 073d bc33 79bd 3e38 9fbd ac65 9f3d
00000370: 7488 053c 869e ad3d ddd1 b4bb 4e18 babd
00000380: 563d 9d3d 3473 04bd fcd8 973d 6e3f 1fbd
00000390: e655 52be b3a0 6a3d 7684 77bc f4ad 9fbd
000003a0: d10e ae3b 44a1 03be f49c fd3c 1350 88ba
000003b0: 453f 893c 52a3 c2bd 96c2 11be 9cce b5bc
000003c0: 301a e7bd 0bff 4d3d 925b 393d 2d24 fbbb
000003d0: f374 1b3d 7b1e dbbd 4504 f13c 6159 9c3d
000003e0: 9d02 47bd f753 14bd 3b48 2b3d ac1e 88bc
000003f0: d3c3 0cbd 874e 153d 58ba c93d 94a6 aebd
0.103411384 -0.06930603 -0.017299097 0.074400015 0.08155087 -0.028540581 -0.043283116 0.024747089
-0.04434801 -0.07415368 -0.08749473 -0.045142446 -0.061492875 0.02597993 -0.0829919 0.045867592
-0.08643649 0.06928208 0.031528648 -0.041707523 0.02775028 -0.039035182 -0.051459163 -0.122005075
0.085840136 -0.04310738 -0.101787694 0.07691833 -0.046632435 -0.020846888 -0.058461204 -0.03383706
0.051126234 0.0029196173 0.021558627 -0.04003692 -0.039732758 -0.01663019 -0.023715127 -0.04757277
0.07593108 0.02296686 0.03554554 0.06822644 0.0931128 0.07266589 0.07329905 0.087531306
0.06338581 -0.0146897705 -0.09414665 0.011342167 -0.06839521 -0.063864104 -0.057354454 0.103642106
-0.11710004 -0.09597038 -0.09603037 -0.04114715 0.0078124893 0.07435259 0.12661415 0.09075695
0.07945732 0.076543435 0.016009735 -0.08394693 -0.045114752 -0.056576084 -0.093431495 0.024350587
0.06643914 -0.023034535 -0.003737688 -0.041727647 0.019787736 0.003762926 0.03190348 0.09408993
-0.06246882 0.019554766 -0.04049935 -0.12599204 0.08401378 0.026874388 -0.08980682 -0.05938428
0.003274425 0.028718172 -0.057681434 -0.040099755 0.048586752 0.01365811 0.08116098 0.06805209
0.02722087 0.073022924 0.008533095 0.017765215 -0.06090289 -0.061550945 -0.029313756 -0.0034837383
0.00929738 0.003190427 -0.025030948 0.030635308 0.05409024 -0.093120575 -0.10988976 0.09126038
0.002884055 -0.031991065 0.055436987 0.003619958 0.08859424 -0.0749573 -0.030110583 0.042237625
-0.056634538 -0.028387401 -0.02101407 0.054161686 -0.02565295 0.018017925 0.04749968 0.013743017
0.07358622 -0.046150453 -0.18151036 0.07257301 -0.029341921 -0.0914409 -0.06155987 -0.046655267
0.020010568 -0.055778824 -0.18343124 0.04419417 -0.09237527 -0.0656693 -0.075787485 -0.09446421
-0.1301877 -0.029041436 -0.028748848 0.03939235 -0.09758319 -0.010693664 0.034429204 -0.07648229
-0.13764581 -0.24757963 -0.107042395 0.051913053 0.034340248 0.05248125 0.042727124 -0.050479893
0.15667163 -0.01784563 -0.06973203 0.076022275 0.0026885595 -0.1105996 -0.15371878 0.067028016
0.05848386 0.0703043 0.014231907 0.008799003 0.067414746 0.0011793923 0.034820523 0.05014154
-0.067071415 0.0062744957 -0.08577156 -0.09924343 -0.16975482 -0.041278545 -0.069841206 -0.0011761562
-0.039983444 -0.05937079 -0.12143691 -0.1652419 0.021341473 -0.035963953 0.11669682 0.0013239705
0.021089146 -0.037644945 -0.08505261 -0.10647852 -0.012412138 -0.07644277 -0.17794095 -0.0209479
0.011802697 -0.06251154 0.0056278883 -0.104632154 0.067034915 0.061539695 0.06824491 0.018074628
-0.027748428 -0.092696145 -0.020338552 -0.021012116 0.012483298 0.012286789 -0.11974333 0.02409976
0.03305281 -0.060840353 -0.07774399 0.07783064 0.008150209 0.084775016 -0.0055181817 -0.09086667
0.076777145 -0.03233643 0.07414433 -0.03887885 -0.2054058 0.05728216 -0.015107265 -0.07796851
0.005311825 -0.12854487 0.03095863 -0.001039984 0.016753802 -0.09503807 -0.14234385 -0.022193246
-0.11284292 0.050292056 0.045253344 -0.0076642246 0.03795333 -0.10699173 0.029420981 0.07634235
-0.048586477 -0.036212888 0.04181693 -0.016616188 -0.03436644 0.036451843 0.098499954 -0.08527866

encoder.3.bias f4 [64]
00000000: f8c6 89bc 241a 59bd e827 33be 185f d03b
00000010: 24c1 acbd fa4c d1bc 3a0d 81be b594 7dbc
00000020: 352c 3abe c447 9ebd 46d7 623d 497f 90bd
00000030: 5eff 81bd 7c7f 3fbd 8dad 083c bdb3 863c
00000040: d8f8 c93c 5bd6 8dbe c7d2 29be c990 c2bd
00000050: 16e4 77bd e832 b2bd 6c59 e9bd d318 be3b
00000060: 0834 3bbe c48e c9bd 3b11 ef3c b0cc 7ebd
00000070: dfb8 483d 32d4 30be d3e1 88bc b13e 84bc
00000080: d2fd 2f3b b608 a2bd a278 76bd d243 7bbe
00000090: 714e 9dbd e1f3 5a3d c91e 383c 0e84 abbd
000000a0: 1f40 cdbc 1eac bc3d b872 97bd dfbf 82bd
000000b0: 9bcd a6bc a128 75bd 963e 943c 7aed c1bd
000000c0: 240d 9fbb e2c7 973c 1a94 8b3c df2b 60bd
000000d0: b888 31bd e652 703d 8055 61be e6d1 86be
000000e0: 7ed0 b8bd b1f3 77be c594 453d 7cc6 eebd
000000f0: 7091 0a3c f383 60bc c1ab 10bc a4d3 53bd
-0.016818509 -0.053003445 -0.17495692 0.0063589923 -0.08435276 -0.0255494 -0.25205404 -0.015477349
-0.18180926 -0.07728532 0.055381082 -0.07055528 -0.063475356 -0.046752438 0.008342159 0.016443128
0.02465479 -0.27702603 -0.16584311 -0.09500272 -0.060520254 -0.08701116 -0.11394009 0.005801299
-0.18281567 -0.098416835 0.02918302 -0.062206924 0.04900443 -0.17268446 -0.016709244 -0.016143175
0.002685417 -0.07911818 -0.06017364 -0.2453759 -0.07680977 0.053455237 0.0112378085 -0.08374797
-0.02505499 0.09212516 -0.07394928 -0.06384253 -0.020361712 -0.0598532 0.01809625 -0.09469123
-0.0048538614 0.018527929 0.017038394 -0.05472934 -0.043343276 0.058672808 -0.22005272 -0.26332015
-0.09024142 -0.24214055 0.04823758 -0.11658952 0.008457527 -0.013703334 -0.008830012 -0.051715508

encoder.6.weight f4 [32, 64]
00000000: 5e02 30bd 3c81 e9bd 978c 52bd 5028 503d
00000010: ad10 0b3e 0afc adbd a707 b83c 9f65 40bd
00000020: 78f9 7ebd 53fe 2a3d 699a a0bd ebe8 52be
00000030: 6a77 12be db4f b3bc 4f89 03bd 0b8b 99bd
00000040: 026d e83d 5524 f73b a8a8 ec3b 2da6 603d
00000050: cfce 033e ea25 ecbd cc2a d03b a5a7 823d
00000060: 6e66 f5bb 6590 863d 9234 533d f1ce a53d
00000070: 4d3c 0dbd ce6a 723d e4f3 07be 4b53 113e
00000080: 45e1 f6bc be7e b7bd 718a dc3b 9a50 2fbe
00000090: 8327 ac3d 0130 6e3d b43a 133c c360 043e
000000a0: bc51 dfba 5321 913d bcc2 d93d c020 073e
000000b0: 4f71 8abc ceb1 593d 03df fb3c 593d 813d
000000c0: 4cd5 ff3d 6b94 2e3d 87f4 e8bb 115a bebd
000000d0: 517d 39bd 926b 8fbd 52ea da3c 34aa 893c
000000e0: 2a75 9a3d edf3 73bb 30f2 cebd 00f9 c3bd
000000f0: 07cc e1bc 5015 23be 1040 063e b613 a03d
00000100: 82a9 35be 9daf 1cbc dbfd f93c 5df7 cc3d
00000110: 8676 b9bd 1cd3 17be b6cb 153e 0efa 14bd
00000120: 4b2b 19bd c6a0 003e ffbe 383d 5f01 b0bd
00000130: 23b1 24bd fffe 21be 00a0 71bc 9b18 eb3c
00000140: 2c56 18bd 1fbf 193d 64ea e63a 277b f03d
00000150: 1d75 b23c d7b9 95bd c2c8 d43c 4a98 8b3d
00000160: 970e 3dbe a945 033e eb7f 6ebd c568 1b3e
00000170: f43b 123d cde9 823c 2d53 8cbe bdf0 4f3c
00000180: 3217 78bc c142 75bc 2dd5 973d 43c7 8abd
00000190: 9d58 88bd 603d c03c 419b 0f3e cf87 4e3d
000001a0: 1816 1f3d 6db3 42be 241c 093e 30cf 8fbd
000001b0: 442c 103c 61cf c53d cbf6 42be cd0f 873c
000001c0: aef0 163d e08e 16be dace c5bc 2979 97bd
000001d0: a987 c63d 71fe 23be 4f01 aa3d 066e 363d
000001e0: a735 f03c 2e15 ea3d ac5a 80be 6b93 cfbd
000001f0: 51d6 a3bd 5d8c 13be 1d1d 573d 6b6e 3d3e
00000200: b2f9 3fbe cbea 28be cfb1 33bd 42a0 95bd
00000210: a0d4 213e 1311 8cbc cb10 58bd 6051 af3d
00000220: a37c 7dbd 2000 6e3d 3b26 353d fd53 fe3a
00000230: 2b23 03be db2e 23bd a097 07bd b19e b43d
00000240: 6e82 2cbd 20cf 0f3e 477a b53b edb3 24b9
00000250: 7935 fb3c b78e 39be 4b88 8bbd 1730 2cbd
00000260: cf7f 07bd 1b74 b83b 5a66 a7bd 25df e43c
00000270: 69d5 c93d 51db bdbd 0564 c7bd ce4e b9bd
00000280: 2853 eb3d ee41 17be cb6c ae3d 373d 6bbd
00000290: 3d64 06be 169e b6bc baf1 003e a638 b53c
000002a0: f0fa 75bd 7560 1f3e 3228 d9bc d300 9fbd
000002b0: 6eb0 483d 0bb0 c23d cb9c a5bc 99e6 09be
000002c0: 169c b0bd 3b12 98bd 7106 723d 50f6 05be
000002d0: 47c9 e13d 275a e6bd d6ab 2bbc bb33 05bd
000002e0: a110 78bc 9c99 f43d 5664 5fbe 663f 03bd
000002f0: 7dfd a93d 5d5d 3abe df87 9a3d 1682 f23b
00000300: 5714 283b 75d9 29be ae25 8bbb 17c9 d0bc
00000310: aa6e e4bb 0d11 dabc 3108 18bd 99b2 903d
00000320: 5cbd 133d 5e01 80bd ba2a 8e3d 3333 0dbc
00000330: c951 e1bd ef7b d4bd 1fd8 c73d 222a ab3d
00000340: c70a 2f3c d129 c03c c4e1 ef3b 43aa 4f3d
00000350: fc34 83bd 841e 18bd 097f 16bd 0197 c43d
00000360: 28ee 2ebe 605d e63c 9575 b13d f09b b4bd
00000370: 3091 b8bb 847c e3bd 52aa db3c f8cb 073e
00000380: 24ea 143d 6460 993b 2dde afbc 9d88 5ebd
00000390: 1084 8b3d 4577 40bd 60a6 b7bc 6c00 ad3b
000003a0: e853 6a3d e4d1 f13d 4cdd 30bd d9a3 d53d
000003b0: be77 613c d78e 38bc 6009 adbd f752 c8bc
000003c0: fb11 9e3d eae0 aebc 22a7 cdbd be4f ee3b
000003d0: 26ca 9e3d 1322 a8ba fc17 96bd 9e1a bebc
000003e0: db67 ad3d 54fa 8ebd 60b7 e4bc 8668 003d
000003f0: 1c23 b43d 6914 dfbc 570f 58bd de40 fabd
-0.042971008 -0.114016026 -0.05140361 0.050819695 0.1358058 -0.08495338 0.022464586 -0.046971913
-0.06224963 0.04174645 -0.078419514 -0.20596664 -0.14303365 -0.021888664 -0.03211337 -0.074972235
0.113489166 0.007542173 0.007222254 0.054845978 0.1287186 -0.11530669 0.006352758 0.06379632
-0.007489017 0.0657051 0.051563807 0.080961116 -0.034481335 0.059183888 -0.1327663 0.1419193
-0.030136714 -0.08959721 0.0067303707 -0.17120591 0.08405974 0.05815125 0.008986164 0.12927537
-0.0017037909 0.07086434 0.10632846 0.13196087 -0.016899733 0.053148083 0.030745989 0.06310529
0.12491855 0.04262201 -0.007109228 -0.092945226 -0.045285527 -0.07002939 0.02672306 0.016804792
0.075418785 -0.0037224249 -0.10104787 -0.09568977 -0.027563108 -0.15926099 0.13110375 0.078162596
-0.17740443 -0.009563354 0.030516556 0.10008118 -0.0905581 -0.14826626 0.14628491 -0.036371283
-0.037394803 0.1256133 0.045104023 -0.085940115 -0.040207993 -0.1581993 -0.01474762 0.028698256
-0.037191555 0.037535783 0.0017617461 0.117422394 0.02178436 -0.07310837 0.025974635 0.06816156
-0.18462597 0.12819542 -0.05822746 0.15176685 0.035701707 0.015980626 -0.27407208 0.012691674
-0.015142249 -0.014969529 0.07413707 -0.067762874 -0.06657527 0.023466766 0.14024068 0.050422486
0.03883943 -0.19013758 0.13389641 -0.0702194 0.008799616 0.09658695 -0.19039457 0.016487027
0.036850624 -0.1470294 -0.024146486 -0.07396156 0.09693844 -0.1601503 0.08301031 0.04453852
0.029322458 0.11429821 -0.25069177 -0.101355396 -0.07999862 -0.14409013 0.052518 0.18499152
-0.18747595 -0.16495816 -0.043870743 -0.073059574 0.15803766 -0.017097985 -0.05275039 0.08560443
-0.06188644 0.058105588 0.044225913 0.0019403693 -0.12806384 -0.039839607 -0.033103585 0.088193305
-0.042116575 0.14043856 0.0055382582 -0.00015707286 0.030665146 -0.18120848 -0.06813105 -0.04203805
-0.033080872 0.005629075 -0.08173819 0.027938435 0.09855158 -0.09270347 -0.09735874 -0.09048234
0.1149047 -0.14771244 0.08516844 -0.057431426 -0.13124175 -0.022292178 0.12592211 0.022121739
-0.060053766 0.15564139 -0.026508424 -0.07763829 0.04899638 0.09506234 -0.020216366 -0.13466872
-0.08623521 -0.07425352 0.059088174 -0.13082242 0.11024719 -0.11247664 -0.010477981 -0.032520037
-0.015140683 0.11943361 -0.21815619 -0.032042883 0.08300302 -0.18199678 0.075454466 0.0074007614
0.002564689 -0.1658686 -0.004246435 -0.025486512 -0.0069712 -0.026619459 -0.037117187 0.07065315
0.03606926 -0.06250261 0.06941743 -0.008618164 -0.110019274 -0.10375201 0.09758019 0.083576456
0.010683722 0.02345744 0.0073206145 0.050699484 -0.0640659 -0.037138477 -0.036742244 0.09599114
-0.17083037 0.028120697 0.08665005 -0.08818805 -0.005632542 -0.11107734 0.026814613 0.13261402
0.036356106 0.00468068 -0.021468246 -0.054329503 0.06812298 -0.046988744 -0.022418201 0.0052795913
0.057208925 0.118076116 -0.043179795 0.10431642 0.013761459 -0.011264524 -0.08449054 -0.024453623
0.07718273 -0.021347482 -0.10041644 0.0072726896 0.077534005 -0.0012827538 -0.073287934 -0.023206051
0.084670745 -0.0698134 -0.027919471 0.03134968 0.08795759 -0.027231412 -0.052749004 -0.12219404

encoder.6.bias f4 [32]
00000000: c209 e4bd 17e4 bc3d 2735 4a3d 39c3 903d
00000010: 1252 2fbe c678 f33d 5ad8 cd3b 8f2f 07be
00000020: 4e29 d73b 167d a93d a7de 143c 02e1 a63b
00000030: 1f8b 843d 2d8b 60bd 5aec 2a3d 775f ee3d
00000040: 134b 12bd 1226 953b b99d d73d 42fc 2fbe
00000050: 017e 5639 e573 8c3d 71bb e6bd 1c0a 05be
00000060: e194 163c e42a d93d 6cf3 923d 1455 39bd
00000070: 9f91 4abd 57d6 9bbd 69e4 ebbc fea8 7bbd
-0.11134674 0.09223192 0.049367096 0.07068486 -0.17121151 0.1188827 0.0062818946 -0.13201736
0.006566203 0.082758114 0.009086288 0.005092741 0.06471848 -0.05482023 0.04172931 0.11639302
-0.035716128 0.0045516575 0.1052813 -0.17186072 0.0002045557 0.06858043 -0.1126622 -0.12992138
0.009190769 0.10603884 0.07175335 -0.045247152 -0.04945528 -0.076092415 -0.028795438 -0.06144046

encoder.9.weight f4 [8, 32]
00000000: 302c 573b 297f e43d a6c0 58bb 37bb 9dbd
00000010: 9b12 5a3e 5c40 0f3e 096d 2a3e b87b 903c
00000020: 1934 44be 6bb0 9bbc 86a4 e93c 569f de3d
00000030: f870 833c 022a fb3d 9b06 2b3e c715 e8bc
00000040: d742 be3d ec80 f03d 166e 5abc c2ba 2d3e
00000050: 5a31 cfbd 1279 fe3d b9ec b13d 1422 183b
00000060: 3fe3 993c 9768 21be 4993 503b bd63 2cbd
00000070: 67b0 18be 3bc3 a43d 3f91 bd3c cc1e 7939
00000080: 0dfb edbc 1b54 e9bc ad9e 243e a6f2 c23d
00000090: 6545 1fbe 7650 a33d 4872 f6bc 832b e6bd
000000a0: 6f83 b4bd 599b d43d 2c65 193d baaa c73c
000000b0: b720 243e 65b1 f0bd 4eeb b9bd fafa 993d
000000c0: b61b b93d a384 84ba 2bff 39bd 34f1 5fbd
000000d0: 5afd 0a3e 5fd3 343e b5e6 123e 8a01 62be
000000e0: 40cd bd3d 2247 a7bd 8d1b 92bd 36ec acbc
000000f0: ee01 c43d f09e e93d 6941 82bd 1e1b 113e
00000100: 6a3f d53c 8423 213e dab1 e13d 9fc4 b13c
00000110: da01 cb3d 0b1d a63d 20c1 d3bd 0fab 95bd
00000120: 4b17 8cbc 2ca2 383c 95cf 1e3c bdcd 65bd
00000130: 54b2 3abe 06c7 2dbe 5ece 443d 5c2f 2cbe
00000140: 1abe cdbd fed2 513e 16b8 3a3e d617 383b
00000150: 59fb f1bd fdb5 4a3e 2590 14be ddc3 c7bd
00000160: d656 1bbe 4a25 833d fc08 10be 8d04 3abe
00000170: 9958 973d 4dc8 07be 8beb eabd d39a 383c
00000180: a863 6d3d 37ca 693d e64f f83d 2600 edbc
00000190: a135 d63d 8b5a 4cbe 6f6d a83d 13c1 00bd
000001a0: deb2 7d3d 72ab 203e 3a3d debd 4297 243c
000001b0: d0e3 c43d 2c48 903d b742 033e 6944 43be
000001c0: 26d6 9e3d 18d1 7c3d 1acd 81bd f2f4 6dbd
000001d0: b8f4 22be 0f24 c5bc c80f 02bd 9b1b a3bd
000001e0: 4760 4abe a58a e1bd 491f 10be 06bc 823d
000001f0: c37c da3d 5fbf 56be abe0 d43d 4cf8 343d
00000200: 759f 123d 3d91 203e e464 56bd 96ee 4a3e
00000210: d987 a4bd 4267 96bc af2d 1abe 33c5 a3bd
00000220: 1607 2c3e e993 56bc d4c6 a9bd ef91 ffbd
00000230: b2cd 70bd 6e44 11be 3a2f 533d 6be1 06bc
00000240: b84e 973d 6e29 bebc 0af6 fa3c 1405 053e
00000250: 66f3 abbb f021 e53d b7a0 043d 43ee 7ebd
00000260: 3efd 34bd 44ef 003e 99a5 12be d432 46be
00000270: f65b e5bd 3a67 06bb bc4a 333e 542e 19be
00000280: 1f29 573d dbd7 95bd c5f4 51bd 6c5e 493d
00000290: ce50 5c3d 62f8 62bd d26e 97bd c3ea 4abe
000002a0: d192 b7bd a1b0 a33d 510c 28be 5781 39be
000002b0: 7bf5 db3d 3364 243c cdf0 d9bd d758 7bbd
000002c0: e94b 223e 2b46 50bc d60e e23d 4d9e 043e
000002d0: 2436 afbd dddf 23be 1daf 303e 8f7a f73d
000002e0: 05e4 08be 2675 cf3d 130a 19be 9c3d 24be
000002f0: f544 323e 8f7c 833d 87e6 8fbd fcba 153e
00000300: 203d f53d 05a0 2d3e c3c3 1c3e b22f cc3d
00000310: 6222 663c ce73 01be a105 70bd e0a4 4e3d
00000320: 3ce0 273e 3376 a43d f59c 0bbe 6190 14be
00000330: 2816 ca3d 38cf 953d 9c8e 05be 717a 3b3d
00000340: f99a d13d b44c 383e 00be 55bd eb15 bcbd
00000350: c843 27be 5620 3fbe 3f8b be3b fc9f f9bd
00000360: f369 c2bd 6559 203d a1e6 ebbb 2c26 0bbd
00000370: a06a 043e b54c 9f3d 1fb1 8d3d b361 023e
00000380: 06ab d73c 8b9e 28be fdf8 dc3c c648 14be
00000390: b3ed 433e 3642 b2bd 3174 9abc 2a6e e13d
000003a0: 7a03 063e 978b ecbd 1be8 873b c800 91bd
000003b0: fd33 ea3d fadc 98bd 383e e0bd 8007 29bd
000003c0: a6e4 32bc b40f b5bd 2116 eb3c f0a3 32bd
000003d0: 464e 7cbc 16c0 e03d 491e 823d 6910 5b3d
000003e0: 5551 f1bd 1102 b73d 0f3d 26be 1dd8 5ebd
000003f0: c586 8ebc 2bae 27bd 6f54 943d 7292 683d
0.0032832734 0.111570664 -0.0033073812 -0.07701724 0.2129616 0.13989395 0.16643156 0.017637119
-0.19160499 -0.019005021 0.028520834 0.10870235 0.016045079 0.12263872 0.16701739 -0.028330697
0.092900924 0.1174334 -0.013331911 0.16965774 -0.10116835 0.12425436 0.086877294 0.0023213672
0.018785117 -0.15762554 0.003182607 -0.042087305 -0.14911042 0.0804505 0.023140548 0.00023757963
-0.029050374 -0.028482487 0.16076155 0.09518938 -0.15553816 0.07974331 -0.03008379 -0.11238768
-0.088141315 0.10381193 0.03745 0.024373401 0.16028105 -0.11752585 -0.09078084 0.07518573
0.090384886 -0.001011033 -0.045409363 -0.05467339 0.13573208 0.17658757 0.1434582 -0.220709
0.09267664 -0.081678644 -0.07134161 -0.021108728 0.095706806 0.11407268 -0.06360132 0.141705
0.026031215 0.15736204 0.110202506 0.021700202 0.099124625 0.08111008 -0.1033957 -0.073080175
-0.01710095 0.011269134 0.009693046 -0.05610441 -0.1823209 -0.16970453 0.04804837 -0.16814941
-0.100460246 0.20490643 0.18234286 0.002809038 -0.11815519 0.19795986 -0.14508112 -0.09754155
-0.15169844 0.06403597 -0.14065927 -0.18165798 0.073899455 -0.13260002 -0.114707075 0.011267382
0.057956368 0.057077613 0.121246144 -0.028930735 0.10459448 -0.19956414 0.08223998 -0.03143413
0.06193816 0.15690401 -0.10851522 0.010045828 0.09613764 0.07045016 0.12818418 -0.19069065
0.07755689 0.061722845 -0.06337948 -0.058094926 -0.15913665 -0.024065046 -0.03175333 -0.0796425
-0.1976329 -0.110127725 -0.14074434 0.06383519 0.10668328 -0.2097144 0.103944145 0.044182107
0.0357966 0.15680404 -0.05234231 0.19817576 -0.080337234 -0.018359784 -0.1505649 -0.07996597
0.16799578 -0.013096788 -0.082898766 -0.124790065 -0.058789916 -0.1418626 0.05155871 -0.008232455
0.07388061 -0.023213115 0.030634899 0.12990218 -0.005247521 0.11188114 0.032379832 -0.062238943
-0.044186823 0.12591273 -0.14320983 -0.19355327 -0.11199181 -0.0020508305 0.17508978 -0.14959079
0.05252945 -0.07316562 -0.05125882 0.049162313 0.053788 -0.055412658 -0.07394184 -0.19816117
-0.0896355 0.07992674 -0.16410948 -0.18115745 0.10740181 0.010033655 -0.10641632 -0.06136402
0.1584927 -0.012712042 0.11037986 0.12951012 -0.085552484 -0.16003366 0.172543 0.12083923
-0.13368233 0.10129766 -0.1494525 -0.16039127 0.17409118 0.06420242 -0.070263915 0.1462211
0.11974549 0.16955574 0.15309052 0.09970035 0.014046283 -0.12641832 -0.05859912 0.050450206
0.16394132 0.08030357 -0.13634093 -0.14508201 0.09867507 0.073149145 -0.13042682 0.045771066
0.10234637 0.1799801 -0.05218315 -0.09183868 -0.1633445 -0.18664679 0.0058149393 -0.12188718
-0.094928645 0.039147753 -0.007199124 -0.03397195 0.12931299 0.077783026 0.06918549 0.12732582
0.026326668 -0.1646673 0.026974196 -0.14480886 0.19133644 -0.08704035 -0.018854233 0.1100734
0.13087264 -0.11550062 0.004147542 -0.07080227 0.11435697 -0.07464023 -0.10949367 -0.04126692
-0.010918772 -0.08840886 0.028697075 -0.043613374 -0.015399521 0.109741375 0.06353433 0.053482447
-0.11783091 0.08935941 -0.1623423 -0.05440532 -0.017398247 -0.040937584 0.07242667 0.056780286

encoder.9.bias f4 [8]
00000000: 91ba 843d 4116 153e 7367 eabd e0e8 083c
00000010: 6552 133e 1693 c9bd 02c8 71bd a914 72bd
0.06480897 0.1455927 -0.114455126 0.008356303 0.143869 -0.098425075 -0.059028633 -0.059101734

decoder.0.weight f4 [32, 8]
00000000: 236b 72be 1a38 90bd e906 91be 5eb1 a23e
00000010: 4624 543e 0bc9 68be 6cc4 c9bd 8be8 89bd
00000020: 6192 ba3e 5eca a73d 05b9 93be a5f0 8fbe
00000030: 9c1a 6c3d 5fa5 96bd 267e 3abd 63df 9d3d
00000040: 5fc3 833e 82b1 a83e 0187 a63e 34b3 683e
00000050: 6b95 833e 6fbe e33d d39b 01bd 915e ad3e
00000060: 7250 493e 3b68 843e 6c40 2cbd bab7 87bd
00000070: cd67 573e af3d 8e3e 2d82 b5bd ea30 433e
00000080: a730 cbbc 8a29 3d3e 32c3 d33d 1c4f 74be
00000090: d7f1 9e3e 141d 5cbe 68fe 44be eafc 8e3e
000000a0: 8bca 0a3e 88ae b03e 9c1d 633d c645 693e
000000b0: 830e 40be 91cd 47be c667 0b3d 9d2d 873c
000000c0: 20b0 87be 5319 483e 2b30 db3d 59fe 353e
000000d0: da2f b4be e438 163e 1633 80bd 7ecf 8f3e
000000e0: 43fa 0cbd bf02 8f3e f91c 6bbe 7be3 023d
000000f0: 1841 1ebe 1434 163e 5282 c73d 8009 a0be
00000100: bb24 2bbd 20c5 353e 9e2d 923e 966e cbbc
00000110: fc16 18be 29e6 b53e 3ff7 693e e28f 923e
00000120: 15b4 7a3e 810a 39bc ded8 bdbe 71d5 96bc
00000130: 433a 75bd 2bd8 85be 2ad8 24be cdcd f93d
00000140: 43ad 26be 7ad0 653d eb1c 15be e26f b2bb
00000150: 7fb4 bd3e a3c3 83bc e0f7 0e3e dfd5 d8be
00000160: 07de 263e 89d1 31be 0de8 133e 71e6 943e
00000170: 7ff0 503d 3818 5f3e 457b b23e c85c 6b3e
00000180: 130e 2cbe 91f3 133e ebd7 91be cef5 2ebe
00000190: cbf7 ae3e 27db 713e ef05 7bbd 9190 97be
000001a0: e197 973e 61a0 273e 74bf 8cbe 7500 15be
000001b0: 9465 88be 7ed7 c7bc efc9 813d d21d 81be
000001c0: 3b37 debd 0bcb 963c ff1f 343e 1396 6abe
000001d0: df34 59be fad7 a0be 2145 98be 2b83 3e3c
000001e0: 13be 08be 21f8 b3bd 95d5 853e 9459 253e
000001f0: 351f 843e dae9 8f3e 6735 c93d 8cb9 803d
00000200: e22a 423c bc53 67be 266e 0dbe 5a2d 653b
00000210: c9a5 393e 2beb dc3e ef81 8abe 7d2e 603e
00000220: 54b2 a1be 7284 8bbd 643f 58be f975 ba3a
00000230: e2c3 c9bd 64b4 b5be 151d b0be c09a db3d
00000240: 4ca2 203e 04e4 093e 4fc3 9bbd 67d9 2b3c
00000250: 9ab2 353e 0f88 b9bd f425 693d 7c41 14be
00000260: 4a30 55bd ec79 0f3e 6280 3c3e 215f 78bc
00000270: dd0a 6fbe 44e6 7b3e a3f7 093e 7881 a0be
00000280: 5c71 3fbe a562 493e 2118 6a3e 00bd a6be
00000290: 6df7 003e 2087 1dbe 843f efbd b33d 99bd
000002a0: b13e 38be b61d 513e dbd7 423e ed7f f4bc
000002b0: 8507 3c3e 49ac 88bd ed3c 94be cc8b 023e
000002c0: 0797 dc3d b855 dcbc 80c6 a83c c1fc 84be
000002d0: 4f57 7fbd ff42 6abe e108 44bc 1a09 d93d
000002e0: e709 99be 8ccf 83be c04a 993d 3b64 5cbe
000002f0: 0f38 c3bd 92fe 503e 7ffd 71be 9630 993e
00000300: 42c5 16be 20e3 1abe 8520 543e 223a 943e
00000310: 97d0 6b3e 7303 3c3e 631c 75be c964 b03d
00000320: b81c 993d d186 8b3d 0cfb 183d 107e 323e
00000330: 8991 8fbb 27bb 533e 0ac1 593e 7607 623e
00000340: 99ee c33e 91cd af3d 4c12 c03d f157 9fbe
00000350: a841 85be 6593 cf3d e460 95bd 4eb6 b6be
00000360: 9151 af3e e423 86be efaa b5bc 0a11 c23d
00000370: 0aa5 46bd 8007 54be 9e72 08bb aba7 713d
00000380: 1e1c 00be fcc4 203e 54b3 543d 19ca 333e
00000390: 88f9 ebbd b87a 5dbd d695 0dbb 138e 15be
000003a0: baef ce3d 9a9b 7cbd 9b4b 81be 70d2 82be
000003b0: d5c2 08be 8b2b fbbd 672b de3c 0eaa ac3e
000003c0: 57a5 00bd 7b85 903e 6837 0ebd 74f6 723e
000003d0: 5ad4 ac3d 91fe 193e afef 6abd 7053 92be
000003e0: cde5 5d3e e68a 67bb 2930 84be 1e9a 0fbe
000003f0: ec3e b6be 3498 4d3e a99a c8bd dc57 9b3c
-0.23673682 -0.070419505 -0.28325585 0.31775945 0.20716962 -0.22732942 -0.098519176 -0.06733807
0.36439803 0.08192895 -0.28852096 -0.28113285 0.057642564 -0.07355761 -0.04553046 0.07708623
0.25734994 0.32947928 0.32524875 0.2272461 0.25699934 0.11120307 -0.031642746 0.3386121
0.19659594 0.25860772 -0.042053625 -0.0662684 0.2103569 0.27781436 -0.0886272 0.19061628
-0.024803473 0.18472877 0.10339965 -0.23858303 0.31043884 -0.21495467 -0.19237673 0.27927333
0.13553827 0.34508157 0.05544816 0.22780523 -0.18755536 -0.19512011 0.034034513 0.016501242
-0.2650156 0.1954091 0.10702547 0.17772807 -0.35192758 0.1467014 -0.06259744 0.2808799
-0.034418356 0.27931783 -0.22960271 0.031955224 -0.15454519 0.14668304 0.097416535 -0.31257248
-0.041783076 0.17750978 0.28550428 -0.024833005 -0.14852518 0.3552716 0.22848223 0.286254
0.24482758 -0.011294008 -0.3707952 -0.018412324 -0.059870016 -0.26141486 -0.16098085 0.121974565
-0.16277032 0.056107022 -0.14561813 -0.0054454664 0.3705177 -0.016084498 0.13961744 -0.4235067
0.16295634 -0.17365088 0.14443989 0.29082063 0.051010605 0.21786582 0.34859672 0.22984612
-0.16802244 0.14448382 -0.28485045 -0.17085955 0.34173426 0.23618756 -0.061284956 -0.29602483
0.29608062 0.16369773 -0.27489817 -0.14550956 -0.26639998 -0.024394747 0.06337344 -0.25218064
-0.10850378 0.018407365 0.1759033 -0.22908811 -0.21211575 -0.31414777 -0.2974024 0.011627953
-0.13353758 -0.08787561 0.26139513 0.16147453 0.2580506 0.28108102 0.09824639 0.0628539
0.011851044 -0.22590536 -0.1381155 0.0034969659 0.18129648 0.4314817 -0.27052256 0.21892734
-0.31581366 -0.06812371 -0.21117932 0.0014225832 -0.09851815 -0.3548919 -0.34397188 0.107228756
0.15686911 0.13465887 -0.076056115 0.0104888445 0.17743912 -0.09059154 0.05692096 -0.14478105
-0.052048005 0.14011353 0.18408349 -0.015159399 -0.23343988 0.24599558 0.13473372 -0.31348777
-0.18695587 0.19666536 0.22860767 -0.3256607 0.12594385 -0.15383577 -0.116820365 -0.07482471
-0.17992665 0.2042149 0.19027655 -0.029846156 0.18362243 -0.06673486 -0.28952733 0.12748641
0.10770994 -0.026896343 0.020602465 -0.25974086 -0.062339123 -0.2287712 -0.0119650075 0.10597439
-0.29890367 -0.25744283 0.074849606 -0.2152261 -0.09532177 0.20409611 -0.23631857 0.2991988
-0.14723685 -0.15125704 0.2071553 0.28950602 0.2302879 0.18360691 -0.2393661 0.08612973
0.07476181 0.068128236 0.037348792 0.17430902 -0.004381363 0.20676862 0.21265045 0.22073159
0.38267973 0.085841306 0.0937849 -0.3112178 -0.26026654 0.10135535 -0.07293871 -0.35685962
0.34241918 -0.26199257 -0.022176234 0.09475906 -0.048497237 -0.20705986 -0.002082027 0.05899779
-0.12510726 0.15700144 0.051928833 0.17557563 -0.11522204 -0.05407211 -0.0021604202 -0.14604978
0.10104318 -0.06167183 -0.25252995 -0.25551176 -0.13355573 -0.122641645 0.027120305 0.3372349
-0.03140768 0.28226838 -0.03472081 0.23726827 0.0843894 0.15038516 -0.057357486 -0.28579283
0.21669693 -0.0035330593 -0.25817993 -0.14023635 -0.3559488 0.20077592 -0.09795124 0.018962793

decoder.0.bias f4 [32]
00000000: 7989 783e 7e99 643e 1354 0c3e 7e81 643d
00000010: 4412 04be 5558 38be 7b46 cabd 0dc5 3fbd
00000020: a859 873e 82ea 1c3e 16bd 49be 6922 923e
00000030: d6ee c93d d74e 3f3e bd7a 9abe 433b c1bd
00000040: df51 873d dc3b 773c ac54 babe 87ce a43e
00000050: 06cf 76bc 6c3e 30be 0bc4 453b 9752 1a3e
00000060: 8ba0 89be 88f3 813e 4e55 5c3d 63e1 d63e
00000070: bda2 80be 6331 e5be 0d91 d83d 930a a53c
0.24271192 0.22324178 0.13703947 0.055787556 -0.12897593 -0.18002446 -0.09876724 -0.04681878
0.2643559 0.15323833 -0.19701037 0.28541878 0.098600075 0.18682419 -0.30171767 -0.094351314
0.066074125 0.015089955 -0.36392725 0.32188818 -0.015064007 -0.17211312 0.0030176665 0.15070568
-0.26880297 0.25381112 0.05379229 0.4196883 -0.2512416 -0.44764242 0.10574541 0.020146644

decoder.2.weight f4 [64, 32]
00000000: 1f40 2c3e 8234 2b3e 5ebb 5dbc e7a6 47bc
00000010: fbef 083e 4773 62bd 7158 eabd 37b0 cbbd
00000020: 46c7 2ab9 d642 bc3d 77f2 fabd 37a9 3b3c
00000030: 5d3a c93d 83d9 c53d 5ad3 783d 7071 c6bd
00000040: 4a9a 573e d008 a53d d857 e63d c96b 35be
00000050: d0fb 92bd e7d1 0abd 1a96 1cbe c023 213b
00000060: 58b3 37be 7221 c73d 29c0 23be f261 a33d
00000070: 7f18 32be 0d90 69bd 07bf 343e c079 dc3d
00000080: a771 4c3d 8aed e0bd f97d 9f3d a31a 3cbd
00000090: cb7b f8bd c551 1a3d dd40 0e3e 81d3 2cbd
000000a0: 0a46 a9bd b725 553d 913b 73bd 7ac7 8e3c
000000b0: b722 383e 440e 2f3e 8b0d 02be 5623 083d
000000c0: 751b e4bc aff0 5e3d e896 44be 36ac a5bd
000000d0: c912 a83d 2e1d 983c cd83 ac3d bd71 0b3e
000000e0: b5cc 303d 76aa b5bc b893 fabd 90b4 213e
000000f0: 3ae7 80bd aa14 fa3c c603 553d 5e28 0abe
00000100: f09f fa3b 553c a4bd bd6c 303e 6c9d 26be
00000110: 2eef 9e3d 08f6 0fbe d65b f53d 0e56 bbba
00000120: 67ef 2abe fae1 22be 1446 54bd de3f 173d
00000130: 33f5 b6bd 0368 51bb 68d8 013e 34f7 ae3c
00000140: a3a5 f23c 13e2 b6bd b6f7 6ebd 744f 9cbd
00000150: 85db 2f3e c43a 1e3e babc 2dbe 207e 8dbd
00000160: 2b6c 7c3d 8396 2d3e c6d2 20bb 91fb 0e3e
00000170: c8f1 e53d 7092 1cbe 0c65 f2bd 68f7 f63d
00000180: f324 d83d cf13 a63d 7f76 353e 6c26 82bc
00000190: 35aa b5bd 2ffe 31be 67fa 953b d8cd f4bd
000001a0: 0e56 4a3e 48cb b9bb d244 16be 4085 27be
000001b0: 6757 6d3e d499 043e f076 cb3c dc6f cabd
000001c0: 34f9 06be ec00 fdbd be47 80be 9451 773e
000001d0: 6696 87bc e879 84be 5fe7 0d3e 8e1a 483d
000001e0: 53bc 7abe 8202 073d d810 1f3e ad16 f63d
000001f0: b6ef 00be fda2 1dbe 6ff1 3c3d 42c0 14bd
00000200: 0e0e 323e ecc9 653d 337b 8bbd 0d46 b0bd
00000210: 13a2 2f3e 7819 a93d 097e 1a3e ee61 f33d
00000220: 4931 803c 251d e53b 14b6 b0bb 4ae7 b0bd
00000230: 33da aabd 153a 89bc 8c84 fc3c 4287 15bc
00000240: 01f6 8fbb a523 99bd 624e 34bd 4310 973d
00000250: 0d59 1b3e 8d38 a3bd 1922 1a3e 7fed 343e
00000260: 297e d7bc cebf ef3b ee8d 94bd 06d5 eb3c
00000270: b451 e1bd 8d2c 28be 3c1b 30be 132b 943d
00000280: 920e 07be 1a16 f73d 14d5 e1bd 4178 583d
00000290: f8e4 9cbd 2fed 133e 3a70 bfbd a323 29be
000002a0: e022 303d fed8 4b3e 911f 23be 2335 f7bd
000002b0: b75a 3c3d 142c 843d 602f 883d ba44 73bd
000002c0: 0d69 593b dbb0 d23d 20fa 453d 4a97 8b3d
000002d0: 1528 013e 62e4 e4bd efdf 373e 4846 263d
000002e0: 9bbe 55be 6fcd e63c 9ae6 243e 6297 01bc
000002f0: 10d2 da3d b854 2abc c820 883c 61ed 063e
00000300: d8bb 15bc 2b80 f73c 6006 45be 8f80 36bc
00000310: ab57 133e 4d15 253e 5cbf df3d a50f 12be
00000320: 565b 94bd 5eec 413e 37bf e5bd 3af0 183e
00000330: 670b 34bd b67d bbbd 3918 013e a341 173e
00000340: 68db 5d3e a5b9 0c3d 0400 f23d 3b83 b3bd
00000350: fda4 0c3e b261 613d 742c 973d 67d2 5fbc
00000360: 548a 023e bf57 8b3d b50e da3d a15a 543e
00000370: fd55 2b3e cee1 6bbd 736c 82bd 13a2 08be
00000380: 4561 093e 7eee ec3d deff dd3d 6a02 a63c
00000390: 2814 6b3e b114 b6bc fe1b 803c 6682 fd3d
000003a0: 3dd9 d73d 4b76 00be 68e4 8fbd 1e4e 693d
000003b0: e844 013e ef11 82bd a016 17be 332e aa3d
000003c0: 7128 0d3e 6b4d e1ba e49c a2bc 3d25 173e
000003d0: 5a5e 33bc eb3d b9bd f3e8 92bd b304 8cbd
000003e0: 5de6 b93d 1e75 753d a85c 713d 050b 00be
000003f0: efeb 0b3e da32 b1bd 6b5f 273e 82b7 a1bc
0.16821335 0.16719249 -0.013533441 -0.012185789 0.13372795 -0.05528572 -0.1144265 -0.0994572
-0.00016286699 0.091924354 -0.12253278 0.011453918 0.09825585 0.09660628 0.060748436 -0.09689605
0.2105495 0.080583215 0.112472236 -0.17716898 -0.07176936 -0.033891585 -0.15291634 0.002458796
-0.17939508 0.09723176 -0.15991272 0.07977666 -0.17392157 -0.057022143 0.17650996 0.107654095
0.049913075 -0.10982807 0.07787699 -0.04592384 -0.12132987 0.037675638 0.13891931 -0.042193893
-0.08265312 0.05203792 -0.05938298 0.017429102 0.17981993 0.17095286 -0.12700479 0.033236824
-0.027845124 0.054428753 -0.19198191 -0.08089487 0.08206708 0.018568601 0.084235765 0.13617606
0.043163974 -0.022176009 -0.12235206 0.15791535 -0.06294103 0.030527432 0.05200555 -0.13491961
0.0076484606 -0.0801932 0.1722898 -0.16270989 0.07760464 -0.14058697 0.11980407 -0.0014292614
-0.16692887 -0.15906516 -0.051824644 0.036926143 -0.08933487 -0.0031952865 0.12680209 0.02135811
0.029619997 -0.08929839 -0.058341704 -0.07632342 0.17173584 0.15452105 -0.16966525 -0.06908822
0.061626595 0.16951947 -0.0024539693 0.13963152 0.11227757 -0.15290236 -0.118356794 0.12058908
0.105539225 0.08109247 0.17720984 -0.015887462 -0.08870355 -0.1738212 0.0045769694 -0.11953324
0.1975939 -0.005669985 -0.1467469 -0.16359425 0.23177873 0.12949306 0.024836987 -0.09884617
-0.13181001 -0.123536915 -0.25054735 0.24152213 -0.016551208 -0.25874257 0.13857792 0.04885345
-0.24485902 0.032961376 0.15533769 0.12016044 -0.12591442 -0.15394206 0.046128687 -0.036316164
0.17388174 0.05610077 -0.06810608 -0.08607111 0.1715167 0.08256811 0.15087141 0.11883913
0.015648501 0.0069919997 -0.005392799 -0.08637865 -0.083423994 -0.016751328 0.030824922 -0.009126486
-0.0043933396 -0.07477502 -0.044020064 0.073761486 0.15170689 -0.079697706 0.1505207 0.17668723
-0.026305275 0.007316566 -0.072536334 0.0287881 -0.11001912 -0.16423245 -0.17197889 0.07234778
-0.13189152 0.120647624 -0.110269696 0.052849058 -0.0766086 0.14445947 -0.093475774 -0.165175
0.04300201 0.19906995 -0.1593001 -0.12070682 0.04598495 0.0645372 0.06649661 -0.059391715
0.0033174187 0.10287639 0.04833424 0.068159655 0.12612946 -0.11176373 0.17956518 0.04059437
-0.20873491 0.02817413 0.16103593 -0.007909628 0.106845975 -0.010396175 0.016617194 0.1317649
-0.009139024 0.030212482 -0.19240713 -0.011139049 0.14388911 0.16121407 0.10925171 -0.1426378
-0.072439834 0.18937823 -0.11218112 0.14935389 -0.043956187 -0.09154837 0.12606896 0.14771132
0.21665728 0.034356732 0.11816409 -0.087652646 0.13734813 0.05502481 0.07381526 -0.013661004
0.1274808 0.068038456 0.106473364 0.20737697 0.1673202 -0.05758839 -0.06368341 -0.13343076
0.13416012 0.11568926 0.108398184 0.020264823 0.22956908 -0.022226663 0.015638348 0.12378387
0.10539482 -0.12545125 -0.07025987 0.056959264 0.12623942 -0.06351077 -0.14754725 0.08309593
0.13784958 -0.001718921 -0.019850202 0.14760299 -0.010947788 -0.09045013 -0.07173338 -0.06836834
0.090771414 0.059926145 0.058926255 -0.12504204 0.1366422 -0.08652277 0.16344993 -0.019740824

decoder.2.bias f4 [64]
00000000: 0788 00be f9b5 7f3e 06d2 10bd b13f f2bd
00000010: ccb4 f73d 8852 043e c799 493e 0717 d9bd
00000020: 4d12 373e 447a 513e 9ff4 573e ec27 f83d
00000030: 839b f53d 0db5 1cbd a7a8 6d3e 3c36 b93d
00000040: 8109 453e feae c2bd f646 d9bd 358a 453d
00000050: dcd5 d83d 342b 65be 1338 273d 7ec6 3f3e
00000060: 76e9 bbbd 625f 423e 06f4 9e3d 3117 cd3d
00000070: 8990 233e d3c6 493e c112 673e 9fa9 b7bd
00000080: e93e cebd 7962 d3bc 561f 99bd a170 5d3e
00000090: 5298 e4bd 582f 223e bb0a 133c afdb 9abd
000000a0: 7d3a 6dbd 12b7 b3bd 7b7c 793e caa1 b9bd
000000b0: c00c bc3c fbd7 a33d c398 77bd d406 ae3c
000000c0: 369a 1e3d ea1a 92bd 6c5b 013e 3d06 00be
000000d0: 8e4d 14be 02c9 5abe 6cc0 ecbd 0ddd 22be
000000e0: 375d 313e 29a6 99bc 9a13 803c b7ae 183e
000000f0: 31a5 123e 87ec 823d 7722 0e3e c172 c9bd
-0.1255189 0.24971761 -0.035356544 -0.118285544 0.12095031 0.12922108 0.19687568 -0.10600095
0.17878075 0.20456797 0.2108941 0.121169895 0.11992552 -0.0382586 0.23208867 0.090435475
0.19241907 -0.09506033 -0.10609238 0.048227508 0.105876654 -0.22379762 0.04082496 0.18728063
-0.091753885 0.18981698 0.077613875 0.10014189 0.15973105 0.19704752 0.22565748 -0.089678995
-0.10070593 -0.025803791 -0.0747668 0.21624996 -0.11161865 0.15838373 0.008974726 -0.075614326
-0.057917107 -0.08775152 0.24363892 -0.09064062 0.022955298 0.080001794 -0.06044842 0.02124349
0.038721286 -0.0713404 0.12632531 -0.1250238 -0.1448271 -0.21365741 -0.11560139 -0.15904637
0.17320715 -0.01875599 0.015634347 0.14910398 0.14320828 0.0639277 0.13880335 -0.09836341
