Save-Models/model-lat6.pth (torch, 192226 bytes, 16 tensors)

encoder.0.weight f4 [128, 99]
000000 0d 79 97 bd e2 fe 32 39 ef 47 67 bc 0a 95 cc 3c
       -0.073961355 0.00017070354 -0.014116271 0.024973411
000010 5d 96 b6 bc 87 18 bb 3d 80 a4 a6 3d d0 d7 a7 bd
       -0.022288496 0.091355376 0.08136845 -0.0819546
000020 07 7f ac 3d 17 22 93 3d d7 82 84 bd 3f be a0 3d
       0.08422666 0.071842365 -0.06470268 0.078487866
000030 ba ad de bb 79 d3 ce bc 37 e4 cd 3d ed d8 16 3d
       -0.006795612 -0.025247322 0.10053294 0.03682797
000040 23 4a 7e bd 89 e7 91 bc f3 b2 83 bd fe 34 b4 3b
       -0.06208242 -0.0178106 -0.06430616 0.005499481
000050 5d 8a 3e bd 33 9b ad 3d cd 9f 26 3b 5c 9c de 3d
       -0.046518672 0.084768675 0.0025424839 0.10869667
000060 b2 28 57 bd 87 d9 93 bd 12 33 9c 3d 7d d9 f0 3d
       -0.052529044 -0.072192244 0.076269284 0.117602326
000070 93 43 09 bd 1b 77 ad 3d 89 a8 f6 3b 3f 22 d4 bc
       -0.03351171 0.08469983 0.007527415 -0.025895236
000080 53 0e 77 3d 5c 0d 05 3d 33 79 23 bd 4c b3 1b 3d
       0.060316395 0.032483444 -0.039910506 0.038012788
000090 4d 79 aa 3d b6 69 49 3d ac 4d a9 3d 82 31 6d bd
       0.083239175 0.04917308 0.08266768 -0.057908542
0000a0 a4 40 b3 bc 5f 4b 4e bd e3 a4 ff 3d cf a3 61 bd
       -0.021881409 -0.05036485 0.124826215 -0.05508786
0000b0 6d 6c 64 3d c9 f8 8c bd 9d 57 e4 3d 41 14 7f 3d
       0.055767465 -0.068833895 0.111495234 0.062275175
0000c0 a5 8d 75 3c 65 f9 6a bc 2b 2a 01 3e d9 f0 aa 3d
       0.014987384 -0.014341687 0.12613742 0.08346719
0000d0 ef 7a 99 3d 64 72 09 3d 2d ef 02 3e 99 5c 98 3d
       0.07494151 0.033556357 0.12786551 0.074395366
0000e0 95 23 85 3d c8 d1 4a 3d a4 a3 dd 3c d8 0f 33 3d
       0.06500927 0.04951647 0.027055569 0.04371628
0000f0 22 24 c7 3d bb 6f a2 3d 0a d2 e8 3d 01 7e f5 3d
       0.09723689 0.07931467 0.11368187 0.11986924
000100 2b f7 91 3c b9 95 38 3d b5 40 d5 3d 37 93 8f 3c
       0.017818054 0.04506466 0.104127325 0.017526252
000110 4e 84 f5 3d ea 21 4b bb 14 80 f1 bc 0c 74 2d bd
       0.11988126 -0.0030995556 -0.029480018 -0.042347
000120 26 a9 98 3d 2e e0 00 3e 40 ac 05 3d fd cf 1e bd
       0.074541375 0.12585518 0.032634974 -0.03877257
000130 d3 48 2d bd ab f0 53 bb 53 f8 0e bd 98 20 69 3b
       -0.04230578 -0.0032339494 -0.03490479 0.0035572406
000140 94 39 e6 3c e3 d8 f6 3d ed 5e 01 bd 38 07 a5 3d
       0.028103627 0.120530866 -0.03158467 0.080580175
000150 76 37 b0 3c a9 25 d5 3d 13 84 3a bd 1a 05 ae bc
       0.02151082 0.10407574 -0.045536112 -0.021242667
000160 63 7b e8 3d 34 ea 8e 3c 66 fd bf 3d d1 69 34 bd
       0.11351659 0.017445661 0.09374504 -0.044046227
000170 fd e8 92 3d 92 65 7d 3c 0b 1f e5 3d f0 32 21 ba
       0.07173345 0.015466111 0.111875616 -0.0006149253
000180 da 13 83 3d b3 89 eb 3d 2b ad 6a 3d bd bd 82 3c
       0.06400271 0.115008734 0.057294052 0.015959615
000190 8a 91 c5 bd 58 07 2a bd ac 58 f9 3b cf 06 62 bc
       -0.096469 -0.04151091 0.0076094475 -0.013795569
0001a0 ef a8 8c bd 42 17 02 bc 06 7a 70 3d 71 f0 47 bd
       -0.06868159 -0.007940115 0.05871012 -0.048813287
0001b0 5b 03 ab bd c2 e8 35 3d 37 74 7e 3d 7a 83 7a 3d
       -0.083502494 0.04441143 0.06212255 0.061160542
0001c0 46 19 48 3d 3c 40 fd bc b8 83 73 bc 4a e8 e7 bd
       0.048852228 -0.030914418 -0.014862947 -0.113236025
0001d0 d5 4c c2 bb 57 b5 1e bd b3 12 53 bd 51 cd 90 3b
       -0.0059295692 -0.038747158 -0.051531505 0.004419007
0001e0 5b 9a 73 bb 4e 92 40 3b f6 b3 c9 bd 49 3e 45 bd
       -0.003717086 0.002938408 -0.09848778 -0.048155103
0001f0 11 f4 92 bc 11 da 3c bb aa 2c eb bc 54 e0 1c 3c
       -0.017938646 -0.00288165 -0.02870782 0.009574968
000200 48 d9 3f bd 9b d6 af bd e0 d5 ca 3a 91 01 64 3d
       -0.046838075 -0.085858546 0.0015475117 0.055665556
000210 a7 00 ad bd e4 ad 6e bd ca 6b ca bd bd 6e 9b bd
       -0.0844739 -0.058271304 -0.098838404 -0.07589481
000220 bd b1 85 bd 74 34 0c bd 2c 9c cf bd a0 99 9d 3d
       -0.065280415 -0.03422971 -0.10137209 0.07695317
000230 79 78 d7 bd a8 ea 09 3d 14 2a 60 3c ea b1 0b 3d
       -0.10521025 0.03367105 0.013681907 0.03410522
000240 35 e9 b7 bd 23 32 ac bd cf 54 d1 bd a2 9b df bd
       -0.089800276 -0.08408 -0.10221254 -0.109183565
000250 c4 cb 81 3d bc 23 5d 3d a6 c8 42 bb 6c 89 33 3d
       0.06337693 0.053989157 -0.0029721647 0.043832228
000260 82 63 99 bd 35 34 12 3c 12 9e ce bc f2 c6 34 bd
       -0.07489683 0.00892358 -0.025221858 -0.04413504
000270 1d db 50 3c f4 81 94 bd b7 a9 6f 3d 4d 4e 61 3d
       0.012747553 -0.07251349 0.058511462 0.055006314
000280 f5 4a 1f bb e9 f9 40 3c 80 36 a1 3c 4e 2d 98 3b
       -0.0024306152 0.011778333 0.019679308 0.0046440726
000290 ff 18 61 3d e8 3e 7a 3d b2 83 c1 3c c1 51 9d bd
       0.05495548 0.06109515 0.023622368 -0.07681609
0002a0 96 fc 58 bd 3f 28 18 3d 12 3b cd bd 4f f0 a0 bd
       -0.05297526 0.037147757 -0.100210324 -0.07858335
0002b0 ff 1e 38 bd 47 11 39 3c 5e 25 17 3d ac 51 e2 bd
       -0.044951435 0.011295623 0.03690087 -0.11050734
0002c0 71 28 70 3d 98 45 72 3d 01 37 63 3c e7 97 72 bd
       0.058632318 0.0591484 0.013868094 -0.059226897
0002d0 28 90 8b 3c 22 f3 5f 3b 19 84 95 bd 4f 06 18 bd
       0.017036512 0.0034172018 -0.07300586 -0.03711539
0002e0 de 2b 84 bd f9 15 89 bc 53 a2 02 3a ee a7 90 3c
       -0.064536795 -0.01673411 0.00049832946 0.0176582
0002f0 7d 45 19 bc 45 e2 0c 3d 46 9b e5 bd 04 98 90 bd
       -0.009354946 0.034395475 -0.11211257 -0.07060245
000300 e4 76 5f 3c ca 77 88 bc 77 69 bc bd cf a7 09 3c
       0.013639186 -0.016658682 -0.09199803 0.008401825
000310 cb b3 f5 3a c1 38 54 bd 71 b0 42 bd 46 de 9d 3d
       0.0018745599 -0.051811937 -0.04753155 0.07708411
000320 21 cf 2e 3d f7 31 af 3c d8 28 1d 3a d1 e1 bd 3d
       0.042678002 0.02138613 0.0005995161 0.09271587
000330 28 53 e9 ba 6e 35 96 bd 00 73 8d 3d 80 5d 9e bd
       -0.0017801272 -0.0733441 0.069067 -0.077326775
000340 fe d7 dc 3d 68 65 84 bd e2 0a 24 3d b3 38 f2 3c
       0.10783385 -0.06464654 0.04004944 0.029568052
000350 82 1f a0 3d cf eb d5 3d 14 98 b7 3d a1 f6 18 bc
       0.0781851 0.104453675 0.089645535 -0.009336145
000360 33 06 f4 bc f9 d6 40 bd 3f 12 b2 3d a4 29 91 3c
       -0.029788112 -0.047080014 0.086948864 0.017720051
000370 b1 4b 37 3d 3e 3b 3f bd f6 a1 85 bd 7e 23 d3 bc
       0.04474992 -0.046687357 -0.06525032 -0.02577376
000380 cf fe e9 bc 87 d5 4f 3a 23 38 65 3d 28 60 6e 3c
       -0.028563885 0.00079282414 0.05596174 0.014549293
000390 c0 10 58 3c 0e c0 c9 3d 50 5b 29 bd d4 0c d2 3d
       0.013187587 0.09851085 -0.041346848 0.10256353
0003a0 8a d0 e0 3d df b9 c9 3d 0e a2 c4 3c dc ad 31 3c
       0.10977276 0.09849905 0.024003055 0.010844674
0003b0 c0 4e 6e 3d 6a 63 c8 3d be db d7 3d 55 3c 9a bc
       0.05818057 0.09784587 0.10539959 -0.018827597
0003c0 b0 81 f2 3d d3 f6 24 bd 0c 64 91 3d 72 02 56 bd
       0.11841142 -0.040274452 0.070991606 -0.052248426
0003d0 c2 b4 e1 3d 1c 31 ea 3d 6b 6d 4e 3b 0a 79 68 3d
       0.11020805 0.11435148 0.0031498324 0.056756057
0003e0 2d 60 82 3b b9 a6 7d 3b fd 1b c5 3d 54 c4 84 3d
       0.00397875 0.003870411 0.09624479 0.06482759
0003f0 a4 33 ed 3d 5f 17 8f 3a a7 56 9c 3d b9 3a be 3d
       0.11582115 0.0010916999 0.07633715 0.09288544

encoder.0.bias f4 [128]
000000 14 e1 72 3d c0 72 4b 3c f0 2d 4c bd 76 b7 cb 3c
       0.059296682 0.012417495 -0.049848497 0.024867754
000010 0c 0a 7b 3c 4f f8 3a bc 54 ee a7 bd 70 fa c1 3d
       0.01532222 -0.01141174 -0.08199754 0.09471595
000020 56 2a 4a 3d fe 6a 82 bd e2 c8 f4 bc 04 36 83 bd
       0.04935678 -0.063680634 -0.029880945 -0.06406787
000030 71 fc 88 3a 5d 8e 8a bd 4e 31 d8 3c fa 86 bc bc
       0.001045121 -0.06765435 0.026390698 -0.02301358
000040 e1 ef b0 3d 0a ce eb 3c f5 5c 3a bd e2 43 57 3d
       0.08639503 0.02878477 -0.045498807 0.052554972
000050 dc e1 69 bc 20 b4 82 bd 8b 7d 20 bd b7 0f 5c bd
       -0.0142750405 -0.06382012 -0.039182227 -0.053725924
000060 86 b8 3c 3d 05 72 49 bd 51 52 da 3c 4f 8e 7f 3d
       0.046074413 -0.049181003 0.02665058 0.062391575
000070 46 5b 5c 3d 86 cf 19 bd 42 cd 05 bd e2 d4 a8 3d
       0.053797983 -0.037551425 -0.032666452 0.08243729
000080 b4 64 6f bd 7c 83 93 bd 40 98 24 bd 24 e9 aa bd
       -0.058445647 -0.07202813 -0.04018426 -0.08345249
000090 e2 b5 9c 3d cd a5 9d bc c3 dd cd bd 09 0b d0 bd
       0.07651879 -0.019244099 -0.10052063 -0.10158355
0000a0 07 a0 8c bd 7e a8 5d 3c b2 fd 71 3d d4 2e 84 bd
       -0.0686646 0.013528941 0.059079833 -0.06454244
0000b0 71 a1 51 3d ef d9 57 bd aa 17 8f bd 00 37 b0 3c
       0.051179353 -0.052698072 -0.069869354 0.021510601
0000c0 37 e8 a6 bd db 09 77 3d 03 03 97 3d 20 46 cd bb
       -0.0814976 0.060312133 0.07373621 -0.006264463
0000d0 fc 91 6d bd 52 36 b7 bd 77 82 83 3d 9a 1a 87 bd
       -0.05800055 -0.08945908 0.064213686 -0.06596871
0000e0 37 17 5a bc dc a0 e7 3c 45 62 fc bb 1d cd 88 bd
       -0.013311199 0.028274946 -0.0077021443 -0.06679747
0000f0 69 ef 71 3d 84 26 46 3d 53 67 7c 3d ea af e7 bc
       0.05906621 0.048376575 0.061621975 -0.028282125
000100 31 d9 3b 3d aa 71 7a 3d 21 67 91 3d a8 72 64 3d
       0.045861427 0.061143555 0.070997484 0.055773407
000110 f2 59 6d bd 2b 2a 16 3d aa c3 28 3d b9 67 89 bd
       -0.057947107 0.03666131 0.041202225 -0.06709237
000120 84 41 af 3d b8 11 bb bc 89 8d 9f 3c 73 95 87 bd
       0.08557418 -0.022835597 0.019476669 -0.06620302
000130 62 91 83 3d 26 d0 58 3d 2d 16 27 3d 85 d1 97 3c
       0.06424214 0.05293288 0.040792633 0.018532524
000140 f0 73 8c bc 49 6e 1f 3d 69 5c af 3c 91 4f 0c ba
       -0.017145127 0.038923535 0.02140637 -0.00053524325
000150 86 21 c5 3d 11 a8 aa bd f5 c3 c5 bd 71 56 6e 3c
       0.09625535 -0.083328374 -0.096565165 0.014546976
000160 0d f7 5a bd a0 1b a6 3d 0a 62 c4 3c b8 dc 01 bd
       -0.053458262 0.08110738 0.02397253 -0.031704634
000170 78 22 91 ba a8 7e e7 3c 8e 17 03 3d 12 a6 98 bd
       -0.0011072895 0.028258637 0.032004885 -0.074535504
000180 57 df 1d 3e c3 66 2c bd 2d e7 fd bd 3b 96 29 bd
       0.15417229 -0.04209019 -0.12397609 -0.041403037
000190 30 d1 a7 3d c6 fd c6 bd 0f e6 e1 3c 46 13 c2 3c
       0.08194196 -0.09716372 0.02757552 0.02369083
0001a0 4f e9 5c 3d 67 bd d0 3b b0 87 9f 3d 0b b3 46 3d
       0.053933438 0.006370235 0.07789552 0.048510592
0001b0 00 95 1e be d6 3a 18 bb a4 6e 89 bd dc 36 a4 3d
       -0.15486526 -0.0023228428 -0.06710556 0.08018276
0001c0 cd 81 8d bd 58 78 9a bd bc 98 fa bc e4 3f 9e bd
       -0.06909523 -0.07542485 -0.030590408 -0.0772703
0001d0 89 b8 1f 3d b6 b4 82 3d bd 03 c5 bd 16 1a 45 bd
       0.038994346 0.06382124 -0.09619854 -0.04812058
0001e0 1a a9 ab bd df 69 b4 bd 8e 1e 3b bc 5a 17 49 3d
       -0.08381863 -0.08809256 -0.011420859 0.049094535
0001f0 70 f4 18 bd 1a 6c b6 bd 3a e8 16 be aa 93 a2 bd
       -0.03734249 -0.089073375 -0.14737025 -0.07938321

encoder.3.weight f4 [64, 128]
000000 6b e4 14 bd 6c ba 0c 3c eb ac 9b bd 0e 24 da 3d
       -0.03635065 0.008589368 -0.07601341 0.10651408
000010 9e b1 cd 3d f4 a4 63 bc cf ff a1 bd b6 ca 04 3d
       0.100436434 -0.013894308 -0.0791012 0.032419883
000020 56 1e 66 3d 9c 5d c6 bd d8 e3 0f bc a2 ac 11 bc
       0.056181274 -0.09685823 -0.0087823495 -0.0088912565
000030 01 6f 53 bd b1 60 63 bd 6d 09 9c 3d 56 3b 4d bd
       -0.051619533 -0.055512134 0.07618985 -0.050105415
000040 45 a9 44 3d 7f f7 13 3d 7e 9c 08 bd 1a c1 24 bd
       0.04801299 0.036124703 -0.033352368 -0.04022322
000050 90 01 2f bd 37 16 60 bd b1 0f c5 3c ca 83 ac bb
       -0.0427261 -0.054708686 0.024055334 -0.005264734
000060 69 bb 03 3d d3 58 8a 3d 2e 8a 3e bd 4c 1c db 3d
       0.03216115 0.06755223 -0.046518497 0.106987566
000070 5e b1 6b 3d 3f e0 22 3d 5a 55 35 3c da cc 69 3d
       0.057542197 0.03976464 0.011067713 0.057080127
000080 63 31 b5 3d 69 5f 8a 3c 51 15 99 3d e1 ec f4 3c
       0.088473104 0.016891198 0.07474769 0.029898109
000090 4a d4 8a 3d b3 4e 05 bc ff 2f ab 3c 58 7e 99 3d
       0.06778772 -0.008136439 0.02089691 0.07494801
0000a0 d9 b0 83 bd 99 da e3 3c 66 d9 8e bc 4b 42 89 3d
       -0.064302154 0.027814196 -0.017437648 0.067020975
0000b0 97 c7 09 3d f2 f2 b0 bc db f6 32 bd de d7 56 3c
       0.03363761 -0.02160022 -0.04369245 0.01311299
0000c0 18 9c b1 bc d3 b0 3f bd 39 99 05 bd 50 93 3e 3d
       -0.021680877 -0.046799492 -0.032616828 0.046527207
0000d0 16 f5 ea 3c ea 6c 5c bd 34 7e 1b bd 3d 0c 96 3d
       0.02868132 -0.053814806 -0.037962154 0.07326553
0000e0 c5 b2 4b 3d 72 6d 8b 3c bc 77 8b 3d f8 f2 6e bd
       0.049731035 0.017019961 0.06809947 -0.05833718
0000f0 52 61 61 bd 4c cc c7 3d e9 14 bf bc e6 53 14 3d
       -0.055024453 0.097557634 -0.0233254 0.036212824
000100 99 68 4f 3d 21 9f 8d bb f3 97 64 3d 75 68 e7 3c
       0.05063686 -0.004321948 0.055808973 0.028248051
000110 60 8b b2 3c b7 6d 7d 3d 04 55 f3 3b ee 62 5d 3c
       0.021794975 0.06187221 0.007425906 0.013512356
000120 51 39 a9 3c 33 41 d1 3b 53 9e b0 3b 09 0e ec bc
       0.020657213 0.006385946 0.0053899675 -0.028815286
000130 33 b0 89 bd e8 d5 84 3d e1 de 93 3d b9 d5 26 3d
       -0.067230605 0.06486112 0.07220245 0.040731166
000140 a1 c1 4d bd 9c 4d 91 3d ee 63 80 bc df 77 be bd
       -0.050233487 0.07094881 -0.01567265 -0.09300207
000150 ac 6a db 3c e2 87 88 3c 36 93 0c bc ed b4 5b bd
       0.026784264 0.016666356 -0.00858002 -0.05363934
000160 64 d8 c5 3d b7 27 3d 3d b7 66 ee bb c0 04 54 37
       0.09660414 0.046180453 -0.007275428 1.2637291e-05
000170 11 29 42 3c ad 82 37 bd 85 fd 0a bd c6 c1 48 bd
       0.011850611 -0.044802357 -0.03393318 -0.04901292
000180 5e 32 00 3b 78 d0 ce 3c 9e b1 f4 bc bd 9c 18 3c
       0.0019561271 0.02524589 -0.02986985 0.009314713
000190 68 e3 84 bd a0 db 92 3d d8 bd ec 3c c5 06 df 3c
       -0.06488687 0.071707964 0.028899118 0.027224908
0001a0 f2 72 07 3d 18 50 17 3d ae c7 27 3a 44 7d 26 3d
       0.033068605 0.036941618 0.0006400299 0.040646806
0001b0 d0 fd d9 bd 41 90 83 3c c2 1e a4 3d c6 60 ce 3d
       -0.10644114 0.016059997 0.08013679 0.10077052
0001c0 7d 27 86 bd 18 e7 2d bd f4 a0 2f 3d dc 4f 62 3d
       -0.065505005 -0.042456716 0.042878106 0.05525194
0001d0 8b e8 31 3d a1 cf de bd a3 b5 17 bd 9c 70 13 bd
       0.04343466 -0.10879446 -0.037038457 -0.035996065
0001e0 2e fc 12 3d 86 8e 85 3d 0e 77 df bc a2 f2 7d bd
       0.03588503 0.06521325 -0.02727845 -0.06199897
0001f0 fe a2 95 3d 21 e6 b0 3d c6 69 c2 bd db 30 18 bb
       0.07306479 0.086376436 -0.09492831 -0.002322248
000200 41 34 22 bd 4b f4 1c 3d 4c b6 5b bd 13 bb 8b bd
       -0.039600614 0.038318913 -0.05364065 -0.06822791
000210 04 3b d0 bd 5f 08 f2 bc 55 da c7 3d b2 36 db bd
       -0.10167506 -0.029545007 0.097584404 -0.10703792
000220 9a 18 c6 bd e1 95 94 3d e8 26 30 3d e6 13 5e bd
       -0.09672661 0.0725515 0.043005854 -0.054218195
000230 96 9e 3c bd bd ae 60 3d 01 00 de 3b ab a6 39 bd
       -0.046049677 0.054854143 0.006774903 -0.045324963
000240 af d7 82 bd 0c 61 01 be ad fe 29 bb ee aa 7a 3d
       -0.06388795 -0.12634677 -0.0025939152 0.061198168
000250 82 58 43 bd 40 b0 22 3d e8 95 22 3c f8 7e 43 3d
       -0.04769183 0.039718866 0.009923436 0.04772851
000260 76 f3 8a bd 0e 2b 7f bc a1 35 16 bd f8 1b 10 bc
       -0.06784718 -0.01557423 -0.03667224 -0.008795731
000270 aa 4d b5 3b b4 f0 7d 3c 98 a5 a3 3c 81 ec b0 3d
       0.00553294 0.015499283 0.019976422 0.086388595
000280 ac cf 27 3c 49 18 06 3b 50 91 22 3d 0b 8c 87 bc
       0.010242384 0.0020461252 0.039689362 -0.01654627
000290 7f 86 e3 bc 25 44 8d bc 88 2b cd 3d a4 2f 91 3d
       -0.027774094 -0.017244408 0.100180686 0.07089165
0002a0 ff 1d 15 3d d0 8b f4 3b 05 e9 c6 bd 79 a5 73 3d
       0.03640556 0.007462956 -0.09712414 0.05948398
0002b0 6d 97 db 3d ec 1a c0 ba 17 e0 55 bd 55 bb a6 3c
       0.107222416 -0.0014656461 -0.05221566 0.020352999
0002c0 95 6e db bd e5 62 0e 3d d9 46 6f 3d a4 5a 71 bc
       -0.10714451 0.034762282 0.058417175 -0.014731083
0002d0 a2 af 9f 3d 86 15 68 3d 20 a7 29 3d 7a 01 12 bd
       0.07797171 0.05666115 0.04141915 -0.03564594
0002e0 96 dd 55 3d 44 ad 4c bd e6 4e fe bb 70 ee c4 3d
       0.052213274 -0.049969926 -0.0077608703 0.09615791
0002f0 1e 75 cf 3d fa 15 03 be 8a bf 9f bd 52 9b ae bd
       0.1012976 -0.12801352 -0.07800205 -0.08525719
000300 42 eb f7 bc d9 9c 6f bc a0 7f 64 3d de c2 35 3d
       -0.030263547 -0.014624798 0.055785775 0.044375293
000310 4f 55 a4 bd 3c 37 9b bd e2 22 8a bd 4f c5 95 3d
       -0.08024084 -0.075788945 -0.067449346 0.07313024
000320 3d a7 d3 3c aa 25 34 3c d1 70 9a bc e5 eb ad bb
       0.025836581 0.010995308 -0.018852623 -0.005307662
000330 ce 81 c0 3c 06 b7 12 bd c2 68 10 3d d2 e0 9c bc
       0.023499396 -0.035819076 0.035256155 -0.019150171
000340 c4 20 8c 3c dd ba 74 bd 04 ce 13 ba 24 ac 11 bd
       0.017105468 -0.05974852 -0.00056383037 -0.035564557
000350 7e 74 1f bd 20 a8 b2 bc 87 22 09 3c 8f 83 45 be
       -0.038929455 -0.021808684 0.008370048 -0.19288467
000360 b4 a5 60 3d 32 9b 40 bd 55 82 85 bc 84 b7 09 bc
       0.054845527 -0.047023006 -0.016297499 -0.00840557
000370 eb 5c 21 3d 84 d7 a9 bd 5d 04 ed 3c 7c 18 da 3d
       0.039395254 -0.082930595 0.028932745 0.10649201
000380 33 47 06 be 7f 76 81 bd 94 83 21 bb b1 6f ec 3c
       -0.13113098 -0.063214295 -0.0024645077 0.028861852
000390 45 70 93 3c 10 63 bc bd f8 26 f2 3d f5 70 9f bd
       0.01799787 -0.09198582 0.11823839 -0.07785217
0003a0 3c 6d 35 bd 3f a7 15 3d 44 b7 5d 3b 2b 00 04 3e
       -0.044293627 0.03653645 0.0033831159 0.12890689
0003b0 db f2 a0 3c 6b 0f 87 3d 10 f2 78 3c 52 b3 fd bd
       0.019647053 0.065947376 0.015194431 -0.12387718
0003c0 f7 9e 24 bd 6b dd c2 bd 10 60 f4 3c 88 66 cd bd
       -0.040190663 -0.095148884 0.029830962 -0.10029322
0003d0 45 74 ef bd 42 9a ac bc 15 43 d0 bd 8e d5 8f 3c
       -0.116920985 -0.02106965 -0.10169045 0.017557885
0003e0 f1 16 9e bd 8f 1d e7 bd 27 c9 a8 bd d7 45 26 3d
       -0.077192195 -0.11284935 -0.08241492 0.04059395
0003f0 cc be 78 bd 60 66 26 bc d7 76 8b bc 59 7e 3b bd
       -0.060728833 -0.010156244 -0.01702444 -0.04577479

encoder.3.bias f4 [64]
000000 98 1a ab 3d 9b 57 0b bc 15 3a a4 bd 0d e9 15 3d
       0.08354682 -0.0085047735 -0.08018891 0.036599208
000010 e1 06 41 3d 2b ba 9c bc bd 14 8a bd ec 19 67 3d
       0.0471257 -0.01913174 -0.06742237 0.056421205
000020 5c 5c 31 bd 2c 5d 2f bd de d1 9e 3d 4c ac 8a bd
       -0.04330097 -0.042813465 0.07754873 -0.06771144
000030 f6 bb a8 bd d2 cd a2 bd 2d 39 8e 3d d2 3f 00 3d
       -0.08238976 -0.07949413 0.06944499 0.031310864
000040 49 88 86 3d 2e 3e ea 3c 25 66 83 3c 49 44 ee 3d
       0.06568963 0.028594103 0.016039917 0.11634118
000050 28 36 0b bd 4c 00 85 bd 37 78 d0 3c a8 a3 88 3d
       -0.033987194 -0.06494197 0.025447948 0.0667184
000060 81 f5 f7 bb 4f 5d 3c 3c ab 43 98 bd 4d b7 fa bd
       -0.007567108 0.011496856 -0.07434782 -0.12241993
000070 d3 bb d1 bd eb 52 da bd 18 d9 1c bb 2e 55 87 3c
       -0.10240903 -0.106603466 -0.002393311 0.016520109
000080 e4 7f ab 3b 55 46 b4 bc df 6c d0 3c 6c 0b 2e 3d
       0.0052337516 -0.022006193 0.025442539 0.04249136
000090 47 ae a3 bd 43 58 8c bc f4 af f2 bc 70 dc 1e 3d
       -0.07992225 -0.01713193 -0.029624917 0.038784444
0000a0 dd 53 95 bc 11 08 02 3c 2a c3 21 3a 4f 84 92 3c
       -0.018228466 0.0079364935 0.00061707443 0.017885355
0000b0 9f bc 8b 3c 9b 2f cc 3c ef 8f 76 3d a8 7c a1 bd
       0.017057715 0.024925044 0.06019586 -0.078851044
0000c0 b5 fd 26 bd f4 67 a7 bd 97 f5 08 bd 1a 67 0f bd
       -0.040769298 -0.08174124 -0.033437338 -0.035010435
0000d0 62 9f 0a bb 50 cf 61 3c 40 72 81 3d 5f 84 0a bd
       -0.0021152128 0.013782337 0.063206196 -0.033817645
0000e0 b0 2c 65 3a 13 2c ef 3b 02 02 48 bd a5 b6 a4 bb
       0.00087423157 0.007298955 -0.04883004 -0.0050266557
0000f0 10 94 98 3d 67 c9 1e 3d 19 cb 3e b9 b0 24 12 3d
       0.07450116 0.03876629 -0.00018195472 0.03567952

encoder.6.weight f4 [32, 64]
000000 3c 80 6a bd a2 13 f4 bd 84 85 ac bd f9 63 6c bd
       -0.0572512 -0.11917807 -0.084239036 -0.05771253
000010 c6 48 0d bd 8f 71 86 bd a1 2e 87 3d b3 d8 8a bc
       -0.03449323 -0.06564628 0.06600691 -0.016949033
000020 0a dd a2 bd cc 5d f2 bc e7 12 94 bd 6e 59 41 3c
       -0.07952316 -0.029585741 -0.07230168 0.011801107
000030 e7 df c6 bd 9d f7 bc 3c c8 ef a4 bd 98 de fa bc
       -0.09710675 0.02306729 -0.08053547 -0.03062372
000040 f4 9b fc bb c0 d6 ad bd d8 09 be bd 90 8c bd 3d
       -0.0077090207 -0.08488226 -0.09279221 0.09255326
000050 d5 32 ab 3d 3f 62 0a 3e af 27 8c bc 60 69 1a 3e
       0.08359305 0.1351404 -0.017108766 0.1507926
000060 90 90 02 3e 7d 11 d7 3c 4b 01 d8 3d 1c b8 75 3d
       0.12750459 0.026253456 0.105471216 0.059990034
000070 e8 c8 a4 bd 0f ba 1e bd d4 eb aa bd 5d ba 97 bd
       -0.08046132 -0.038751658 -0.08345762 -0.07408593
000080 fd 2e 4f bc bf bb f7 3d 18 3a 52 bd 78 fa 9a bd
       -0.01264548 0.120963566 -0.051324934 -0.075673044
000090 7f 0e af 3c 95 0f 95 bd d9 b8 ee 3d 23 62 dd bc
       0.021369217 -0.07278363 0.11656351 -0.027024334
0000a0 a0 8b 68 bd 6f 33 a3 3d 31 a6 83 3c 3c ba 85 bd
       -0.05677378 0.079687946 0.016070457 -0.06529662
0000b0 92 88 9a bc 21 3d 51 bd ea 80 4c 3d 1c c0 ed 3d
       -0.01886395 -0.051083688 0.04992763 0.116089076
0000c0 44 1b 06 bc 21 4d 42 bd fb d5 07 ba 20 a0 c9 3c
       -0.008185212 -0.047436837 -0.0005181727 0.024612486
0000d0 fb 16 0a bd e8 6b f5 3d 26 3e 8a 3d 07 b8 22 3e
       -0.033713322 0.11983472 0.06750135 0.15890513
0000e0 5d 7b 08 3e 43 5e b3 3b b8 a9 1f bd 63 a9 a0 3d
       0.1332831 0.0054738834 -0.038980216 0.07844808
0000f0 c9 ce b3 3c e5 b4 bb bc 4c 48 98 3c d4 df 07 3d
       0.021949189 -0.022913406 0.018589161 0.033172444
000100 15 be b6 3d 2d 9d bf bd a2 06 f6 3c 3e d4 5a bd
       0.08922974 -0.09356151 0.03003246 -0.053425066
000110 da 49 e5 3d 29 fb 02 bd 85 4c 6e bc ea 33 04 3e
       0.11195727 -0.031977806 -0.014544611 0.12910429
000120 af 3f 18 be 64 56 f8 3d 69 4e 18 bd 85 40 40 bd
       -0.14868043 0.12125853 -0.037184153 -0.04693653
000130 92 27 04 be 4e 19 b4 3d 9b ba f5 bd c3 6d 6e 3c
       -0.1290572 0.08793889 -0.11998483 0.014552536
000140 47 0c 9b 3c e2 0c 3f 3d 59 75 cf bb 16 4d 19 be
       0.018926753 0.046643145 -0.0063311276 -0.14970812
000150 58 68 9f 3d 3c 99 15 bc 97 d0 b5 3b ff 21 72 bd
       0.07783574 -0.009130772 0.0055485475 -0.059114452
000160 2b b8 ee 3d 1e d1 f1 bd e9 ca de bd 39 b3 e1 3d
       0.11656221 -0.11807464 -0.10878546 0.11020512
000170 45 55 67 3d 8b 95 89 bc 89 04 90 bd b8 b6 14 bd
       0.056477804 -0.01679494 -0.07032115 -0.036307067
000180 8e 5c 04 3e 69 27 53 bd 00 3a 78 3b a9 e2 a8 bd
       0.12925932 -0.051551256 0.0037876368 -0.08246357
000190 e2 c7 ab bc ed 4a c3 3d 9e ab 97 3d f4 52 d3 3d
       -0.020969335 0.09535775 0.0740578 0.103185564
0001a0 d9 d1 05 be ce c0 d8 3d 6b d6 56 3d ac 6b 69 3c
       -0.13068332 0.105836496 0.05245058 0.014246862
0001b0 65 b2 ec 3d d7 2f 1f bb b7 bb ac 3d 51 f9 18 3d
       0.115574636 -0.002428999 0.08434241 0.03734714
0001c0 38 28 24 bd 9d 93 a9 bd 3f ca 48 3c d7 6d f6 3c
       -0.040077418 -0.08280108 0.0122552505 0.030081673
0001d0 49 c9 7d bd 2d 8c fa 3c 82 46 90 3c dd c6 c5 bd
       -0.06195954 0.03058442 0.017611746 -0.09657071
0001e0 f1 a9 ae 3c 42 29 cf bd 64 3e 42 3d 8b 94 ce bc
       0.021321269 -0.10115291 0.04742278 -0.025217315
0001f0 c8 fb e1 bd 45 4a c8 3d fd 96 f4 3d 1a 5e 92 bd
       -0.110343516 0.09779791 0.11942861 -0.07146855
000200 02 d6 bc 3d 24 87 9c bd 32 5d d4 bd 4f 8c e8 3d
       0.09220506 -0.076429635 -0.10369338 0.11354887
000210 60 27 14 bd d0 26 7b bd 2c 52 35 bd 19 ff 5a bd
       -0.036170363 -0.06131631 -0.04426782 -0.053465936
000220 73 98 5a bd 9c 4b 47 bc e6 47 af bd f2 10 65 bc
       -0.053368043 -0.012164023 -0.085586354 -0.013981091
000230 f1 71 0f 3e b1 db 25 3c 84 3d 81 3d eb ad 95 3d
       0.14008309 0.010123179 0.06310561 0.07308563
000240 04 c1 62 bd c6 c3 08 be 8b 38 42 bd 34 e6 20 3e
       -0.055359855 -0.13355932 -0.047417205 0.15712816
000250 73 0e 3d 3d 85 0b 20 bd 46 59 4d bd db 1a 3a bc
       0.046156358 -0.039073486 -0.050133966 -0.011358942
000260 40 03 9a bd 90 1d 8f 3c 89 18 92 3d 7a b4 fa bc
       -0.07520151 0.017470151 0.07133586 -0.030603636
000270 f8 e9 44 3d 7c f9 ed bd 83 49 82 bc 59 17 56 3d
       0.048074692 -0.11619851 -0.015904194 0.05226836
000280 48 4e d9 bd 8e 28 06 be 62 3e eb 3d 2e cf ed 3d
       -0.10610634 -0.13101408 0.11486508 0.11611782
000290 87 a8 b2 bd 0d 36 92 3c c3 d5 26 3d 8f f0 0b bd
       -0.0872355 0.017848039 0.040731203 -0.03416496
0002a0 d7 08 d1 bd a6 d7 ce bd 82 e1 16 3e ee c9 88 bc
       -0.10206764 -0.100997254 0.14734462 -0.01669785
0002b0 be 51 99 3c dc 01 a9 bd 7e 24 c6 bd a4 20 b7 bc
       0.018715736 -0.08252308 -0.09674929 -0.022354431
0002c0 f3 92 02 3e 2b 16 66 3c 15 ab 51 bd ca 16 c1 bd
       0.12751369 0.014043371 -0.051188547 -0.09428175
0002d0 74 6d ba 3d d1 e2 c6 3d ce b0 35 3d df de 49 3d
       0.09102908 0.097112305 0.044358067 0.049284812
0002e0 10 a5 55 3d 29 ca a7 bd 64 94 ab 3d d7 93 80 bb
       0.05215937 -0.08192856 0.08377913 -0.003923874
0002f0 e5 d6 12 3c 4d e6 95 bc fa 5f db bd 42 29 05 3e
       0.008962368 -0.018298293 -0.107116655 0.1300402
000300 b2 51 25 be 03 f3 0d 3e d9 01 de bc 77 4e dd 3d
       -0.16144446 0.13862233 -0.02710049 0.108059816
000310 39 1b 7c 3d b0 be 0a 3e 86 65 d3 bc 52 d8 4f 3d
       0.0615494 0.13549304 -0.025805246 0.05074341
000320 fa bb 18 3c 5e 13 cf bd 19 a0 30 bd e2 7c 40 bd
       0.009322161 -0.10111116 -0.04312143 -0.046994098
000330 cd 13 85 3d 0c 26 0f 3b e6 b5 ba 3d 43 b9 4a 3d
       0.06497917 0.0021842746 0.091167256 0.049493086
000340 26 6e d4 bd b5 b4 1f be d9 fc ec 3d 68 f4 24 be
       -0.10372572 -0.15596278 0.11571664 -0.16108859
000350 ac 45 9f 3c ca 52 e4 bd b4 95 f9 3d b3 00 08 3c
       0.019442402 -0.11148603 0.12186757 0.008300948
000360 e8 68 52 3c cb ac 8a 3d ae 09 07 be 44 d1 50 bb
       0.012842394 0.06771239 -0.13187286 -0.0031863013
000370 b5 63 52 3d 5a f8 2f bd 9f 5b 94 bd 98 07 2d be
       0.05136462 -0.042961456 -0.07244038 -0.16897428
000380 90 24 5f bc a7 0b c0 bd a4 fe b0 bd d6 7b 29 bd
       -0.013619557 -0.093772225 -0.08642319 -0.041377865
000390 ee 32 8a bc a1 05 03 3a ff f0 11 be b2 db f3 3d
       -0.016869988 0.0004998092 -0.14252089 0.11907138
0003a0 28 ae ac bd 6d 4a 6c 3d fc 75 03 3e c5 1d 21 3d
       -0.08431655 0.057688165 0.12837976 0.03933503
0003b0 88 0c e6 bd 14 d5 f9 3d 24 93 c5 bd 4a ea 5c 3d
       -0.11232859 0.121988446 -0.096472055 0.053934373
0003c0 5a 2d 9f 3d 10 72 11 3e 8c e0 e3 bd b9 4c 25 3d
       0.07772322 0.14203668 -0.11126813 0.04035637
0003d0 be 77 21 3e 4c 36 9b 3d f1 97 8d 3c ba 36 0b be
       0.15768334 0.07578716 0.017284365 -0.13595095
0003e0 e3 18 9f 3a 32 f0 a8 3c 70 d0 93 bd 76 13 eb 3c
       0.0012138154 0.020622347 -0.07217491 0.028695803
0003f0 14 70 45 3c f7 96 4a 3d fc 2a 92 3d 59 96 94 3d
       0.012050647 0.049460378 0.07137105 0.07255239

encoder.6.bias f4 [32]
000000 92 b9 5d 3d 1e 10 aa bc 27 29 bf bd 23 d6 af 3d
       0.05413205 -0.020759638 -0.09334021 0.08585765
000010 b0 d9 cc 3d 5f 4d 8b bd d2 3f 9c ba 21 9c 50 3d
       0.10002458 -0.06801867 -0.0011920875 0.050930146
000020 da d0 85 3d a2 70 81 3d 34 4e 5c bd e3 48 b5 3d
       0.06533976 0.06320311 -0.053785518 0.08851793
000030 42 e3 1e bd 15 b0 a7 bd d1 9a 9f bd 71 00 9b 3d
       -0.03879095 -0.08187882 -0.07793201 0.075684436
000040 5e fb b8 bc 02 a4 dc bc 08 3c df 3c 6c 5e d6 3c
       -0.022580799 -0.026933674 0.027250305 0.02616807
000050 ed be f2 3d 12 8f 6c 3d d6 cf 47 bd 73 26 c2 3c
       0.118528225 0.05775363 -0.048782192 0.023699975
000060 4e 07 f0 bd b7 8b c7 3d 06 02 b0 3d 76 7f b5 bd
       -0.11720143 0.09743445 0.08594136 -0.08862202
000070 60 e6 95 3d 5b 20 c9 bc a0 ad f7 3d 52 21 a0 3d
       0.07319331 -0.024551561 0.12093663 0.07818855

encoder.9.weight f4 [6, 32]
000000 5e f2 a6 bd 8d 96 82 3d ab 4e bb bd 86 30 2b 3e
       -0.081516966 0.063763715 -0.09145864 0.16717729
000010 e1 13 15 bd 6b a9 47 3d c4 a6 ef 3d e1 5d 99 bd
       -0.03639591 0.048745554 0.1170173 -0.07488609
000020 85 de 0d 3e ba 02 19 be 7b a1 8a 3d 85 15 39 3e
       0.13854416 -0.14942446 0.06769081 0.18074615
000030 d8 0c 84 bd 98 d3 a5 3d 1b f8 2a 3e 73 75 52 bd
       -0.06447762 0.08096999 0.16696207 -0.05138154
000040 87 1e 4b 3e 04 df e8 3c f1 1a 0f 3e 59 2f 04 3e
       0.19835864 0.028426655 0.13975121 0.12908687
000050 c3 44 ff bd ee 99 13 be 4f d9 90 bb 08 86 03 be
       -0.12464287 -0.14414188 -0.0044204365 -0.12844098
000060 2d db 95 bc d1 64 d3 3d 61 26 21 be e7 73 38 3e
       -0.018292988 0.103219636 -0.15737297 0.18012963
000070 18 b8 73 3d 46 80 85 3c 9e 12 38 bd 99 1c 08 3e
       0.059501737 0.016296517 -0.04493963 0.13292159
000080 77 2b 2c be 67 bf f1 bd bd d1 08 3e 8d c0 1c 3e
       -0.16813456 -0.11804085 0.13361259 0.15307827
000090 df e5 f5 bc 78 9a 09 be e4 fa cf bd 76 2a de 3d
       -0.030016838 -0.13437831 -0.101552755 0.108479425
0000a0 49 da d1 bd 40 54 36 bd 4a 44 ab 3d 37 e7 02 be
       -0.10246713 -0.04451394 0.083626345 -0.12783514
0000b0 88 a0 8f 3d 82 65 1a 3d 8e 6a 50 be 3d 86 1e be
       0.07013041 0.03769446 -0.20353147 -0.15480895
0000c0 1e c5 25 be 4c a3 2d be 25 92 bb bd ac 20 2b be
       -0.16188475 -0.16956824 -0.09158734 -0.16711682
0000d0 52 95 74 bd 34 e1 18 3e 05 ff 3d 3e 7c f0 46 3d
       -0.059712715 0.14929658 0.18554313 0.048569188
0000e0 65 83 1f 3e c2 4b 2c be 6a 92 2a 3d 3e e2 14 be
       0.15577467 -0.16825774 0.041643538 -0.1453943
0000f0 17 70 09 be 24 fb 89 3c 36 4c f7 3d 94 c3 2f be
       -0.13421665 0.016843386 0.12075083 -0.17164451
000100 93 54 55 3d ee 61 b7 bd 46 f1 51 be 9e a3 cb 3d
       0.05208261 -0.089542255 -0.20502195 0.09943317
000110 ec d1 4e 3b b7 86 f3 3d ee 80 1d bd b5 d0 21 3e
       0.0031558229 0.11890929 -0.038453035 0.15802272
000120 70 b9 25 bd 38 c0 e9 3d fc f1 41 bd 52 37 cf 3d
       -0.04046005 0.11413616 -0.047349915 0.101179734
000130 13 49 1e 3d 86 6f 99 bd 0e 05 1b 3d d1 d3 b3 bd
       0.038643908 -0.074919745 0.037846617 -0.08780635
000140 69 85 3a be 97 47 8d bd 59 c5 69 bc 70 4a 00 3e
       -0.18214954 -0.0689842 -0.014268243 0.12528396
000150 c0 ca d4 bd e1 c1 ce bd c3 f9 9f bd 7e 03 3f 3e
       -0.10390234 -0.10095573 -0.0781131 0.18653676
000160 06 2f d3 bd 9b d7 6d bd 7c ad 1e be f1 3c bc bd
       -0.103117034 -0.058066946 -0.15495867 -0.09191311
000170 85 04 89 bd ee 0a bc bd 4d 97 16 3e 4b f6 01 bd
       -0.06690315 -0.09181772 0.14706154 -0.031729024
000180 46 c8 41 3e 81 4b 32 3e d1 af 71 bc 4b 5b 9b bd
       0.18924055 0.17411615 -0.014751391 -0.07585772
000190 a7 73 f2 3d 8c 22 32 3e 84 cb 29 3e 38 17 8f bc
       0.11838465 0.17395991 0.16581541 -0.017467126
0001a0 89 57 7b 3c 77 5b d9 bd c8 c7 20 be 14 86 e5 3d
       0.015340694 -0.10613149 -0.1570121 0.11207214
0001b0 d1 88 17 3e c4 d3 d5 3c 05 ad a2 bd 14 12 7d bd
       0.14798285 0.026101954 -0.07943157 -0.06178482
0001c0 aa c7 a7 3d bd 4e 20 3e ac 9e 27 3e df 7d 10 3e
       0.0819238 0.15655036 0.16369122 0.14110516
0001d0 e7 34 6b 3c e5 43 35 3e fb a5 d1 3d 56 ff 00 be
       0.014355875 0.17701681 0.102367364 -0.12597403
0001e0 72 4b 20 3e ef d7 b7 3d 0e eb 2d be 80 67 ee 3b
       0.1565378 0.08976733 -0.16984197 0.0072755218
0001f0 4e 2b 3c bd 0e a7 1a 3e 7b a8 07 be a1 f7 5e bd
       -0.045939736 0.15102789 -0.13247864 -0.054435376
000200 66 46 48 3d 26 3a 50 bd 19 c8 b1 3d d6 19 b9 bd
       0.048895262 -0.050836705 0.08680744 -0.09038131
000210 32 53 11 3e c9 be 37 bd ff 7b 2f 3d 83 ee 23 be
       0.14191893 -0.04485968 0.04284286 -0.16008954
000220 99 c6 17 3d 72 e1 33 be 82 4a 87 bd ed c9 81 bd
       0.03705463 -0.1756647 -0.06606008 -0.063373424
000230 c7 97 41 be 3e a3 99 bc 5c b3 f0 bd e1 bb 69 bd
       -0.18905555 -0.018754598 -0.1175296 -0.05706394
000240 7e a1 bc 3d cd fd e7 3d 30 7e 01 3d 90 ed e2 3d
       0.0921049 0.113277055 0.031614482 0.11080468
000250 84 59 df 3d a1 38 f8 bd 43 af 9d 3b 72 e4 d7 3d
       0.109057456 -0.12120176 0.0048121526 0.10541619
000260 26 f0 22 be 32 f4 cd bc 59 89 b4 3d 14 54 ad 3b
       -0.15911922 -0.025140855 0.088152595 0.005289564
000270 82 34 e9 3d 24 61 f3 3d f0 d9 98 3d ee 50 0a 3d
       0.11386968 0.118837625 0.07463443 0.033768587
000280 10 09 e2 3c df 2d 2f 3e 2c 30 ad 3d fc 5d 1f 3e
       0.027592212 0.17107342 0.08456454 0.15563196
000290 d8 1c 3c 3e 46 07 a4 3d 9f 59 1c be f9 83 3a 3d
       0.18370378 0.080092 -0.15268563 0.045536015
0002a0 eb dc 65 bd 1a b0 9d bd 05 53 a8 bd 2f 93 d3 3c
       -0.056118887 -0.07699604 -0.0821896 0.025827019
0002b0 51 6b 89 bd aa 10 ea bd 8e e1 d3 3d 74 65 c0 bd
       -0.06709922 -0.1142896 0.103457555 -0.09394351
0002c0 92 1c 07 be 61 6a 34 3d 0f 18 19 3d 5e 7d c3 bd
       -0.13194492 0.044046763 0.03737646 -0.09545396
0002d0 3d 84 88 3d 7a be f7 3c 1c 6b 38 be 74 e9 1a be
       0.066658475 0.030242193 -0.18009609 -0.15128118
0002e0 c6 36 2a 3e 68 9d c4 bd 4e 88 35 be f4 1e 33 3c
       0.16622457 -0.09600335 -0.17727777 0.010932673
0002f0 12 c2 b1 bd c2 6a b9 3d 0a e6 f7 bd 69 1a ff 3c
       -0.08679594 0.090535656 -0.12104423 0.031140523

encoder.9.bias f4 [6]
000000 a7 fe 93 3d f6 67 1f bd da 8e 34 3d d0 eb b0 3b
       0.072263055 -0.038917504 0.044081546 0.005399205
000010 90 5e ce 3d 2d a1 e5 bd
       0.1007663 -0.112123825

decoder.0.weight f4 [32, 6]
000000 83 f0 89 3d 20 71 4d be fa f8 d3 3d d1 fe c9 be
       0.06735327 -0.20062685 0.10350223 -0.39452222
000010 00 4f c4 be 90 bb e0 3e 52 ef 7e 3e 3e 52 a3 3e
       -0.38341522 0.438931 0.24895981 0.31898683
000020 bb 40 97 bd 41 a8 1f 3e 96 32 a4 be bc f1 66 be
       -0.07385393 0.15591528 -0.32069844 -0.22553152
000030 8b e2 83 be 72 66 8e be 76 2d 64 be 6a fa af be
       -0.25758776 -0.27812535 -0.22282967 -0.34370738
000040 65 c5 aa 3e 1e 4d ab be 0d 91 3e bd 0f 0c 2d 3e
       0.33353725 -0.33457273 -0.04652505 0.16899131
000050 94 40 7d bd 6f a5 71 3e 28 d2 bd be bf 16 62 3e
       -0.061829165 0.23598264 -0.370744 0.2207899
000060 9b 4f cc 3d 99 c0 96 3e f9 04 8e be 04 29 bf 3e
       0.09976121 0.29443815 -0.2773817 0.3733598
000070 6d e5 21 be 59 9f 99 3d 5c 6b c4 be 8c f6 ae bd
       -0.15810175 0.07501096 -0.3836316 -0.08543119
000080 3c 22 47 bd c2 83 bd 3e 0e e9 c9 3e bf f4 4e 3d
       -0.048616633 0.37014586 0.3943562 0.050526377
000090 a0 ab 86 bd dc 76 4e 3e 20 43 aa 3e 87 ce cd be
       -0.065757036 0.20162529 0.33254337 -0.4019663
0000a0 ce ff 20 be eb 35 9f 3c 34 19 75 bc 8e a2 e1 3d
       -0.15722582 0.01943489 -0.014959622 0.11017333
0000b0 c2 40 75 3e 86 5a 93 be ab ff 65 3e 30 c1 93 be
       0.23950484 -0.2878 0.22460811 -0.28858328
0000c0 5c 89 8f bd f4 54 96 3e b6 69 86 be bb 29 55 3e
       -0.07008621 0.2936169 -0.26252526 0.208167
0000d0 77 30 8b be ad 1d c6 be 0f 70 d5 be d6 b0 9e be
       -0.27185413 -0.38694516 -0.41687056 -0.3099429
0000e0 6f 38 6a 3d f3 3f 86 be 3b fc 83 3e 04 af 51 3e
       0.057182726 -0.26220664 0.25778374 0.2047692
0000f0 de b4 f8 3d b1 6f 35 3e 73 e5 ab be 7a 7e e9 bd
       0.12143873 0.17718388 -0.33573493 -0.114010766
000100 be 0c 1f 3e ee 73 55 bd 4b fb 33 be fa 37 a0 be
       0.15532205 -0.052112512 -0.1757633 -0.31292707
000110 fe 0c 7e 3e 8d 93 6b bd 6f 29 21 bb b4 f2 e0 be
       0.24809644 -0.057513762 -0.0024591347 -0.43935168
000120 e3 ed 85 3d 24 3f 3b 3d 9b c6 91 3e 97 95 e8 bd
       0.06539514 0.045714512 0.28471836 -0.11356657
000130 84 9c 60 be db f5 2a be 57 33 b9 be 88 56 0d be
       -0.21934706 -0.16695349 -0.36171982 -0.1380254
000140 c5 1a 2a be 44 48 a2 be 6f 0f b2 be 7d 94 b2 be
       -0.16611774 -0.3169576 -0.347774 -0.34878913
000150 75 99 a4 be 8d fb b9 3e 53 fd 91 3e 2d 36 47 3e
       -0.32148328 0.3632473 0.28513584 0.1945426
000160 d3 1b b6 3e ad c8 c4 bd 45 0b 4f 3e 66 7e b1 be
       0.35568103 -0.09608588 0.20219143 -0.34666747
000170 41 8d ce be 65 9f 98 3d b9 a6 89 3e 3a 44 24 3e
       -0.40342143 0.07452277 0.26885012 0.16041651
000180 01 f4 8d bc 51 22 d2 3d 39 15 3c 3e 93 f8 99 be
       -0.017328264 0.102604516 0.18367471 -0.3007246
000190 29 82 c6 3e 58 ab 6c be f6 59 c8 3e a9 9a 30 3e
       0.3877118 -0.23112237 0.39131135 0.17246498
0001a0 8e 27 d5 be 89 e2 60 3e 7f 8d 65 bd a8 df a5 bd
       -0.4163174 0.21961416 -0.056043144 -0.080993
0001b0 33 74 33 bc cf c5 b8 be 0f 2b 75 3e 8d 55 c7 be
       -0.010952997 -0.36088416 0.23942207 -0.38932458
0001c0 04 63 bd be de 1e 11 bb 46 a6 d5 be 74 74 f5 3d
       -0.36989605 -0.0022143642 -0.4172842 0.11985102
0001d0 94 89 0e be 14 34 54 3d ec eb 85 3e 65 2c 9b 3e
       -0.1391967 0.051807478 0.26156557 0.30307308
0001e0 5d dc 3f be 0c f6 97 be 97 31 bb 3e 5f 61 c6 3e
       -0.18736406 -0.29679906 0.36561272 0.38746163
0001f0 ba c2 12 3e a0 21 8d be a6 ad 3e be 8d 71 d9 3d
       0.14332095 -0.27564716 -0.18620929 0.10617361
000200 0b 14 27 3c 77 5d c0 bd 49 49 84 3e 87 0a 91 bd
       0.01019765 -0.09392827 0.25837162 -0.07082086
000210 03 34 54 be f6 ab 40 be 2f f7 65 be e1 6d 5b be
       -0.20722966 -0.18815598 -0.22457574 -0.21428634
000220 ee 9a c7 be 33 4d 04 3e 8e c1 08 be 5b 30 48 3e
       -0.3898539 0.12920074 -0.13355085 0.19549696
000230 33 68 bb bd 75 ca 3c 3e 9f d0 62 be 92 b7 4d 3e
       -0.09150734 0.18436606 -0.22149895 0.20089558
000240 63 eb 08 3d 0f b2 ca bd ce 25 e2 3d 5a 61 01 be
       0.033427607 -0.09897243 0.11042367 -0.12634793
000250 3b 98 82 3e 2a 65 08 3e 65 05 9e 3e e3 bb c7 be
       0.25506768 0.13319841 0.3086349 -0.39010534
000260 57 ba b2 be 77 64 22 3d 20 49 f2 bd 7f eb 9d 3d
       -0.3490779 0.039646592 -0.11830354 0.07710933
000270 52 d5 20 3e 35 8f cb 3d c8 fc a7 be 46 9f 32 be
       0.15706375 0.09939424 -0.32810044 -0.1744357
000280 1d 8b b6 3c 27 15 86 bd 83 4d c6 3d e9 73 0f 3e
       0.022283131 -0.06547003 0.09682753 0.1400906
000290 30 a7 8c 3e 8d 4b 6e be 3f de 62 3e af 10 d9 3e
       0.27471304 -0.23271008 0.22155093 0.4239554
0002a0 b6 5b 7f 3e ae 23 25 3e 71 46 bc bb d9 d3 51 be
       0.24937329 0.16126892 -0.005745702 -0.2049097
0002b0 04 6c 07 3e a3 6f 81 3e 67 91 af be d2 7a a7 be
       0.13224798 0.25280485 -0.3429062 -0.32710892
0002c0 69 1c b8 bd 3b c3 80 be 65 bd d1 3c 69 a9 a5 be
       -0.08989794 -0.2514895 0.025603006 -0.32355812
0002d0 fc 5a 8d 3e ff 14 62 be 5b 95 6b be 3c 3f 6e 3d
       0.27608478 -0.22078322 -0.23006193 0.058165774
0002e0 4e e7 b0 be c7 7a ab 3e 41 3c 01 3e e7 7e 6c 3e
       -0.3455147 0.3349211 0.12620641 0.23095284
0002f0 c2 a3 93 be e8 b9 76 bd 61 09 f1 bd b6 16 c9 3d
       -0.28835875 -0.060235888 -0.11769367 0.09818785

decoder.0.bias f4 [32]
000000 0f b9 39 bb 28 ba c2 3d a9 a0 e6 bd 3a a2 81 be
       -0.0028339063 0.09508163 -0.11261112 -0.25319082
000010 9e 91 69 be 97 d7 c6 3e 0e d0 f8 3d 49 4c c9 3d
       -0.22809455 0.38836357 0.12149058 0.09829003
000020 17 f7 26 3d 2f 44 23 be bf 39 93 be 5d 5f 7e be
       0.040762987 -0.15943979 -0.28754994 -0.24841066
000030 89 80 4e be d4 3b 84 be 6a b6 df 3e 3f 75 44 3e
       -0.2016622 -0.25826895 0.43693858 0.19185351
000040 c0 70 5c be 40 23 bf be ff a3 de 3b e4 35 30 3d
       -0.21527386 -0.3733158 0.006794452 0.043020144
000050 f6 5d dd bd 7e bd b0 3e 18 95 90 3c bf 57 e2 bd
       -0.10808937 0.3451957 0.017649218 -0.110518925
000060 f7 0d 51 be 05 c6 1b 3e a6 3b bb bd 25 ad ba be
       -0.20415483 0.15212257 -0.091422364 -0.36460224
000070 04 0b 9c be 68 f5 2e be 0b aa d3 3e 51 70 84 be
       -0.30477154 -0.17085803 0.4134067 -0.2586694

decoder.2.weight f4 [64, 32]
000000 9c 34 49 3e f3 1e 80 bd 00 cd d4 3d 68 de 22 3e
       0.19648975 -0.06255903 0.10390663 0.15905154
000010 c3 ca 96 bd 13 30 92 bc 57 fc 09 3c 0e e1 5a 3d
       -0.073628925 -0.01784519 0.008421979 0.053437285
000020 0a f9 e8 3d 90 df 0c 3e 54 f7 f0 3d 67 87 44 bd
       0.113756254 0.13757157 0.11765924 -0.047980692
000030 ce eb ca bd f0 5f 9f 3d 4c 42 7d bd b6 7f 97 bd
       -0.099082574 0.077819705 -0.061830804 -0.07397406
000040 db 8e 11 3d 56 34 9a 3d 99 73 35 3e 10 c4 cf 3d
       0.03553663 0.075295135 0.17719878 0.10144818
000050 f4 f1 ab 3c 10 ce d5 3c 52 49 4e 3e 55 c0 98 3d
       0.020989396 0.026099235 0.20145157 0.074585594
000060 9d f1 8b 3c 76 cb 27 be 63 ce bc bd 21 9d 60 3d
       0.017082984 -0.16386208 -0.09219053 0.05483735
000070 09 9f 4e bd a1 ef 59 3d d6 17 87 3d 1a 91 89 bd
       -0.050444636 0.053207044 0.06596343 -0.06717129
000080 d2 e3 84 bd 28 32 00 be 67 f9 d4 bc 55 68 0d 3e
       -0.06488766 -0.12519133 -0.02599783 0.13809331
000090 82 42 97 bd e4 0b 05 3e a2 d3 45 3b 05 47 5c bd
       -0.07385732 0.12992817 0.0030185957 -0.053778667
0000a0 20 85 ff 3d 7d 46 e9 bc 29 a6 43 bd 97 a8 3a 3e
       0.124765635 -0.028475994 -0.047765885 0.18228374
0000b0 2d 54 6f bd e0 5b 16 3e 4d 58 bc bd 35 1d 7e bc
       -0.058429886 0.14683485 -0.091965295 -0.015509893
0000c0 79 0d 1b be a0 19 c0 3c 78 b9 85 3d df 47 da bd
       -0.15141858 0.023449719 0.06529516 -0.106582396
0000d0 bb ff b9 bd a9 99 e4 3d c0 33 14 be 9d ef a1 bc
       -0.0908198 0.11162121 -0.14472866 -0.019767577
0000e0 47 6a 73 bd d9 b1 c1 3c 3c 18 19 be 06 04 98 3c
       -0.059427526 0.023644375 -0.14950651 0.018556606
0000f0 c2 1b d5 3c c1 9b a8 bb ba 6b 07 3e 82 f0 42 3c
       0.026014213 -0.0051455204 0.13224688 0.011898162
000100 08 4a b8 3d 05 06 e1 3d e1 60 16 bc 6b 0b 03 3e
       0.08998495 0.10987476 -0.009178371 0.12797324
000110 ea 91 3b 3e a9 c7 c9 bd 0e ee 18 3e 80 0e 0d 3e
       0.1831738 -0.09852535 0.1493456 0.13775063
000120 3c 3f 6d 3d cf 2a d6 3d a3 6f 4e 3e ac 68 dd 3d
       0.057921633 0.10457384 0.20159774 0.1081098
000130 7d ee 97 bc c4 95 91 3d f8 5c 02 be ed 70 2c be
       -0.018546337 0.07108644 -0.12730777 -0.16839953
000140 f7 a5 be bd 00 bd 07 be 79 43 5e bd 49 33 7d bd
       -0.09308999 -0.13255692 -0.054263566 -0.061816487
000150 cf 94 90 bd d3 d9 bf 3a 81 20 8c bc 51 0f 48 bd
       -0.07059633 0.001463706 -0.017105343 -0.048842732
000160 ea 16 21 3e df ce a9 bc 03 61 5a 3e 8b da 75 3e
       0.15731397 -0.020728527 0.2132607 0.24009149
000170 2c e5 96 3d 0e 74 bd bd f4 1b 26 3e 57 62 68 bd
       0.0736793 -0.09250651 0.16221601 -0.05673441
000180 d5 35 1d bd 21 d8 d1 bd f3 99 ba 3c bc a6 67 bd
       -0.038381416 -0.102463014 0.022778487 -0.056555495
000190 15 6b 4a 3d ef f4 b3 3d 83 a8 58 3c 4d 2b 08 3d
       0.049418528 0.08786952 0.01322377 0.03324442
0001a0 05 1e ec 3d 12 dd 10 be dc cc 96 bd 08 96 53 bb
       0.11529163 -0.14146832 -0.073632926 -0.003228547
0001b0 00 86 5a bd 84 4d 97 3d e8 19 91 3d f5 44 fb bd
       -0.05335045 0.07387832 0.07085019 -0.12269012
0001c0 43 3a 23 3e c5 ff 10 be 98 53 71 3d d7 d5 2c 3e
       0.15940194 -0.14160068 0.05891761 0.16878448
0001d0 64 c7 db bd 77 5a 43 3d e6 3d b5 3d da 46 7d bd
       -0.1073139 0.047693696 0.08849697 -0.061835147
0001e0 90 14 4a 3c 81 e9 19 3e c2 7a 11 3e 6d 83 6e bd
       0.012334004 0.15030481 0.14206985 -0.058230806
0001f0 ea 46 4b 3e 76 85 b1 bd b3 47 b6 bd ad 2b 5c 3d
       0.1985127 -0.08668034 -0.08900394 0.05375259
000200 9e 62 2a bd 4f 45 d9 3d 2d c7 ff bc ee 3b ff bc
       -0.041597955 0.10608923 -0.031222904 -0.031156506
000210 d9 7f 02 3d b1 01 a0 3d b3 25 a5 bc 0d 48 3b 3d
       0.031860206 0.078128226 -0.020159578 0.04572301
000220 0c 13 87 bc f8 8b 3c 3e d9 ba cc 3c a1 ea 4a 3d
       -0.016488574 0.18412769 0.02499144 0.049540166
000230 6e 34 11 3e 7f 3d 1e be bc 0c a7 3c 66 9c 17 be
       0.14180157 -0.15453146 0.020391814 -0.14805755
000240 ac db 52 3d b9 10 07 bd 32 ed c0 3d 73 0d 6b bc
       0.051479027 -0.032974932 0.094202414 -0.014346468
000250 d4 b6 80 bd 7a 32 1a bd 64 13 b6 3d 13 0e da 3d
       -0.06284872 -0.037645794 0.08890417 0.10647216
000260 2b 7f 97 bd 96 6e ee 3d 57 6f 6d 3d b7 9c 25 bd
       -0.07397302 0.11642186 0.05796751 -0.040432658
000270 35 ac 84 bd f9 b3 5e 3e d8 23 2b 3e a7 7f da bd
       -0.064781584 0.21748342 0.16712892 -0.10668879
000280 12 fc 1f 3d a6 87 86 bd ba a9 b5 3d b2 82 d8 3c
       0.039058752 -0.06568842 0.088702634 0.026429508
000290 9a 5c 9a 3d a6 2b 24 3e e0 88 a1 3b ab eb 00 3e
       0.075371936 0.16032276 0.004929647 0.125899
0002a0 66 b3 10 3e 6d 3c aa bd 33 af dd bd 5d 16 29 3e
       0.14130935 -0.083123066 -0.10824432 0.16512437
0002b0 c2 16 37 3d e5 db 1d be 9a 4a 4d 3d 3a 57 cf bd
       0.044699438 -0.15415914 0.050119974 -0.10124059
0002c0 82 e9 92 3d ff 44 c7 3d f8 28 43 3e 1b 97 32 bd
       0.07173444 0.09729957 0.19058597 -0.043601137
0002d0 3b 89 27 be 51 3f 3a 3e c5 e0 e1 bc 66 60 14 be
       -0.16360943 0.18188216 -0.027572999 -0.14489898
0002e0 73 0e c5 bd 17 eb d0 3c 3e d2 47 3d db 82 6c bd
       -0.096218966 0.025502725 0.048784487 -0.05774198
0002f0 30 41 0c bc 3e 46 ef 3d b8 b3 cf bd dc 7c 8b 37
       -0.008560464 0.116833195 -0.101417005 1.6628233e-05
000300 ae 98 22 bc 6e da 06 be 54 81 f9 bd db ee 06 be
       -0.009924097 -0.13169262 -0.121828705 -0.13177054
000310 a2 0b f1 bd 81 3f e3 bd cc 3c 0a be 4a 26 12 bd
       -0.11769797 -0.11096097 -0.13499755 -0.035681047
000320 de e4 45 bd 5e 86 3d 3e ec 65 18 3d cb f1 9c bb
       -0.048313968 0.18508288 0.037206575 -0.004789566
000330 5d a4 dd bd e5 46 52 3d 23 97 47 3d f5 53 3d 3c
       -0.108223654 0.05133714 0.04872812 0.011555661
000340 91 78 29 bd 48 f9 37 3e 08 64 dc bd 56 d2 32 bd
       -0.041374747 0.17966187 -0.10761267 -0.043657623
000350 05 26 0b 3e ec 51 fa 3c 86 19 8e bd 65 ba 8e 3d
       0.13588722 0.030556642 -0.06938462 0.06969146
000360 eb 17 92 3d 8c e2 b6 bd 2b f8 0a bd 57 8d c3 3d
       0.07133468 -0.08929929 -0.033928078 0.09548443
000370 87 fc b0 3d ed a2 26 3e a9 e9 1e 3e c8 1f 05 be
       0.08641916 0.16273089 0.15518822 -0.13000405
000380 d9 9e 62 bc df 4d 5c 3d 9d 84 82 bd 8c 1d e4 bd
       -0.013831818 0.0537852 -0.0637295 -0.11138448
000390 4a 82 bf 3d df 2e bd 3b 60 28 c8 3d 2e 35 b7 bd
       0.093510225 0.0057734097 0.09773326 -0.0894569
0003a0 55 57 16 bd ca ed 19 3e 80 43 a4 bd 59 ee d5 3b
       -0.03670438 0.15032116 -0.08020687 0.0065286574
0003b0 e0 49 a8 3d 32 a1 78 3d 35 46 0b be af 95 46 3e
       0.082172155 0.060700603 -0.13601 0.19393037
0003c0 46 da 75 3d af f5 fb 3d 6e 0a 85 bd 83 ba bf 3d
       0.060022615 0.1230272 -0.0649613 0.09361746
0003d0 95 47 ab 3d 6a d4 fa bc 0c c0 06 be 8c 3a 52 be
       0.083632626 -0.030618865 -0.13159198 -0.20530146
0003e0 3e 3d 24 3e 5b ea e1 bd ac 48 b5 3c 05 6f 28 be
       0.16038987 -0.11031028 0.02212938 -0.164486
0003f0 0a f4 ae bd 38 5b 96 3d c1 f4 8c 3d 9c 26 3e be
       -0.085426405 0.07341617 0.068826206 -0.18569416

decoder.2.bias f4 [64]
000000 11 c3 32 bc b4 ee 9a 3d fc 0b 0b bc 95 6a 19 3e
       -0.010910765 0.0756506 -0.008486744 0.14982064
000010 4d e5 40 3e 8e a0 4a 3e 01 42 13 3e 59 65 19 3c
       0.18837471 0.19787809 0.14380647 0.009362542
000020 52 d6 a6 3d 67 7d 27 3e 40 48 8f bb b2 4d 33 be
       0.08146347 0.16356431 -0.0043726265 -0.17510107
000030 e6 da 0a 3e 0d d3 d2 bd fc b5 38 3e ef ba 94 3d
       0.13560066 -0.10294161 0.18038172 0.07262217
000040 10 4b 9e 3d 4d 56 83 bb 55 cc 21 3e 92 1e 84 bd
       0.07729161 -0.0040080906 0.15800603 -0.06451143
000050 35 55 2d 3c 51 1f 10 3e b7 c3 aa 3c 1a e0 6b 3d
       0.010579397 0.14074446 0.020845277 0.057586767
000060 25 0b 1e bd 0d 65 0c be c4 8a d5 3d 2e 59 34 bc
       -0.038584847 -0.13710423 0.10426858 -0.01100759
000070 9b f9 f6 ba d0 70 2a 3d c8 8e 7d 3d 8e 31 47 3e
       -0.0018842699 0.041611493 0.061903745 0.19452497
000080 5a 5d 81 bd 2e a7 e5 3d 02 03 44 3d d2 92 26 bd
       -0.063166335 0.112135276 0.04785443 -0.040667363
000090 f4 d2 93 bd 95 87 cc 3c 1c 77 3c 3d ff 47 17 bd
       -0.072179705 0.024966994 0.04601203 -0.036933895
0000a0 0e e3 18 be a1 e9 fa bc bc fd 64 bd 2d 73 1e be
       -0.14930364 -0.030628981 -0.055906042 -0.15473624
0000b0 aa 2c 1e be 7f 24 ba 3d d1 3f 13 3e 90 93 14 be
       -0.15446725 0.09088992 0.14379813 -0.14509416
0000c0 39 f5 94 bb 21 7a 46 bd 4b 24 1e bd 0b 97 50 3d
       -0.0045458344 -0.048456315 -0.03860883 0.050925296
0000d0 c7 2c eb 3c 33 a6 3b 3e ea f2 9a bd 2b 02 1d be
       0.028707875 0.18325119 -0.075658634 -0.15332858
0000e0 08 17 26 be 1d 57 10 bc b5 22 30 3e 39 e6 55 bd
       -0.16219723 -0.008809832 0.1720074 -0.05222151
0000f0 d5 8c 06 3e 3f b8 01 3e 4e 47 03 be 72 3f 37 3e
       0.1313966 0.1266794 -0.1282017 0.17895296
