Save-Models/model-lat3.pth (torch, 191458 bytes, 16 tensors)

encoder.0.weight f4 [128, 99]
000000 10 6d 4f bd 69 77 8f bd 24 32 c0 bd 48 86 92 bd
       -0.05064112 -0.070051976 -0.093845636 -0.07154518
000010 25 9b 46 3d 45 cd 0e bd 9e c8 2f 3d ac c7 42 bd
       0.0484878 -0.03486373 0.042915933 -0.047553703
000020 4e 82 41 3d 7d 17 87 3c bc d8 fb 3c f6 ef c4 bd
       0.04724341 0.016490692 0.030742995 -0.096160814
000030 09 b9 4b bd f8 32 64 3b 3d 67 88 3d e0 21 7b 3c
       -0.04973701 0.0034820419 0.06660316 0.015327901
000040 6d dd 9d bd 26 9e 79 3d ad b8 b7 3d a3 0e 82 ba
       -0.07708249 0.060941838 0.08970771 -0.0009922575
000050 44 c0 67 3d 98 74 50 ba cb fc d6 3c 3d d8 9f 3c
       0.056579843 -0.0007951944 0.026243588 0.01951229
000060 08 59 29 3d 95 eb de b9 16 a0 0e bd e1 80 b4 bc
       0.041344672 -0.00042518662 -0.03482064 -0.02203411
000070 90 03 c3 bd 91 4d 39 bd c8 97 ad bd 88 4e 0e bc
       -0.09522164 -0.04523999 -0.084762156 -0.0086857155
000080 20 0b ae bd 3d 6e 31 3d 20 00 95 3d b3 e0 9b bd
       -0.08498216 0.043318022 0.072754145 -0.07611217
000090 36 ab 92 bc 9e 4e cb 3c 8c 71 d1 bd bf 52 88 3d
       -0.017903905 0.024817761 -0.102267355 0.066564076
0000a0 1c 50 3e bd 7b c2 59 bd 72 1d 59 3d d6 0e 45 3c
       -0.046463117 -0.053163987 0.053006597 0.012027463
0000b0 62 db 33 bd 28 a4 61 bd 62 ff b8 bc 81 c6 c9 bd
       -0.04391039 -0.055088192 -0.022582714 -0.09852315
0000c0 2b 2a d9 bd 36 4b ad bd 6d a0 e8 ba 7c 54 8a bc
       -0.10603746 -0.08461611 -0.0017748006 -0.016885988
0000d0 39 9e 0c bd cd 87 90 3d c7 72 26 3d de 25 8a bd
       -0.03433058 0.07057152 0.040636804 -0.06745504
0000e0 f2 91 18 3d d2 ef b5 3d c1 f8 ac 3d 5f 99 9e bd
       0.03724856 0.08883633 0.084458835 -0.07744097
0000f0 e5 7d bb bd 8d 53 ab bc cf dc a9 3c 66 14 e9 3c
       -0.09154872 -0.020913864 0.020735173 0.02845211
000100 f7 f7 90 bd a5 3c 6b bd 6c 62 38 3d 56 45 2f bd
       -0.070785455 -0.057430882 0.045015737 -0.042790733
000110 29 8f a7 bc b1 44 6a 3d f6 96 76 bd f1 43 7a 3d
       -0.020454006 0.057194415 -0.06020256 0.06109995
000120 36 4b cb bd b7 8b 17 bc 24 ca 2b bd f4 c3 28 3d
       -0.09926455 -0.009249619 -0.041940823 0.0412025
000130 9f 51 4f 3d 26 99 06 bd 47 22 aa bd 64 63 8f bd
       0.05061495 -0.032860897 -0.08307319 -0.07001379
000140 39 a8 8b bd f3 f5 eb bc ad 65 26 3d 52 78 a6 bd
       -0.06819195 -0.028803801 0.04062431 -0.08128418
000150 05 2c 96 bd 39 17 90 3c d1 b3 04 bc d8 be 7b bd
       -0.07332615 0.017589198 -0.008099512 -0.0614613
000160 ea 12 60 3b 1d f2 be 3d 90 e2 92 bb b2 00 80 bd
       0.003419096 0.09323523 -0.0044825748 -0.062501326
000170 98 02 f2 bb 10 70 a6 3d ca 65 d0 3d ed bb c6 3d
       -0.007385563 0.08126843 0.10175665 0.09703813
000180 da c5 a2 3d 50 23 bc 3d a7 a8 66 bd ac b5 d9 3c
       0.079478934 0.09186423 -0.056313183 0.026575886
000190 2c 6a 64 3d a0 dd 8c bd 94 3b 0f bd b2 c8 cd bd
       0.055765316 -0.06878209 -0.034968928 -0.10048045
0001a0 9e b8 c2 bd 88 32 dc bb 35 af 09 3d 29 47 eb bd
       -0.09507869 -0.006719891 0.033614356 -0.11488182
0001b0 00 89 9a bd d8 3e cd bd 49 5c 75 bd 57 b0 12 bd
       -0.07545662 -0.10021752 -0.059902463 -0.035812702
0001c0 ce 53 9c 3d a8 6f 82 bd 19 76 d9 bd 4a bb 8a bd
       0.07633172 -0.06368953 -0.106182285 -0.06774004
0001d0 6c db aa bd 3b 16 fa bb 87 37 b1 bd 34 aa 59 3d
       -0.08342633 -0.0076320446 -0.08653169 0.053140834
0001e0 9c 49 dc bd 02 5e 9a 3d 26 74 cd bc e9 0d 86 3d
       -0.107562274 0.07537462 -0.025079798 0.06545622
0001f0 23 5d 20 bd eb 8a 87 37 0b f3 89 3c 97 21 51 3d
       -0.039151322 1.6157943e-05 0.016839525 0.051057424
000200 90 11 8a 3c f8 84 96 bd ae 15 a4 3c 4c a8 f8 bc
       0.016854078 -0.073495805 0.020029869 -0.030353688
000210 3a eb d0 bd b3 f4 89 bc bd 03 0d bd d5 82 e8 bd
       -0.10201116 -0.016840314 -0.034427393 -0.11353079
000220 63 5b 83 bc bc 72 2c 3d 6e 0a c1 bd f6 57 c1 3b
       -0.016034788 0.042101607 -0.094258174 0.0059003783
000230 4a 51 6a 3d e0 c3 c1 bd fe 0c ea bc d5 5e cf bd
       0.05720643 -0.09461188 -0.028570648 -0.1012551
000240 f0 dc 3e bd 65 0c 21 ba d8 32 09 bb 88 de d6 bd
       -0.04659742 -0.00061435095 -0.0020934846 -0.10491663
000250 40 33 4a bd 99 b4 d2 bd 7f f5 9b bd c6 12 6d 3d
       -0.049365282 -0.102883525 -0.07615184 0.057879232
000260 ad 6b 75 3d 7f a8 42 bd 17 29 8a bc 35 3b 67 bd
       0.05991714 -0.04752397 -0.016865296 -0.05645295
000270 2c 72 78 bd 99 d5 68 3d 8b b9 92 bb f2 26 91 3d
       -0.060655758 0.056844328 -0.004477685 0.07087506
000280 d2 f6 cf bd f9 db 83 bd 5a bb fc 3c 40 87 be 3c
       -0.10154499 -0.06438441 0.030851055 0.023257852
000290 3b 23 55 bd 87 51 36 bd 4f 67 55 bd 1c b2 51 bc
       -0.05203555 -0.044511344 -0.052100476 -0.012798812
0002a0 cb d2 86 3d eb 00 3f 3d 9c ec e8 bc d2 b3 c3 3c
       0.06583174 0.046631735 -0.028433137 0.023889456
0002b0 84 55 2a 3d 8c 74 44 3d 89 b7 2a bd c0 24 4a 3c
       0.04158546 0.04796271 -0.04167894 0.012337863
0002c0 8b d7 a9 3d b7 70 8b 3d 9d 33 18 3b 8a b3 57 3d
       0.08293065 0.06808608 0.0023224123 0.052661456
0002d0 65 f4 1e 3d a8 d1 93 bd d9 9e 95 3d 87 db 2b 3d
       0.03880729 -0.07217723 0.073056884 0.041957404
0002e0 93 0e ab 3d cd 3d aa 3d 90 a7 ee bc 78 f8 ac bd
       0.08352389 0.08312569 -0.029132634 -0.08445829
0002f0 4e c0 42 3d 1b 9f 7c bd d5 72 98 3d 1d 26 aa bc
       0.047546677 -0.061675172 0.074437775 -0.020770127
000300 63 56 d0 bc 71 a0 25 3d 09 ef 15 bd cc a9 78 3d
       -0.025431817 0.040436212 -0.036604915 0.060708806
000310 38 e4 a6 3d 89 c3 90 3d 10 19 94 bd ed 72 84 3d
       0.08148998 0.07068545 -0.07231343 0.06467233
000320 80 8a cc bb 8e 08 c0 bc 36 db b5 3c fb c8 0a 3c
       -0.0062420964 -0.02344158 0.022199254 0.008470769
000330 a5 20 48 bd 7c 0a bf bc 8a 6f 9f bd 15 1c fa bc
       -0.048859257 -0.023320429 -0.07784946 -0.030530969
000340 c5 e2 39 3d 8a 30 a4 3d 5e 0c fc 3c ae 67 af 3d
       0.04538228 0.080170706 0.030767616 0.08564697
000350 06 7c 99 bd 96 5b 6d 3d 68 38 27 3d e5 7d 70 3d
       -0.07494359 0.05794867 0.040825278 0.058713812
000360 40 a7 dc 3c cd b1 81 bd 8b 4a 8d bc fd dd bf 3c
       0.02693522 -0.06332741 -0.017247459 0.023421282
000370 57 5d cf bd 17 52 89 bd 56 0f 71 bc a6 02 9b bd
       -0.10125225 -0.067051105 -0.014713129 -0.075688645
000380 5d 59 58 bd 19 18 83 bd 95 ec ab 3d 92 0e c4 bd
       -0.0528196 -0.06401081 0.08394734 -0.095730916
000390 a8 76 fb bc 36 d7 90 bd d7 6c 27 bd fd f8 2b 3d
       -0.030696228 -0.07072298 -0.040875282 0.0419855
0003a0 27 3e 0f bd 8f 14 b4 3d 69 5e 4b 3d b9 58 06 bd
       -0.034971382 0.08792984 0.049650583 -0.032799456
0003b0 90 51 a5 3d 48 e1 48 3c 04 61 ca bd 4e 02 ec bc
       0.080721974 0.0122607425 -0.098817855 -0.028809693
0003c0 99 d7 d1 bd 6d 06 47 3d 2b e9 68 3d 6e 30 52 bd
       -0.102462 0.048590112 0.05686299 -0.051315717
0003d0 17 35 f1 ba e5 4b 51 3d 5f a9 0d 3d e5 91 b3 bd
       -0.0018402663 0.05109777 0.034585353 -0.087680615
0003e0 21 44 63 bd f3 a3 fb bc 38 3b 33 3d f8 07 16 bd
       -0.055484895 -0.030717826 0.043757647 -0.036628693
0003f0 05 fa 2d bd 6a 51 b1 3c 8d 6b 42 3d f7 42 64 bd
       -0.042474765 0.021645267 0.04746585 -0.055727925

encoder.0.bias f4 [128]
000000 bd ba 99 be 35 14 a1 bd 2d 24 25 be c8 55 90 be
       -0.30025283 -0.07865182 -0.16127081 -0.28190446
000010 05 64 39 be 1d 92 5f be 70 d8 ad be f5 6b 46 be
       -0.1810456 -0.21833082 -0.3395419 -0.1937712
000020 3e e2 34 be f1 2d 2d be a2 a5 1b be 5a 51 d4 be
       -0.1766443 -0.16912057 -0.15199903 -0.41468316
000030 6f 4e 4c be a2 63 ed be 7a 1a 6a be 30 f9 1c be
       -0.19951795 -0.46365076 -0.22861663 -0.15329432
000040 b6 9b 93 be 26 7b b1 bd 05 4c 7b be 80 61 df be
       -0.28829736 -0.08666067 -0.24540718 -0.43629074
000050 fb 10 81 bd b2 04 a9 be 0d 7d 90 be a6 f6 2b be
       -0.06302067 -0.33011395 -0.28220406 -0.16793308
000060 2f 99 2a be 8f e4 a5 be 48 d1 d1 bd 25 c3 12 be
       -0.16659997 -0.3240094 -0.10244995 -0.14332254
000070 36 40 45 be 7b 80 8e be b0 d2 5a be 0e 69 b6 be
       -0.19262776 -0.27832398 -0.21369433 -0.35627025
000080 8f 5c f5 bd 63 be 41 3e b0 3d 5d be 09 f8 b5 be
       -0.11980545 0.18920283 -0.21605563 -0.35540798
000090 98 c5 44 be 94 6b 8d be 02 c6 38 be 80 da 98 be
       -0.19216001 -0.27621138 -0.18044284 -0.29854202
0000a0 81 0c 5a be d9 a5 51 be 81 f2 cb bd 2c 86 d3 be
       -0.21293832 -0.20473422 -0.09958363 -0.41313303
0000b0 4a 06 ab be a7 c8 d9 be 18 24 cc be 24 fd 97 be
       -0.33403236 -0.42535898 -0.39871287 -0.29685318
0000c0 60 52 53 be 9a f5 2a be ff 8e 95 bd 01 71 2f be
       -0.20636892 -0.16695252 -0.07302665 -0.17132951
0000d0 16 a1 c4 3e b0 28 ca be 76 04 08 bf fd e6 87 be
       0.3840415 -0.39484167 -0.53131807 -0.26543418
0000e0 1d aa 38 be d7 7f 98 be fa 25 89 be ff 82 44 bd
       -0.18033643 -0.29785034 -0.26786786 -0.04797649
0000f0 95 75 87 be f0 db ad be 07 dc 92 be 1e 26 9d 3b
       -0.26456895 -0.33956861 -0.28683493 0.0047958037
000100 74 6a 96 be e7 cc 79 be f2 b8 40 be ef f4 a8 bd
       -0.29378092 -0.2439457 -0.18820551 -0.082498424
000110 1d 46 03 be 27 8d 08 bf f3 0c 0c be 51 a0 56 be
       -0.12819715 -0.5334038 -0.13676815 -0.20959593
000120 e0 63 25 be 42 e3 3c be 5b bb 76 be ee ee 71 be
       -0.1615138 -0.18446067 -0.24094908 -0.236263
000130 a5 11 51 be f7 96 85 be 91 b0 92 be 41 3b 62 be
       -0.20416887 -0.2609174 -0.28650334 -0.22092916
000140 d0 40 b2 be da 70 bd be c2 a1 59 be 9d a4 32 be
       -0.34815073 -0.3700016 -0.21253112 -0.17445607
000150 a0 59 ae be c5 bb 98 be 28 8f 8d be 29 72 5d be
       -0.34052753 -0.29830757 -0.27648282 -0.2162558
000160 38 53 e1 bc ae c4 9e 3d 7d fc 95 bd 26 8e 83 be
       -0.027505502 0.077523574 -0.07323549 -0.25694388
000170 ba 9e ad bd 63 35 25 be e3 40 98 be 71 8d 34 3e
       -0.0847754 -0.16133647 -0.29737005 0.1763208
000180 b0 da 50 be 40 0f 8d be 7f 99 eb bd 11 71 54 be
       -0.20395923 -0.27550697 -0.115038864 -0.20746256
000190 ee ae d3 bd 2b 91 9b bd 9d 38 fe bd b7 78 0c be
       -0.103360996 -0.07596048 -0.12413142 -0.13717924
0001a0 17 ed df be 5c 64 19 be 31 74 e1 bd 13 cb 62 be
       -0.43735573 -0.1497969 -0.1100849 -0.22147779
0001b0 7f 8e 9a be 6b b0 2d be 1d ec 9a be 08 f8 aa be
       -0.3018684 -0.1696183 -0.30258265 -0.33392358
0001c0 7d 4e a8 be dd 57 ac be 83 df 09 be 42 66 ba be
       -0.32872382 -0.33660784 -0.13464169 -0.36406142
0001d0 f5 94 ac be f0 d7 16 be 9b 2e 87 be c6 d5 8d 3c
       -0.33707395 -0.14730811 -0.26402745 0.01731385
0001e0 5a be db bd 23 28 32 be f3 38 6e be d7 a0 75 be
       -0.10729666 -0.17398123 -0.23263912 -0.23987137
0001f0 04 a7 35 be 66 c3 5a be 9c 55 a0 bc 3a 05 55 be
       -0.17739493 -0.21363601 -0.019572072 -0.20802775

encoder.3.weight f4 [64, 128]
000000 9b f1 ed bc 12 58 86 3d 51 9f e2 bc b2 25 76 bd
       -0.02904587 0.06559767 -0.027663859 -0.060094543
000010 02 62 69 3d 62 47 0f 3d 5e 47 08 3c 0a 02 4a be
       0.056978233 0.034980185 0.0083177965 -0.1972734
000020 51 58 90 3d 95 e8 dd 3c 54 34 b7 3d c4 14 9a 3c
       0.07048095 0.027088443 0.08945528 0.01880873
000030 c5 a4 da bc 4e 9d 9d bd 99 b8 cc 3c c5 4b 7f bd
       -0.026689896 -0.07696019 0.024990367 -0.06232812
000040 b9 25 ea bd d0 f0 b3 bc 22 30 80 bc 98 33 d0 3d
       -0.11432976 -0.021965414 -0.015647952 0.10166091
000050 fd 30 8e 3d 1b 20 c4 bd ee 79 34 be d8 90 78 bd
       0.069429375 -0.09576436 -0.17624637 -0.06068501
000060 43 69 1d bd 26 1e b6 bd ef b7 62 3d fe a4 3d bd
       -0.038430464 -0.08892469 0.055351194 -0.046299927
000070 89 e4 4a bd 98 31 07 be 5c e8 3b 3d 19 40 ad bd
       -0.049534354 -0.13202512 0.045875892 -0.08459491
000080 5a d1 63 bd aa 94 9c 3b aa 70 4a bc a4 5c 17 bd
       -0.055619575 0.0047784643 -0.012355963 -0.036953583
000090 65 2d 61 bd 92 40 3b bd bf 30 05 be 0c 7e 9a bd
       -0.054974932 -0.045715876 -0.13006876 -0.07543573
0000a0 49 26 1a 3c 7a 8e bb 3d 1b 82 a8 3d 6e bc fc 3d
       0.009408542 0.091580346 0.08227941 0.123406276
0000b0 03 58 ef 3d b3 31 02 3e ed 72 f1 bd d2 1f 0f be
       0.11686709 0.12714271 -0.117894985 -0.13976982
0000c0 c3 64 22 3d 66 1b 78 be ea 1d 89 3c 1d 64 b7 3d
       0.039646875 -0.24229202 0.016737897 0.08954642
0000d0 88 58 c1 ba f6 1b 7a bc 99 44 00 be 67 11 26 3c
       -0.0014751116 -0.0152654555 -0.12526168 0.010135985
0000e0 34 b7 99 3c 1d 7f f2 bc 5b 72 ac bd c6 ce 06 bc
       0.018764116 -0.029601628 -0.08420249 -0.00822801
0000f0 c6 4f 4d 3d 08 9e a7 bd f6 eb cb 3d ce a9 82 bd
       0.050124906 -0.08184439 0.09957115 -0.06380044
000100 6d b8 5e bd 6e 84 a9 bd c8 96 ce bd 51 ff b0 3d
       -0.0543751 -0.08277212 -0.10087353 0.08642448
000110 ec 8b b1 3c 19 65 3d 3d 8f 40 9f 3d 51 25 42 3d
       0.021673165 0.046238992 0.077759854 0.04739887
000120 bc 2c 00 3d ca 24 d9 3d 3b 4c 0a bc 9c f5 98 3d
       0.031292662 0.1060272 -0.008441026 0.07468721
000130 3f 56 d4 bb 1b e7 18 bd 6c 01 7f bc 1e 7d 8b 3c
       -0.006480008 -0.037329774 -0.015564304 0.017027434
000140 e3 54 c3 3d 2e 49 02 be 57 63 2b bd fd 5a fa bc
       0.09537675 -0.12723228 -0.041842785 -0.030560965
000150 ff 82 df bc a5 3b d0 bd 7b 81 06 bd 90 6a 6b bd
       -0.027284143 -0.10167626 -0.032838326 -0.057474673
000160 07 62 33 bd 2b 89 b2 3c 01 47 02 3d 4c 71 9f bc
       -0.043794658 0.021793922 0.031805996 -0.019463204
000170 e9 fc 85 3d 1f bd 4e 3d 88 8a f0 3d 87 da 1f 3d
       0.065423794 0.05047333 0.11745173 0.039026763
000180 b4 4e e1 bd ed bc 29 3d 04 8a 60 bd f3 cb a5 bd
       -0.110013396 0.04143994 -0.054819122 -0.08095541
000190 e2 1d b5 bc 11 e0 cc 3b 5a af bb 3d 0d d4 96 3c
       -0.022108976 0.0062522967 0.09164305 0.01841166
0001a0 f8 dc 81 bc 26 61 22 bc 61 ec 5c 3c eb 5a 4d bd
       -0.015852436 -0.009910857 0.0134840915 -0.050135534
0001b0 3f 43 88 bc be 20 c8 bd 0d 51 27 be e7 89 4f 3d
       -0.016633628 -0.0977187 -0.16339512 0.050668623
0001c0 4b 8c 9f 3d 6c 29 b7 bd da c1 b7 bd d9 d8 44 3d
       0.07790431 -0.089434475 -0.08972521 0.048058365
0001d0 ef bf 40 3c d9 30 5a 3d 6c 03 56 3d 7e c3 70 3d
       0.011764511 0.05326924 0.052249357 0.058780186
0001e0 9a a4 76 3d 7a 6d 04 bd ed f1 e5 3c 38 e4 85 3d
       0.06021557 -0.032330967 0.02806946 0.0653767
0001f0 eb ba a5 3d d1 ad 59 bd 78 4c 8b bd c4 7f 10 bd
       0.080922924 -0.05314428 -0.06801695 -0.035278097
000200 d0 dd 16 bd c3 f0 08 bd 73 e4 08 bd 2e 92 45 3b
       -0.03683263 -0.033432733 -0.03342099 0.0030146944
000210 33 f5 63 3d 89 ec 75 3d 03 6a 25 3e 52 c5 c0 bd
       0.055653762 0.06004003 0.16153722 -0.09412636
000220 a7 fd c1 bc 93 c4 12 3d 4c 55 37 3d 45 17 bb 3d
       -0.023680521 0.035832 0.04475908 0.09135298
000230 91 1f cb 3c 76 0a 96 bd 42 11 c9 3d a6 23 c3 3c
       0.024795325 -0.07326214 0.09817745 0.02382071
000240 0c 65 23 3e 93 dd bc bc 8a 88 ef bc 2d bd 00 3e
       0.15956515 -0.023054874 -0.029239912 0.12572165
000250 a7 9e a7 3d a7 b5 cc 3d b7 24 f6 3d 9b 9f b9 3d
       0.081845574 0.09995585 0.120187216 0.090636455
000260 8a dd c6 bc d5 e9 80 bd e3 7d 1c bd 0d 99 69 3d
       -0.02427556 -0.062946 -0.038205992 0.057030726
000270 11 0e 96 3d a2 ef 15 3e da b6 93 3d e2 79 0a 3e
       0.07326902 0.14642194 0.072126105 0.13523057
000280 30 73 26 bd 15 4b 0d bd 91 ad 82 bd c4 d9 c0 bd
       -0.040637195 -0.034495432 -0.063807614 -0.094165355
000290 0b 4a bd 3d 9c f7 91 3c 03 d8 90 bd 87 f3 42 3d
       0.09242638 0.017818265 -0.07072451 0.047595527
0002a0 b0 77 8a 3c 1f 3f b1 3d e9 b5 6b 3d 93 8d b9 3c
       0.016902775 0.086546175 0.05754653 0.022650516
0002b0 df f9 cd 3d e7 54 3a 3d d1 8b 5c 3e 01 8f a4 bd
       0.10057425 0.045491125 0.2153771 -0.08035088
0002c0 c6 90 ff 3c 2a a3 19 be e9 94 ee bc 11 29 08 3e
       0.031196963 -0.15003648 -0.02912374 0.13296916
0002d0 d0 8a a9 be 56 78 eb 3c dd ba 67 3e 0a 96 3a bd
       -0.33113718 0.028743904 0.22629876 -0.045553245
0002e0 3a 87 f2 bc 2c d2 2b 3c 10 f6 8e 3d 30 c8 57 3d
       -0.029605497 0.010487121 0.069805264 0.052681148
0002f0 43 33 e4 3d ed c1 0b 3d 68 c7 3b bd e3 ca 3e 3d
       0.1114259 0.03412049 -0.045844465 0.046580207
000300 45 68 5a 3d 9e 84 74 bd c6 b9 4b 3d 84 b5 86 bb
       0.053322095 -0.059696786 0.049737714 -0.004110994
000310 7a 56 4e 3d 34 9c 30 3e e6 92 44 3d 2b a4 b0 3c
       0.05037544 0.17247087 0.047991656 0.021562656
000320 e5 86 54 3d 00 17 b0 3d ec bb e1 3b af b2 68 bd
       0.051886458 0.08598137 0.006888857 -0.05681103
000330 e9 86 cd 3d 6b a7 59 3d 20 88 0e 3d 9e b5 7f bd
       0.10035498 0.053138178 0.034797788 -0.062429063
000340 9c e5 e8 3d 0f d3 7b 3b 87 34 84 3d 54 66 19 3c
       0.113719195 0.0038425361 0.06455331 0.009362776
000350 fd b5 cc 3d 99 6a 4e bd 23 7f 2a 3c 5e cc 19 3e
       0.09995649 -0.05039463 0.010406288 0.15019366
000360 ce 59 5a bd da 9f 80 bd 34 16 ec 3d c8 ac 85 3d
       -0.0533083 -0.06280489 0.115276724 0.06527096
000370 7a 9a 43 bd 9f d2 75 3d 9b 1b d6 3c 7c 7f a2 bd
       -0.047754742 0.060015317 0.02613621 -0.07934472
000380 0f 2c 96 bd 2e f3 ec 3d c2 41 88 3c e3 20 fc bc
       -0.07332622 0.1156982 0.016632918 -0.0307774
000390 67 87 8c 3d cd 57 15 bb de 12 39 3c 85 b0 85 3d
       0.068617634 -0.002278793 0.011296002 0.06527809
0003a0 09 1c b4 bc 1a cb 82 bd 67 3c 9b 3d 7a 76 c8 bb
       -0.021986024 -0.06386395 0.0757988 -0.006117639
0003b0 f8 05 3d 3c 5d 2c 69 3d bc c5 fd bd 31 a5 83 bb
       0.011537068 0.056927074 -0.123912305 -0.004017495
0003c0 58 91 b3 3c 49 24 08 bd d3 04 8b 3c 4e c3 d8 3d
       0.021919891 -0.03323773 0.016970074 0.105841264
0003d0 06 9e b5 bd 37 2f 91 3d 0c 8c 87 bc d0 52 b8 be
       -0.08868031 0.07089084 -0.016546272 -0.3600068
0003e0 60 ac 89 3d 92 1e 6a 3d 84 86 1b bc 03 e6 96 3d
       0.06722331 0.05715806 -0.00949252 0.0736809
0003f0 44 27 1e 3d af c8 a4 bd 8a 8c 97 bd 97 81 79 ba
       0.038611665 -0.0804609 -0.073998526 -0.00095179066

encoder.3.bias f4 [64]
000000 c6 69 2f be ec 11 61 be 0b cf 8e be a9 b3 83 be
       -0.17130193 -0.21979493 -0.27892336 -0.25723007
000010 b3 75 31 be c3 8b 32 be 26 d4 89 b9 ea 1f 69 be
       -0.17330055 -0.17436127 -0.0002628874 -0.2276608
000020 2a 41 24 be 76 be a2 bc 10 41 81 be 84 00 1d be
       -0.16040483 -0.01986621 -0.2524495 -0.15332228
000030 f3 5c b6 bd 91 b4 56 bc e4 d5 81 bc 15 af 52 bd
       -0.089044474 -0.013104574 -0.015849061 -0.051436502
000040 13 17 2f be 22 ee e5 bd e6 20 35 be 3e 1d 9d be
       -0.17098646 -0.11227061 -0.17688331 -0.30686373
000050 90 5b f1 bd 2e 1f 98 bd dc fe 4f bd db 9c c9 bd
       -0.11785042 -0.07427822 -0.050780162 -0.09844371
000060 3c 08 87 bd 9f ac 53 bd 94 8e 52 be c9 29 9d be
       -0.065933675 -0.051678296 -0.20562202 -0.30695942
000070 50 f5 d1 3c 4e 20 b9 ba ff 3e ee be 18 ce 6c be
       0.02562967 -0.0014124007 -0.46532437 -0.23125494
000080 0e bf 01 be 4f 25 7d be 25 07 6a be 84 c0 6c 3d
       -0.12670538 -0.24721263 -0.22854288 0.057800785
000090 ff 62 b2 be 16 a3 03 be 59 44 bc bd c4 3c 01 be
       -0.34841153 -0.12855181 -0.09192724 -0.12620836
0000a0 2c cf 21 be d3 82 67 be 0b 69 0e be 26 40 76 be
       -0.15801686 -0.22608499 -0.13907258 -0.24047908
0000b0 eb 00 4e bd 63 29 8d be 34 17 19 be fa d6 02 be
       -0.050293844 -0.27570638 -0.14950258 -0.1277732
0000c0 4c 8c 87 bd b1 1a 2b be a2 89 d0 bd b3 6f 4b be
       -0.066185564 -0.167094 -0.101825014 -0.19866829
0000d0 92 23 9b bd d2 93 01 bd cf 65 fd bd fa 0d 39 be
       -0.07575144 -0.031635113 -0.12372934 -0.18071738
0000e0 9e 4c 10 bd bb e4 8f bd 7d ec c6 bd f6 37 14 be
       -0.035229318 -0.07026049 -0.09713075 -0.14474472
0000f0 e4 2f 96 3d a8 12 d4 be 21 89 f8 bd 1a df a0 be
       0.07333353 -0.41420484 -0.1213553 -0.31420213

encoder.6.weight f4 [32, 64]
000000 79 c1 84 3c 14 05 5f bd d6 87 35 be 4d 0d 43 3d
       0.016205536 -0.054448202 -0.17727599 0.047620106
000010 cf 6d 05 be c8 c1 d7 be de 0f c6 3c 5a bd bc 3d
       -0.1303017 -0.4214003 0.024177488 0.092158034
000020 fc 3a 64 3d 89 7e b1 be 27 3a a8 bd 7d 0c 52 3d
       0.055720314 -0.3466685 -0.08214217 0.05128144
000030 e3 37 4c be 93 60 a2 bd bb b6 c3 3d df c7 96 be
       -0.19943194 -0.07928576 0.095563374 -0.29449365
000040 ac e5 aa bc 51 1d 33 bc ef 65 f2 3c 43 ab a6 3c
       -0.02086147 -0.010932283 0.029589621 0.020345336
000050 05 4c 4f bd 01 a8 2c bd ca 4f ea bd 70 11 21 3e
       -0.050609607 -0.04215241 -0.11441 0.15729308
000060 fc cd ab 3d e6 cf 02 be c5 57 a7 3d d8 d8 8f b8
       0.08388898 -0.1277462 0.081710376 -6.859162e-05
000070 97 1d 39 bd 9e 44 ab bd bc 8a 14 3e fa 63 33 bd
       -0.045194235 -0.08362697 0.14506048 -0.043796517
000080 3e f6 88 3d 0f 3b d6 3d 19 f8 96 bd ef fb c0 3d
       0.06687592 0.10460483 -0.073715396 0.094230525
000090 e4 a3 3a 3c b2 68 a1 3d 2e c4 92 bd a6 81 f4 bb
       0.011391614 0.07881297 -0.071663246 -0.0074617444
0000a0 e6 25 cc bd 8f 07 e0 3d eb 11 c5 3d 12 fc 8b bd
       -0.09968166 0.10938942 0.09622558 -0.06835188
0000b0 8d 44 ee bd 29 3c a0 3d 19 2f d8 3c 9c d5 4e 3d
       -0.11634169 0.07823975 0.026389645 0.050496683
0000c0 fc 39 32 bd db 68 d0 bd 34 28 e0 3d e6 26 04 3e
       -0.04351233 -0.101762496 0.10945168 0.12905464
0000d0 6c ee 77 3d 63 d8 76 bd 13 07 02 3e 7c 64 e8 3d
       0.06053011 -0.060264956 0.12698011 0.11347291
0000e0 7a ba 90 3d 85 0c 38 be 1c d4 fe 3d f4 8e 09 be
       0.070668176 -0.17973526 0.124428004 -0.13433439
0000f0 21 8e 83 3e 18 fa 45 3c 06 f4 ee 3d df 96 44 3d
       0.25694373 0.012083553 0.116676375 0.047995444
000100 60 84 13 be 64 fe c2 3d 0e 84 46 3d 54 8e 49 3d
       -0.14405966 0.095211774 0.04846578 0.049208
000110 44 54 0c 3e 37 3a f0 3d 6b 88 8f be f7 9b 86 bd
       0.1370402 0.117298536 -0.28033766 -0.06572717
000120 30 7b 46 bd b2 81 54 3d 40 d7 03 3e e2 31 22 be
       -0.048457325 0.0518815 0.1287508 -0.15839341
000130 f6 c9 23 bd bb 54 a3 bb ce 87 d3 3b c8 9c 09 bd
       -0.039987527 -0.004984466 0.006455398 -0.033596784
000140 8f 14 dc bd c2 9f 33 be 28 eb cb 3d d3 ad fe 3d
       -0.10746109 -0.17541412 0.09956962 0.12435498
000150 0d 3a d4 bc be 1a e8 3c 4a 5c 81 bb 0f 03 e1 3d
       -0.025906587 0.028333064 -0.0039477693 0.109869115
000160 5e 87 21 be 9c cf 06 bd 07 d9 07 be 98 83 aa bd
       -0.15774295 -0.032912835 -0.13266383 -0.08325881
000170 f6 52 85 be ab 04 94 bd d6 58 82 bc 17 96 e7 3d
       -0.26039857 -0.07227453 -0.0159115 0.11307924
000180 02 ae ae bd 45 0c 8f 3c 16 f4 50 3c 8d 3b 3d be
       -0.08529283 0.017461905 0.012753507 -0.18479748
000190 ce 90 28 3e 76 06 81 be d5 90 e6 bc 13 d1 96 bd
       0.16461489 -0.25200242 -0.028145233 -0.073640965
0001a0 af be 81 bd 9f d3 cd bd 98 03 1b 3c 33 c3 2b bd
       -0.06335198 -0.10050129 0.009461306 -0.041934203
0001b0 ac 2f 09 3d fe eb ed 3d 34 0d 63 3d 70 2d 50 be
       0.03349273 0.116172776 0.055432513 -0.20329833
0001c0 35 c4 9e 3d c7 cb 0c 3e 44 c1 94 bc 22 70 d3 bd
       0.07752267 0.1374961 -0.018158562 -0.10324122
0001d0 4d 58 79 3d 15 a0 89 3d e3 7f a3 bd b5 15 51 be
       0.060875226 0.06719986 -0.07983377 -0.20418437
0001e0 74 c3 8d bd 9c c2 a8 bd 9a 25 d7 ba 74 1a 67 3d
       -0.06922045 -0.08240244 -0.0016414404 0.056421712
0001f0 ec ab 20 be ff b4 5b 3d 8e 4c 0b be 58 c0 12 3e
       -0.15690583 0.05363941 -0.13603422 0.14331186
000200 20 0d bc bd c9 42 e0 3d 09 4a f5 bd 1c d9 80 be
       -0.09182191 0.10950238 -0.11977012 -0.2516564
000210 83 4c be bd 33 b6 49 be 8f 89 e1 3d d0 da ff 3d
       -0.09291937 -0.1969841 0.11012565 0.12492907
000220 a9 9e a8 bc 52 e1 5c 3d 15 c9 a3 bd b4 90 ea 3d
       -0.020583468 0.05392582 -0.07997338 0.11453381
000230 7a ff 67 3c 4f 70 31 3d 80 53 65 bd e8 79 27 be
       0.014160031 0.043319996 -0.055987835 -0.16355097
000240 4c c4 79 3d 0b 8f 94 3d 90 6d 60 bd f2 ca 0c 3d
       0.06097822 0.07253846 -0.054791987 0.03437323
000250 07 e6 ef 3d 2a 48 8f be df b7 f2 bc d3 9d 11 3d
       0.11713796 -0.27984744 -0.029628692 0.035550904
000260 f5 a1 10 bd 60 1a 54 bd 4f 96 23 3d 35 98 f2 bd
       -0.035310704 -0.051782966 0.039938267 -0.118454374
000270 90 1b 02 3e 55 35 d8 b9 6f 3b 32 3e c5 99 e9 bd
       0.12705827 -0.00041238466 0.17405485 -0.11406282
000280 03 be aa 3e 31 f6 18 bc a8 db f9 bd 0f 2e e5 bc
       0.33348092 -0.00933604 -0.12200099 -0.027976064
000290 da 45 67 bd 38 54 f6 3d 1a 23 5c bd 89 2a 41 bd
       -0.0564631 0.12027782 -0.053744413 -0.047159705
0002a0 f9 52 89 3d da 68 bd bd 1e 41 b2 bd 2d a6 61 be
       0.06705279 -0.092485145 -0.08703826 -0.22036047
0002b0 15 65 a2 bd fb c7 b7 bd 6e 71 34 bd 65 cf 06 bc
       -0.07929436 -0.0897369 -0.044053487 -0.008228158
0002c0 2d 52 92 3d 1f 05 70 be 98 e3 3d bc 68 3f 2a 3e
       0.0714458 -0.23439454 -0.011589907 0.1662575
0002d0 d9 22 0d 3d 31 f7 bf bd 29 81 1c bd 42 ba a3 3d
       0.03445706 -0.0937332 -0.038209114 0.0799451
0002e0 67 12 1b 3d 26 d7 26 be 87 fa b6 bd ac 1e bf bd
       0.037859347 -0.1629301 -0.08934503 -0.09332022
0002f0 c0 c3 19 3e dd 6b 80 3d 89 c4 d7 3d d7 3a f0 3d
       0.15016079 0.06270573 0.10535533 0.11729973
000300 92 7f dd bc 50 b3 3a 3d 9b df c0 bd c0 fd 2a be
       -0.02703837 0.045581162 -0.09417649 -0.1669836
000310 12 16 d4 bd dc df bd 3d 2a 6b b4 3d e2 27 20 be
       -0.10355772 0.092712134 0.088095024 -0.15640214
000320 9c e6 3c bc cd f4 85 3d 2c 56 b3 3d ba b1 15 3d
       -0.011529591 0.06540833 0.0875667 0.036546446
000330 da bd 6f bd 1b 30 17 ba 28 a7 14 3e c4 6e 30 3c
       -0.058530666 -0.0005767361 0.1451689 0.010768596
000340 04 a6 87 3d 25 de fe 3c 26 b6 55 bc fa f9 13 bd
       0.06623462 0.031111786 -0.013043916 -0.036127068
000350 80 a1 1e 3e dd af c0 bd 4a f0 95 bd d6 df ce bd
       0.15491295 -0.09408543 -0.07321222 -0.10101287
000360 cb b1 00 bd 2e f8 ac 3d 23 a7 85 bc 67 a0 23 be
       -0.031419557 0.08445774 -0.016315049 -0.15979157
000370 6a 41 c1 3d 3e d2 ba bd 18 cc 6e bd 94 51 14 3d
       0.09436305 -0.09122132 -0.058300108 0.03621061
000380 a0 83 92 be 78 88 36 bd 6b 2e 4d be fe 5d 08 3e
       -0.28616047 -0.04456374 -0.20037238 0.13317105
000390 98 72 f2 3d d7 62 46 3c 82 6b 13 3c 28 19 ee 3d
       0.11838263 0.012108526 0.0089978 0.11625892
0003a0 19 da b0 3d 7f 38 c1 3d 37 50 0b be 9b da fd bd
       0.08635349 0.09434604 -0.13604818 -0.12395211
0003b0 d9 c9 87 3d 55 03 35 3e 9f d6 63 3e cb 03 72 3b
       0.06630296 0.17677052 0.2224984 0.003692853
0003c0 f4 66 80 3d cb 27 0f be 49 07 af bd 22 f9 cc bd
       0.06269637 -0.13980024 -0.085463114 -0.10008456
0003d0 ab 6f 63 be 45 a0 f4 3c 8d f4 31 3e 1f 32 88 bc
       -0.22210567 0.029861579 0.17378445 -0.016625462
0003e0 39 b9 21 3d b2 e8 7b bc 3c da 06 3e e6 db 9a bd
       0.039483283 -0.015375303 0.13169187 -0.075614735
0003f0 bd 31 38 bd 6d 0c b3 3d 77 3d d7 3d 7a 2a 14 3e
       -0.04496931 0.087426044 0.1050977 0.14469329

encoder.6.bias f4 [32]
000000 47 c6 01 3c 48 e3 fb 3c 0c 9b 95 bc 2e 05 58 3d
       0.007920808 0.030748025 -0.018262409 0.052739315
000010 3a 83 07 be 8a c2 64 3d 2c 2f 6f 3d d6 1c 91 3d
       -0.13233653 0.05584959 0.058394596 0.07085578
000020 5a c0 10 be 24 5a 50 3d e3 a6 3b bc dd da f6 3c
       -0.14135876 0.050867215 -0.011453363 0.030133659
000030 65 2e 81 bb 29 c0 a2 3d 20 0b af bd 30 3f 00 3d
       -0.0039422982 0.07946808 -0.08547044 0.03131026
000040 c5 d9 74 bd 09 1f 81 bc 41 d8 fe bd a5 ac 35 3e
       -0.059777994 -0.015761869 -0.12443591 0.1774164
000050 32 6b 44 be 91 9a 72 3d e9 5d 0c bd fd a2 8b 3d
       -0.19181517 0.059229437 -0.034269247 0.06818197
000060 5a d7 97 3d 5d 01 64 bc 3c b4 92 bd d8 18 7a bd
       0.07414122 -0.013916341 -0.07163283 -0.06105885
000070 fe 11 74 3b 0d eb 86 3d 72 47 c7 3d 9f 44 8a 3d
       0.003724217 0.06587801 0.09730424 0.0675137

encoder.9.weight f4 [3, 32]
000000 59 3e 85 3c 24 4f e9 3d ba 19 cc 3d 8d 0d 13 be
       0.016265081 0.11392048 0.099658445 -0.14360638
000010 ee f0 3e 3e bd 2d 28 be ac 24 39 3e 85 97 5f bd
       0.18646595 -0.16423698 0.18080395 -0.05458786
000020 24 e2 d1 bd ee 48 24 be 25 2d 47 3e 91 e5 26 3e
       -0.10248211 -0.16043445 0.19450815 0.1629851
000030 14 fe 32 3e 4b 4a 3b be e7 4a 7c bd 95 32 c4 3c
       0.17479736 -0.1829006 -0.06159487 0.0239499
000040 3c 5b 64 be 94 25 3f be 22 23 db 3c 01 8c 0a be
       -0.22300428 -0.18666679 0.026750151 -0.1352997
000050 23 d8 07 3e 76 1b 1f be 1c 48 3f bd 7f 33 dc bd
       0.13266043 -0.1553782 -0.04669963 -0.107520096
000060 74 06 43 be 91 65 dd 3d 01 60 01 3e a5 bf 0f 3e
       -0.1904543 0.10810388 0.12634279 0.1403795
000070 9b bc bc bd 81 5f 46 bb 8e 2d 19 be 3b f1 fd bd
       -0.09215661 -0.0030269327 -0.14958784 -0.12399527
000080 a7 7e 2c be dc 52 f7 3d 89 f4 20 be c6 2c 9c 3c
       -0.16845189 0.12076351 -0.15718283 0.019064318
000090 21 d7 19 be 08 ce ba 3c c5 67 25 3c 56 72 59 bd
       -0.15023471 0.022803321 0.010095541 -0.053087555
0000a0 11 59 1a be 94 61 87 bd d7 e5 13 3e 26 1a fa bc
       -0.15073039 -0.066104084 0.14443146 -0.030530047
0000b0 c2 6f c1 3d dd d7 16 3d 57 4e 33 be b2 e1 2b be
       0.09445144 0.036826957 -0.17510353 -0.16785315
0000c0 62 87 f2 bd c9 d9 1b 3d 48 ac 2c 3e 49 33 a7 3c
       -0.118422285 0.038049493 0.16862595 0.020410197
0000d0 ab ff 29 be 8e ad 26 3d 35 31 85 3d 65 8a 99 bd
       -0.16601436 0.04069286 0.06503526 -0.074971
0000e0 0f c0 23 be 35 df d1 bd 7a af 20 3e 23 9e 3b be
       -0.15991233 -0.102476515 0.15691939 -0.18322043
0000f0 6e bf 97 3d c8 e6 bd bd d4 67 15 be 40 c6 62 bd
       0.07409559 -0.09272534 -0.14590389 -0.055364847
000100 12 a0 33 3d 4e ba 1b 3d 9f 02 18 be 97 b6 f1 bd
       0.043853827 0.03801947 -0.1484475 -0.118024044
000110 72 1d 12 3e f9 c6 d1 bd 6b ea 18 3d f2 dc c8 bd
       0.14269045 -0.10243029 0.037332933 -0.09807767
000120 f1 6e c4 bd 5b 52 72 3d 2c 5a 89 bd d6 05 ff 3d
       -0.09591473 0.05916057 -0.06706652 0.12452285
000130 ba e2 0d bd 4b 40 15 be 6f 4a b5 bc e3 16 e5 bc
       -0.03464005 -0.14575307 -0.02213022 -0.027965015
000140 38 64 b3 3d 64 8b 20 be f5 f2 a1 3d c9 9d ca bd
       0.087593496 -0.15678173 0.079076685 -0.098933764
000150 7e a9 40 3e 82 18 3f be aa b2 19 3e d0 7f 1d be
       0.18814656 -0.18661693 0.15009561 -0.15380788
000160 d4 bf 37 3e 32 15 12 3e d6 f1 c1 3c f6 c5 32 3e
       0.1794427 0.14265898 0.023674887 0.17458329
000170 17 b9 4d 3e 03 e9 26 be 4a d7 bf bd e8 22 7c 3b
       0.20090137 -0.16299824 -0.09367235 0.0038472954

encoder.9.bias f4 [3]
000000 48 33 bb bd c5 f1 f1 3b ab 5a 2c be
       -0.091406405 0.0073835575 -0.16831462

decoder.0.weight f4 [32, 3]
000000 da d7 eb be 36 68 65 3e c7 95 88 be 6d 92 2d 3e
       -0.4606312 0.22403035 -0.2667677 0.16950388
000010 2c d8 fb 3e 85 07 e7 3d 68 5a 92 3e 27 44 46 3e
       0.49188364 0.11280731 0.285846 0.19361936
000020 6b 00 e7 bd 9b 19 f0 3e 74 45 fe 3e 55 4b 8b be
       -0.112793766 0.46894535 0.49662364 -0.2720591
000030 fc f4 29 3e aa 56 38 3e 7b 54 f3 3e ca 96 06 be
       0.1659736 0.1800181 0.4752539 -0.13143459
000040 d1 43 e0 be f8 8a ab be 3c f6 7b be fd 84 fc be
       -0.4380174 -0.33504462 -0.2460565 -0.49320212
000050 5b fc ff 3b 3d 1d 8e be bd 27 07 bf 5d f8 06 be
       0.0078120655 -0.27756682 -0.5279501 -0.1318068
000060 62 fe 5f be 93 6e 97 be 78 c7 b0 be 9a 82 ed 3e
       -0.21874383 -0.2957655 -0.34527183 0.46388704
000070 e5 7d 82 be 73 6e 0a 3f d5 33 18 3e 00 b7 a6 3d
       -0.25486675 0.5407478 0.14863522 0.08140373
000080 01 9b e4 3d 60 f0 45 3e 3e 5f 5a be a4 43 b9 be
       0.11162377 0.19329977 -0.21325395 -0.36184418
000090 1c 42 dc 3e cc 46 f8 3d 0d 0e b6 be c6 cb fc 3e
       0.43019187 0.121228784 -0.35557595 0.49374217
0000a0 f8 25 07 3f 20 9c 3b 3e 20 42 9b 3e 03 04 df bd
       0.5279231 0.18321276 0.30323887 -0.10889437
0000b0 08 a9 15 bf 5b 69 4e 3e a8 ea 17 3f b8 97 48 3e
       -0.58461046 0.20157377 0.5934243 0.19589126
0000c0 eb 4a b6 3e 45 82 91 3e a2 66 75 3e 0d 66 ce be
       0.35604033 0.284197 0.23964933 -0.40312234
0000d0 5b 25 1b 3e b0 84 d1 3e b9 97 02 3f 4c 6c dc bd
       0.15150969 0.40921545 0.5101276 -0.107628435
0000e0 be a7 f4 3e a8 d3 d5 3e dc aa a0 be be 9e d7 3d
       0.47784227 0.41763043 -0.31380355 0.105283245
0000f0 59 fa 11 3f 79 77 00 3f d9 d3 ca 3e 8a 23 37 3d
       0.57022625 0.501823 0.39614752 0.044711627
000100 2a a0 e6 be 0d 6f d1 3e 67 0a 0f bf 87 06 67 be
       -0.4504407 0.40905038 -0.5587525 -0.22561084
000110 50 48 9f bd 6c d6 52 be fc a6 76 bd 8d 93 67 be
       -0.077774644 -0.20589608 -0.060217842 -0.2261488
000120 bc 5b 88 3e 6a 1a 2f 3d c6 0a f2 3e 49 c1 c6 3e
       0.26632488 0.0427498 0.47273844 0.3881934
000130 2b 74 18 3f fc 9d b3 be 19 b0 33 be cb 9f a2 3e
       0.5955226 -0.3508147 -0.17547645 0.31762537
000140 13 fb d0 3c 5d ca ca 3e a0 1b b9 be 86 de 86 be
       0.025510347 0.39607516 -0.3615389 -0.26341647
000150 9d b4 de bc 9c 12 f0 be bb ef 88 bd 40 91 b3 3e
       -0.027185732 -0.46889198 -0.0668635 0.35071754
000160 48 f3 ab 3d 8a 0b 84 be 02 bd 16 be 1f c7 8f 3e
       0.083960116 -0.25790054 -0.14720538 0.28081605
000170 d3 98 23 be c0 4d 38 be 45 a4 8b 3e f1 d5 05 3f
       -0.15976267 -0.1799841 0.27273765 0.52279574

decoder.0.bias f4 [32]
000000 02 d2 1e 3e ef 65 9b bd 0e 71 b2 be 11 d6 0e 3f
       0.15509799 -0.07587802 -0.3485188 0.5579539
000010 98 91 6e 3e f2 d6 03 3e 17 71 d1 3d ab d9 3e 3e
       0.23297727 0.12874964 0.10226648 0.18637721
000020 43 fc 79 bd 99 5c 3b be 6e 1f 31 3e 56 fb b2 3e
       -0.06103159 -0.18297042 0.17297146 0.3495738
000030 7a 79 be be ac 03 fe 3c 13 9e 8e 3e 64 4f 07 3f
       -0.37202054 0.03100761 0.27854976 0.52855515
000040 55 56 07 3f e8 1a 42 be ba 2d eb 3e ce 40 05 be
       0.5286611 -0.18955576 0.45933324 -0.13013002
000050 45 37 ab 3e de 31 2a 3f 90 40 00 bf 07 1d 0d 3f
       0.33440605 0.6648234 -0.50098515 0.5512242
000060 17 3d 0c bf ec 50 84 3d 88 f0 11 3f 3e cf 43 3d
       -0.54780716 0.06460747 0.57007647 0.047805063
000070 6d bc 57 bd 02 08 05 be 69 df 0b bf fd 46 88 3d
       -0.05266993 -0.12991336 -0.5463777 0.06654165

decoder.2.weight f4 [64, 32]
000000 91 58 fe bd 33 13 37 3e 51 cf 83 bd e5 76 5a 3c
       -0.124192365 0.17878418 -0.06436027 0.013334011
000010 e9 00 4b bd 3a 3c e6 3d 7b 7f 56 bd b2 dc b8 bd
       -0.049561415 0.11241956 -0.05236767 -0.09026469
000020 8b 08 9a bd fe 4e 39 3e 9e ee 25 3e ca 5b c7 3d
       -0.07521161 0.1809654 0.16204306 0.09734304
000030 c5 64 1c 3e 15 09 1f 3e 6f bf a0 3c ae cf 43 3e
       0.15272816 0.15530808 0.019622533 0.19122192
000040 69 58 fd bd 84 cd cb 3d f4 ba 8e bd ff a7 22 3d
       -0.123703785 0.09951308 -0.06969252 0.039710995
000050 40 56 4e 3e c5 bb 16 3e a1 22 92 bd f3 ba 44 be
       0.2015009 0.14720066 -0.07135511 -0.1921194
000060 f9 01 05 be a9 88 29 3e d1 40 35 bd 3c fa e0 3d
       -0.12989034 0.16556038 -0.044251267 0.109852284
000070 22 bf 0f bd 65 f6 23 be 01 a8 aa 3e e2 18 05 3e
       -0.035094388 -0.16011961 0.33331302 0.12997773
000080 3a f8 1c 3e fb 9d 5e bd a9 e4 24 be db 1d 3e 3e
       0.15329066 -0.05434988 -0.16102852 0.18566076
000090 e5 bd 6f be 52 61 54 bd 3b 32 36 3e 0e 94 b1 3d
       -0.23412283 -0.051850624 0.17792599 0.08670817
0000a0 b8 51 03 3d 0b 11 02 be f1 61 08 3e ce 5b ac bd
       0.032060355 -0.12701814 0.13318612 -0.08415948
0000b0 4d 6e 8b 3d 51 6e 16 be e2 81 0f 3e 1f e3 4f bd
       0.068081476 -0.1469052 0.1401439 -0.05075371
0000c0 c7 ef 60 bd 6d b6 47 3d 51 de db 3d 39 1f 46 3c
       -0.05491617 0.04875796 0.10735763 0.012092405
0000d0 a9 66 a6 3b 6e 80 79 be fe ec 13 be 1c 11 97 3d
       0.005078156 -0.24365398 -0.14445874 0.0737631
0000e0 f2 7f 52 3c 64 e3 5f 3e f7 8f 82 3d 19 10 3f 3e
       0.012847887 0.21864086 0.06375115 0.18658485
0000f0 4d f7 2e 3e 59 66 a1 bd 02 43 ba bc 14 13 78 3d
       0.17086525 -0.078808494 -0.02273703 0.06056507
000100 06 7d 8d be b2 ca ec 3d 60 6a 4e be f0 63 2e 3e
       -0.27634448 0.115620986 -0.20157766 0.1703031
000110 32 fc 08 be 5d c9 2a be 9a 84 38 be 4b 7a 61 be
       -0.13377455 -0.16678376 -0.18019333 -0.22019307
000120 9f f9 ed bd e2 a1 ee 3d 7a 8f e4 bd 50 d2 e4 bd
       -0.11619877 0.116519704 -0.111601785 -0.111729264
000130 96 de 54 3d e7 55 3f 3e 68 a6 3b bd de 2b f0 bb
       0.051970087 0.18685113 -0.045812994 -0.007329448
000140 2e 2f 6f bc 8b 70 88 bd cb 0c 89 3d 65 57 ee 3c
       -0.014598651 -0.06662091 0.06691893 0.029094407
000150 2a fd bd 3d d2 42 3c 3e 08 5a 2e be 7e a5 83 3d
       0.09276803 0.18384865 -0.17026532 0.064280495
000160 37 92 1f 3e 9b 2e a6 bd e7 57 17 3e 6b 27 2b 3e
       0.1558312 -0.08114358 0.14779626 0.16714256
000170 b1 3a 32 3e f6 61 ee bc c0 27 39 3d ea e5 6e 3d
       0.17405201 -0.029099446 0.045203924 0.058324732
000180 a0 4a 2e 3e 76 2d 3f bd fe 4a f5 bd 46 5f 45 bc
       0.17020655 -0.046674214 -0.11977194 -0.012046641
000190 cf d9 4d bd 9b 2f 1c bd 0a d6 f1 bd a6 7f a0 3c
       -0.050256547 -0.038131338 -0.11808403 0.019592118
0001a0 98 a2 16 bd 90 21 bb 3b 30 67 10 be 1e aa 00 3e
       -0.036776155 0.005710788 -0.14101863 0.12564895
0001b0 af 01 40 bd aa ef 85 be c5 5a 64 bd 23 14 29 3d
       -0.046876606 -0.26159412 -0.055750627 0.04127897
0001c0 d8 1d ec bd 34 9b 9e 3d 3d a2 41 be b3 ac d0 3c
       -0.1152913 0.077444464 -0.18909545 0.025472974
0001d0 3a 2d 2d bd 28 4b 45 3e 1c 4d 2f be d4 78 47 3e
       -0.04227946 0.19266951 -0.17119259 0.19479686
0001e0 ad d3 66 be 7e c8 9c be 9d c3 9d 3e 94 8e ba 3d
       -0.22541685 -0.30621713 0.30813304 0.09109226
0001f0 40 2c 87 3d 39 1e 9c be fe 12 89 be 38 fc 97 bd
       0.06600237 -0.30491808 -0.26772302 -0.07421154
000200 07 05 16 bd 94 a4 2e 3e 9a a9 c2 bb 09 6c 28 be
       -0.03662589 0.17054969 -0.0059406282 -0.16447462
000210 3b 93 bc 3d 18 10 74 be 82 91 1b 3d 76 16 ba bd
       0.092077695 -0.23834264 0.037980564 -0.09086315
000220 41 4a a7 bd ba 0e 41 be ac d8 79 bd 7f 8f 05 be
       -0.0816846 -0.18853274 -0.06099765 -0.1304302
000230 42 40 ba 3d 4e bc 1d bd f9 f8 4c be 2d 12 0c 3e
       0.090942875 -0.03850966 -0.2001685 0.13678809
000240 f6 d0 0f be fd b0 6d 3e e5 56 83 3d 7c 6c 96 bd
       -0.14044556 0.23212047 0.06413058 -0.073449105
000250 a7 2a a5 bd f9 99 99 bd b6 de 59 be ea 97 dd 3d
       -0.08064776 -0.07500071 -0.21276364 0.10819991
000260 0a 31 07 3e 25 cf 8a 3d cf 3c 11 3e af a7 7e bd
       0.132023 0.06777791 0.14183353 -0.062171634
000270 1d 4d d2 3d 13 e4 b7 3c 3b 49 3f 3d 6f fe 53 3e
       0.102686144 0.022447621 0.046700697 0.20702527
000280 d6 5d eb bd 83 2a 1c 3d 1a fb b6 3d 70 1e 88 bc
       -0.11492507 0.03812648 0.089346126 -0.016616076
000290 3b 54 30 bd cf 49 00 3e a4 eb e3 3d f4 e9 13 3e
       -0.04304908 0.12528156 0.11128929 0.14444715
0002a0 fc c8 0e 3d 35 9d a1 3d a8 95 9a 3d 98 e5 fe bd
       0.034859642 0.07891313 0.07548076 -0.12446135
0002b0 ea aa 03 3e 97 f2 9c 3d 30 3b fa bd 2c 0a 4e be
       0.12858167 0.07663458 -0.1221832 -0.20121068
0002c0 cf 5d c0 bd d8 08 79 3d b7 65 33 3c 45 56 31 be
       -0.093928926 0.06079945 0.010949544 -0.17318065
0002d0 59 32 5d bd fa 9f 06 be 37 77 b2 3c d3 a8 f7 3d
       -0.054003093 -0.13146964 0.021785362 0.120927475
0002e0 2c d6 b8 3d 57 5e 92 bc 08 65 0c 3e 2b 0a e1 3d
       0.09025225 -0.01786725 0.13710415 0.109882675
0002f0 86 e4 2f 3e 39 4b d3 3d 15 e8 07 bc 16 3c 0a 3e
       0.17177019 0.10317082 -0.008295079 0.13499483
000300 46 0f 52 3d 34 f8 af bd 18 bb 26 3c 50 59 97 3b
       0.051284097 -0.08592263 0.010176443 0.004618801
000310 6e c9 82 bc a4 f9 fe 3d 3e 05 46 3e 0a 65 f4 3d
       -0.01596519 0.12449959 0.19337937 0.11933334
000320 5b c9 0c be 63 72 e6 3d f3 90 88 bd 0f 8a 22 3e
       -0.13748686 0.11252286 -0.06668272 0.15872978
000330 8c c9 a6 bd c0 cb 8a be 73 02 df 3d 47 f4 ae bd
       -0.08143911 -0.27108574 0.10889139 -0.08542686
000340 ee 93 f4 bd f5 f2 d3 3d ff c2 2d be 73 07 83 bd
       -0.11942278 0.10349075 -0.16968916 -0.06397905
000350 04 81 07 3c 33 8f 98 3d b3 d3 df 3c 0a 70 46 3c
       0.008270506 0.07449188 0.027322626 0.012111673
000360 aa 07 d8 bd e3 5d 88 be 16 94 32 3b 19 62 83 3c
       -0.10548337 -0.2663413 0.002724891 0.016037988
000370 d9 66 25 be 92 8d 0e be 04 b1 0f be 49 63 26 be
       -0.16152515 -0.13921192 -0.1403237 -0.16248812
000380 ce 3c b8 3c 15 65 ba bc 7c 2e 04 3e 22 67 c2 be
       0.022489931 -0.022753278 0.12908357 -0.3796931
000390 73 37 c8 3d 80 c3 c4 bc b1 2d 3d 3e 16 d6 83 3d
       0.09776201 -0.024019003 0.18474461 0.06437318
0003a0 20 1b 94 be 5e 38 c2 bd 1f 3d 02 ba c1 42 82 be
       -0.28926945 -0.094834074 -0.0004968214 -0.25441554
0003b0 d6 20 73 bd e1 b6 a5 be 68 8c 94 be a5 81 03 be
       -0.059357487 -0.32366088 -0.2901337 -0.12842424
0003c0 0a 28 0f be 9c 4b 3c 3e a0 b2 11 3e 58 65 11 3e
       -0.13980117 0.18388218 0.14228296 0.14198816
0003d0 4d a1 7e be bb 11 f6 3d 60 d4 4f be ca 1b a2 bd
       -0.24866219 0.120151006 -0.20295858 -0.079154566
0003e0 6d 98 56 be b4 8b 93 3d a0 f4 59 be 6a 96 82 bc
       -0.20956583 0.07204381 -0.21284723 -0.015940864
0003f0 2e 11 d2 3d 8b ef 4d 3e fa 19 cd 3d 46 96 d8 3d
       0.10257183 0.2011091 0.1001472 0.105755374

decoder.2.bias f4 [64]
000000 cc c9 e1 3d df 45 16 3c 02 d2 3c 3e 67 ea 7d 3d
       0.11024818 0.009171932 0.18439487 0.06199112
000010 21 d3 a9 3d c3 6c d0 bd 01 d7 51 3e 45 ca b1 3d
       0.08292223 -0.10176995 0.20492174 0.08681158
000020 af 60 4f 3d b6 73 f7 3c be 6e 27 be d2 c1 b0 bc
       0.050629314 0.030206542 -0.16350839 -0.021576796
000030 cc 2f 66 3e 55 0d 2e 3e 14 e1 c6 3c a1 90 3b 3e
       0.2247917 0.16997273 0.024277247 0.1831689
000040 62 7f 12 3e 40 74 fe 3d 91 08 ff 3d ae e4 5e 3e
       0.14306405 0.12424517 0.12452806 0.21766922
000050 50 50 a0 39 6e f4 83 3e 7e c9 de bd 94 57 b3 3d
       0.00030577416 0.25772423 -0.10878275 0.087569386
000060 6c 4f 27 3d e1 95 7e bc 79 3f b5 3d f6 c7 80 3e
       0.040847227 -0.015538664 0.08849997 0.25152558
000070 3f 07 e5 3d 22 0d 2e 3e 31 b9 55 3e a3 ec 03 bd
       0.11183023 0.16997197 0.20871426 -0.032208096
000080 38 14 11 3e d9 75 20 be 63 be af bd a7 37 32 3e
       0.14167869 -0.15669955 -0.08581235 0.17404042
000090 5d 8f 21 bd b9 9c 25 3e 65 fd ce bd 36 cd fc 3d
       -0.039443363 0.16173066 -0.10106925 0.123438284
0000a0 de d0 14 3e 42 ec 0c be 74 a5 25 3e d5 bd de 3c
       0.14532802 -0.13762 0.16176397 0.027190128
0000b0 aa c6 71 be e9 7f 02 3e ea 30 bb bd 99 96 a7 3d
       -0.2361094 0.12744106 -0.09140189 0.08183021
0000c0 8f ee 89 be 2a 4d e1 3d 8c f1 d6 bd 70 ca c3 3c
       -0.26939818 0.11001046 -0.1049529 0.02390024
0000d0 07 96 5e 3d 94 75 1b be 26 57 84 bc 29 aa 11 be
       0.054342296 -0.15181571 -0.016154837 -0.14225067
0000e0 9d 05 c1 3d 19 2d 9c bd d9 46 2c be 5c 38 80 3e
       0.09424899 -0.07625789 -0.16823901 0.25043
0000f0 ed 7d 2d 3e 38 a4 2d bb ec 3c 97 3d 5c ca 8d 3e
       0.16942568 -0.0026495587 0.07384667 0.2769345

decoder.4.weight f4 [128, 64]
000000 61 a7 d5 bb d8 ef d3 bc 33 c3 19 3e fe 22 64 3d
       -0.0065201973 -0.025871202 0.15015869 0.055697434
000010 b8 dd 64 3e 57 5e ea bd 28 c5 d7 bd 95 c7 f3 3d
       0.22350204 -0.11443775 -0.105356514 0.119033016
000020 16 73 f8 bd 51 ce 77 3c 0a 9d 9b 3c e8 b6 e0 3d
       -0.12131326 0.015124873 0.01899578 0.109723866
000030 b1 a4 57 bd 4a 62 27 3d 19 a9 c9 3d d4 da 11 3d
       -0.052647296 0.04086522 0.09846706 0.03560908
000040 ac 53 c1 3d 82 74 a6 bd e7 27 b1 3d 0f cb 98 bd
       0.09439787 -0.08127691 0.08650189 -0.07460605
000050 8b e1 c7 bc 23 98 4b 3e bf 24 19 3c 43 c0 a7 3d
       -0.02439954 0.19882254 0.00934714 0.08190968
000060 90 5c e8 3c 91 82 31 be d3 a8 92 3d c4 0e 9d 3d
       0.02836445 -0.17334963 0.07161107 0.07668832
000070 9a 6b 19 3e 8b 5c 5a 3d e4 68 a9 3b e3 5d 9f bd
       0.14982453 0.053310912 0.0051699746 -0.07781579
000080 c5 71 a3 bd 29 bc 81 bd b2 da a7 bd 7b fe 09 bd
       -0.07980684 -0.06334717 -0.0819601 -0.033689957
000090 69 67 f0 3c 05 7c 08 be 84 8f d0 3c 52 39 35 be
       0.029346185 -0.1332856 0.025459059 -0.17697647
0000a0 46 04 d9 3d e0 b5 dd bc 20 a7 67 bd 24 30 e9 3d
       0.10596518 -0.027064264 -0.056555867 0.11386135
0000b0 52 51 0c be b1 83 7a bd 6c a8 7e 3d 59 34 8c bd
       -0.13702896 -0.061160747 0.06217234 -0.06845922
0000c0 b5 f0 38 3d 25 f1 1a 3d 6d 63 72 bd 24 35 df bd
       0.04515143 0.03782763 -0.05917685 -0.10898808
0000d0 0d 59 ff 3d f8 b4 92 bd d0 db 0b be 5e a2 ab 3d
       0.12468157 -0.07163423 -0.1365807 0.083805785
0000e0 5c 7c f3 3d e8 6c 90 bd 86 03 ba 3d 14 8a 84 be
       0.11888954 -0.07052022 0.09082703 -0.25886595
0000f0 3c fc 0a be 68 2a b4 3a fe 91 05 3e f3 3f 5c bc
       -0.13572782 0.0013745548 0.13043973 -0.013442981
000100 e8 48 6e bd 2a bf 2e 3d f0 b1 d0 3c 3b 5d 03 3c
       -0.058174998 0.042662777 0.025475472 0.008017833
000110 3b 2f c3 3e f7 a9 82 3d 9b 7b f6 bd 1f 60 2e bf
       0.3812197 0.063800745 -0.120352946 -0.6811542
000120 ed 4f c1 bd e0 85 18 bd 00 8d c3 3b 49 95 d5 bc
       -0.09439073 -0.03723705 0.0059677362 -0.026072161
000130 98 d2 15 be bc f5 9d 3c a9 d9 d0 3d 77 21 93 3d
       -0.14631116 0.019282214 0.101977654 0.07184117
000140 e4 a2 23 be c7 74 15 bd 79 e9 a5 bd 37 28 48 bd
       -0.15980107 -0.03648832 -0.08101172 -0.048866477
000150 ee 8a 51 3e b1 50 08 bc 40 23 8a be ca ab d4 3c
       0.20463154 -0.00832002 -0.2698002 0.025960822
000160 24 f8 35 3d b1 79 02 be 0e da b7 3d fc 8c 84 3d
       0.0444261 -0.12741734 0.089771375 0.06472203
000170 01 1e 12 3c 73 4b e9 bd 7c 1d 50 3e d9 ab 00 be
       0.008918286 -0.11391344 0.20323747 -0.12565555
000180 2e e3 d1 3d 7f 46 e7 3c d4 80 f3 bb 9c 1d 0b 3e
       0.10248409 0.028231857 -0.007431129 0.13585514
000190 15 05 09 be d6 c6 1b be dd 00 15 bd 14 94 9b be
       -0.13380845 -0.15212569 -0.036377776 -0.30386412
0001a0 35 34 d4 bc d2 65 fd 3d 11 96 42 bd 5c 54 c9 bc
       -0.0259038 0.12372936 -0.047506396 -0.024576358
0001b0 c2 36 c3 3d df cc 8e 3d e5 40 92 bd fd 9b 63 3e
       0.095319286 0.0697267 -0.07141284 0.22227474
0001c0 dc 11 1e 3d 30 d9 6d bd 91 08 0f be 34 54 62 3e
       0.03859125 -0.058068454 -0.13968112 0.22102433
0001d0 e0 43 f4 3d da 11 0d 3e f7 66 47 bd 29 a7 50 3d
       0.11927009 0.13776341 -0.04868218 0.050940666
0001e0 a9 74 5b bd a3 fa 32 3e a5 af 8c 3d d5 0b a3 3d
       -0.053578053 0.17478423 0.06869439 0.07961241
0001f0 aa b5 67 3d 64 93 9c 3d b9 a4 74 bd ff 04 96 3c
       0.056569733 0.076453 -0.059727404 0.01831293
000200 24 50 33 3d 14 14 fc bd 44 db e5 bd e8 1c 9d bd
       0.0437776 -0.12308517 -0.11223462 -0.07671529
000210 00 22 a5 3d 74 5f 3c 3d ca a8 d5 3c c0 b5 90 3b
       0.080631256 0.04598947 0.026081461 0.0044161975
000220 30 36 d6 3c 20 ea 9d bd 1c 51 a6 bd 70 7a 52 3d
       0.026148885 -0.077106714 -0.08120939 0.051386297
000230 57 e6 56 3d 09 eb f8 3b 5e da 3e 3c 2c 15 79 bd
       0.052465763 0.0075963777 0.0116487425 -0.060811207
000240 2e 53 0c bd 3e 0b c6 3b 8a 64 0d be a3 db a9 bc
       -0.034259014 0.0060438206 -0.13807884 -0.020734614
000250 20 e0 bb bc 65 99 a4 bd 3c b9 fd 3d 97 b1 ef bd
       -0.02293402 -0.0803707 0.12388846 -0.117037944
000260 80 4f 8a 3c d8 b8 6c 3d 70 02 ae 3d d7 5c 55 bb
       0.016883612 0.05779347 0.08496559 -0.0032556558
000270 ad c3 02 be c7 5c ad bc dc b6 15 3d c0 54 a3 bc
       -0.12769957 -0.021162404 0.03655134 -0.019937873
000280 66 0c cf bd d8 d8 e9 3c ee 22 fa bd db 0f a6 3b
       -0.10109787 0.028545782 -0.122136936 0.005067808
000290 3e 17 fd 3d 1d d9 30 3c a2 fb f9 bd 98 1f c4 bd
       0.12357949 0.010793951 -0.12206198 -0.095763385
0002a0 40 47 99 bd e0 0e 00 3c 94 b7 86 3d 2e 9c 0b be
       -0.07484293 0.0078160465 0.065779835 -0.13633797
0002b0 9a a8 b9 bd 67 51 26 bd d8 13 65 bd 05 f5 fc bd
       -0.09065361 -0.040604975 -0.055927128 -0.12351421
0002c0 fc d0 96 bd 8c 7b fb bc ba 90 f3 bd 00 be 92 39
       -0.07364079 -0.03069856 -0.11892839 0.0002798885
0002d0 b8 e0 ae bd d0 36 f4 bd 48 e5 f7 bc 60 a5 2f bc
       -0.085389555 -0.11924517 -0.030260697 -0.010720581
0002e0 5c 1a 0e 3d cd cd b2 3d 60 bd e4 bc 90 6b 1e 3c
       0.034693107 0.0873066 -0.027922332 0.0096692
0002f0 35 f3 e3 bd 50 09 e3 3b e3 1f 2b bd 98 c6 9b 3d
       -0.111303724 0.0069286004 -0.041778456 0.07606238
000300 16 f5 14 be e2 d7 82 bd 25 cb b9 bd 12 0c 0e 3e
       -0.14546618 -0.06388833 -0.0907195 0.13871792
000310 b2 70 63 bd f0 37 51 bc 3e 97 e2 3d eb b6 f8 3e
       -0.055527397 -0.012769684 0.110640034 0.48577055
000320 08 e1 a3 bd d2 c3 25 3d 29 58 06 be 15 98 66 3c
       -0.08001906 0.040469952 -0.13119568 0.014074345
000330 e6 26 ce bc e9 14 b3 bd 88 d6 12 bd 6d 88 2e be
       -0.025165033 -0.08744223 -0.035849124 -0.1704423
000340 3d a8 0f 3e b2 26 5c bd be ad da bd 2b 3d bc bc
       0.14029022 -0.05374784 -0.1067767 -0.022978386
000350 89 85 71 3d 97 df c3 bd f2 ae 2e bc b5 4d b4 bc
       0.05896524 -0.09564131 -0.010661827 -0.02200971
000360 64 46 87 3b c9 73 d4 bd 2f eb e7 bd c9 56 9d 3d
       0.0041282643 -0.10373647 -0.113241546 0.076825686
000370 17 e2 d2 3d 90 da de 3d 94 32 05 3d 8f 5c 94 bc
       0.102970295 0.10881531 0.03251894 -0.018110542
000380 fa 5d b5 3d 42 6f 45 3e f9 bd 9c bd 0b 9f 6a 3e
       0.08855815 0.19280723 -0.07653422 0.22912233
000390 24 e7 68 bd 2d 01 84 bc 6d 6f 6b be d7 d4 52 bd
       -0.056861058 -0.016113842 -0.22991724 -0.05147251
0003a0 ce b7 60 bd 1e 38 fb bd 72 f7 86 bc 72 41 08 3c
       -0.05486279 -0.12266563 -0.016475413 0.008316385
0003b0 b3 98 7e 3b 8e e4 c9 3d 95 a3 d5 bd bf 0d 1d 3e
       0.003884834 0.098580465 -0.104315914 0.15337275
0003c0 a9 7e f0 bd 57 bf dd bd 0e 79 33 3d 7a db f3 bd
       -0.117429085 -0.10827511 0.04381662 -0.11907096
0003d0 a8 d3 5f be 06 73 16 3d ca 1c a8 bd 08 e9 5e bd
       -0.21858084 0.03673079 -0.08208616 -0.054421455
0003e0 70 c8 93 3d 95 a9 ea 3d 93 0c 58 bd 3d 9b f8 bd
       0.07215965 0.114581265 -0.052746367 -0.12138984
0003f0 0e 26 e1 bc 18 00 3e 3d bf dd 94 3d 0a 20 7b 3e
       -0.027483966 0.04638681 0.07268857 0.2452394
