Save-Models/model-lat3.pth (torch, 191458 bytes, 16 tensors)

encoder.0.weight f4 [128, 99]
-0.20678332 -0.11338415 -0.044566065 -0.11220702 -0.07885472 -0.094904706 0.0054953783 -0.10635695
0.004867706 0.03212416 -0.004370726 -0.06327414 0.037932128 -0.018103601 0.041111145 -0.050774995
-0.07693722 -0.030201515 -0.00034662112 0.009729307 0.0013739093 -0.10272239 -0.07211003 0.050555523
-0.059024114 0.06573891 0.0014877281 0.072557576 0.015594008 0.06015537 -0.027480764 -0.066304736
0.060781714 -0.020800244 0.06376387 -0.053220276 -0.014436307 -0.03073419 0.027516603 -0.0909324
-0.045811195 -0.08166912 -0.085959114 -0.03745397 -0.04496354 -0.05771811 0.026671978 -0.047412056
-0.10234965 -0.033031 -0.07645102 0.009131921 -0.070403844 0.079865746 -0.048904225 0.06998182
-0.009844643 -0.015910096 0.01784784 -0.04079343 -0.03521885 -0.08416447 0.06238754 0.011009509
-0.029217737 -0.08151647 0.113814205 -0.00084567757 0.066946276 -0.07602381 -0.012683518 -0.07343396
0.051261738 0.032552768 0.008268601 -0.008608126 0.0028653177 0.045135688 -0.059063017 0.12166536
0.011322648 0.12850852 -0.057197124 0.034100212 0.11475245 0.0521489 0.101573616 0.06023657
-0.029866768 0.11571615 0.114052765 -0.04244859 0.027692711 0.008686698 0.07414187 0.0018407451
-0.028791213 0.10227499 -0.05276056 -0.06883992 -0.09391853 -0.035613447 0.041547075 0.08160547
0.015946437 0.06352089 0.06678481 -0.051042862 -0.054848574 0.06727534 0.06685654 -0.03988128
-0.037039157 0.064724505 -0.023048602 -0.03861192 -0.07455693 0.00081502664 -0.10150712 -0.058576908
0.047454257 -0.048435424 -0.005655597 0.09126929 0.018002348 0.03144065 -0.0848535 -0.080429465
0.021759555 0.043789003 0.08000879 -0.029652238 -0.052697618 -0.019662878 0.009438015 0.043226536
0.077370994 -0.026641939 -0.028382348 -0.036384713 -0.11985697 0.070931435 -0.019676786 -0.03900771
0.003491666 -0.072057806 -0.00019128108 -0.041739617 -0.024387954 0.01849289 0.05258021 -0.089278944
-0.051261738 0.036284078 -0.08399084 -0.07395175 -0.09812683 0.013223062 -0.036348086 0.021888608
0.08024997 -0.10050811 -0.106409274 0.029796245 -0.10256101 -0.09333668 0.0068201153 0.0448962
-0.06569072 -0.0796552 0.0707904 -0.022783449 0.05383547 -0.048180636 -0.06731442 -0.045699123
0.049419295 -0.060509194 0.0014181654 -0.110952675 -0.069537066 -0.06489193 -0.06964646 -0.072921194
-0.0026942543 -0.0054935906 -0.106866054 0.028531406 -0.08464998 -0.09351849 -0.10861599 0.056638688
0.047968872 -0.020847734 0.04702131 0.03704178 -0.047218725 -0.059812542 0.051220905 -0.053789854
-0.101155326 -0.05168178 -0.05822111 0.0456422 0.011244593 -0.0007505118 0.011706294 0.020389821
-0.042123403 0.0034934112 -0.038361214 0.054127175 -0.019910537 -0.04667144 -0.031431913 -0.034896832
-0.017279703 -0.018671578 0.01582732 -0.09656844 -0.09870785 0.019259974 -0.05511762 0.10096851
0.070589006 -0.051886234 -0.07974051 0.09596567 -0.04070639 -0.039264653 0.04770309 -0.050051276
0.012516194 0.043001603 0.040757548 -0.07718145 0.09399864 -0.067356594 0.03721792 0.064016305
0.07552043 0.03635137 -0.050013147 -0.028197346 0.040262982 0.041712645 0.052452985 0.103460826
0.06749336 0.04556938 -0.07085639 -0.04769476 -0.010289048 0.052863166 0.056205682 -0.020699315
00000000: 02bf 53be f335 e8bd e88a 36bd cbcc e5bd
00000010: 957e a1bd 665d c2bd 9312 b43b acd1 d9bd
00000020: 4781 9f3b a094 033d 4f38 8fbb df95 81bd
00000030: b85e 1b3d 014e 94bc 2964 283d 71f9 4fbd
00000040: 4391 9dbd 2b69 f7bc b3ba b5b9 ac67 1f3c
00000050: bf14 b43a 1e60 d2bd 6cae 93bd 4f13 4f3d
00000060: 45c3 71bd 1fa2 863d dfff c23a 1199 943d
00000070: 037e 7f3c 7a65 763d 571f e1bc c7ca 87bd
00000080: 3ff6 783d 4665 aabc a296 823d 81fd 59bd
00000090: 4386 6cbc 45c6 fbbc 806a e13c c43a babd
000000a0: 85a4 3bbd 2442 a7bd 550b b0bd 5669 19bd
000000b0: b02b 38bd d369 6cbd 317f da3c 2533 42bd
000000c0: b19c d1bd 844b 07bd 5a92 9cbd 0e9e 153c
000000d0: e42f 90bd a790 a33d cc4f 48bd a152 8f3d
000000e0: 6d4b 21bc e455 82bc a235 923c 0317 27bd
000000f0: a441 10bd 6c5e acbd 148a 7f3d 3a61 343c
00000100: 095a efbc 1bf2 a6bd 6c17 e93d 76b0 5dba
00000110: 211b 893d 5fb2 9bbd 88ce 4fbc 8b64 96bd
00000120: d4f7 513d 0d56 053d 0779 073c 1909 0dbc
00000130: 0ec8 3b3b 33e0 383d 10ec 71bd b02b f93d
00000140: a182 393c bd97 033e 8847 6abd aaac 0b3d
00000150: 5503 eb3d 169a 553d d405 d03d 9fba 763d
00000160: 27ab f4bc 97fc ec3d 7f94 e93d 93de 2dbd
00000170: d3db e23c a752 0e3c b1d7 973d 2845 f13a
00000180: 8ddb ebbc 8d75 d13d 751b 58bd f2fb 8cbd
00000190: 5c58 c0bd 68df 11bd 442d 2a3d c520 a73d
000001a0: 1aa2 823c 3e17 823d 79c6 883d 5212 51bd
000001b0: e6a8 60bd a7c7 893d 15ec 883d 8e5a 23bd
000001c0: 5fb6 17bd 488e 843d 6cd0 bcbc 8827 1ebd
000001d0: 4eb1 98bd 83a7 553a f7e2 cfbd 57ee 6fbd
000001e0: 655f 423d 3964 46bd 9652 b9bb 65eb ba3d
000001f0: a979 933c e9c7 003d acc7 adbd 34b8 a4bd
00000200: 1841 b23c 195c 333d a6db a33d 40e9 f2bc
00000210: 75d9 57bd 0b14 a1bc e7a1 1a3c 4f0e 313d
00000220: af74 9e3d 3240 dabc 1982 e8bc 2308 15bd
00000230: 9277 f5bd 8044 913d 3631 a1bc 8cc6 1fbd
00000240: 6fd4 643b 0b93 93bd a092 48b9 29f7 2abd
00000250: 3fc9 c7bc 677e 973c 595e 573d e1d7 b6bd
00000260: d4f7 51bd 9d9e 143d 6403 acbd 0474 97bd
00000270: b8f6 c8bd 8ba5 583c bbe1 14bd bd4f b33c
00000280: 195a a43d 32d7 cdbd 1bed d9bd 4117 f43c
00000290: 820b d2bd 4d27 bfbd 467b df3b 14e5 373d
000002a0: db88 86bd 4422 a3bd 8ffa 903d 5ba4 babc
000002b0: 9582 5c3d 0f59 45bd 25dc 89bd 012f 3bbd
000002c0: e36b 4a3d 7dd8 77bd bce1 b93a 283b e3bd
000002d0: 7369 8ebd 0fe6 84bd cea2 8ebd b557 95bd
000002e0: 1692 30bb 9403 b4bb 97dc dabd b2ba e93c
000002f0: f85c adbd 9f86 bfbd 0f72 debd f8fd 673d
00000300: 027b 443d dec8 aabc 6b99 403d 1fb9 173d
00000310: 6c68 41bd fffd 74bd 03cd 513d c052 5cbd
00000320: 862a cfbd 46b0 53bd 4279 6ebd 51f3 3a3d
00000330: 3e3b 383c ffbd 44ba c1cb 3f3c 8e08 a73c
00000340: 9789 2cbd b7f1 643b a620 1dbd 75b4 5d3d
00000350: 6c1b a3bc 8d2a 3fbd c0be 00bd fbef 0ebd
00000360: 2a8e 8dbc 23f5 98bc 4ca8 813c adc5 c5bd
00000370: 5727 cabd 18c7 9d3c 03c3 61bd 94c8 ce3d
00000380: f890 903d a986 54bd fe4e a3bd a689 c43d
00000390: bebb 26bd f9d3 20bd 5164 433d 9102 4dbd
000003a0: b910 4d3c 7322 303d 63f1 263d 4f11 9ebd
000003b0: 5c82 c03d 41f2 89bd d171 183d fb1a 833d
000003c0: 75aa 9a3d 2de5 143d 96da 4cbd 1ffe e6bc
000003d0: ccea 243d e1da 2a3d f1d8 563d 45e3 d33d
000003e0: f539 8a3d f5a6 3a3d 281d 91bd 955b 43bd
000003f0: 6593 28bc 0c87 583d ee37 663d 9c91 a9bc

encoder.0.bias f4 [128]
-0.33468193 -0.121468574 -0.13018788 -0.23232003 -0.13894026 -0.3383974 -0.18454376 -0.27938393
-0.028643752 -0.19345447 -0.19759645 -0.1360201 -0.32962623 -0.11398222 -0.2199015 -0.15065762
-0.07255799 0.06014384 -0.2572943 -0.056738753 -0.010186878 -0.20894386 -0.24746767 -0.16030438
-0.07665855 -0.15141878 -0.2901585 -0.22620416 -0.088425584 -0.3327205 -0.01387871 -0.06702096
-0.30921796 -0.17936696 -0.27929142 -0.29117015 -0.14039187 0.11390555 -0.04935076 -0.22021961
-0.2120825 -0.05687555 -0.2559202 -0.20887664 -0.105307005 -0.17005898 -0.25059694 -0.28520453
-0.09300379 -0.317301 -0.19703005 -0.18758251 -0.29685894 -0.19597106 -0.27758655 -0.31060496
-0.2974599 -0.26484436 -0.20263106 -0.22291347 -0.17916772 -0.19346434 -0.16273567 -0.11744146
-0.12356659 -0.18135634 -0.33124453 -0.21274284 -0.27309847 -0.27902716 -0.17831986 -0.03928462
-0.5439749 -0.045521896 -0.18553399 -0.12279083 -0.13707998 -0.068872645 -0.2521683 -0.031236593
0.12105594 -0.09666859 -0.16536012 -0.24976629 -0.19989397 -0.38236818 -0.13473205 -0.15637678
-0.24845013 -0.3203133 -0.12805617 -0.24280167 -0.10483486 -0.17154156 -0.06318286 -0.20143332
-0.11339406 -0.032588307 -0.20934111 0.013587548 -0.21653214 -0.104806855 -0.23046225 -0.31186685
-0.18268958 -0.31101984 -0.5023821 -0.31268066 -0.3154321 -0.34943497 0.017922353 -0.21736543
-0.215664 -0.2201133 -0.06871549 -0.2216172 -0.093720175 -0.28238747 -0.18401985 -0.095556796
-0.4022677 -0.08035137 -0.3091864 -0.20374554 0.040530033 -0.044316996 -0.09334726 0.2404975
00000000: 6e5b abbe 84c4 f8bd f94f 05be 4de5 6dbe
00000010: 5b46 0ebe 6d42 adbe 0af9 3cbe 690b 8fbe
00000020: 4da6 eabc ee18 46be b956 4abe da48 0bbe
00000030: c5c4 a8be 836f e9bd dc2d 61be fe45 1abe
00000040: 4999 94bd 6359 763d 14bc 83be e566 68bd
00000050: dde6 26bc 61f5 55be 2a68 7dbe d526 24be
00000060: 28ff 9cbd 860d 1bbe a88f 94be 10a2 67be
00000070: 7918 b5bd 575a aabe 8763 63bc 4942 89bd
00000080: d151 9ebe f9ab 37be 49ff 8ebe 4114 95be
00000090: e3c2 0fbe 5047 e93d 0624 4abd 4081 61be
000000a0: 282c 59be 56f6 68bd f907 83be c2e3 55be
000000b0: 33ab d7bd f123 2ebe 3e4e 80be 5406 92be
000000c0: c578 bebd 4775 a2be 3fc2 49be a115 40be
000000d0: e5fd 97be a3ac 48be d31f 8ebe 9d07 9fbe
000000e0: aa4c 98be ae99 87be 847e 4fbe 6e43 64be
000000f0: be77 37be 841b 46be 2ea4 26be 2685 f0bd
00000100: 7b10 fdbd 7ab5 39be e298 a9be 42d9 59be
00000110: 90d3 8bbe a6dc 8ebe 7b99 36be e9e8 20bd
00000120: f041 0bbf 2b75 3abd 9ffc 3dbe c279 fbbd
00000130: b25e 0cbe 1a0d 8dbd 341c 81be e2e3 ffbc
00000140: 2dec f73d 2ffa c5bd 2a54 29be bcc2 7fbe
00000150: 01b1 4cbe c3c5 c3be 33f7 09be 3c21 20be
00000160: b669 7ebe 1b00 a4be 2821 03be 00a1 78be
00000170: a9b3 d6bd 97a8 2fbe 0466 81bd 8944 4ebe
00000180: 253b e8bd 517b 05bd 845d 56be 4f9e 5e3c
00000190: 9aba 5dbe faa4 d6bd 4cfe 6bbe 03ad 9fbe
000001a0: fa12 3bbe fe3d 9fbe 1d9c 00bf ae17 a0be
000001b0: 5180 a1be 24e9 b2be e6d1 923c 0b95 5ebe
000001c0: 06d7 5cbe 6265 61be b5ba 8cbd 9fef 62be
000001d0: 5df0 bfbd 1795 90be b36f 3cbe 48b3 c3bd
000001e0: 08f6 cdbe 428f a4bd ae4d 9ebe aca2 50be
000001f0: d202 263d bd85 35bd d92c bfbd fa44 763e

encoder.3.weight f4 [64, 128]
0.12970604 -0.05116192 0.03554964 -0.15484425 -0.044907942 -0.09420357 0.043279827 0.08217704
-0.04860238 -0.0009420045 -0.07131398 -0.06398308 -0.06499706 -0.16339496 0.09717193 -0.037820227
-0.014053598 0.08317736 0.039071847 -0.044543676 -0.028197082 -0.01076279 -0.17206421 -0.21466343
0.00057128497 0.043490745 0.102922656 0.060386047 0.050112393 0.10949744 0.022363145 0.090939924
0.038940907 0.02578495 0.03252253 -0.024562193 0.10588356 0.051813602 -0.088630006 0.05409888
0.013809158 -0.021555854 -0.21445175 0.048360005 -0.008705016 0.018037949 -0.04826965 0.024189744
0.019123355 -0.12963201 -0.029922165 0.08141507 -0.027154109 0.023270726 -0.07832699 0.07820026
-0.16520771 0.07242015 -0.0017006842 -0.07605037 -0.08266976 -0.012473723 -0.03147658 -0.06707009
0.06566656 -0.042216595 0.028009241 0.024767112 0.16879408 0.094586805 0.06931138 -0.10882055
0.14460926 -0.07172795 -0.0088093355 0.028049164 0.024014097 -0.027878592 -0.008372399 0.060671963
0.05863175 -0.028645594 0.05719171 -0.22517924 0.12415991 -0.021200249 0.10601922 0.015498284
-0.063936636 0.034176156 0.09399015 -0.061120246 0.012892928 -0.10544718 -0.021847054 -0.009179326
-0.16143323 0.08929545 -0.06814891 -0.4480314 -0.03145396 -0.067183726 0.09687988 0.019709652
0.019721404 -0.13496193 -0.19049835 -0.14076443 -0.045627832 0.08874342 0.10049149 -0.09990279
-0.014360181 0.13153005 0.050889764 0.09825606 -0.032584783 0.02843105 0.083673984 0.067635454
-0.16987091 0.01506543 -0.01319435 -0.041310966 -0.31629515 -0.033707082 0.022267338 -0.026277894
-0.06256194 0.0034822144 0.012000813 0.040350076 -0.11863291 -0.046632115 0.06604111 -0.001297871
-0.044124927 -0.017801816 -0.023064489 -0.032741424 0.07770502 -0.056130763 -0.078834176 0.079974584
-0.01691222 -0.08536291 0.054639593 -0.062190864 -0.007846874 0.059353977 -0.08886499 0.04261983
0.064309016 -0.098323606 0.08718219 0.011882209 0.030835489 -0.054726686 0.073174715 0.0772646
-0.0047340146 0.017521555 -0.067524716 0.0030652331 -0.0009120956 -0.16243215 -0.01341721 -0.05049901
-0.19660477 0.036892354 0.045610443 0.030842055 0.08742923 0.098941654 0.060240358 0.06573884
0.057543356 -0.02527826 0.067175984 -0.13210803 0.04136855 0.010009885 -0.054534055 -0.23619652
-0.045799267 0.029293384 0.06172812 -0.009122971 -0.012204104 -0.024665333 0.07230159 0.01981997
-0.021522608 0.03213752 0.035239395 -0.06862928 -0.23016603 0.08178095 0.05058259 -0.07133387
-0.15906623 0.09409226 -0.06786735 -0.08229957 0.07414577 -0.010437397 -0.08964544 -0.01831303
-0.08379655 0.017011063 -0.05995065 0.09842037 0.071406685 -0.004311155 0.031292267 -0.0005620206
0.054186556 -0.06552504 0.07713051 0.066774 -0.043753635 0.017964618 0.025998602 -0.011498268
-0.075484775 0.07145597 0.10296839 0.11142547 0.055768944 -0.105832025 -0.0152215455 -0.061685607
-0.019485468 -0.11311942 0.065415084 0.034423236 -0.06177433 0.10987844 -0.26153937 0.10453767
0.02234961 0.0464098 0.006413081 -0.054752637 0.09597666 -0.05305868 -0.17090386 -0.02484488
-0.0049769175 -0.038385823 -0.036814798 -0.044060286 -0.024444124 0.03540813 -0.023893502 -0.3421602
00000000: a9d1 043e 298f 51bd 809c 113d 7e8f 1ebe
00000010: 64f1 37bd cded c0bd 3046 313d 704c a83d
00000020: 4a13 47bd daf0 76ba 100d 92bd 9009 83bd
00000030: 2e1d 85bd 0251 27be 1402 c73d 62e9 1abd
00000040: 1041 66bc e458 aa3d cd09 203d 6e73 36bd
00000050: 91fd e6bc 6a56 30bc 9a31 30be bbd0 5bbe
00000060: 49c2 153a 5a23 323d 1dc9 d23d 5c57 773d
00000070: a742 4d3d 3240 e03d ea32 b73c b63e ba3d
00000080: 8080 1f3d f63a d33c 5836 053d a736 c9bc
00000090: 7bd9 d83d 803a 543d a683 b5bd ca96 5d3d
000000a0: ce3f 623c e795 b0bc 3d99 5bbe 2415 463d
000000b0: 7c9f 0ebc 52c4 933c 66b6 45bd 9229 c63c
000000c0: 95a8 9c3c 41be 04be 541f f5bc f2bc a63d
000000d0: 4b72 debc 40a2 be3c e769 a0bd 7527 a03d
000000e0: 362c 29be 0451 943d 7ee9 deba 4cc0 9bbd
000000f0: c34e a9bd 965e 4cbc 96ed 00bd 0b5c 89bd
00000100: 307c 863d 4feb 2cbd a373 e53c 66e4 ca3c
00000110: 5bd8 2c3e bab6 c13d 20f3 8d3d 4fdd debd
00000120: 7314 143e 1ae6 92bd 0855 10bc 5cc7 e53c
00000130: 36b9 c43c a561 e4bc 632c 09bc 2a83 783d
00000140: d927 703d 2aaa eabc db41 6a3d 6395 66be
00000150: 8d47 fe3d 25ac adbc 9b20 d93d 84ec 7d3c
00000160: 36f1 82bd 4cfc 0b3d e87d c03d 3959 7abd
00000170: dc3c 533c b1f4 d7bd 98f8 b2bc e264 16bc
00000180: c14e 25be 88e0 b63d a891 8bbd 5f64 e5be
00000190: ded5 00bd 9f97 89bd f568 c63d 2376 a13c
000001a0: c88e a13c 7633 0abe 0012 43be 8d24 10be
000001b0: 40e4 3abd 1cbf b53d 7bce cd3d d599 ccbd
000001c0: f746 6bbc d0af 063e c971 503d 793a c93d
000001d0: 9f77 05bd 3ce8 e83c 445d ab3d 7584 8a3d
000001e0: a4f2 2dbe fed4 763c 1d2d 58bc b035 29bd
000001f0: 70f1 a1be 7010 0abd fe69 b63c bd44 d7bc
00000200: 7920 80bd dd35 643b 0f9f 443c 1f46 253d
00000210: d0f5 f2bd 5101 3fbd 9040 873d 531d aaba
00000220: 57bc 34bd 1dd5 91bc bdf1 bcbc df1b 06bd
00000230: cf23 9f3d 5fe9 65bd d073 a1bd b7c9 a33d
00000240: 7f8b 8abc c0d2 aebd c4cd 5f3d d9bb 7ebd
00000250: 2d90 00bc 281d 733d d9fe b5bd 2292 2e3d
00000260: 72b4 833d e35d c9bd 938c b23d 99ad 423c
00000270: b59a fc3c 1729 60bd a0dc 953d e73c 9e3d
00000280: cb1f 9bbb 5d89 8f3c 664a 8abd 14e2 483b
00000290: b319 6fba 9d54 26be dcd3 5bbc 0dd8 4ebd
000002a0: c352 49be 701c 173d 04d2 3a3d 7aa8 fc3c
000002b0: 190e b33d eca1 ca3d 98be 763d 16a2 863d
000002c0: 95b2 6b3d 5a14 cfbc 9093 893d 5447 07be
000002d0: 1272 293d 8000 243c 1a5f 5fbd 80dd 71be
000002e0: 0398 3bbd aef8 ef3c a0d6 7c3d 8478 15bc
000002f0: b9f3 47bc f40e cabc db12 943d 7d5d a23c
00000300: 2e50 b0bc a2a2 033d 2f57 103d 828d 8cbd
00000310: a5b0 6bbe c57c a73d b12f 4f3d 7e17 92bd
00000320: 42e2 22be 71b3 c03d 0afe 8abd ad8c a8bd
00000330: bdd9 973d 9e01 2bbc 0798 b7bd 3505 96bc
00000340: 879d abbd c95a 8b3c d08e 75bd 9e90 c93d
00000350: ab3d 923d 9744 8dbb 522c 003d 9054 13ba
00000360: b9f2 5d3d fe31 86bd 9af6 9d3d cfc0 883d
00000370: 0337 33bd 892a 933c 05fb d43c 3b63 3cbc
00000380: c397 9abd 8257 923d 17e1 d23d 0933 e43d
00000390: fa6d 643d 76be d8bd ca63 79bc 0caa 7cbd
000003a0: fd9f 9fbc 28ab e7bd 58f8 853d 61ff 0c3d
000003b0: 1407 7dbd f307 e13d 7de8 85be d917 d63d
000003c0: 8816 b73c 3418 3e3d d324 d23b 4d44 60bd
000003d0: 698f c43d 0f54 59bd 6c01 2fbe 7d87 cbbc
000003e0: 6915 a3bb 743a 1dbd 1dcb 16bd 8f78 34bd
000003f0: 0b3f c8bc 1e08 113d 4ebc c3bc 9f2f afbe

encoder.3.bias f4 [64]
-0.09908938 -0.05556561 -0.081364185 -0.22538742 -0.07388956 -0.099039465 -0.16554934 -0.07757663
-0.10919999 -0.08736536 0.0064518233 -0.17862637 -0.35069436 -0.053729355 -0.09021215 -0.13017464
-0.053159077 -0.14352858 -0.07488429 -0.06007 -0.16310947 -0.03794984 -0.081345186 -0.11841883
-0.14262947 -0.14597912 0.03792115 -0.07177664 0.008367899 -0.060399707 -0.043948893 -0.04630851
0.0033753908 0.01490594 -0.07187228 -0.049443044 -0.23340774 -0.14097185 -0.02823333 -0.12675373
-0.3168573 -0.22575237 -0.2515484 -0.08307545 -0.16348992 -0.25086477 -0.058023266 -0.067504406
-0.15514821 -0.15811661 -0.021972194 -0.067039154 -0.01244431 -0.077251725 -0.44564122 -0.13791315
-0.018365499 -0.17037095 -0.07758279 -0.1699505 -0.061660573 -0.02551127 -0.0073199063 -0.029763592
00000000: 5fef cabd c498 63bd 44a2 a6bd f6cb 66be
00000010: 6953 97bd 34d5 cabd c485 29be 7fe0 9ebd
00000020: 3fa4 dfbd 9cec b2bd d169 d33b d5e9 36be
00000030: 368e b3be 5013 5cbd 26c1 b8bd 804c 05be
00000040: 55bd 59bd 28f9 12be ef5c 99bd f60b 76bd
00000050: 2b06 27be 4b71 1bbd 4e98 a6bd 9285 f2bd
00000060: 760d 12be 8d7b 15be 3553 1b3d a2ff 92bd
00000070: 8319 093c af65 77bd c103 34bd fead 3dbd
00000080: a935 5d3b 0b38 743c c631 93bd ca84 4abd
00000090: 7002 6fbe ed5a 10be 9649 e7bc bbcb 01be
000000a0: 1f3b a2be a12b 67be f4ca 80be 7623 aabd
000000b0: e769 27be 5971 80be cea9 6dbd c03f 8abd
000000c0: 2cdf 1ebe 52e9 21be 08ff b3bc d34b 89bd
000000d0: 38e3 4bbc 2736 9ebd 162b e4be 1b39 0dbe
000000e0: 3e73 96bc b975 2ebe bae3 9ebd 8107 2ebe
000000f0: cc8f 7cbd 03fd d0bc d3db efbb c7d2 f3bc

encoder.6.weight f4 [32, 64]
0.023381725 -0.11042176 0.07743381 0.053441122 0.042097356 0.08348856 -0.030689934 0.12731871
0.13857403 -0.2867383 -0.028678134 -0.01462443 0.17668062 -0.10135965 0.007465955 -0.2244759
0.102645785 0.15360554 0.080201834 -0.0047724457 0.012359129 0.0030869776 -0.17526108 0.117463335
-0.20175114 -0.065633744 -0.04963452 -0.0924709 -0.053434502 -0.083292834 0.031385537 0.032117028
-0.02226235 0.030438052 0.048956264 -0.21320423 -0.10786194 -0.15877755 0.12697928 -0.21493925
-0.064170934 0.00757556 0.049122535 0.032329254 0.14057368 -0.039895285 0.03745811 0.062471706
-0.012360148 -0.033886593 0.036369026 -0.085595325 -0.09644439 0.12555885 -0.079269156 -0.022346603
0.14393684 -0.07693635 0.109305836 0.10630302 0.016892 -0.010903657 -0.21657406 0.0543123
0.09395922 -0.0511672 0.14822675 0.05027141 -0.0906183 0.08766873 0.04092433 0.14361393
0.034865115 -0.05851164 -0.01525818 0.02380466 0.026032373 -0.10178729 -0.02447983 -0.09297427
0.11103003 0.025442716 0.08650473 0.058481555 -0.03753419 0.105692804 -0.02221169 0.139421
-0.027636673 -0.34953648 0.009344707 -0.07981142 -0.053463552 0.008609132 0.01774011 -0.005387227
0.10175134 0.11809281 0.023881279 -0.020233111 -0.12545036 -0.12584263 0.025175808 -0.012061509
-0.09561481 -0.15080827 0.043265134 0.016497653 0.07312491 -0.20104761 -0.09966653 -0.06704005
0.026121976 0.001120361 0.076981716 0.052545365 0.01860335 0.10115109 -0.32098588 0.10564419
-0.07040114 -0.051818788 -0.077589974 0.16336817 0.11360572 0.0022081616 -0.10649083 -0.086412944
-0.08314708 0.17181632 -0.19741549 0.026301963 0.08984355 0.061344806 0.086156696 0.07914676
0.0888512 -0.0136728315 0.060930423 0.019208357 0.081043616 -0.0737912 0.13502756 0.015037577
-0.07871836 0.030262379 0.015952481 -0.045038242 0.0167685 -0.061520975 0.05666517 -0.013870453
-0.102090135 0.027995626 0.035135955 -0.084884614 -0.061107904 0.06972217 -0.06279771 -0.033270158
0.015750416 -0.022389123 -0.09170726 -0.06488943 0.09249863 -0.014662433 -0.029305302 0.04735877
0.21200493 0.124844044 0.19000715 0.04670322 -0.0036487335 0.2697981 0.14366731 0.022638364
0.1396411 0.011622274 -0.01899253 -0.01555112 0.033857897 0.029195575 0.2046028 0.14663166
0.016243028 0.1374285 0.067464635 0.002859621 -0.06967383 0.0804585 0.020563014 -0.023410957
0.013618115 -0.01908558 -0.120782554 0.084031016 0.026417406 0.016926292 0.024383776 0.057156693
-0.10990425 -0.1024139 -0.076329716 0.039416436 -0.010281535 0.0017700278 0.0065340847 -0.002353018
-0.14649637 0.012290162 -0.075850524 -0.12558109 0.026758691 0.08612766 -0.039289586 -0.08468892
0.088559985 -0.1207997 -0.019213649 -0.07194485 -0.108579226 -0.10527127 -0.020651555 -0.042830948
-0.12799141 -0.09026423 -0.1327915 -0.067021124 -0.093451194 -0.018472789 0.049162507 0.022245646
0.035865054 0.04005658 -0.005172786 -0.11818911 -0.13433295 -0.14585477 -0.035510596 -0.12856764
-0.01048963 -0.051161554 -0.09133952 0.087154925 -0.09781897 0.05101376 -0.052783754 -0.11953854
-0.01696161 -0.15106343 -0.078103565 0.024664277 0.0032694582 -0.039993897 -0.08018712 0.063249126
00000000: 088b bf3c ce24 e2bd 9e95 9e3d 14e5 5a3d
00000010: 476e 2c3d 0dfc aa3d 7569 fbbc d65f 023e
00000020: 5ae6 0d3e 5dcf 92be 68ee eabc 4e9b 6fbc
00000030: c4eb 343e a695 cfbd f8a4 f43b 03dd 65be
00000040: f437 d23d c54a 1d3e dc40 a43d 2d62 9cbb
00000050: f27d 4a3c e44e 4a3b a477 33be 9e90 f03d
00000060: da97 4ebe fc6a 86bd 914d 4bbd 6261 bdbd
00000070: 23de 5abd 6f95 aabd 1f8e 003d 258d 033d
00000080: 885f b6bc 3959 f93c 5d86 483d 3652 5abe
00000090: b9e6 dcbd 9596 22be db06 023e 0919 5cbe
000000a0: 0d6c 83bd 673c f83b b634 493d ae6b 043d
000000b0: 8cf2 0f3e 3d69 23bd ad6d 193d 55e2 7f3d
000000c0: 3882 4abc abcc 0abd b0f7 143d 9a4c afbd
000000d0: a384 c5bd 8092 003e de57 a2bd 3910 b7bc
000000e0: 2e64 133e ce90 9dbd bddb df3d 66b5 d93d
000000f0: 1761 8a3c 41a5 32bc 97c5 5dbe 9376 5e3d
00000100: b16d c03d b394 51bd c1c8 173e 65e9 4d3d
00000110: 1696 b9bd aa8b b33d 45a0 273d 880f 133e
00000120: b9ce 0e3d e7a9 6fbd 72fd 79bc fe01 c33c
00000130: d841 d53c db75 d0bd ed89 c8bc 4b69 bebd
00000140: b663 e33d 3e6d d03c 6429 b13d 5b8a 6f3d
00000150: 73bd 19bd 7875 d83d 4af5 b5bc 61c4 0e3e
00000160: 4e66 e2bc 72f6 b2be 8b1a 193c 2b74 a3bd
00000170: 99fc 5abd 510d 0d3c b553 913c 5687 b0bb
00000180: 0263 d03d a5da f13d aca2 c33c e9bf a5bc
00000190: 0f76 00be e4dc 00be 7f3d ce3c a39d 45bc
000001a0: b3d1 c3bd 7c6d 1abe c836 313d 1626 873c
000001b0: 83c2 953d 6ddf 4dbe f71d ccbd 4b4c 89bd
000001c0: c1fd d53c 14d9 923a 97a8 9d3d cf39 573d
000001d0: 0d66 983c 4d28 cf3d 4358 a4be fb5b d83d
000001e0: 792e 90bd f03f 54bd 7ee7 9ebd fc49 273e
000001f0: 1eaa e83d ceb6 103b dd17 dabd 45f9 b0bd
00000200: 0449 aabd 9ef0 2f3e 4927 4abe 3777 d73c
00000210: e5ff b73d b144 7b3d ec72 b03d b217 a23d
00000220: 9ef7 b53d 0304 60bc 2e92 793d d85a 9d3c
00000230: 32fa a53d d71f 97bd aa44 0a3e 2b60 763c
00000240: 1737 a1bd cfe8 f73c c7ae 823c 057a 38bd
00000250: 185e 893c 6bfd 7bbd bd19 683d e640 63bc
00000260: a214 d1bd 1557 e53c b8ea 0f3d fcd7 adbd
00000270: 484c 7abd 7fca 8e3d 169c 80bd 4a46 08bd
00000280: 0407 813c 6569 b7bc 04d1 bbbd c0e4 84bd
00000290: ec6f bd3d b43a 70bc ac11 f0bc 45fb 413d
000002a0: d217 593e 3cae ff3d 3c91 423e e04b 3f3d
000002b0: 971f 6fbb fa22 8a3e 861d 133e 1774 b93c
000002c0: 14fe 0e3e 5a6b 3e3c 3996 9bbc 20ca 7ebc
000002d0: 94ae 0a3d 8f2b ef3c 6583 513e 9c26 163e
000002e0: 1910 853c 0fba 0c3e e62a 8a3d 7b68 3b3b
000002f0: 27b1 8ebd 6dc7 a43d c473 a83c 56c8 bfbc
00000300: 841e 5f3c 5d59 9cbc d85c f7bd 7418 ac3d
00000310: 5169 d83c 02a9 8a3c 7cc0 c73c 231d 6a3d
00000320: 7b15 e1bd 61be d1bd c152 9cbd 2173 213d
00000330: e273 28bc 4700 e83a e01b d63b 1735 1abb
00000340: 2503 16be ad5c 493c 8557 9bbd 5498 00be
00000350: 0b35 db3c b363 b03d 1eee 20bd 6271 adbd
00000360: f05e b53d d565 f7bd f165 9dbc d257 93bd
00000370: c95e debd 7798 d7bd 732d a9bc 816f 2fbd
00000380: 2e10 03be 74dc b8bd 7ffa 07be 5f42 89bd
00000390: 5763 bfbd 3f54 97bc a05e 493d 803c b63c
000003a0: 3ce7 123d 5e12 243d 7980 a9bb 220d f2bd
000003b0: 948e 09be f45a 15be 8f73 11bd 3ca7 03be
000003c0: b2dc 2bbc c78e 51bd 3710 bbbd 487e b23d
000003d0: 5055 c8bd cef3 503d c733 58bd 9fd0 f4bd
000003e0: 13f3 8abc 5fb0 1abe c3f4 9fbd bd0c ca3c
000003f0: 6844 563b a4d0 23bd 2539 a4bd c288 813d

encoder.6.bias f4 [32]
0.0320802 -0.08933982 -0.28096256 -0.13197185 0.0729804 0.061600413 -0.11753723 -0.10323687
-0.13514316 0.07052992 -0.16455048 0.024626676 0.04636657 -0.075986505 -0.105841435 -0.124680884
0.074417226 -0.10182165 0.09345855 -0.09114713 0.011377846 0.056977592 -0.02317373 -0.13545285
-0.006057285 -0.015889633 0.083550155 0.0817082 -0.14217652 0.040715653 0.05935127 0.043247506
00000000: 8766 033d ccf7 b6bd 53da 8fbe a123 07be
00000010: bf76 953d b750 7c3d 5cb7 f0bd da6d d3bd
00000020: f862 0abe fe71 903d ec7f 28be e2bd c93c
00000030: dfea 3d3d d09e 9bbd 65c3 d8bd b158 ffbd
00000040: 0f68 983d df87 d0bd 3267 bf3d 59ab babd
00000050: 256a 3a3c 5661 693d d6d6 bdbc 27b4 0abe
00000060: 307c c6bb fa2a 82bc 581c ab3d a156 a73d
00000070: b996 11be 75c5 263d 511a 733d 4c24 313d

encoder.9.weight f4 [3, 32]
-0.07631724 -0.17112355 0.037645444 0.028727971 -0.11685669 0.25399658 0.18164954 -0.109681144
-0.09586505 -0.13115297 0.09665696 -0.14462245 -0.12486505 -0.024082392 -0.063509546 -0.04532909
-0.0588772 -0.04532751 -0.18064888 0.1395542 -0.062429972 0.040037762 0.10464769 0.1373813
-0.0010171359 -0.09041156 -0.14261927 0.08261773 -0.10057138 -0.13001569 -0.023704618 0.029884022
0.070678376 0.05444684 0.11446568 -0.08627206 0.14563075 -0.21550328 0.16385965 -0.068831734
0.030590456 -0.029223613 -0.0044210176 0.09374014 -0.055586513 0.1540838 -0.04605356 0.022408366
0.12909023 0.14574125 -0.16276523 0.05288686 -0.018842325 0.0604882 0.08831267 0.1511147
0.055371355 -0.07957818 0.11290431 0.11748569 -0.016873635 0.06009376 0.12069108 0.13012478
-0.16458242 -0.18610983 0.13169496 -0.1154029 -0.19158033 -0.026429433 -0.09601463 0.07647486
0.17237872 0.1309195 0.11542724 -0.119189255 0.08493217 0.15232937 0.047323562 0.13493226
-0.16571972 0.15205294 0.13317855 0.13847455 -0.21682476 -0.19979657 0.068953924 0.010973333
0.15507954 0.039389625 -0.10190033 -0.0056872065 0.12584247 -0.1529544 0.035889562 -0.009956435
00000000: 374c 9cbd 033b 2fbe 1c32 1a3d ec56 eb3c
00000010: 8f52 efbd d70b 823e 5602 3a3e 82a0 e0bd
00000020: e554 c4bd f74c 06be 16f4 c53d e817 14be
00000030: 3fb9 ffbd 7048 c5bc 4b11 82bd ffaa 39bd
00000040: 3829 71bd 57a9 39bd 05fc 38be 4ce7 0e3e
00000050: 92b6 7fbd a3fe 233d 8751 d63d afad 0c3e
00000060: 6b51 85ba b229 b9bd c90a 12be 7c33 a93d
00000070: 5ef8 cdbd d522 05be 3030 c2bc 56cf f43c
00000080: d3bf 903d a603 5f3d fc6c ea3d 68af b0bd
00000090: 3a20 153e e4ac 5cbe d3ca 273e a7f7 8cbd
000000a0: d698 fa3c 5c66 efbc 2fde 90bb d5fa bf3d
000000b0: afae 63bd 25c8 1d3e a8a2 3cbd c091 b73c
000000c0: 3b30 043e 323d 153e eeab 26be e49f 583d
000000d0: 385b 9abc 7ac2 773d 46dd b43d d0bd 1a3e
000000e0: 13cd 623d e3f9 a2bd 603a e73d 569c f03d
000000f0: 943a 8abc e024 763d e32c f73d 6e3f 053e
00000100: 4b88 28be 9393 3ebe 0bdb 063e 5b58 ecbd
00000110: a22d 44be 8a82 d8bc 51a3 c4bd da9e 9c3d
00000120: 0c84 303e c30f 063e 1e65 ec3d 7f19 f4bd
00000130: ebf0 ad3d 3bfc 1b3e 5ad6 413d af2b 0a3e
00000140: 6eb2 29be c4b3 1b3e f55f 083e 46cc 0d3e
00000150: 4f07 5ebe 7997 4cbe b737 8d3d 7fc9 333c
00000160: 2ccd 1e3e 0457 213d 1fb1 d0bd bf5b babb
00000170: d9dc 003e 14a0 1cbe ef00 133d 5120 23bc

encoder.9.bias f4 [3]
0.0052863993 0.07774908 0.16104719
00000000: 8839 ad3b e93a 9f3d 8ee9 243e

decoder.0.weight f4 [32, 3]
0.39180008 0.28969628 -0.1627165 0.28459713 -0.28425628 0.49395975 -0.00091045693 0.5604905
-0.26303244 -0.18940878 0.41275275 -0.47805402 -0.38747153 -0.120024346 0.31506693 0.729214
-0.45615354 -0.36995056 0.025813214 0.36717227 -0.30458012 -0.2498548 -0.4414556 0.42342132
-0.37267032 -0.49631846 -0.5258126 -0.29794282 -0.29564497 0.4319171 0.12681529 0.066268034
0.3431977 0.2889762 0.4812337 0.08225476 0.0905754 0.6351521 0.14491932 -0.37251925
-0.4790145 0.4698086 0.49821037 -0.23894711 -0.5679511 0.07205625 0.26506513 -0.5137318
-0.23127109 0.4292551 0.36134574 0.1053743 0.17586036 0.23706503 0.2788658 0.013087557
-0.37520632 0.05521195 0.46629107 0.011923684 0.14902763 -0.4691822 -0.25014964 0.13186629
0.2970161 0.5680494 0.47828135 0.04839684 0.38996273 -0.36662915 -0.18900867 0.39918578
-0.41145903 -0.3368357 0.34994492 0.2675799 0.2073891 -0.094693184 0.33074337 0.45703375
0.39063188 -0.19164346 -0.28330687 -0.40082294 0.35521826 -0.27088076 0.2336482 0.23284332
0.19888215 -0.43234 -0.11044194 -0.365132 -0.07501463 -0.18386187 -0.18617052 -0.45527953
00000000: 059a c83e 1253 943e 279f 26be b7b6 913e
00000010: 0a8a 91be 4be8 fc3e bbab 6eba 4e7c 0f3f
00000020: 30ac 86be 60f4 41be 5454 d33e 7fc3 f4be
00000030: ab62 c6be 53cf f5bd 7450 a13e c5ad 3a3f
00000040: f58c e9be 296a bdbe 3c76 d33c 01fe bb3e
00000050: edf1 9bbe f0d9 7fbe 7806 e2be aeca d83e
00000060: a5ce bebe 741d febe a89b 06bf f68b 98be
00000070: c75e 97be 3d24 dd3e dedb 013e 89b7 873d
00000080: 9cb7 af3e b0f4 933e 4364 f63e 2f75 a83d
00000090: 987f b93d 5499 223f bb65 143e d8ba bebe
000000a0: 6341 f5be c18a f03e 6e15 ff3e 8dae 74be
000000b0: 3e65 11bf 3a92 933d 9eb6 873e ed83 03bf
000000c0: 54d2 6cbe 53c7 db3e 4f02 b93e 7bce d73d
000000d0: bd14 343e 2dc1 723e 80c7 8e3e 316d 563c
000000e0: 0b1b c0be ed25 623d b4bd ee3e 8e5b 433c
000000f0: b39a 183e a638 f0be 9d13 80be f507 073e
00000100: 7f12 983e af6b 113f 4be1 f43e c43b 463d
00000110: 32a9 c73e d1b6 bbbe 7d8b 41be 1462 cc3e
00000120: c2aa d2be bb75 acbe fb2b b33e 3c00 893e
00000130: cf5d 543e 80ee c1bd 3257 a93e 5400 ea3e
00000140: e700 c83e 2f3e 44be 990d 91be aa38 cdbe
00000150: 2bdf b53e e2b0 8abe 7941 6f3e 7b6e 6e3e
00000160: c3a7 4b3e ab5b ddbe 622f e2bd 95f2 babe
00000170: 45a1 99bd 4946 3cbe 7ca3 3ebe 661a e9be

decoder.0.bias f4 [32]
-0.5286585 -0.51770633 0.019735461 -0.422415 -0.4904097 -0.3943613 0.33943036 -0.17776974
-0.20410039 -0.28384688 -0.37059548 0.11606081 -0.4112599 0.2600833 -0.15023817 0.5826327
0.06650911 -0.29096147 -0.61936426 0.34411862 -0.40849575 0.35838678 0.2954651 -0.27134845
0.07764497 -0.29937646 0.1593301 0.65687764 0.1790306 -0.47049716 0.1517631 -0.3489625
00000000: 2a56 07bf 6788 04bf 43ac a13c c746 d8be
00000010: fb16 fbbe b9e9 c9be d1c9 ad3e 4509 36be
00000020: b1ff 50be 6154 91be b1be bdbe 4ab1 ed3d
00000030: a890 d2be a329 853e 09d8 19be 6b27 153f
00000040: ee35 883d e7f8 94be a88e 1ebf 5130 b03e
00000050: 5b26 d1be 797e b73e 3447 973e 2fee 8abe
00000060: 5304 9f3d df47 99be 6e27 233e 2229 283f
00000070: cc53 373e 01e5 f0be c967 1b3e 36ab b2be

decoder.2.weight f4 [64, 32]
-0.10409963 -0.13001262 0.0006758402 -0.09155211 -0.079994395 0.035933096 0.022272496 -0.17433563
-0.17542659 -0.14011858 -0.002141227 0.08418364 -0.14927456 -0.29013333 0.09788962 0.20194127
0.1529671 -0.08620054 0.036115166 -0.014897754 -0.22757965 0.17672093 -0.02323356 -0.026619848
-0.27531675 0.07330091 0.19117238 0.040955864 -0.033440523 -0.07562422 -0.3965912 -0.12194395
0.036523335 -0.111319445 0.09977572 -0.013488353 -0.11275126 -0.07031414 0.13844343 0.078349106
-0.096427955 -0.03383223 -0.08723844 0.11326414 -0.030581223 0.0024337221 -0.05141414 0.01055589
0.03511386 -0.18341146 -0.044299457 0.14220232 0.09198809 0.013479977 -0.12915066 -0.0224086
-0.0240842 -0.12771009 0.077132866 0.10043268 -0.11424834 -0.06132683 -0.08639038 0.09962882
0.06380585 -0.107759275 0.109337226 -0.04961438 -0.27796355 -0.05946463 0.060484476 -0.19811451
0.10735531 -0.12221173 -0.1080609 0.015856072 0.0350518 -0.2456031 0.10863349 0.022063939
0.08524918 0.00683165 0.15033099 0.01737172 0.20778307 0.15308681 0.16720083 -0.09246882
0.008208148 0.066355385 0.042419035 -0.1158532 -0.044768143 -0.022843163 -0.17051183 0.038425848
0.1299565 -0.13889892 0.108051404 -0.021031424 -0.020949274 -0.15049632 0.048609883 -0.13689005
-0.06949745 -0.028737381 0.07512887 -0.0040702075 -0.0138246715 -0.038625896 0.1435863 -0.10048194
-0.056911208 0.053405553 -0.081085816 -0.13385195 -0.06304353 -0.067998566 -0.079435304 -0.09848205
-0.12735431 -0.13374045 0.033237323 -0.17141195 0.0043637604 -0.1676991 -0.100926235 0.17615022
0.08577082 -0.037468445 0.14573058 -0.076016754 -0.070721395 -0.14621235 0.015340182 0.07111369
-0.00417835 0.07206592 -0.03564157 0.10267651 -0.032383244 0.10208591 -0.12508199 -0.032656923
0.1616929 0.03383176 -0.012174754 0.18744044 0.035049073 -0.120405905 -0.019398443 -0.14142199
0.09686284 -0.15166226 -0.12232842 -0.07152034 -0.16373949 -0.07294365 0.046262983 0.05644803
0.020235201 -0.034895595 0.07692686 0.05368845 0.12066819 -0.08134636 -0.006417225 -0.240119
-0.15748283 -0.18449661 0.10360639 0.18218087 0.030345764 -0.3058755 0.1546941 0.11361844
0.16995578 -0.052505825 -0.104865454 0.1280297 0.15986012 -0.11242492 -0.10200034 -0.044560943
-0.213636 0.13794251 -0.10903935 0.12761872 -0.037056617 0.101418436 -0.3342479 0.02172822
0.09393873 -0.079696186 -0.023762694 -0.043747075 0.16976075 0.23783621 -0.0026910112 -0.09333351
0.12782425 0.13742472 -0.17243005 0.11638438 0.07480112 0.12713102 0.009705035 0.05456349
0.17217794 0.071067646 0.09760372 -0.17610829 0.12788917 0.1721937 0.0020058267 -0.15226735
0.18380602 0.08330498 0.15070635 -0.07589745 -0.029866608 0.077888235 -0.023290772 0.11833966
0.16156574 -0.09508238 0.09111269 0.12268326 -0.0060999324 0.018920539 0.18387018 -0.036797527
-0.06686869 -0.1498391 -0.015194784 0.058649078 0.16168298 -0.114627026 0.09426355 0.03259802
-0.0989818 0.06767589 -0.11668226 0.11142759 0.031708624 -0.14558952 0.054518532 0.01676166
-0.28502852 -0.11101597 0.09317389 0.06276795 -0.25992414 0.13558595 -0.12065869 0.06499149
00000000: 3032 d5bd 0722 05be de2a 313a ac7f bbbd
00000010: 1ad4 a3bd 952e 133d cf74 b63c 0a85 32be
00000020: 07a3 33be 3f7b 0fbe d453 0cbb 7968 ac3d
00000030: 6edb 18be 5b8c 94be 5a7a c83d b1c9 4e3e
00000040: 68a3 1c3e e989 b0bd 7fed 133d b615 74bc
00000050: a40a 69be 55f6 343e 4f54 bebc de11 dabc
00000060: 51f6 8cbe ca1e 963d b1c2 433e 56c1 273d
00000070: eef8 08bd dfe0 9abd 000e cbbe c0bd f9bd
00000080: 7e99 153d 73fb e3bd 3657 cc3d 41fe 5cbc
00000090: 22ea e6bd dc00 90bd 1dc4 0d3e 7f75 a03d
000000a0: 057c c5bd aa93 0abd 11aa b2bd 08f7 e73d
000000b0: 7985 fabc 157f 1f3b a297 52bd 9df2 2c3c
000000c0: 8dd3 0f3d 37d0 3bbe 5973 35bd 7c9d 113e
000000d0: 4064 bc3d 1fdb 5c3c 1240 04be 3e92 b7bc
000000e0: 3a4c c5bc 6fc6 02be d6f7 9d3d a6af cd3d
000000f0: 09fb e9bd d831 7bbd 71ed b0bd 320a cc3d
00000100: a4ac 823d e5b0 dcbd 32ec df3d 7338 4bbd
00000110: 3d51 8ebe 2f91 73bd 92be 773d 88de 4abe
00000120: 1add db3d 254a fabd 084f ddbd 98e4 813c
00000130: 7a92 0f3d 617f 7bbe 3c7b de3d 6fbf b43c
00000140: 1f97 ae3d 09dc df3b 5ef0 193e 234f 8e3c
00000150: 16c5 543e cac2 1c3e b236 2b3e 4b60 bdbd
00000160: 787b 063c 55e5 873d 95bf 2d3d 7144 edbd
00000170: cd5e 37bd 9621 bbbc a79a 2ebe 6c64 1d3d
00000180: 5113 053e 853b 0ebe 0e4a dd3d 184a acbc
00000190: d09d abbc b51b 1abe 281b 473d e82c 0cbe
000001a0: ae54 8ebd a86a ebbc 2add 993d 605f 85bb
000001b0: e080 62bc 3036 1ebd 4908 133e 7ac9 cdbd
000001c0: ba1b 69bd c8bf 5a3d 5210 a6bd 7c10 09be
000001d0: f71c 81bd d542 8bbd faae a2bd f5b0 c9bd
000001e0: 2b69 02be 42f3 08be dc23 083d 9d86 2fbe
000001f0: e0fd 8e3b 50b9 2bbe 6ab2 cebd b960 343e
00000200: 9da8 af3d 8378 19bd 663a 153e acae 9bbd
00000210: 61d6 90bd b1b8 15be 6355 7b3c 0ea4 913d
00000220: 8aea 88bb 4c97 933d e5fc 11bd 1048 d23d
00000230: 4ba4 04bd 6b12 d13d 7e15 00be 44c3 05bd
00000240: d392 253e 2c93 0a3d 9f78 47bc 63f0 3f3e
00000250: 9e8f 0f3d 5f97 f6bd 7ce9 9ebc edd0 10be
00000260: 0660 c63d 5a4d 1bbe 5387 fabd 4279 92bd
00000270: 53ab 27be 7b63 95bd 417e 3d3d 0d36 673d
00000280: 4bc4 a53c afee 0ebd d48b 9d3d 6ce8 5b3d
00000290: e220 f73d ec98 a6bd 9647 d2bb c1e1 75be
000002a0: 2e43 21be aeec 3cbe 962f d43d 9f8d 3a3e
000002b0: ae97 f83c b79b 9cbe 2168 1e3e c9b0 e83d
000002c0: e308 2e3e 5910 57bd b3c3 d6bd 381a 033e
000002d0: 5fb2 233e 093f e6bd 8ee5 d0bd 8985 36bd
000002e0: 65c3 5abe cd40 0d3e 0650 dfbd 7bae 023e
000002f0: aec8 17bd 78b4 cf3d 8a22 abbe 61ff b13c
00000300: f362 c03d c137 a3bd fba9 c2bc 2230 33bd
00000310: c3d5 2d3e 568b 733e ad5b 30bb a425 bfbd
00000320: 5ce4 023e 11b9 0c3e 8191 30be ef5a ee3d
00000330: 5431 993d a22e 023e de01 1f3c f77d 5f3d
00000340: 6a4f 303e ea8b 913d 76e4 c73d bb55 34be
00000350: 61f5 023e 8c53 303e 3074 033b f9eb 1bbe
00000360: a537 3c3e cd9b aa3d c452 1a3e 1f70 9bbd
00000370: d1aa f4bc de83 9f3d 4acc bebc 105c f23d
00000380: 7d71 253e 8dba c2bd 4a99 ba3d 5c41 fb3d
00000390: f1e1 c7bb 3fff 9a3c 7748 3c3e 01b9 16bd
000003a0: 74f2 88bd 6c6f 19be 8bf3 78bc 043a 703d
000003b0: 3990 253e 93c1 eabd 400d c13d 8085 053d
000003c0: f8b6 cabd a899 8a3d 1cf7 eebd 2634 e43d
000003d0: e7e0 013d 6b15 15be d34e 5f3d c04f 893c
000003e0: 42ef 91be 575c e3bd f4d1 be3d 7c8c 803d
000003f0: c714 85be 0bd7 0a3e e71b f7bd 421a 853d

decoder.2.bias f4 [64]
0.12382344 -0.07983447 0.19556905 0.15436794 0.14769112 0.15301909 0.064674065 0.018106814
0.17450869 0.15164736 -0.16534932 0.29291824 0.14309727 0.02373663 -0.09994611 0.03560544
-0.03567315 -0.08615849 0.18246484 0.19742538 0.19423105 0.18281618 0.17219065 0.2001849
0.17482032 -0.012002032 0.04672979 0.14952807 -0.06847821 0.15174612 0.20497309 0.016838582
0.1589271 0.10983791 0.14670661 0.05087532 0.16632883 -0.11478457 0.20331246 -0.06356783
0.049333964 0.047442995 -0.04480553 0.2123307 0.10937544 0.049346212 0.21479501 0.2317138
0.22439098 0.2016726 -0.02266487 0.107346095 0.030625977 -0.07285237 -0.059001405 -0.12495536
0.067143 -0.16492122 -0.08968733 -0.050709493 -0.0044907816 0.058325417 -0.083814554 0.11285078
00000000: 2597 fd3d 4180 a3bd 4143 483e a112 1e3e
00000010: 573c 173e 09b1 1c3e d673 843d be54 943c
00000020: 68b2 323e 7249 1b3e 5551 29be 61f9 953e
00000030: 1788 123e 5273 c23c 8cb0 ccbd 03d7 113d
00000040: 021e 12bd dd73 b0bd 10d8 3a3e e129 4a3e
00000050: 81e4 463e 2a34 3b3e bf52 303e 45fd 4c3e
00000060: 1904 333e 2ca4 44bc bc67 3f3d e31d 193e
00000070: 4e3e 8cbd 5663 1b3e 77e4 513e 11f1 893c
00000080: c9bd 223e b3f2 e03d 423a 163e a462 503d
00000090: 1b52 2a3e 2c14 ebbd 2431 503e da2f 82bd
000000a0: 6912 4a3d 9653 423d 0186 37bd 386d 593e
000000b0: 3b00 e03d 411f 4a3d 39f3 5b3e 6246 6d3e
000000c0: c0c6 653e 4383 4e3e adab b9bc 45d8 db3d
000000d0: 54e3 fa3c a033 95bd 75ab 71bd 99e8 ffbd
000000e0: 4582 893d 1ce1 28be fead b7bd c2b4 4fbd
000000f0: 6827 93bb a2e6 6e3d f7a6 abbd 4f1e e73d

decoder.4.weight f4 [128, 64]
0.05054973 -0.017374838 -0.21478589 0.10036139 0.033918757 -0.07109181 0.019824652 -0.06372088
-0.075206555 -0.13016818 -0.034183793 -0.13504784 -0.05492137 0.11504282 -0.14580996 0.064973876
0.0069177793 -0.08735319 0.07848052 0.065251715 -0.008699724 0.1188634 -0.09262145 0.13075012
-0.051944274 0.03944819 -0.09809409 -0.028064286 -0.013280409 -0.008608786 0.07080509 -0.058517415
-0.016664816 -0.08745017 -0.061462928 0.001482277 -0.04369317 -0.024427783 0.032275684 -0.026485026
-0.052143298 0.09169895 0.004085356 -0.15091036 0.085650444 -0.012730205 -0.020458387 -0.09952462
0.07015 -0.05625443 0.085098 -0.10817955 0.041311305 -0.02321529 -0.050345603 -0.10821364
-0.06726479 0.12611032 0.06881343 -0.06934645 -0.06272934 0.037282284 0.07044731 0.11314334
0.062036727 0.11079144 0.111889035 0.042215526 0.012471173 -7.5456155e-05 0.07945575 -0.0147401765
-0.12834977 -0.027405398 -0.03657163 0.095644586 0.010865316 0.10070279 -0.004075015 0.06916501
0.07864486 0.031129876 0.14395247 -0.12404015 -0.10992466 0.012883514 -0.07546964 -0.10881194
0.032141827 0.0404253 0.19066608 0.15966915 -0.052289642 0.06790471 0.11750546 0.047551356
0.16622524 0.10239453 -0.17024268 0.16401222 -0.15291452 -0.13776697 0.10870534 -0.062368944
-0.10191581 -0.074393466 -0.121201895 0.01879146 0.019156078 -0.09120568 0.057691567 0.15835752
0.06874809 -0.0038313607 0.11526032 -0.05390591 0.022285342 0.01265255 -0.13889456 0.0019064483
0.07849147 0.0478073 0.08784576 0.09955566 -0.101928055 0.072033554 0.10561599 0.095155254
-0.032593876 0.1370551 -0.03551037 0.057391703 -0.060743593 -0.103562556 0.05607821 0.083682746
0.0012086686 0.1390357 0.068991095 0.14895765 -0.08065128 -0.12667897 -0.04067281 0.006277712
-0.15736178 -0.034238387 -0.07659746 0.12498951 0.075248905 0.008310863 0.08236285 0.0053995415
-0.12821126 -0.014309401 -0.0637427 -0.0044873953 0.058710724 -0.030706534 -0.112201124 -0.010729087
0.12584671 0.10430873 0.13294668 -0.027797408 0.018198837 -0.09543697 -0.081953615 0.11328094
0.049104206 0.064036496 -0.015510894 0.0754906 0.047850437 0.07507321 0.06414202 -0.1110204
0.08491526 0.028363816 0.11691911 0.087373696 -0.0013496712 -0.012514038 0.057238642 0.11105046
-0.051822703 -0.0065170904 -0.06711669 0.13998745 -0.0058039916 -0.037198324 0.049815137 -0.003588149
0.083382025 -0.081627734 -0.08924004 0.06738767 -0.09814059 -0.010596891 0.1333225 0.10985517
-0.0063533573 -0.11344757 -0.07267607 -0.08920375 0.03778206 -0.033872418 0.073666506 -0.021392686
0.10527448 -0.07189563 0.032704704 0.03531567 0.19453564 -0.03867642 -0.10543669 0.09392741
-0.022963416 0.00037475614 0.121127136 0.057074364 -0.095092095 -0.015029679 0.09435209 0.11803088
-0.03183249 -0.092551336 0.12321153 -0.030129101 0.070695 0.09066265 -0.0940925 -0.030678406
0.028418753 0.12123245 -0.007757169 -0.024845148 -0.032565005 -0.008946564 -0.033609297 0.11957938
-0.024146838 0.1347526 -0.10674472 0.122108646 0.12718467 0.07098548 -0.0805638 -0.028437749
-0.016350139 -0.036413755 0.12047908 -0.16200267 -0.07470225 0.098640084 0.10987261 -0.020917378
00000000: 3c0d 4f3d ad55 8ebc d5f0 5bbe 468a cd3d
00000010: 65ee 0a3d 9598 91bd 4f67 a23c 1880 82bd
00000020: e505 9abd cf4a 05be 4e04 0cbd fb49 0abe
00000030: 3bf5 60bd 929b eb3d 354f 15be 0611 853d
00000040: 8aae e23b 3be6 b2bd 65ba a03d b1a2 853d
00000050: 4a89 0ebc a76e f33d 51b0 bdbd 5ce3 053e
00000060: 85c3 54bd 6d94 213d 8ee5 c8bd 13e7 e5bc
00000070: 1396 59bc de0b 0dbc 4202 913d f5af 6fbd
00000080: a784 88bc 1319 b3bd 8dc0 7bbd f648 c23a
00000090: 9cf7 32bd c61c c8bc 8233 043d 20f7 d8bc
000000a0: 3694 55bd a9cc bb3d 73de 853b 3f88 1abe
000000b0: 8069 af3d 5a92 50bc 5998 a7bc 90d3 cbbd
000000c0: ceaa 8f3d 0c6b 66bd dc47 ae3d 3d8d ddbd
000000d0: 0b36 293d fe2d bebc 3137 4ebd 1d9f ddbd
000000e0: 1fc2 89bd 1023 013e 0eee 8c3d 8305 8ebd
000000f0: 3d78 80bd 4fb5 183d ae46 903d b2b7 e73d
00000100: 391a 7e3d 9fe6 e23d 1426 e53d 30ea 2c3d
00000110: e453 4c3c 373e 9eb8 b2b9 a23d c880 71bc
00000120: 1f6e 03be 4981 e0bc 22cc 15bd 4fe1 c33d
00000130: 7004 323c 443d ce3d b487 85bb 62a6 8d3d
00000140: 8e10 a13d 1504 ff3c 4768 133e c308 febd
00000150: 2e20 e1bd 6015 533c d48f 9abd cbd8 debd
00000160: 26a7 033d 0095 253d f83d 433e 4f80 233e
00000170: aa2d 56bd a011 8b3d b4a6 f03d 36c5 423d
00000180: f336 2a3e 39b4 d13d 1954 2ebe d2f2 273e
00000190: a095 1cbe c912 0dbe e8a0 de3d 9476 7fbd
000001a0: 3cb9 d0bd 9a5b 98bd b338 f8bd 8cf0 993c
000001b0: 35ed 9c3c 0bca babd fe4d 6c3d 7928 223e
000001c0: cccb 8c3d 9117 7bbb 9a0d ec3d 72cc 5cbd
000001d0: c08f b63c a44c 4f3c 603a 0ebe cae1 f93a
000001e0: 23c0 a03d 96d1 433d 7ae8 b33d d6e3 cb3d
000001f0: a8bf d0bd 5486 933d 324d d83d c2e0 c23d
00000200: 2881 05bd 2c58 0c3e 5273 11bd 9013 6b3d
00000210: 46ce 78bd 9b18 d4bd 44b2 653d dc61 ab3d
00000220: 306c 9e3a 605f 0e3e 344b 8d3d 5b88 183e
00000230: 802c a5bd 22b8 01be 8898 26bd 44b5 cd3b
00000240: 7223 21be 8d3d 0cbd 21df 9cbd 80fa ff3d
00000250: 191c 9a3d 492a 083c dbad a83d a3ee b03b
00000260: d049 03be fa71 6abc 888b 82bd 000b 93bb
00000270: a87a 703d 458c fbbc b4c9 e5bd 0dc9 2fbc
00000280: f6dd 003e d19f d53d 2d23 083e 64b7 e3bc
00000290: ba15 953c 7574 c3bd 4cd7 a7bd d6ff e73d
000002a0: 7e21 493d 9125 833d 6821 7ebc d19a 9a3d
000002b0: d2fe 433d fcbf 993d e45c 833d aa5e e3bd
000002c0: 0de8 ad3d 3c5b e83c 4973 ef3d fbf0 b23d
000002d0: 73e7 b0ba ae07 4dbc 1173 6a3d 6c6e e33d
000002e0: 0b44 54bd 518d d5bb 7a74 89bd df58 0f3e
000002f0: 692f bebb 455d 18bd f50a 4c3d 2727 6bbb
00000300: 32c4 aa3d 712c a7bd 7bc3 b6bd 8c02 8a3d
00000310: effd c8bd 959e 2dbc b285 083e bffb e03d
00000320: d32f d0bb 3357 e8bd 31d7 94bd 75b0 b6bd
00000330: 5dc1 1a3d cebd 0abd 77de 963d b73f afbc
00000340: 269a d73d 043e 93bd 5ef5 053d 2aa7 103d
00000350: 5a34 473e 2a6b 1ebd 31ef d7bd 045d c03d
00000360: c61d bcbc eb7a c439 8111 f83d cfc6 693d
00000370: a5bf c2bd 0b3f 76bc ab3b c13d 2dba f13d
00000380: c962 02bd 8e8b bdbd 5456 fc3d 4ed1 f6bc
00000390: 8ac8 903d 57ad b93d 92b3 c0bd 4851 fbbc
000003a0: 72ce e83c b848 f83d da2f febb 0d88 cbbc
000003b0: e262 05bd 9c94 12bc e7a9 09bd 09e6 f43d
000003c0: 97cf c5bc 96fc 093e fa9c dabd 1914 fa3d
000003d0: b33c 023e d660 913d a2fe a4bd 48f6 e8bc
000003e0: baf0 85bc 9726 15bd bcbd f63d 07e4 25be
000003f0: 7efd 98bd d003 ca3d e404 e13d ec5a abbc

decoder.4.bias f4 [128]
-0.027510982 -0.07153199 0.03169685 -0.025856331 -0.025897875 0.07070291 0.11362825 0.14271788
-0.21177275 -0.052292343 0.060331553 0.047769845 0.06567002 -0.113067724 -0.09713854 -0.01465003
0.108901806 0.07451248 -0.055132117 0.16505024 0.07500341 0.15662321 0.042549495 -0.0810168
0.15034644 0.119746804 0.12255415 -0.12372321 0.017576871 0.015668701 -0.12574638 -0.095911175
0.103014365 0.12866767 0.09415889 0.06558975 -0.12448144 0.15170813 0.113056034 0.075229794
-0.039368626 -0.09931159 0.13481095 0.1202898 -0.07038304 0.15521242 0.13250278 0.17053379
0.1039921 0.123016596 -0.092071354 -0.07047442 0.15061224 -0.07693078 0.08443585 -0.123737544
0.07212095 0.087436266 0.08792547 -0.039042857 0.13243194 0.020652348 0.09424371 -0.07338837
-0.1169327 0.050483625 0.1451879 -0.056386396 0.014981749 -0.12979499 0.0886317 0.076562256
0.03920277 0.20484877 0.09280563 0.09304374 0.07930866 0.04374666 0.15742917 -0.0010863426
0.09523002 0.16909292 -0.036958907 -0.119651586 0.07278064 0.046158746 -0.056510475 0.2768772
-0.07279671 0.15588722 0.109974384 -0.0491008 -0.0038904292 0.15200521 -0.04831304 -0.07854653
-0.07528195 0.0013902463 0.12839706 0.05202246 0.043422543 -0.12432091 -0.028997676 -0.059995227
0.15563932 0.12096295 0.10179498 0.13873939 0.09697162 0.06811018 0.004537508 -0.048999548
0.012920117 0.14806882 -0.0007950753 0.018946502 -0.0963715 0.008183698 0.12703721 0.113781475
0.1255952 0.10648189 0.022103658 0.061528314 0.124641076 0.12519866 -0.0034851325 -0.069390595
00000000: b65e e1bc 5d7f 92bd 8ed4 013d a8d0 d3bc
00000010: c827 d4bc b0cc 903d eeb5 e83d a324 123e
00000020: f5da 58be 7f30 56bd 381e 773d 50aa 433d
00000030: 017e 863d 0d90 e7bd 92f0 c6bd ae06 70bc
00000040: e907 df3d 009a 983d 37d2 61bd ee02 293e
00000050: 639b 993d d661 203e 6148 2e3d 23ec a5bd
00000060: 6bf4 193e d03d f53d acfd fa3d 9862 fdbd
00000070: 5ffd 8f3c a65b 803c a9c3 00be 146d c4bd
00000080: 32f9 d23d 75c1 033e 60d6 c03d eb53 863d
00000090: 20f0 febd 6059 1b3e ec89 e73d 1412 9a3d
000000a0: ff40 21bd e063 cbbd e20b 0a3e 805a f63d
000000b0: fc24 90bd 01f0 1e3e cfae 073e 69a0 2e3e
000000c0: cff9 d43d 20f0 fb3d e88f bcbd e554 90bd
000000d0: 183a 1a3e e38d 9dbd b4ec ac3d 1c6a fdbd
000000e0: 26b4 933d c911 b33d 4512 b43d 67eb 1fbd
000000f0: 3d9c 073e 1d2f a93c d902 c13d a44c 96bd
00000100: 697a efbd ebc7 4e3d 23ac 143e 6cf5 66bd
00000110: 0276 753c fae8 04be 8984 b53d accc 9c3d
00000120: 1593 203d e0c3 513e e110 be3d b78d be3d
00000130: 946c a23d b32f 333d 1d35 213e 9c63 8eba
00000140: f507 c33d b226 2d3e 3962 17bd e40b f5bd
00000150: 040e 953d f410 3d3d 8777 67bd d9c2 8d3e
00000160: 7116 95bd e6a0 1f3e 403a e13d ec1d 49bd
00000170: 92f6 7ebb 41a7 1b3e e5e3 45bd 01dd a0bd
00000180: 6c2d 9abd ed38 b63a 857a 033e 8115 553d
00000190: d6db 313d f69b febd 898c edbc 8ebd 75bd
000001a0: ea5f 1f3e 6cbb f73d e379 d03d b311 0e3e
000001b0: 0f99 c63d 5a7d 8b3d 60af 943b c0b3 48bd
000001c0: e6ae 533c 5a9f 173e 9a6c 50ba b235 9b3c
000001d0: 6c5e c5bd eb14 063c 0b16 023e 4306 e93d
000001e0: 079c 003e 2d13 da3d bb12 b53c 1d05 7c3d
000001f0: d243 ff3d 1434 003e d266 64bb a81c 8ebd
