Save-Models/model-lat2.pth (torch, 191202 bytes, 16 tensors)

encoder.0.weight f4 [128, 99]
00000000: b268 95bc f813 d53b 9703 a3bb dc61 023d
00000010: 99e8 14bd 5c3d 20bd fca0 1c3d 5527 82bd
00000020: a248 9b3c 0e48 983d cd72 b03d a973 9abd
00000030: 62c2 363d 08d0 9cbd 4acd 8c3d 7602 4cbd
00000040: c929 bd3d ec48 df39 eaa2 5d3d cd43 403d
00000050: 8a33 593d 8e62 e4bb 5ece 1f3c cb24 85bc
00000060: 4020 e63b 3dd4 2f3d cf32 be3d 810d 3bbd
00000070: dc03 5e3c 09aa 7bbd c885 eabc eb51 6dbd
00000080: b4c2 b83d bab1 803d 9667 a23d 5db1 793d
00000090: 512a 1bbd 2a32 c2bc 8609 8f3d fbdb a73d
000000a0: 48eb 143d 73a1 cbbc da02 873c 1c9c 4a3d
000000b0: c387 a33d d294 773d ce39 1abd 5db1 c73d
000000c0: 2114 903d 8698 f1bc 0712 e73d ebc3 8d3d
000000d0: c29b 04bd 7a7b a2bd 0213 883d 8163 50bb
000000e0: 2e68 a53d 871d cb3d 70cd 02bc 9dbc 873d
000000f0: 8e75 1dbd c29a 82bd 7f7a 833d 7a94 b53d
00000100: 4f4d b5bd 576a 8abc 4a45 b83d d91c 203c
00000110: 629d ad3c 04f6 553d d7c8 ab3d 7ac3 c6ba
00000120: 4058 853d d42b 2d3c 4075 7e3d 1372 473c
00000130: 55ed cabd 1336 3f3d ce67 0a3d 9c23 ab3d
00000140: d553 eb3c ff42 8fbd d3b5 3abd c0bf c13c
00000150: e05f 1abd fb97 ce3d 0f59 73bd f59d f63c
00000160: fa21 86bd 6e9e cabd c672 023d 210b b1bb
00000170: dd77 8f3c 0f57 26bb 021c 1d3d 3565 863d
00000180: b34f cebd 40c0 593c 245f 9bbd 986d b0bc
00000190: d3a3 043d 990b 803d 2832 3e3c 4ce9 193c
000001a0: 20ae 013d 84a4 d53d d57f 943d aaeb 3dbd
000001b0: 6588 313d 2417 f7bb 48bb 323c dc94 433d
000001c0: de2c 99bd c972 53bd 6cfd d43d d825 90bd
000001d0: 34a5 a03d fd72 ad3d 20e2 82bc 2093 af3d
000001e0: c2f1 413d 8254 9f3d 4450 1fbd 8ac8 023d
000001f0: 52a5 ad3c b954 b63d 753e 133d 5459 4bbd
00000200: 5e3e a13c 7cdb 95bb cf8d 503d 9278 183d
00000210: 9c6a cd3d 3085 583d 06ba 5fbc 4fcf 6bbd
00000220: 0ff5 06bd efc9 63bd c1b4 083d 3fdc 7bbd
00000230: 7481 3d3d 00a2 af3c 190c 82bd 6611 50bd
00000240: 3440 96bd e36d 20bb a78e 4d3d 85a9 7c3d
00000250: 863e 133d 4667 87bd 7fca 83bd 1aa2 c9bd
00000260: da28 28bd 9b5d 373d 2a82 953d ab36 63bd
00000270: 16bd 46bc 145e 8f3d ce5a 663d 227b 9ebd
00000280: cb3c 893b c1a5 903d 057a 09bd 7dc4 71ba
00000290: 1ee2 b6bd c9cf 60bc 4739 9a3d dcb9 c4bb
000002a0: 7943 8e3d 773b 18bd d87e 85bc b51c 403a
000002b0: 8b88 0cbd 31e5 283d d84b 983d 08e6 b13d
000002c0: cd20 1b3d 5f8e 9ebc 591f 443d b07b e7bb
000002d0: 5813 913d 38a9 eb3c b9e8 933d d79c a4bd
000002e0: d53d b23d e24a c13d 6735 713d 6ff8 9cbd
000002f0: e73e d83d 7a3f 773d 9f49 d93d 848a 833d
00000300: 578e 2c3c 660c acbd f775 bfbd 2e78 27bc
00000310: 62cc 123d acff 393c 9955 113e 1953 78bd
00000320: 16fb 383d 77d1 2e3c 2d53 eb3d cb01 89bc
00000330: 05f5 dfbc c220 0a3e 32c8 f6ba 666b f83d
00000340: 99e7 d13d 1010 6e3d 0a40 e33c db83 c83d
00000350: 1dd3 303e 5677 c13d 7775 9b3d 845d f73c
00000360: 2eab d33c 3759 003e e11d 083e 852b a03c
00000370: d691 973d a19b ec3c 2b2a ea3d f84f 1f3e
00000380: 2e42 9c3d 391c 0a3b 8e24 bf3d e6fa 0b3e
00000390: 7245 833d 468a ec3d fef1 d63b fbfa 803d
000003a0: ed2f 25bd 6a3d e73d f298 b43c 1411 41bd
000003b0: 1b26 163d ecc8 92bc 2e57 903d 40b4 81bb
000003c0: 89be 643a 42ea 11bd 3464 dc3d 3ea3 963c
000003d0: 9816 7abd 1d18 023d 963a 1abd a4c7 e23b
000003e0: 191e 913d f450 0bbd cc80 1b3b 6ac1 debc
000003f0: 4df0 13bd 8ed6 f2bc 80ff acbc ac39 c9bd
-0.0182384 0.0065026246 -0.004974793 0.031831607 -0.036354635 -0.039121017 0.038239464 -0.06355158
0.018955532 0.07435618 0.086156465 -0.07541592 0.04461897 -0.07656866 0.06875093 -0.049807034
0.092364855 0.00042588206 0.054110445 0.04693966 0.053027667 -0.0069697564 0.009753792 -0.016252896
0.0070228875 0.042927016 0.09287035 -0.045667175 0.013550725 -0.061441455 -0.028628245 -0.05793945
0.09021512 0.06283899 0.07929914 0.060960162 -0.037882153 -0.02370556 0.06984238 0.08196255
0.036357194 -0.024857258 0.016480852 0.049465284 0.07984879 0.06044466 -0.037652783 0.09750626
0.07035089 -0.029491674 0.11282735 0.06922134 -0.032375105 -0.079337075 0.066442505 -0.003179759
0.08076511 0.09917741 -0.00798355 0.06627772 -0.038442187 -0.06377174 0.06419849 0.0886621
-0.08852636 -0.01689641 0.08997591 0.009772503 0.02119321 0.052236572 0.083879165 -0.0015164458
0.06510973 0.0105695315 0.062123537 0.0121731935 -0.09908549 0.04668243 0.033790402 0.08356401
0.028726498 -0.069952 -0.045583557 0.023651004 -0.03768909 0.10087582 -0.059411105 0.030104617
-0.06549449 -0.09893499 0.031847738 -0.005402938 0.01751321 -0.002538148 0.03835679 0.065622725
-0.10073795 0.013290465 -0.07586506 -0.021536633 0.032382797 0.06252212 0.011608638 0.009394001
0.0316602 0.104317695 0.072509445 -0.046367325 0.043342967 -0.0075406004 0.010908909 0.047749385
-0.07479261 -0.05162314 0.10399899 -0.07038468 0.0784401 0.08469198 -0.015976965 0.08572984
0.0473497 0.077797905 -0.038894907 0.03192953 0.021196995 0.08902878 0.035948236 -0.049645737
0.01968306 -0.0045732837 0.05091649 0.03722436 0.100301 0.052861392 -0.013655191 -0.05757075
-0.03294855 -0.0556125 0.033375505 -0.06148934 0.046266034 0.021439552 -0.06349964 -0.050797842
-0.073364645 -0.002447956 0.050184872 0.061685104 0.0359483 -0.06611495 -0.064351074 -0.098453715
-0.041054584 0.044767004 0.073002174 -0.055472057 -0.012130043 0.07000366 0.05623894 -0.077383295
0.0041881553 0.07062865 -0.033563633 -0.00092226994 -0.08929847 -0.013721415 0.07530456 -0.0060036015
0.06946463 -0.037166085 -0.016295835 0.00073284964 -0.034309905 0.0412342 0.07436341 0.08686453
0.03787308 -0.019354997 0.047881458 -0.0070643052 0.07083768 0.028767213 0.07222123 -0.08037727
0.087032 0.09438111 0.05888882 -0.076645724 0.10558873 0.06036327 0.10609745 0.06422904
0.010531983 -0.08400802 -0.09348672 -0.010221524 0.035839446 0.011352461 0.14192809 -0.060626123
0.04516133 0.0106700575 0.11490474 -0.016724488 -0.027338514 0.13489059 -0.0018827973 0.121298596
0.10249252 0.058120787 0.027740497 0.097907744 0.17268033 0.0944659 0.07590764 0.030195959
0.02583846 0.12534033 0.13292648 0.019552002 0.07400863 0.028882803 0.11433824 0.1555785
0.0762981 0.002107395 0.09333144 0.13669929 0.0640973 0.11549811 0.0065596094 0.06297871
-0.04032891 0.11291011 0.022045586 -0.047135428 0.036657434 -0.017918073 0.07047878 -0.003958255
0.0008725902 -0.035623796 0.107613 0.018388387 -0.061056703 0.031761277 -0.03765353 0.0069207717
0.07085819 -0.03401275 0.0023727892 -0.027191836 -0.03611784 -0.029643323 -0.021117926 -0.09825453

encoder.0.bias f4 [128]
00000000: 5aa8 72be a2f4 26be a8bd 193e faa7 c1be
00000010: 691b 80be c02a 80be 2cee 14bd 0f9b 66be
00000020: faa5 61be b08b 2dbd 19b7 86be adf5 8dbe
00000030: 87dc 9cbe 00d6 d9be a80f 55be fd33 76be
00000040: 9645 3c3e 77a1 b63d 76b2 cebe c6e5 18be
00000050: d211 0cbe db0d 9fbd 1e1d 6fbe 3863 64be
00000060: 1bb9 c6be 6dd0 58be df2f a9be 72a8 31be
00000070: 2dd0 6fbe 6f6e 17be a18f c0be 2e8b f2be
00000080: 6908 86bd 57d9 aabe bd0d b3be ab36 47be
00000090: 0404 77be 3a09 0bbe 7eb4 d0be 0821 15be
000000a0: 40d2 23be 84bf 78be f7e3 043e cdd4 14be
000000b0: d915 c9be 0bc2 2dbe 9a10 0fbf fed9 b93d
000000c0: c40d 62bd a78c 46be 02c0 2dbe 502e 69be
000000d0: fd2e 04be 5527 af3d 889a babc 827c e2be
000000e0: 4996 61bd 9274 02bf a35f f0bd 59b4 d0be
000000f0: 8749 c0bd b4b5 11bf 09b5 08bf 4dba eabe
00000100: a841 5fbe 4cd3 bbbe 3c16 e1bd 457d 32be
00000110: 6b0f 46be 0954 86be 89d8 80be d57e 49be
00000120: 0b21 aebe 46fa 8dbe 5b61 023e 045e 90be
00000130: 60e7 0cbe 67fb ddbd 0c29 6bbe 36e4 a1bb
00000140: f3fa 0abe 569e 77be 3280 b5be 0293 91be
00000150: 5108 7ebd c070 e9bd 33a2 abbe 8fc1 e5be
00000160: d1fc b9be 73ac 91bc c9a0 83be e768 b5bd
00000170: 2540 a3bd 746a 45be 8878 b3be 0fdc 9abe
00000180: 0b3c 273e 84f2 3cbe a034 82be c0fb fbbb
00000190: 4d79 3abd faf4 63be f855 36be e870 c8be
000001a0: 76c6 e2be 42ff 5ebe 2f8e 87be 9dde f3be
000001b0: 2cf9 39be a8bf 5ebe a635 1b3c 57c4 31be
000001c0: 5225 b7be 3564 5fbe cde5 a9be 47b1 80be
000001d0: 5323 b1be 0da5 93be 0f00 a2bb bcf1 6a3d
000001e0: c9c4 e1be b674 97be 843f 08bf e8f0 8cbe
000001f0: e6f3 bfbd bac4 44be 2eb0 9cbe 63c0 b6bd
-0.23697034 -0.16304258 0.15013754 -0.37823468 -0.25020912 -0.25032616 -0.03635995 -0.22520088
-0.22035971 -0.042369545 -0.26311567 -0.27726498 -0.30637 -0.42546082 -0.20806754 -0.2404327
0.1838592 0.08917516 -0.4037053 -0.14931402 -0.13678673 -0.077663146 -0.23350951 -0.22303474
-0.388131 -0.21173258 -0.33044335 -0.17349413 -0.23419257 -0.14788221 -0.3760958 -0.4737181
-0.06544573 -0.33368942 -0.3497142 -0.19454448 -0.24122626 -0.13577738 -0.40762705 -0.14563382
-0.15998173 -0.24291807 0.12977587 -0.14534302 -0.3927448 -0.16968553 -0.55884707 0.09074782
-0.05518891 -0.19389592 -0.16967776 -0.22771573 -0.1290855 0.08552424 -0.022778764 -0.44235617
-0.055074964 -0.5095912 -0.11736991 -0.40762594 -0.09389024 -0.5691788 -0.5340124 -0.4584526
-0.2180239 -0.36684644 -0.10990569 -0.17430599 -0.19341819 -0.2623599 -0.25165203 -0.19677289
-0.34009585 -0.27730006 0.1273245 -0.28196728 -0.13760138 -0.10838967 -0.22964877 -0.004940535
-0.13572292 -0.24181494 -0.35449368 -0.2843247 -0.06201965 -0.113984585 -0.33522186 -0.44874236
-0.36325696 -0.017782426 -0.25708607 -0.08857899 -0.07971219 -0.1927889 -0.35052896 -0.30246016
0.16331498 -0.18451887 -0.25430775 -0.007689923 -0.045525838 -0.2226142 -0.17806232 -0.3914864
-0.4429204 -0.2177706 -0.26475665 -0.47630778 -0.18161458 -0.21752799 0.00947324 -0.17360054
-0.3577066 -0.2181557 -0.33183137 -0.25135252 -0.34597263 -0.2883686 -0.0049438546 0.057359442
-0.44095448 -0.2958123 -0.5322192 -0.27527547 -0.09372692 -0.1921567 -0.30603164 -0.089234136

encoder.3.weight f4 [64, 128]
00000000: 5f61 c93d a96c 5bbd 9e9d 8fbd 4959 c8bb
00000010: f499 673d 0f5c be3d 3e12 b23d a634 223d
00000020: fcf8 c53d 63e9 94bc b815 033d 9c88 da3d
00000030: 6f20 e6bb 02a3 03bd 118e 50b9 2d51 8ebc
00000040: f4e9 65bd 0132 acbc c1f0 b73c 2d95 0f3d
00000050: 2d89 47bd 3f2b 473d 5c85 3b3c 1393 dcbb
00000060: 2142 8b3d 0454 3b3b d624 a73d 6856 f63c
00000070: a2ce 4f3d cbc5 b3bc bba1 043e 5076 0d3d
00000080: 0368 ae3c f5eb 573d e1ea cc3d 068e 24bd
00000090: fa05 503d 74be 0e3c 5477 cabb c5c8 bd3d
000000a0: 1ac6 20bd 74b5 e73d dcc8 7d3b 201d 1ebc
000000b0: 3dab 0f3d b857 5e3c 41bd 3b3e 6fe1 b8bd
000000c0: 0109 953d 0cee a23d a1fe d0bd cddf c53d
000000d0: 2551 ec3d 25fa 8ebd 5c4a 20bd b43b 083e
000000e0: 01cc 20bd c8ed db3d 1203 29bd 9849 663d
000000f0: 90fc 283d d3e1 a4bd 26ad 193e ef70 e53d
00000100: 0083 c3bb ebcc b43d 5a03 61bd 749f 9a3d
00000110: 4f05 243d 1e08 e13d 2317 af3d 35db 80bd
00000120: 4e23 e7bc 2af7 bf3c 5286 0dbe a4d2 af3d
00000130: 3fe4 02bd ddf8 943d 9c36 a83c e02d 933d
00000140: 34a9 813d ba11 933d 5a9f 183e 0f0a 883d
00000150: d963 9e3d 7410 57bd e532 ec3c c77d 183d
00000160: 2e72 113c d55a 593d 28b4 dc3d 019a 1dbd
00000170: 3580 5fbd 1b8c d13d 5452 0b3e c091 50bc
00000180: e735 ccbd 26e7 e43d 98cf 37bd 4c27 2e3d
00000190: 8eb0 54bd 1316 a53d cf22 47bb 90d0 fb3d
000001a0: f2df 2c3d 758c a33d 2f22 c2bc 0549 663d
000001b0: 236e 5c3d bb11 a13d e803 f23c fec5 d73d
000001c0: 4df0 cf3d c336 65bd 2658 17bc 1f04 92ba
000001d0: 430a e23c 1b91 5f3d f42d babc fbb6 9b3d
000001e0: 1d44 083e e3f3 28bd cc8d fc3d 7220 103c
000001f0: d719 a73d def8 d53a 0443 bdbc 54dd 0d3d
00000200: 2b35 d83d ba7c bc39 3328 bdbe d97c 42bd
00000210: a5fe c93c ea25 9b3a 4f0f 70bc bf65 39bd
00000220: 0e22 873c 8393 f0bc a63b 84bd 1ddf 813d
00000230: 754a e23c d5bf c73d af82 11bd a798 a93d
00000240: 3399 8ebe 2ad2 9ebb 2707 ed3c 6871 82bc
00000250: ed12 04bd fa75 2bbc 440c df3d 3dbe 6a3d
00000260: d139 573c 7714 763d 2cb0 a73b 30d2 4b3d
00000270: 7025 e33c 1ebf 2f3d b11a d53c fdb2 ac3d
00000280: a33a b23d e70d 8a3d 5f60 453d 638c 993c
00000290: 6120 93bc 915e 5e3c f744 d3bc e3cd a9bc
000002a0: aec0 193d 4695 9cbc f407 13be 3f17 013e
000002b0: 79f6 433c 7c8d d33d 3e89 02bc a1b2 00bf
000002c0: 4d7c 833d f8ba 76bc dfce 6a3c 2d9b c63c
000002d0: 4e3f fc3c 1bec 0a3c 32ae 543c 118a 583c
000002e0: 2c93 4e3d c3bc fa3d 4be8 1ebc 7410 f8bc
000002f0: 1fe3 123e e5f8 2ebe a530 be3d ea9a 203e
00000300: d681 11bd b072 ae3d f0df 533c a71d 08bc
00000310: fc6a 203d 95bf f3bb 1d3c cf3d c0f2 b83d
00000320: 7550 9f3d 9ed1 be3a 1a3c 17be f7dc b33c
00000330: ea3f 8fbc 8d54 933d c434 bf3d 1f4f 353d
00000340: 7c88 453c 25e3 38bd 3839 9f3d 8464 01bd
00000350: e722 69bc 5087 2fbd cf6c 0c3e 91ab 863d
00000360: 0e7c 8d3d c619 2a3d e28a cb3b 35f3 7d3d
00000370: 49e8 80bd 6705 953d 9ba9 543d fdc3 39bd
00000380: 692a 08bf 63e9 02bd aeba f13c 13a1 93bd
00000390: 04cc c7bc 86b6 d43d 42f3 17bd 907c 093e
000003a0: ef49 613d 79f9 013d e0ef 973d ebb4 21bd
000003b0: 09df af3d 896d 0bbc 82b2 d9bc e97d 6c3d
000003c0: 11b9 7dbc 0b91 5c3c 4df8 02bd 1a7a 6fbd
000003d0: eeb1 d13d f631 c0bc c84c 2abc 00d4 603d
000003e0: 8c6f fb3c 1e65 56bd c4ec e43d 625e ed3d
000003f0: 3373 c03d ab30 17bc 1bc3 22bc a3b8 483d
0.09833025 -0.053570423 -0.07012485 -0.0061141592 0.056543306 0.092949025 0.08694886 0.03960099
0.096666306 -0.018177694 0.032003134 0.106705874 -0.0070229094 -0.03213788 -0.0001988935 -0.017372692
-0.05613132 -0.021019937 0.022453668 0.035054374 -0.048714805 0.048625227 0.01144537 -0.0067314
0.067997225 0.0028584013 0.08161323 0.030070499 0.05073417 -0.021944901 0.1295232 0.03453666
0.021289831 0.05271526 0.10005737 -0.040174507 0.05078695 0.0087124 -0.006178776 0.092668094
-0.039251424 0.11313906 0.0038724458 -0.009650499 0.035075415 0.0135707185 0.18333913 -0.09027373
0.07277108 0.0795556 -0.102048166 0.09661827 0.115389146 -0.06981305 -0.039133415 0.13304025
-0.039257053 0.107387125 -0.041262694 0.05622253 0.041256487 -0.08050885 0.15007457 0.11203181
-0.005966544 0.088281475 -0.054934837 0.075499445 0.040044125 0.10987876 0.08549335 -0.062918104
-0.028215077 0.023433287 -0.1382077 0.085850984 -0.031955954 0.072740294 0.020533852 0.07186484
0.06331101 0.071811154 0.14904538 0.066425435 0.07733888 -0.052505925 0.028832862 0.037229326
0.00887732 0.05306514 0.107765496 -0.038476948 -0.054565627 0.10231801 0.13605624 -0.012730062
-0.099712186 0.111769006 -0.04487571 0.042517945 -0.05192619 0.08060851 -0.0030385738 0.122956395
0.04220576 0.079857744 -0.02369794 0.05622198 0.053815972 0.0786471 0.029542878 0.10535811
0.101532556 -0.055960428 -0.009237325 -0.0011140144 0.027592784 0.054581743 -0.02272699 0.0760326
0.13307233 -0.041248213 0.12331733 0.008796798 0.081592254 0.0016324779 -0.023103245 0.034634903
0.10557016 0.00035951083 -0.36944732 -0.047482345 0.024657557 0.0011836861 -0.014652087 -0.04526305
0.01649573 -0.029367214 -0.064566895 0.063413836 0.027623395 0.09753386 -0.03552502 0.08281069
-0.27851257 -0.004846831 0.028934075 -0.015923217 -0.03224461 -0.0104651395 0.10891011 0.05731033
0.013136343 0.06007811 0.005117437 0.049760997 0.027727813 0.042906873 0.026013704 0.08432577
0.0870259 0.06740933 0.04818761 0.0187437 -0.017959775 0.013572351 -0.025789721 -0.020728057
0.03753727 -0.019114148 -0.14358503 0.12606524 0.011960619 0.103297204 -0.007967291 -0.50272566
0.06420193 -0.015059225 0.0143315485 0.024243915 0.030791905 0.0084791435 0.0129809845 0.013216511
0.050433323 0.12243035 -0.009698938 -0.030281283 0.14344452 -0.17087133 0.09286622 0.15684095
-0.03552421 0.08517969 0.012931809 -0.008307851 0.03916453 -0.00743861 0.101188876 0.09030676
0.07779018 0.001455832 -0.1476902 0.02195595 -0.017486531 0.07193861 0.09336236 0.04426491
0.012056466 -0.045138497 0.077745855 -0.03159 -0.014229513 -0.042853653 0.13713382 0.065756924
0.06908427 0.041528486 0.0062116245 0.06199952 -0.06294305 0.07276421 0.05191956 -0.045352925
-0.5318971 -0.031960856 0.029507961 -0.07208457 -0.024389274 0.10386376 -0.037097223 0.13426423
0.05500215 0.031732056 0.074187994 -0.039479177 0.085874625 -0.008510002 -0.026574377 0.057737265
-0.015486018 0.013462315 -0.03197508 -0.058466054 0.102390155 -0.023461323 -0.010394283 0.05488968
0.030692838 -0.052342527 0.11177972 0.11590268 0.093969725 -0.009227912 -0.009934212 0.04900421

encoder.3.bias f4 [64]
00000000: eb2d 63be 164f 76be 4c4f 2e3c e3ec cebd
00000010: c662 19bd dfad e6bc 163c bfbe 9c35 f6bd
00000020: 609d 8cbe a5b1 86be 7e9a d8bd 641e 69bd
00000030: f2e5 e1bd 022c 283d 37f8 f6bd 7529 76be
00000040: 7de1 83bd 88a2 25be df28 b2bd 6dac 82be
00000050: 06fc 95bd 9431 5dbe 4ce1 3abd 2df6 2f3d
00000060: c44d 44bd f2c9 4bbe 3a1b 1a3b f600 90bd
00000070: 381a 08be bb8c dbbe 3b7d 53be 7760 67bc
00000080: e6af 2ebd c0a9 2cbe 3b3f ddbc f41b a1be
00000090: 089a 8fbd bc30 f3bd ffbf 7ebe 0e35 3dbd
000000a0: c86e 48bd 1928 7fbe bdd5 1dbe dc22 21bc
000000b0: fbe2 85be 06c9 41be 632f f2bd 4af3 57be
000000c0: c4bd 0dbe 67f5 8ebc 026d cab8 90e3 2ebe
000000d0: b183 8fbc 1f8f e7bc 6962 83be 9d7c 03be
000000e0: ce88 c4be 22cf c7bd 0a88 a6bd 05d7 a6be
000000f0: 2287 b2bd ed69 9abe b1db a23c 9d39 2abd
-0.22185485 -0.24053606 0.010639023 -0.10103776 -0.037447713 -0.02815908 -0.3735053 -0.12021944
-0.27463818 -0.26307407 -0.10576342 -0.05691375 -0.11030187 0.041057594 -0.12059062 -0.24039252
-0.06439493 -0.16175282 -0.08699202 -0.25522175 -0.0732346 -0.21600944 -0.045625016 0.04295938
-0.047925726 -0.19901255 0.0023514763 -0.07031433 -0.13291252 -0.42880806 -0.2065324 -0.01412212
-0.04264822 -0.1686163 -0.02700769 -0.3146664 -0.07011801 -0.1187453 -0.24877928 -0.046193175
-0.048933774 -0.2491764 -0.15413566 -0.009834971 -0.26149735 -0.1892434 -0.118254445 -0.21088901
-0.13841921 -0.017451001 -9.652415e-05 -0.17078996 -0.01751885 -0.028266488 -0.25661018 -0.12840505
-0.38385624 -0.09756304 -0.08131416 -0.32585922 -0.08717181 -0.3015894 0.019880148 -0.04155885

encoder.6.weight f4 [32, 64]
00000000: 3966 1f3e 56f8 963d a7b2 f03d 8d6f 303d
00000010: f28c 253d 5a01 3dbe 85d6 f1bc 575d 8cbd
00000020: ce14 22bc ff0a 99be 9cfa 5dbc 1fe6 aa3d
00000030: dca4 febc d35d babc 8976 b73b b686 ff3d
00000040: 311e c4bb b4a1 37bd f0a0 7f3d de10 b4bc
00000050: 32a3 70bd f581 fdbb 676b e03d 2fc7 a3bc
00000060: 8124 d0bc 2ae6 81bd 1933 5ebe 7fbc d5bd
00000070: e919 b3bd 29d2 46bc fda5 ad3d dddf a23d
00000080: d678 16bd b8cd 20be f91d 3c3d a52d c1bc
00000090: dc5d dbbd fc87 f33c 3fa8 4c3d 2a26 99bd
000000a0: e8e9 38bd 2b5f 2abd 5f3c 2bbd 4715 683d
000000b0: 075c c43d 0d34 c5bd 2d82 1cbd ad9a da3d
000000c0: f347 9d3c 79e8 59be 8f27 b53b 94c6 f3bb
000000d0: a8ff f73d e76b c1bc df7d fbbd cd3a 9dbd
000000e0: f07c ba3d afd7 18be 8662 0f3d 904f d73c
000000f0: 3316 68be 16a9 1cbd 018e c53d 669c a5bd
00000100: 6062 733d 3321 443e 3662 883d a4ec 1ebd
00000110: a9b7 c03d ea5a c33c 7324 7fbe 920f a83c
00000120: a100 84bd 42a0 70be 9217 113c 2780 b4bd
00000130: 0933 343b beee a73c 7d25 5a3d 7523 0c3d
00000140: c4db 133d f615 0cbd 98f8 ebbd a265 013e
00000150: 6321 16bd bef1 cf3d 1cc3 e53c fee7 dabc
00000160: e509 a1bd 627e c13d 2bde 313d 6668 943d
00000170: 786f ac3d 923f 4c3d 46f7 59bd 4b9a c43d
00000180: db7c 82be 2b3f a2be c434 0cbd 06e1 26be
00000190: 5e61 b8bc 6137 cf3d b0ff b53c 7c31 00be
000001a0: 8f0b 013e 56d8 1b3e 0191 143e 3654 d83d
000001b0: 39e5 993a 155e 8e3d 3267 adbd b2fc f13d
000001c0: 9e66 9abe 55ee b8bd 0c22 293e 58cc 083d
000001d0: ab6d dcbd 1d4e c4bd d0d5 243e d462 9ebd
000001e0: 9add 68bc 6f1f 97bc 2fab 45bd 3d4a dabd
000001f0: d8de 763d 3dd8 2abe 320a 00bb 3d40 a0bc
00000200: c0ec c2bc d1d9 d6bd 9340 4abe ecea 4b3d
00000210: 6ec4 21be 73e6 67bd 87bf 7abc 8920 10bc
00000220: 97d9 e63d f941 dc3d bd4d 183c 14be 8fbd
00000230: c2e4 8abd 6493 e7bc 22a8 f83d 3f3b 143e
00000240: 5341 f7bc 7638 7bbb 3cf4 aebd b0d0 e53d
00000250: 04b0 f63d 3e3f 8bbd 2ff9 1bbe 3cc1 8fbd
00000260: 65ac 6e3c 8fea b0bd f1df d3bd 2cf5 21be
00000270: 0c0c 29be 8f8f e73d a0dc 4c3d 12ff 24be
00000280: 141d e83d 3967 1b3d 7e53 6cbe a100 0a3e
00000290: ac45 0b3e 8136 a1bc dfe9 53bd d812 fd3d
000002a0: 63e9 783d 4187 24be a97c dcbd 44c5 9d3d
000002b0: 2223 1bbe e5b8 0b3d d81c b13d 502c 1cbd
000002c0: 49f9 83bb 3f0b e83d 76ff 203d 7410 11be
000002d0: 3335 fcbd 380f 07bd 16cf 593d 2ecc a0bd
000002e0: 012b b23d a4bb 5bbd 9e75 b2bd 3775 093e
000002f0: d4bc 0a3e eed4 9e3d ae67 4e3d ff08 0dbd
00000300: be8e 113e ddb9 2a3e 5db6 2d3d 3384 143e
00000310: 8f16 8dbd be61 38be d0b9 713d b0fa a6bd
00000320: 83d4 2abe 7eea 91bd 11b0 4bbd dae3 d43d
00000330: ade6 1fbd f4b7 013e ace4 a5bd 731b 083e
00000340: cf60 ad3d 45b0 923d a832 5b3d 75fa b03d
00000350: 26f5 96bd a8d0 723b 96fb 9f3c b0aa 193d
00000360: b8da edbb 23ad ce3c 435c 53be 438b eb3d
00000370: d7bd 0e3e 89e7 29bd 0a20 233d 198b 62bd
00000380: dd8e fd3b 7fef 00be cc09 043d 789c 183d
00000390: 2d57 9fbd 270f 0c3e 2d45 e23d 62c9 c3bd
000003a0: f771 c8bb d43c 26bd eaad b0bc eef1 86bb
000003b0: ee03 ee3c 0997 d63c 8701 0bbe 707c 90bd
000003c0: 0059 90bd 9208 3dbe b2a9 c6bd b98f 213d
000003d0: 8469 55bd 7ae2 d9bd 70d0 b1bd 2fa5 123d
000003e0: 1db5 8e3c 0f98 51be 8ced dcbb e86d b33d
000003f0: 1ff7 6ebe d5dc 23bd 5eaf 4fbd 40c1 6abd
0.15566339 0.07371585 0.11752825 0.043075133 0.04041762 -0.18457547 -0.029521236 -0.06853741
-0.009892656 -0.29891202 -0.013548519 0.08344673 -0.03108447 -0.022749817 0.0055988473 0.12476866
-0.0059850444 -0.044831946 0.06240934 -0.0219807 -0.058749385 -0.0077364394 0.10957985 -0.01999244
-0.025408031 -0.063427284 -0.2169918 -0.104363434 -0.08745176 -0.012135067 0.084789254 0.07952855
-0.036736332 -0.15703475 0.04592702 -0.023581335 -0.10711262 0.029727928 0.04996514 -0.07477982
-0.045144945 -0.041594665 -0.04180562 0.056660917 0.09587865 -0.096290685 -0.038210083 0.10674033
0.019199347 -0.21280088 0.0055283974 -0.007439444 0.121093094 -0.023611022 -0.122798674 -0.07677231
0.09105861 -0.14926027 0.03500607 0.026283056 -0.22664718 -0.03824719 0.09646226 -0.08086471
0.05941999 0.1915329 0.06659357 -0.038799897 0.094100304 0.023847062 -0.24916248 0.020515237
-0.064454325 -0.23498634 0.008855717 -0.088135056 0.002749624 0.020499583 0.053258408 0.034213502
0.036098257 -0.03420063 -0.11522025 0.12636426 -0.036652934 0.101535305 0.028047137 -0.02672195
-0.07863215 0.09447934 0.043424767 0.07246475 0.084196985 0.049865313 -0.053214334 0.095997415
-0.25485882 -0.31688818 -0.03423001 -0.16296777 -0.022507366 0.101179846 0.022216648 -0.12518877
0.12602066 0.15219244 0.1450844 0.10562937 0.0011741287 0.069515385 -0.084669486 0.11815776
-0.30156416 -0.09029833 0.16516894 0.033398002 -0.10763105 -0.095852114 0.16097188 -0.07733694
-0.01421299 -0.018447606 -0.048258957 -0.10658691 0.060271114 -0.16684051 -0.0019537327 -0.019561881
-0.023794532 -0.10490764 -0.19751196 0.049784586 -0.15797588 -0.056616258 -0.015304453 -0.0087968195
0.11271971 0.10754771 0.009295878 -0.070186764 -0.06781913 -0.028268524 0.12141444 0.14475726
-0.030182516 -0.0038333214 -0.08542678 0.112214446 0.12045291 -0.06799172 -0.15231775 -0.070192784
0.014567469 -0.086384885 -0.10345448 -0.15816182 -0.16508502 0.113066785 0.050015092 -0.16112927
0.11333671 0.037940238 -0.23078725 0.13476802 0.13600796 -0.01967931 -0.05173671 0.1235711
0.06076945 -0.1606722 -0.107659645 0.07703641 -0.15150121 0.034111876 0.0864808 -0.038128197
-0.00402752 0.1133027 0.039306127 -0.14166433 -0.123148344 -0.032973498 0.05317601 -0.07851444
0.086996086 -0.053645745 -0.0871384 0.1342362 0.13548595 0.07755457 0.050391845 -0.034432407
0.14214608 0.16672464 0.042410243 0.14503555 -0.06889068 -0.18006036 0.059015095 -0.081532836
-0.1668263 -0.07124804 -0.049728457 0.10395022 -0.03903835 0.12667829 -0.08100256 0.13291721
0.084657304 0.07162527 0.053515106 0.08641521 -0.07370977 0.0037050638 0.019529145 0.037516296
-0.0072587393 0.025229042 -0.20640664 0.115011714 0.13939606 -0.041480575 0.039825477 -0.055308435
0.007737978 -0.1259136 0.032235906 0.037258595 -0.07780299 0.13677655 0.110483505 -0.09559895
-0.0061171013 -0.040585354 -0.021567304 -0.0041181957 0.029054608 0.026195066 -0.13574801 -0.070549846
-0.070482254 -0.184603 -0.097003356 0.039443705 -0.05210258 -0.106389 -0.086823344 0.035802063
0.017420346 -0.20468162 -0.006742185 0.08761197 -0.23336457 -0.040005524 -0.050704353 -0.057313204

encoder.6.bias f4 [32]
00000000: 3d22 aa3d 2bf0 3f3d 906a 273c a237 8c3d
00000010: 5eb0 9e3d eb42 8abc 2cf1 c13d 713d 01be
00000020: 996b 25bc 8e8b 80bc 3d3c 95bc 3ec6 90bd
00000030: 093a d8bd e073 ff3d 489c b63d 9659 b5bd
00000040: de43 45be a116 7dbe 0a4d 3d3d 1a67 863c
00000050: 5f55 eebd 8d60 be3d 9430 8ebd 1c44 1abe
00000060: 26e0 8d3c c34d a03d 78c9 d33d 9f8f f3bd
00000070: 218b 1f3c fc37 84bc d848 963d f93f b53d
0.08307312 0.0468599 0.010218278 0.068465486 0.07748483 -0.016877612 0.09469828 -0.12621094
-0.010096454 -0.015691545 -0.0182172 -0.07069062 -0.10557944 0.12473273 0.08916527 -0.08854978
-0.1926417 -0.24715663 0.04621605 0.016406585 -0.11637377 0.09295759 -0.06942859 -0.15065044
0.017318796 0.07827332 0.103411615 -0.11892628 0.009737761 -0.016139977 0.073381126 0.088500924

encoder.9.weight f4 [2, 32]
00000000: 1993 3fbe ddc6 1cbe 9cd1 313e a842 10be
00000010: 0e05 dd3c 739d 173e eede d0bd 007b e43c
00000020: 865f 57bc e7a9 9c3d 16b5 d83d b8b8 0f3c
00000030: 9dc3 393e e082 a2bc df6f 003e c821 a1bd
00000040: 3f14 f93d b291 183e 3258 0bbe de33 26bd
00000050: 65f0 963b b55d 0bbe 2fc3 b1bd f5f9 e1bd
00000060: a2d0 aabc d9c3 b0bd 499c e3bd eb05 1c3e
00000070: ad6d 1a3e 4adc edbd d134 dbbd 9655 18be
00000080: 1429 cfbd 063c e33d 62b0 fdba c041 05be
00000090: 0cc9 2b3e 0122 153d 0d0e 283d 8edb 71be
000000a0: 8420 163e 29da ba3d 9d45 a93d a618 60be
000000b0: d07a b63d 77f3 3fbe a155 c43d ee28 7cbe
000000c0: 4299 823a eb22 093e 13d2 f2bc 94ed 26be
000000d0: 9616 353e c68a 15bc ec40 3abd 9e23 3bbe
000000e0: f0c1 09be 8f39 243d 470b 0b3e a7fc 8ebc
000000f0: 7598 973b 1088 cbbc b370 1dbe 5c8f 31bd
-0.18708457 -0.15310235 0.17365116 -0.14087927 0.02697995 0.14806156 -0.101987705 0.027890682
-0.013145333 0.07649594 0.105814144 0.008772068 0.18141027 -0.019837797 0.12542675 -0.078677714
0.12162065 0.14899328 -0.13607863 -0.04057681 0.004606294 -0.13609965 -0.086798064 -0.11034004
-0.020851437 -0.08631105 -0.111137934 0.15236633 0.150809 -0.116142824 -0.10703433 -0.14876398
-0.10115257 0.11095433 -0.0019354934 -0.13013363 0.16775912 0.03640938 0.041029025 -0.2361891
0.14660841 0.09123642 0.08265231 -0.21884403 0.089101434 -0.18745218 0.09586645 -0.24624988
0.0009963887 0.13392226 -0.029641187 -0.16301566 0.17684397 -0.009127324 -0.04547207 -0.18275306
-0.13452888 0.040093955 0.1357852 -0.017454458 0.0046263286 -0.024845153 -0.15375023 -0.04334961

encoder.9.bias f4 [2]
00000000: a90c 25bd 507f e5bd
-0.040295277 -0.112059236

decoder.0.weight f4 [32, 2]
00000000: 89dd 2f3e ecce 9abd 1dee f1be 468c efbd
00000010: 8ef9 32bf e19b 013e c986 01bf c9ea f53e
00000020: d865 8ebe dc43 9a3e 66ca 15be 9332 133f
00000030: ded4 d23e 837d 893d dae1 88be fa65 0dbf
00000040: b42b 0bbf 1be0 d3be aa40 e5bd 358b 30bf
00000050: 4202 acbd b879 07bf 9264 78bd 2736 f83e
00000060: 02ca a53e cab6 e2be 242d 12bd 15bb 323d
00000070: a316 293f 2d8e ff3e f4dc 10be 8058 3bbf
00000080: 2d67 04bf f00b f83e 398e e33d 9ed4 fdbe
00000090: a975 033f 046a ec3e f517 373d 22ce 4a3e
000000a0: 7459 fc3e a690 063f 0818 1abf 5c0a 73bd
000000b0: bb8e 013d 3103 f83e 3824 453e c0d0 c6be
000000c0: b392 39bf fb3c f9be b8f2 edbe a9e6 d13e
000000d0: 73a7 1d3f 6bd4 673e 72b6 7ebd 3704 0b3f
000000e0: aaec 743c 040a c23e 39b6 273e f60d 28be
000000f0: 71a6 b4bc ba1e c43e c55b e3bd fb8a 2f3f
0.17174353 -0.075589985 -0.4725198 -0.11696677 -0.6991204 0.1265712 -0.5059629 0.4803069
-0.27812076 0.30129898 -0.1462799 0.57499045 0.4117803 0.067133926 -0.2673481 -0.5523373
-0.5436356 -0.41381916 -0.11193974 -0.68962413 -0.08398868 -0.52920103 -0.060642786 0.48478815
0.32380682 -0.44280082 -0.03568758 0.043635447 0.66050166 0.4991316 -0.14146787 -0.73181915
-0.51719934 0.48446608 0.11111111 -0.49576277 0.5135141 0.46174634 0.04470058 0.19805196
0.49286997 0.52564466 -0.6019292 -0.05933605 0.03163026 0.48439935 0.19252098 -0.3883114
-0.7248947 -0.48679337 -0.46474242 0.40996292 0.6158363 0.22639625 -0.062185712 0.54303306
0.014949003 0.37898266 0.16378106 -0.16411576 -0.022052022 0.38304693 -0.11101488 0.6857144

decoder.0.bias f4 [32]
00000000: 3bd2 27bf 8bc7 4dbe 5443 f13d 859c 0fbf
00000010: 5bd5 6dbd dbc0 583e 3b26 e6be c06e eb3d
00000020: a72b 683e a35d 073f 8643 843e 4527 e43e
00000030: 8986 943d 2be6 c13e fef2 e23e bb2d 0abf
00000040: fbfd a1bd 154a 273f 6633 203f b1c3 d63e
00000050: 1074 23be 9631 d83e 83ef 933e 0ff4 b7bd
00000060: c6af d03e 2c00 f63d bbf2 8f3e ab75 f3be
00000070: 3d04 87bd 3a58 9b3e 6178 8dbe 0397 983e
-0.6555516 -0.20095651 0.1178042 -0.56098205 -0.0580648 0.21167319 -0.44951043 0.11495733
0.22672902 0.52877253 0.25832766 0.4456121 0.07252223 0.37870917 0.44326013 -0.5397603
-0.07909771 0.65347415 0.6257843 0.41946176 -0.15962243 0.4222533 0.2889367 -0.08982097
0.40759104 0.120117515 0.28114876 -0.4755071 -0.06592605 0.3034075 -0.27630904 0.29802713

decoder.2.weight f4 [64, 32]
00000000: 6cf1 39be e624 2dbe 46e3 8f3d ce77 933c
00000010: 4caf 3ebd 9eed 6c3d 83a3 69be 296c 123e
00000020: 6a2c febd d9ef 2a3c c0c1 1a3e 9774 61bd
00000030: f35e 573d 7c15 79bd 75fb 3bbe 4db6 38be
00000040: d435 1a3e 0fd3 033d 9f92 6cbe 351c da3d
00000050: e9a3 59be 9f31 0b3e 353d 56be 495c 6bbc
00000060: 9f4f afbc fcb9 ccbc 321a 67bd 1b9b 0ebe
00000070: cd4b 9abe d80e 143b 840c b4bd 5770 5dbd
00000080: 74cd a3bd fdbf 2cbe f808 25bd 82ab 9f3d
00000090: 2ae8 a83d f736 03be e279 79bd c36c 13be
000000a0: ea66 a9bd 5cca 2a3d f887 37bd d40a bfbd
000000b0: 0865 adbc af18 303e 40aa 413c 618d e9bd
000000c0: 9e1c e83d cf12 33be 52d7 0cbe 10ba 1bbe
000000d0: eb23 91bd a649 d83d 34c4 733d a059 273c
000000e0: c082 523b c046 dcbd 28c2 9f3c 8830 133d
000000f0: f931 8dbd 3260 85bd 5029 1e3c 0c5c 4fbd
00000100: 53a6 05be 326e a63d 0806 a63c 7f17 22be
00000110: e86e efbd 4dd5 23bd 4881 2abe dcc7 a1bd
00000120: fb56 003d be2b d13c 289e c03d be86 53bb
00000130: 22f3 57be 51f6 2a3e e5e4 0a3e a919 7bbc
00000140: 9632 34be ab61 133e d9de 2b3e 419d 2b3d
00000150: bac9 6fbd 2d8d 1b3d 9b82 65bd 6020 20be
00000160: 9f01 36bd 1e68 483c fe2b 983c b764 2a3e
00000170: 6149 fc3d 62da 333d bc88 313e 2ade cabd
00000180: 43a3 71be 834d fe3d 8b11 70ba d110 40be
00000190: 221b 68be 3e66 c2bc 08d6 85bd f6ae 873d
000001a0: e2f1 123d 7cde 653d c8d5 0dbe b690 073e
000001b0: 168b 87be 31de ecbc 4414 8f3c 6654 0ebd
000001c0: e768 39bd 8b2c 1d3e bcae 03be 8f11 89bc
000001d0: 0194 89bd edd4 cb3d 8de9 0abe d4d7 c8bd
000001e0: 1f10 173c 7c4b 56bd c37d b1bd 6f3e 3bbe
000001f0: c9ec 2dbe 325f 0abd eb2c b3bd 5778 f53c
00000200: 952a b0bd 8a38 a9bd 8e38 53be fb0a bd3d
00000210: 7bfe 25be 06df 593d 33d7 223e ab41 673d
00000220: afbe 30bd 56f6 c93c 70f3 a43d 007f 05be
00000230: 2b28 713e 4bce 4e3d ef55 f13d 72dd 4ebc
00000240: 2136 30be 69db 463e 112f 0f3e 2b81 d83d
00000250: b275 b43d 8ee1 983d 09f7 2ebd 493d 223e
00000260: 4cc3 b5bd fc44 5fbc 6803 50bd 5b3f 1d3d
00000270: f01b 1ebc 7bac 073e d226 e23d 7637 3bbd
00000280: 94db 13bd 3342 373d cdad 7e3d 65ed f53d
00000290: 2f36 12be 49a5 053e a5ba b8bd 8e80 7b3c
000002a0: 471c 0a3e 8f02 c33d a489 12be f1af 443e
000002b0: 9a11 243e 15ae c53d 43d7 cd3d b03b 123e
000002c0: 0a74 503d af0e 69bc f3dc 0e3d 76fa 6cbd
000002d0: fec6 f43c 4926 15be b5f9 313e d9cc 643e
000002e0: a573 a9bd 7ce8 31be e0a9 a5bd 38da dfbc
000002f0: 1202 873b 268f f13d 0719 c7bc 205b 44bd
00000300: 9b6a e8bd 71a7 d73c 7fab 82bd 17a6 92be
00000310: bcd9 7dbd 2ebc e33d 54a6 c43c 6c79 39be
00000320: a91d b4bd 6b48 77be 8925 85be 71ee 143d
00000330: c4ce b43d ebdb dc3d a9dd acbd 7820 aabd
00000340: ed18 3d3d 6f37 8c3c e623 46bd db5f b9bc
00000350: 37c4 1a3e 4d3c 403d d27a ecbd 3b59 a83d
00000360: cfb0 b4bd 9a2c 853e 8f39 093e 6a39 02be
00000370: 5b4c b33b 2dae ed3d e9d8 4bbe 547c 19be
00000380: 59f6 f43a c379 bfbb d373 45be 59c6 b7bc
00000390: 323b f4bd 74f7 8a3d cfe4 333e 31e9 323e
000003a0: de3e 86bd 54ef 973d 2b0f fd3d 5c1f 83bd
000003b0: 05b3 5b3e a85a ad3b 3314 b8bd 4820 15be
000003c0: 425d 13be d952 353e f22e df3d a265 ee3d
000003d0: 5509 62bc 1e77 96bd 4432 d9bc 2ecb 57bd
000003e0: be9c 91bb b4ef 82be 5bd9 e03d c22b 00be
000003f0: d573 97bd 80a1 6d3d 44db 1f3c d091 39be
-0.18158501 -0.16908607 0.07025771 0.018001463 -0.046553895 0.057843797 -0.22816281 0.14299072
-0.12410815 0.010433161 0.15112972 -0.05504283 0.052580785 -0.060811505 -0.18357642 -0.18038292
0.15059596 0.032183703 -0.23102807 0.10649911 -0.21253933 0.13593148 -0.20921786 -0.014365264
-0.021400271 -0.024991028 -0.056421466 -0.13926356 -0.30135956 0.0022591855 -0.0879145 -0.054062214
-0.079981714 -0.16870113 -0.040291756 0.077963844 0.08247407 -0.12813936 -0.060907252 -0.14396958
-0.082715824 0.04169689 -0.044807404 -0.09328237 -0.02116634 0.17196916 0.011820376 -0.11403919
0.11333583 -0.17487644 -0.13754013 -0.15207696 -0.07086929 0.10560922 0.059513286 0.010214239
0.003212139 -0.10755682 0.01950176 0.035934955 -0.06894297 -0.065124884 0.009653404 -0.050624892
-0.13051729 0.08126487 0.020266548 -0.15829276 -0.116910756 -0.03999834 -0.1665088 -0.07899448
0.03133295 0.025533553 0.09405166 -0.0032276358 -0.21088842 0.16695525 0.13563879 -0.015325942
-0.17597422 0.14392726 0.16784228 0.041898016 -0.05854199 0.037976433 -0.05603276 -0.1563735
-0.04443514 0.012231855 0.018575665 0.16639982 0.123186834 0.043909438 0.17337316 -0.09905656
-0.23597436 0.12417128 -0.00091578875 -0.18756415 -0.226666 -0.023730393 -0.06534964 0.06625168
0.03587521 0.05612038 -0.13851082 0.13238797 -0.26473302 -0.028914543 0.017465718 -0.034748457
-0.04526606 0.15349023 -0.12859625 -0.016732005 -0.06717683 0.09952722 -0.13565655 -0.09806791
0.009220152 -0.05231808 -0.08666565 -0.18285535 -0.16984858 -0.03378219 -0.08748802 0.02996461
-0.08601872 -0.08262737 -0.20627043 0.0923061 -0.16210358 0.053191207 0.15902404 0.05645911
-0.0431506 0.024653595 0.080542445 -0.13036728 0.23550479 0.050489705 0.11783969 -0.012626039
-0.17208149 0.19419636 0.13982798 0.10571512 0.08811511 0.07464896 -0.04271606 0.15843691
-0.088751405 -0.013627287 -0.0507845 0.0383905 -0.0096502155 0.1324939 0.11042561 -0.04570719
-0.036098078 0.044740867 0.062177468 0.1200817 -0.14278482 0.13051333 -0.090199746 0.015350474
0.1348735 0.095219724 -0.14310318 0.19207741 0.1602234 0.09652344 0.100508235 0.14280581
0.050891913 -0.014224692 0.034878682 -0.057856046 0.029880043 -0.14565386 0.17380412 0.22343768
-0.082740106 -0.17373842 -0.08089042 -0.027325734 0.00412012 0.117948815 -0.024303926 -0.047938466
-0.113484584 0.02632496 -0.063803665 -0.28642341 -0.061975226 0.11119877 0.024005093 -0.18112725
-0.0879472 -0.24148719 -0.260052 0.036360208 0.088285 0.107841335 -0.08440716 -0.08306974
0.04616635 0.017116277 -0.04837408 -0.022628715 0.15113913 0.046932507 -0.115468636 0.08220144
-0.08822786 0.2601059 0.13400863 -0.12717214 0.0054717488 0.11605487 -0.19906963 -0.14988834
0.001868914 -0.0058433725 -0.19282465 -0.022433447 -0.11925353 0.06785479 0.17567752 0.17471768
-0.0655496 0.07418695 0.12356409 -0.06402466 0.2145501 0.005290348 -0.08988228 -0.14563096
-0.14391044 0.17707385 0.10897626 0.11640479 -0.01379617 -0.073469386 -0.026513226 -0.052684
-0.004443734 -0.25573504 0.10978957 -0.12516692 -0.0739514 0.058015347 0.009756867 -0.1812203

decoder.2.bias f4 [64]
00000000: 8432 7b3e f085 43bd 9df5 223e 30ed 113e
00000010: 301c 593d a08d 46bd 9fc4 473e 540c 803e
00000020: e405 e9bd 7801 0e3e 2ca4 adbd 244a 483e
00000030: 87b2 b83d 4988 babd d806 313e 99a3 96be
00000040: 9474 433d 4fd6 34be 6390 4d3e 434f cd3d
00000050: e72e 1dbd 6641 363e 7f5d d33d e6dd 9ebd
00000060: 3f7a ebbd 3a4e e33c 2e55 2f3e 3a97 fdbd
00000070: 22cc 63be 868c 803e b829 a03b ebec babc
00000080: 9f7a 8f3e 0d71 bc3d 869a cdbd 1cb7 3c3d
00000090: 84a9 983b 9ab3 443e 211c babd ab69 ea3c
000000a0: 1c20 30bc ac0d 0bbc 22c5 efbd 72e0 203e
000000b0: 4ca3 7a3e 8be9 30bd e958 b3bc 6608 3e3e
000000c0: 5a5e 543e 858b 2bbe 5df0 663e 1dbb 123e
000000d0: fd45 42bd a638 27be 03ab 0f3d 154b 033e
000000e0: 9258 da3d 77bc 56bc f0f3 3dbe 4053 d43c
000000f0: 7693 3a3e 4de0 763d 1716 99bd 49d6 1dbe
0.24530989 -0.047735155 0.15914007 0.14250636 0.053005397 -0.048474908 0.19508599 0.25009406
-0.11378077 0.13867748 -0.08478579 0.19559532 0.090184264 -0.091080256 0.17287767 -0.2942169
0.0477186 -0.17659877 0.2007461 0.100248836 -0.038374808 0.17798385 0.10320567 -0.077571675
-0.11497926 0.027747262 0.17122337 -0.1238236 -0.22245839 0.2510721 0.0048877858 -0.02281805
0.2802324 0.0920125 -0.10039239 0.046073064 0.0046588797 0.19209138 -0.090873964 0.02861484
-0.010749843 -0.008487146 -0.11707522 0.15710619 0.24476355 -0.043191474 -0.021892982 0.18557891
0.20739117 -0.16752441 0.22552629 0.1432919 -0.047430027 -0.16330203 0.0350752 0.1282161
0.10661425 -0.013106457 -0.18550086 0.025918603 0.18220314 0.060272504 -0.074749164 -0.15413775

decoder.4.weight f4 [128, 64]
00000000: fd1d 323d 3815 d4bd 5187 433e 2540 47bd
00000010: 3bd6 b53d 6a7f 2c3e 3f44 1b3e 6eca 433e
00000020: 1039 8d3c a10c 77bc 18a0 ef3d 3d0f 89bd
00000030: 13d5 0c3e 7af1 0dbe 731f 4e3e 409c 93be
00000040: 169d a33d d082 4bbd 87f2 d73d b202 2aba
00000050: 64d4 cfbd f39a 0fbd 1460 53be 78c1 fd3d
00000060: 6fd3 f6bc e6e9 133e 9492 fe3d ca26 c8bd
00000070: 9fc6 03bf 514d dbbd 89cc e5bd 0e54 0c3e
00000080: 9111 c43d dddf db3c 6c47 0cbd 358b 2c3e
00000090: 3a93 503d af38 513d bef4 9cbd 2462 d1bb
000000a0: 1037 9a3d d356 903d 719e 1c3c d3cf 193d
000000b0: 8ab1 35bd 5481 613c 5e3d 81be cc30 e3be
000000c0: 9719 0ebf 1131 69bd cfed 9e3d dd68 523d
000000d0: a7ae 24be a8b5 c43e b236 823c 1c6e 1cbe
000000e0: 92f7 8a3c 9e94 e4be 5514 88bd b4d1 c73d
000000f0: d8af 4f3c 2451 4bbe 28c9 6d3d 70c5 d5bd
00000100: d5e3 babc 843e f1bd b9b1 083e 6cd3 1fbd
00000110: 5000 1c3d 3c8a b53c cde5 abbc ca3d 0cbb
00000120: e097 12bc f564 e43d 3562 2bbd 1f95 da3d
00000130: bd99 a23d 9da0 5fbd ef72 133e 312f c1bd
00000140: 9f28 3abd e281 d0bd cf92 693d 5c21 9cbc
00000150: 4e84 df3d 6990 60bd 7d40 1ebe c262 fb3d
00000160: 9ca2 d83a a2a9 043e d437 903c cae8 97bd
00000170: d421 9e3c 8c6a ee3c 3f57 30bd 7619 f3bc
00000180: f913 9fbd 2f54 96bc 3a25 35bd 5b46 963d
00000190: dfda c4bd 5d01 c73c 4a32 9abd 5ef9 bbbd
000001a0: 5673 f23d ae10 b53c ee63 593d c0a3 0a3e
000001b0: ef84 cebd b175 c43d ca33 e1bd 2e5c 75bc
000001c0: 9e85 09be 9121 9fbd 2002 ca3d c76e d43d
000001d0: 81bf c9bb 2529 99bd 5ad0 55bd 5571 d13c
000001e0: 90ce d4bd 1997 cabc ed93 1ebe f6ac d63d
000001f0: f5e3 d23c 4757 9bbd ae47 fbbd 2662 d8bd
00000200: 34e6 72bd f687 e3bd 3eb3 a03d 4b51 163e
00000210: 69b7 253d fe56 94bd 0ff5 9d3d 9d2e 1fbc
00000220: c0f9 3c3d a694 883c ef3f 05bd d12c 9b3d
00000230: 4847 97be 0cd0 9c3d ffd9 e43c d53b ecbd
00000240: 9f72 133e 488b cebc db72 a63d c8fe e9bd
00000250: b958 a7bd fc35 cdbd a7a5 acbd 6a1c b03d
00000260: c8a6 e5bd db54 a33d 8295 0ebd 70da abbc
00000270: 7d8c 783d 5131 4b3e 3a96 7c3d fff8 e23d
00000280: d9dd cabd c114 3fbe 35fd c33d b4da ee3c
00000290: 8e1c c6bd aa9c 09bb 18c1 b83c 3b60 8a3d
000002a0: 78dd 68bd 5019 8c3d 0df4 f2bd df44 b23c
000002b0: cded c83d 4889 033e 674e 8abd 3b53 123c
000002c0: aa64 0ebd 0751 d63d e8ad 9dbd 9883 0d3c
000002d0: baa9 c6bd 6ed9 a1bd c618 523b 5210 9fbc
000002e0: d3e9 85bc 4f29 fdbc eb0b a6be 1b66 0a3e
000002f0: f488 44bd c3d7 143e c681 f5bd 4080 6d3d
00000300: 00d5 683d 803d bfbd 0317 d93c c1bf eb3d
00000310: f546 823d 78de c33d 0128 07bc bdd1 6abd
00000320: c4ac f33d ea18 f7bd ea07 943d 18c1 a23c
00000330: e608 b1bd b440 fe3c f112 023d d67b b73d
00000340: 186a 213a 62d4 8e3d f9a5 06be 548e 3d3d
00000350: 437c 73bb d003 15be 885b 45bc eec3 f43d
00000360: fbad afbd dda7 7d3c e843 a0bc c0f2 1a3d
00000370: e7bd 073e 14c0 4e3e c705 ae3d d0f9 3ebd
00000380: 1f94 a3bd 5e1a 903d cf91 9cbc d9a3 36bd
00000390: 40ea e63c d5d8 3cbd 1d49 b63d f99f c33d
000003a0: 9c19 d93d 4350 e73a 797e f73d 98b5 c1bd
000003b0: a499 b83d 55c5 013e 0b71 203e 2b53 db3d
000003c0: 4acf 63bd 9238 71bd 7cb4 b7bc 16b3 723d
000003d0: 6d05 fd3d a695 913b 5b2a 3a3d 8f9f e93d
000003e0: dc57 eebd a931 583d 34df 993d 1098 143e
000003f0: a5a4 103e 47b2 9b3d d8fe 80bc 7085 743c
0.04348563 -0.1035561 0.19094588 -0.048645157 0.08878752 0.1684548 0.15162753 0.1912019
0.017239124 -0.015078695 0.11700457 -0.066923596 0.13753156 -0.13861647 0.20129184 -0.28830147
0.07988946 -0.0496853 0.10544305 -0.0006485387 -0.10147932 -0.03505988 -0.2064212 0.12390417
-0.030130116 0.14444694 0.12430301 -0.097730234 -0.51474947 -0.10708106 -0.112206526 0.1370394
0.09573663 0.026840145 -0.0342478 0.16849978 0.050921656 0.05107945 -0.07663868 -0.006389873
0.075300336 0.070478104 0.00955926 0.037551712 -0.044358768 0.013763744 -0.25242132 -0.44373167
-0.55507797 -0.05693156 0.07760202 0.051369537 -0.1608225 0.38419843 0.015895221 -0.15276378
0.016963754 -0.44644636 -0.06644503 0.097567946 0.012676202 -0.19855171 0.058053166 -0.10438049
-0.022813717 -0.11779502 0.13349046 -0.039019987 0.038086236 0.022160642 -0.020983601 -0.0021399134
-0.008947343 0.111520685 -0.041841704 0.10672974 0.079394795 -0.054596532 0.14399312 -0.09432829
-0.045448896 -0.10181023 0.057024773 -0.019058876 0.10913907 -0.05482522 -0.15454288 0.12274696
0.0016527954 0.12955335 0.017604746 -0.07417448 0.01930324 0.02910354 -0.043051954 -0.029675227
-0.07767481 -0.018350689 -0.044224955 0.07337638 -0.09612059 0.024292642 -0.07529123 -0.091784224
0.11838405 0.02210268 0.053073816 0.13539028 -0.10083949 0.0959276 -0.10996206 -0.014975591
-0.13429877 -0.07770074 0.098636866 0.103726916 -0.0061568622 -0.07478551 -0.052200653 0.025566736
-0.10390961 -0.024730252 -0.15486117 0.104822084 0.025743464 -0.07585006 -0.12269531 -0.10565595
-0.05930157 -0.11109917 0.07846688 0.14679448 0.040458117 -0.07243155 0.07712757 -0.009715703
0.046136618 0.016672444 -0.032531675 0.075769074 -0.2954657 0.07656869 0.02793598 -0.115348496
0.14399193 -0.025212899 0.08127376 -0.11425549 -0.081712194 -0.10020062 -0.08430033 0.085991696
-0.112134516 0.07975169 -0.03481055 -0.020978183 0.060680855 0.19843031 0.061666705 0.110826485
-0.09905595 -0.1866026 0.0956978 0.02915702 -0.09673415 -0.002099792 0.022553012 0.06756636
-0.056851834 0.068407655 -0.11862955 0.021761356 0.09810982 0.12845337 -0.06753235 0.0089309765
-0.03476397 0.104646735 -0.076991856 0.008637331 -0.097003415 -0.079027995 0.0032058223 -0.019416962
-0.016346848 -0.030903487 -0.32430968 0.13515513 -0.04798217 0.14535432 -0.11987643 0.057983637
0.056843758 -0.09337902 0.02650023 0.115111835 0.0636119 0.09563917 -0.008249284 -0.05732893
0.11898187 -0.12065299 0.07228072 0.019867465 -0.08644275 0.031036712 0.031756345 0.08959167
0.0006157472 0.069741026 -0.13149251 0.046278313 -0.0037152923 -0.14552236 -0.0120457485 0.11951433
-0.08578106 0.015481916 -0.01956363 0.03782916 0.13256036 0.2019046 0.08497196 -0.04662496
-0.07987236 0.07036279 -0.019112496 -0.04458985 0.028187871 -0.046105225 0.08900664 0.09551997
0.10600588 0.0017647821 0.120846696 -0.094584644 0.090136796 0.12672932 0.15668122 0.107092224
-0.055617608 -0.05889184 -0.022424929 0.05925282 0.123545505 0.0044428883 0.04545055 0.114073865
-0.116378516 0.052781735 0.07513276 0.14511132 0.14125307 0.07602363 -0.015746519 0.014924392

decoder.4.bias f4 [128]
00000000: d618 693d c41e ef3d 00d1 93bb b727 a8bc
00000010: d2b8 50bc 4ea6 debd 8f40 22be 607f 3abd
00000020: 4f90 6f3d 9143 943d 949f cc3d 6a55 23be
00000030: a246 b73d 0b23 113e 7f92 403d c0c1 bb3c
00000040: b2e4 103e 1415 f0bc 76a6 103d 4074 1abd
00000050: 4187 443d f9ea 0b3e a213 2b3d 10b5 1bbe
00000060: 7b52 9abc 8476 883d d306 dfbd 1544 24bd
00000070: 2ed5 bf3d b307 e5bd 36e6 e93c 10a8 243e
00000080: 0e0c 3a3e 8b32 2b3d 6c47 efbd 2453 97bd
00000090: b114 86bd 8c6c 84bd 79bd 223e 2914 2d3e
000000a0: aee9 7bbc 1471 863c a0eb 6ebd ec2d 293e
000000b0: 113d 12be 3a4b eb3d c4eb cebd 835c d8bd
000000c0: 2a5d c03c 1a9c 383e 756a 023e 0c46 99bc
000000d0: 09ae 92bd b689 c5bd 8e71 8a3d cacf 0b3e
000000e0: b545 9a3d 431e 123e 03fd c73d ed8d f2bb
000000f0: 0da3 3dbd 6109 213e 0c68 03bd be0f b0bd
00000100: abab 02be cffb 8a3d eb4e 20bd e49b b73d
00000110: 9023 973d 3631 c3bd 0cea 073c 18e4 363b
00000120: 12a8 eb3d 4c12 ffbd 5376 203d 65a6 8c3d
00000130: 6e9c 2bbd 83c1 abbd 8e54 433e c1c7 1a3d
00000140: c67d 8d3d d792 0dbb ccca 3ebd 9011 873d
00000150: d500 6bbc e176 9abc 384d 433d 502b 723d
00000160: cbda fe3d 7c08 033e 84f6 023d 407c da3d
00000170: 2c92 583c ac91 273d 04ee d2bd 3db0 7a3d
00000180: 8a2e 073e 0a78 1e3e e085 033e ce88 00be
00000190: 3d9f 9ebd 47f6 323e c234 133e e681 303b
000001a0: 04e7 943d ee44 1d3e 1447 fabd b86d 663d
000001b0: b088 fe3d b60e afbb 813c 283e 4d09 1a3e
000001c0: 30ce 053e ac0b bb3d 0fa5 fb3d 5e0a 74bd
000001d0: 58ae e8bc d3aa 0b3e 71c6 313b 6c7f 89bd
000001e0: 6ece 1f3e dc05 073e 2dcc e33d b0d9 fcbd
000001f0: 7a23 9bbd c8b5 1b3e a6f4 42bd baaf 173e
0.05690845 0.1167579 -0.0045109987 -0.02052675 -0.012739377 -0.10871564 -0.1584494 -0.04553163
0.058487233 0.0723945 0.099913746 -0.15950552 0.08949019 0.14173524 0.04701471 0.022919536
0.1414974 -0.029306926 0.035315 -0.03770852 0.04798055 0.13663854 0.04176677 -0.15205789
-0.018838158 0.0666323 -0.108899735 -0.04010399 0.09366833 -0.11183109 0.028552156 0.16079736
0.18168661 0.04179625 -0.116835445 -0.07388905 -0.06546915 -0.06466016 0.1589259 0.16902222
-0.015375538 0.016411342 -0.05833018 0.16521424 -0.14281107 0.11488958 -0.101035625 -0.1056452
0.023481924 0.18028298 0.12735923 -0.018710159 -0.07162101 -0.09645407 0.0675994 0.13653484
0.07532827 0.14269356 0.09765055 -0.007402173 -0.046298075 0.15726234 -0.03208165 -0.085967526
-0.12760799 0.0678631 -0.039137762 0.08965281 0.0737983 -0.095308706 0.008295547 0.002790695
0.11506666 -0.12454662 0.039175343 0.06867675 -0.04189723 -0.08386519 0.19075224 0.037788156
0.06908755 -0.0021602416 -0.04658012 0.06595147 -0.01434346 -0.018855514 0.047681063 0.059123337
0.12444075 0.12796205 0.031973377 0.1066823 0.013218444 0.040910408 -0.10299304 0.06120323
0.13201347 0.15475479 0.12844038 -0.12552187 -0.07745216 0.1747676 0.14375594 0.0026932894
0.07270625 0.15358326 -0.12220588 0.05625698 0.12428415 -0.00534233 0.1642933 0.1504261
0.13066936 0.091330856 0.12287342 -0.0595802 -0.028403446 0.13639383 0.0027126337 -0.06713757
0.1560609 0.13185829 0.11122928 -0.12346208 -0.07575126 0.15206063 -0.047596596 0.14813128
