Save-Models/model-lat1.pth (torch, 190946 bytes, 15 tensors)

encoder.0.weight f4 [128, 99]
00000000: 022f 37bd 6971 1e3d bfb0 2dbd b294 dabd
00000010: 8e30 a73d 271e 64bd 0398 49bc 5f25 403d
00000020: 278e b6bd 3a2a b9bd b008 4ebd 326c 953c
00000030: 3d3e 00bd 1c97 23bd a60a 583d f653 ddbd
00000040: abda dc3b 19b6 2d3d af69 acbd 51f6 313d
00000050: 1b6b 33bd 7623 73bd 840f e1bd 729f 683d
00000060: 0204 07bb 0308 23bd 2719 473d ce1c 13bd
00000070: a42f 84bd c6cf 4d3d 090f 97bd 1aeb 4c3d
00000080: e0eb 8b3c 2b00 30bc 82ba 9c3d 8cfd a8bc
00000090: 28cc d13c b36c 41bd 8d32 09bd 22aa 913c
000000a0: 08ff 51bd 9948 86bb 434d edbd 6800 36bc
000000b0: e4c3 2a3d cae6 dabd d17a bcbd 32ec bcbd
000000c0: ef44 2e3d aba6 29bd 74dd fcbb 4432 34bd
000000d0: 5a86 1abc d000 d4bd 24a7 a13c 809c 053d
000000e0: 83ad 9e3d 7e1d 523d f12c 65bd 01cd 8b3d
000000f0: 9c01 8bbd 4e25 773d afb3 87bd 0aa9 29bd
00000100: a96c ac3c 63ee a13c d02e af3d 6d7e 923d
00000110: 7711 bf3c 6720 41bd 7983 7f3c 0499 a4bc
00000120: ec49 793d 2505 a13d 134c c1bd 258f 5bbd
00000130: 5a70 04bd 0657 96bc f7e0 833c f55f fa3c
00000140: a3e6 55bd cdf2 6b3d bdfc d2bd 6add cb3c
00000150: 8807 cebd 328b 7dbd 34e7 b7bd ca65 233d
00000160: 106a b4bd 3c59 1dbc 6eda 92bd ed6a e7bc
00000170: 3171 423c d330 c2bd 37da 7ebc b7b1 a33d
00000180: 0044 71bd 3cf4 50bd e737 f2bc 03ec 83bb
00000190: 27ab 9ebd 76ae e2bd 06c5 d0bd 22db 6cbd
000001a0: fee8 ad3d 290f 0abd e628 a0bc 39fd fbbc
000001b0: 7fbe c03c 4521 e43c 10e3 693d 64cc c03c
000001c0: 4676 4b3c dae4 ce3a 9288 91bd d8a8 02bc
000001d0: 7a4d debd 48da 1dbd 3e74 3d3d d57a d4bd
000001e0: 616e f6bc d7d4 cfbd 232f 343d ec37 323d
000001f0: fc92 e8bd d384 bebb 38eb 78bc 86d1 14bd
00000200: 0faf 793d 9303 2abd a768 9cbd bd16 483b
00000210: 3b20 26bd ef01 84bb 9f2a c0bd a48b 09bd
00000220: 95de 193d 5915 8a3d fbd6 a0bd bcc4 653b
00000230: 5713 49bb 6f3c d33c 8f45 a9bd 5665 293d
00000240: af97 cebd 1c8c c7bd 364e a7bd 4d29 593d
00000250: c6c6 113d 9dc3 82bd 9df1 dbbd fa29 78bd
00000260: cc81 47bd 6b24 863d 0ff7 c93c 53e9 673d
00000270: 5a34 e7bb 47ca ebbc 0200 69bc b1d5 b9bc
00000280: a4b3 b6bb fbd0 543d 16e1 20bb 10dc ccbd
00000290: 4072 af3d cfb7 31bc 42be d3bd d15c 95bd
000002a0: 7539 963d 7d08 d6bb 2c91 433d 068c f83c
000002b0: 892b b5bd 108b b8bd ec4b c03b db64 ef3a
000002c0: 583c 303c f328 333c 3be4 443d 94de 893b
000002d0: d821 a4bd a120 8c3d b47e e5bc 5f73 a9bd
000002e0: 52cf 123d 3322 44bd 1345 c1bc 6af4 80bd
000002f0: 8162 b4bd b3cb 123d 07aa 953d 1e1d d8ba
00000300: c5b5 d8bd ee67 88bd 9130 28bd 505a 5b3d
00000310: 504f b4bd 4f37 c93c aa86 90bd 8072 17bd
00000320: c8ae be3c 68ca cbbd 6cbc afbd 8443 92bd
00000330: 9cdd 8d3d 79e3 94bc 1f88 0dbd 4610 1f3d
00000340: d67d 7bbd 0376 c3bd 7684 a2bd ed7e 7b3d
00000350: 7f50 2ebd 1e21 5cbd c4c1 ce3b bf03 c7bb
00000360: 0a5a 913d 81fc b13d 6edd bdbd 303d fd3c
00000370: 8824 d8bd 96be c8bc a7a6 a6bd 590c 99bc
00000380: 7101 b5bc c814 a03d b0f9 0c3c 3ee6 77bd
00000390: 4ec6 a73b 19b4 36bd ae93 de3c 43a9 abbd
000003a0: 4eb3 e0bd 86f9 9fbd 71e9 883d c992 683d
000003b0: 5b24 44bd e6da ab3c 9ac9 0cbd 1e3c d93b
000003c0: d874 a73c 4aaa 073d ce4a b4bd 375c af3c
000003d0: b127 d9bd ec87 8abd aa2b 9dbd 240a 3a3d
000003e0: 4849 273d cc55 043d d4f4 e0bd 593d 933d
000003f0: ca28 f63c 6007 1dbc b90b 10bd c088 5dbc
-0.044722565 0.038682375 -0.042404886 -0.10672893 0.08163558 -0.055692818 -0.012304309 0.04691064
-0.08913832 -0.09041257 -0.050301254 0.018240068 -0.031309355 -0.03993903 0.05274453 -0.1080703
0.0067399344 0.04240999 -0.08418595 0.043447796 -0.043803316 -0.05935999 -0.109892875 0.056792684
-0.0020601754 -0.039802562 0.04860797 -0.035916142 -0.06454399 0.050246976 -0.073759146 0.050028898
0.017080247 -0.010742228 0.07652761 -0.020628713 0.025610045 -0.047222804 -0.033495475 0.017781321
-0.051268607 -0.00409801 -0.11587002 -0.011108495 0.041690722 -0.10688551 -0.09203113 -0.09224738
0.04254621 -0.041418713 -0.007716829 -0.04399325 -0.009431446 -0.103517175 0.01973302 0.032619953
0.077479385 0.051297657 -0.055951063 0.06826211 -0.06787416 0.06033831 -0.06626069 -0.041420974
0.021047907 0.019766992 0.08553851 0.0715302 0.023323758 -0.047150042 0.01559531 -0.020092495
0.060861513 0.07862309 -0.09438338 -0.05360331 -0.03233371 -0.018352043 0.016098483 0.030563334
-0.052221905 0.0576046 -0.10302112 0.024885852 -0.1006003 -0.061900325 -0.08979645 0.039891995
-0.08809292 -0.009603795 -0.071705684 -0.028249228 0.011867807 -0.09481969 -0.015554956 0.07992881
-0.05890274 -0.05101417 -0.029567672 -0.0040259375 -0.077474885 -0.11068432 -0.10193829 -0.05782617
0.08491705 -0.033705864 -0.019550752 -0.030760394 0.023528336 0.027847895 0.05710131 0.023534961
0.012418335 0.0015784756 -0.07106127 -0.007974826 -0.10854621 -0.038538247 0.046253435 -0.10374991
-0.03008193 -0.10148018 0.043990266 0.043510363 -0.1135616 -0.0058141737 -0.015192799 -0.03633263
0.060957965 -0.041507315 -0.07637148 0.0030531131 -0.04055808 -0.004028551 -0.09383129 -0.033580437
0.037565786 0.06742353 -0.07853504 0.003505989 -0.0030681693 0.025785653 -0.082652204 0.041356407
-0.10087525 -0.097435206 -0.081692144 0.053017903 0.035589956 -0.063849665 -0.107394435 -0.060586907
-0.04870777 0.06549915 0.02465394 0.056619 -0.0070558013 -0.028782977 -0.014221193 -0.022684904
-0.005575614 0.05195711 -0.0024548224 -0.10002911 0.08566713 -0.010847046 -0.10339023 -0.07293094
0.07335178 -0.0065317736 0.04774587 0.030340206 -0.08846194 -0.09010899 0.0058684256 0.001826431
0.010756575 0.010935056 0.04806922 0.0042074416 -0.08014268 0.06842161 -0.028014518 -0.082739584
0.035842247 -0.047884177 -0.023592507 -0.06296618 -0.08807851 0.035838794 0.07307821 -0.001648817
-0.10581545 -0.06660448 -0.04106194 0.053552926 -0.0880419 0.024562506 -0.07056935 -0.03697443
0.023276702 -0.09950715 -0.085808605 -0.07141784 0.06927034 -0.018174874 -0.034553643 0.03883388
-0.061399303 -0.09543993 -0.07935421 0.061400343 -0.042557236 -0.05374252 0.0063097198 -0.0060734446
0.07097252 0.086907394 -0.0927075 0.030912966 -0.10553843 -0.024504941 -0.08137255 -0.018682646
-0.022095414 0.07816464 0.008604452 -0.06052231 0.0051200753 -0.04460535 0.027170029 -0.083818935
-0.109717 -0.07811265 0.066851504 0.05678061 -0.047886234 0.020978402 -0.03437195 0.006629481
0.020441458 0.033121385 -0.0880333 0.021406276 -0.10603274 -0.06764206 -0.07674344 0.045419827
0.04084137 0.032308385 -0.10984197 0.071894355 0.030048747 -0.009584278 -0.03516743 -0.013521373

encoder.0.bias f4 [128]
00000000: d744 ddbd ca2c 6cbd fefb 1ebe b9f7 21bd
00000010: 906c 16be 6a66 e1bd 8eb8 823e b2f6 99be
00000020: 7e41 efbb 9563 2abe a5c4 66bd cb16 a2bd
00000030: b92e af3c 65ff 14be 9323 763c 6a31 0d3e
00000040: b103 f6bc e738 93bc cdcb 00be d789 9dba
00000050: 5ac1 d4bd 34ba febc 4a01 22ba 7631 debd
00000060: b074 04be 03c8 3fbe b207 9cbd ab11 77be
00000070: ef1c 09be 9cba b03c e95d 36be 56ea 36bd
00000080: 2690 c6bd 6d39 e5bd 2108 ccbd 0c6b 303b
00000090: affd b439 48b4 77bd 5b58 ddbc 65b7 cdbd
000000a0: 4892 f1bd 7417 babd f76a 13bc e3e5 25be
000000b0: 14d9 483c 450d c0bd ce07 edbd a1a4 4bbe
000000c0: 291a 2e3c ff9a af3d 3223 e4bd 9e90 3a3d
000000d0: 4f10 1b3e d146 b6bd f730 e33c 769e afbd
000000e0: 2471 54ba 43b4 fdbd 5a51 0abe 9b01 d5bd
000000f0: 5fdc 19be 11a3 66bd 6407 0cbe f5e9 733e
00000100: 7254 11bb 09bd 1abe 491a 9cbd 3fb5 1a3e
00000110: 12f4 c23d 197f 44be c91b aebd 05fc 2ebe
00000120: 05c5 d2bc 4b48 fb39 666b 01be 4d13 7fbe
00000130: 3d99 bd3b 3e37 15be e59d 90bd 1af5 90bc
00000140: 3c1e 283d 6d3c 13be 65d4 8bbd 24fd 31be
00000150: f5c3 053a 327c a2be 0f01 04be 32c5 3bbe
00000160: eb01 fabc d5ae 413d e943 10be f78e 3fbe
00000170: b4df bcbb c616 eebc ee6e d9bd 9e5d fcbd
00000180: 5f72 13be b807 ecbd 7826 5dbd 55b9 65bd
00000190: 02c4 103c 182e 34be 182b 01be d9e8 1bbe
000001a0: a31f 68bc 61ae 2f3d 3662 bdbd aae0 e6bb
000001b0: 97bb d6bd d675 21be 6a4c 47bd 7ef8 ccbd
000001c0: b78a 9abd ae72 8e3c 440d 673c 62f7 27be
000001d0: 981c 233d ac32 983e fb5e babd 430e e9bd
000001e0: 03ae 8cbc a217 fcbd a114 003d b51f 1cbd
000001f0: 4729 debd 7f30 0dbd ba71 d33c 0c95 d9bd
-0.10804146 -0.0576599 -0.15525815 -0.039542887 -0.14689851 -0.11005862 0.2553143 -0.30071026
-0.0073015084 -0.1663955 -0.05633988 -0.07914504 0.021384584 -0.1455055 0.01502313 0.13788381
-0.030031057 -0.01797147 -0.12577744 -0.0012019229 -0.103884414 -0.031094648 -0.00061800017 -0.10849278
-0.12935138 -0.18728642 -0.07618655 -0.24127834 -0.13389944 0.021573357 -0.17809261 -0.044657074
-0.09695463 -0.11192594 -0.09962488 0.0026919274 0.00034521284 -0.060474664 -0.02701967 -0.10044745
-0.11795479 -0.090865046 -0.00899767 -0.16200976 0.012258787 -0.09377531 -0.11573754 -0.1988702
0.010626354 0.08574485 -0.111395255 0.045548074 0.1514294 -0.08900226 0.02773331 -0.08575146
-0.00081040175 -0.12387898 -0.13507596 -0.10400697 -0.15025471 -0.056307856 -0.13674694 0.23819716
-0.0022175577 -0.15111174 -0.07622201 0.15108202 0.09519209 -0.19189109 -0.08501393 -0.17088325
-0.025728712 0.00047928313 -0.12638626 -0.24909706 0.0057860897 -0.14571854 -0.07061366 -0.017694999
0.04104446 -0.1437852 -0.068276204 -0.17381722 0.0005102747 -0.31735379 -0.12891029 -0.18336943
-0.030518493 0.047285873 -0.14088406 -0.1870688 -0.005763972 -0.029063594 -0.10616861 -0.123225436
-0.14399098 -0.1152491 -0.053991765 -0.05608495 0.008835794 -0.17595708 -0.12614095 -0.15225543
-0.014167699 0.04289091 -0.09247248 -0.007045825 -0.10484999 -0.15767607 -0.04865686 -0.100083336
-0.07545989 0.017388668 0.014102284 -0.16402963 0.03982219 0.2972616 -0.09100147 -0.11379673
-0.017172819 -0.12309195 0.031269673 -0.038116176 -0.10847717 -0.034470078 0.025811065 -0.106241316

encoder.3.weight f4 [64, 128]
00000000: b74c ce3d c3de 9d3c fe85 763d 8c95 a1bc
00000010: 5f3b c23d b5cb 2d3c 0544 cbbd 8f7a fdbb
00000020: 12f5 013d b9d9 4ebc 863a a53d 92c1 413d
00000030: b7cd 933c 905c 72bd 2920 643d 6cb9 7fbd
00000040: f58b a43d d3fa 41bc 822d c53d e30b 203b
00000050: e61b 80bd 5bc3 b33d c089 cd3c 26fe 45bd
00000060: fe70 9dbc 6a03 d43d d8a7 883d 4186 b03d
00000070: b35d 563d 0e9f 9ebc 4521 463d 0205 1cbd
00000080: 2680 213d 8c90 2b3d c9d5 9b3d 6303 923c
00000090: 2827 733d d74c 533d fdd5 fd39 a0b6 0a3d
000000a0: 1306 0abc a3f4 ba3d b3a2 f43c b3df a73d
000000b0: 857d 9e3d f838 a13d 7823 85bc bc31 9c3c
000000c0: 37bc 53bd a7bd f03c cdc0 693c fd51 30bd
000000d0: 0cd1 90bd 938f d9bc 4864 b43d 2184 083d
000000e0: 4869 d63c 638b 3cbc f2e8 28bd 3b49 2cbd
000000f0: dfd9 ab3d 3bcf d03d 3b48 a6bb 298e 713a
00000100: 5698 97bc f609 cb3d 798f 27bb a192 88bd
00000110: 9f33 a33b b4ba cb3c 01dd b33b 7bab f7bb
00000120: 55b4 193c d20f 0c3d 19b4 b53d 6757 1c3a
00000130: 572b 2fbd 98c2 42bd 982f c53d 5475 533d
00000140: 125d 0a3d b734 943d 9a01 863d c2ea 7c3a
00000150: 9991 c7bc db05 b33d 9463 74bd 07e6 913d
00000160: f25b ae3b e03d f4bc 7ec6 913d d6dd 37bd
00000170: 0bd4 4cbd 3a80 f73c e28f 363d 1c15 1ebd
00000180: fd95 37bd caca 9b3d f96e ec3d ceca 443b
00000190: 315e 933d 2af7 56ba 90dc 8a3d bbd4 6c3b
000001a0: ae72 fe3b 9131 233d eec6 8f39 c54f 4f3c
000001b0: 7d00 b53d e9b5 213d 5577 ffbc 6f02 acbc
000001c0: b728 873d 633f b83c fa3d 773d 3f56 c83d
000001d0: a9c8 30be e8c5 1bbd e319 34bc 9fe7 96bc
000001e0: 67a6 d93c d49d 573c 13a3 113d a62c 63bd
000001f0: 8536 4fbb f338 9f3c 5ee4 04bd 1029 0bbd
00000200: c69c c23a f297 21bc 9f98 59bd 886b 063d
00000210: dc02 3fbd c926 853d ce22 6e3d 8cb2 8bbc
00000220: 90d0 e33c 7514 bd3c 0117 f73b 64ec 4a3d
00000230: 57ea 1bbd d846 913c 371d e83c 671e 97bd
00000240: a05c b8bc 5d95 ac3c 5b59 703d e7b3 c93d
00000250: fba2 ad3d f28e 85bd 14ce be3d 6f1b c03b
00000260: adbe a73d eb45 6cbd 6bb8 1d3d d043 30bc
00000270: 30da 923d 268b 843d bc13 42bc d19b 853d
00000280: f6f9 66bd a0ba afbd 6a77 ac3d 2efb 2fbd
00000290: 27af 2e3d 87dc 063d a2e7 c73d 43bb 8dbd
000002a0: 9b92 36bc f6a7 51bd 8f87 883c e920 2f3d
000002b0: c3e5 a4bc 2349 2ebd 0339 833d d32f 64bd
000002c0: 4e8f e7bc 48e2 493c 3cd3 f5bc 17ec cabb
000002d0: 78a3 7f3c 4dd0 38bd 59d4 fcbb 3cf3 febc
000002e0: b84f 843d 72ab 8b3d c2a9 153d b232 8a3d
000002f0: 7c6e f0bc 9eaa acbd 9415 86bd 31f9 343d
00000300: d822 e3bd 0baf e13c 72fb 4f3d 2013 0bbd
00000310: aa5c 823c 1042 843d 6546 81bd ee63 15bd
00000320: c634 823d f5ed 4abc f50b 62bd 93ae f1bc
00000330: efe8 5bbd d370 45ba 4a44 4ebc 694c 19bd
00000340: 93f9 8e3d d5a9 48bc 30ee 5ebc 014f 813c
00000350: 59da 69bc 6fd2 203c d057 0abd c51d 3cbd
00000360: dd99 553d 8ff1 a0bd 1fb3 d6bc 75af ca3d
00000370: 3417 923d 20dc 5abd 7de8 5a3c 873a 2d3d
00000380: 0868 973d 75c5 373d c79b 84bb bd03 263d
00000390: ade3 ae3d ef1e da3d d4d8 6d3c fb36 3bbc
000003a0: efdd b03d 7f4d a93d d6f5 d83d 797d 823d
000003b0: fbc8 1abc cd2b 95bc f365 66bc 1d80 0f3d
000003c0: f9be 6d3c 2bb7 4b3c 0d84 d93c d4fb 1dbc
000003d0: f079 37bd 85f8 053c 0a98 333d 1c7c 9d3d
000003e0: bc64 e4bc f60d febb b886 94bd 9b94 0ebd
000003f0: 1445 623d 9435 333d 0ac2 983d ae55 3c3d
0.10073226 0.01927126 0.06018638 -0.01972463 0.094839804 0.01060765 -0.09925083 -0.0077355574
0.031727858 -0.012625151 0.08067803 0.047303744 0.018042428 -0.059170306 0.055694733 -0.06243269
0.08034507 -0.011839586 0.096278206 0.0024421148 -0.06255321 0.087774955 0.025090098 -0.048338078
-0.019218918 0.10352214 0.06672639 0.08619357 0.052335452 -0.019362953 0.048371572 -0.038090713
0.039428852 0.041885898 0.07609136 0.01782388 0.059363514 0.051586952 0.00048415354 0.03386557
-0.0084243 0.09128692 0.029862737 0.08196964 0.07738785 0.07872194 -0.016252264 0.019066684
-0.051693168 0.029387308 0.014267159 -0.04304694 -0.070711225 -0.02655772 0.0880819 0.033329133
0.026173249 -0.011507842 -0.04123778 -0.042062026 0.08391165 0.10195776 -0.0050745285 0.0009214604
-0.018505257 0.09914009 -0.0025567694 -0.06668592 0.004980519 0.0248693 0.005488992 -0.007558284
0.009381373 0.034194775 0.088722415 0.00059639517 -0.04276594 -0.04754886 0.096282184 0.051625565
0.033780165 0.07236617 0.06543274 0.0009648019 -0.024361419 0.08741351 -0.059665278 0.07123952
0.0053210193 -0.02981466 0.071179375 -0.044889294 -0.050006907 0.03021251 0.04457081 -0.03859435
-0.044820774 0.07607038 0.11544604 0.0030028108 0.071957 -0.00082002825 0.0678035 0.003613754
0.0077651357 0.039842192 0.000274233 0.012653296 0.08837984 0.039480124 -0.031184832 -0.020997254
0.065995626 0.022491163 0.06036184 0.09782075 -0.17264046 -0.038030535 -0.0109925 -0.018420992
0.026568605 0.013160188 0.03555591 -0.055462502 -0.003161819 0.019436335 -0.03244435 -0.033974707
0.0014847748 -0.009862887 -0.053124066 0.032817394 -0.046633586 0.06501538 0.05813866 -0.017052911
0.027809411 0.023081044 0.007540584 0.049541846 -0.03806528 0.017733976 0.028334243 -0.07378846
-0.022505105 0.021067316 0.058678966 0.09848767 0.08478352 -0.06521405 0.0931665 0.0058626453
0.081906654 -0.057683866 0.038505953 -0.010758355 0.07170522 0.06471853 -0.011845525 0.0652386
-0.056390725 -0.08580518 0.08421214 -0.042964153 0.042647507 0.032925155 0.09760977 -0.06920483
-0.011143352 -0.05118557 0.016666202 0.042755995 -0.02012909 -0.042550217 0.064073585 -0.05570967
-0.028266575 0.012322016 -0.030007951 -0.006192695 0.015602939 -0.045120526 -0.0077157435 -0.031121843
0.06460518 0.0681981 0.036538847 0.067479506 -0.029349558 -0.0843098 -0.065470845 0.04418296
-0.1109063 0.027549287 0.050776906 -0.033953786 0.015913326 0.06457913 -0.06312255 -0.036472254
0.06357722 -0.012385835 -0.055187184 -0.029502189 -0.05368894 -0.0007531766 -0.012589524 -0.037426386
0.06981196 -0.012247522 -0.013606593 0.015784742 -0.01427325 0.009815796 -0.03377515 -0.045926828
0.05214869 -0.07858574 -0.026208458 0.09896747 0.07133332 -0.053432584 0.013361094 0.042292144
0.07392889 0.044866044 -0.0040468904 0.04053091 0.085395195 0.10650431 0.014517028 -0.011426683
0.086360805 0.08266734 0.105937645 0.06371588 -0.009447332 -0.018209362 -0.0140623925 0.035034288
0.014510863 0.012433807 0.026552225 -0.00964256 -0.044794023 0.008176927 0.043846168 0.076896876
-0.027880065 -0.007753129 -0.07252258 -0.03480969 0.05524166 0.043752268 0.07458885 0.045980148

encoder.3.bias f4 [64]
00000000: 4bcb 0ebe 6f2e 93bc 77bd 55bd ef74 1dbe
00000010: a931 b2bd 2b34 a8bd 2299 833c 1582 03bd
00000020: a259 22be 0f03 0d3e 5023 ae3c 58ee 42bd
00000030: 2c99 0cbd 52dc f7bd 30f0 0a3d 748d a5bd
00000040: b93c 07bd acf1 c4bd 3a6b 06be 1e38 d83c
00000050: 65c6 21bd 20b4 48bb c8c7 23bb ac96 c9bd
00000060: c1d1 a2bc 5aec cc3c 5d15 85bd 008e cfbd
00000070: 229d b0bd 2c2b 0a3c 19ec b43c 9123 3c3d
00000080: 7f96 8f3c 08d4 373c 9b9d 6dbd ff3a db3c
00000090: 56ed f2bd c2ae 143c 7a0d 9a3c b4c3 983c
000000a0: 8a5c 96bd 1ec3 94bd 2acb 05bc d2aa 40bc
000000b0: 5513 d2bd dc3c 01be 4ce9 b63c be42 3abc
000000c0: cd8f 023d ef74 be3c 4d5f d2bd c1d0 b03b
000000d0: 800c 4f3d dc92 c73c 013b 88bd 5c73 88bc
000000e0: 14d9 fcba 48ca cd3c adca 10bd 1b96 263d
000000f0: ae99 76bc e8ec 27bd 0a3f 0a3d a089 edbc
-0.13944738 -0.017966477 -0.05218264 -0.15376638 -0.08700878 -0.08213075 0.01606423 -0.032106478
-0.15854505 0.13770698 0.021257073 -0.047590584 -0.034325764 -0.1210257 0.033920467 -0.08083621
-0.033016894 -0.09616408 -0.13126841 0.026393946 -0.039495844 -0.003062494 -0.0024990905 -0.098431915
-0.01987541 0.025015045 -0.06498215 -0.10134506 -0.08623721 0.008433145 0.022085236 0.045932356
0.017527817 0.011219986 -0.058011632 0.02676153 -0.118616745 0.009074869 0.018805254 0.018648006
-0.07341869 -0.07263778 -0.008166114 -0.011759477 -0.102575935 -0.12620872 0.022328041 -0.011368452
0.03187542 0.023249118 -0.102720834 0.005395979 0.05054903 0.02436202 -0.06651879 -0.01665657
-0.0019290769 0.02512087 -0.035349537 0.040670495 -0.0150512885 -0.040997416 0.033751525 -0.028996289

encoder.6.weight f4 [32, 64]
00000000: 3ef6 90bd ef1a 9abd ec78 f23c 109c 2cbc
00000010: bd84 04be 208d 9d3d a378 21bc 9f4a 8cbc
00000020: 6c7d 58bc bf7f 0bbe 2131 a73d f56c 4f3c
00000030: 4e04 dfbd 59a8 343d ab7a e23a 0896 9b3d
00000040: f4b7 91bd 51e5 803d 9177 40bd f209 2a3d
00000050: 0f61 29bd 5277 e03d 5c48 ff3d e57d 8dbc
00000060: 3021 05bd 29de c8bd bc77 953d e497 87bd
00000070: 9d0c 1e3c 7a3d adbd 3488 14bd d24b e7bc
00000080: 738f 8b3d 8211 82bc 331f 6d3d 8409 2d3d
00000090: 20f2 98bd f05c c23d 56c0 663d 4b26 82bc
000000a0: 787b 073e 5114 01be ac1e 2e3d 7937 c73d
000000b0: da42 013e 8345 a53c 70c5 b83c 37cd 8bbd
000000c0: 8838 8b3d 66eb 03bc c27b ed3d 2c9c cdbd
000000d0: 818d 2cbd 2b38 3bbd 5726 0f3e 4376 0f3e
000000e0: 23fc 8abc 3b2d f4bc b96d 173d cc37 a63b
000000f0: 7b49 0d3e db93 1a3c 96b1 193d a01e 4abd
00000100: ae22 7bbd c83b 4b3b 8771 e3bc 8956 2c3d
00000110: bc9f 60bd 363b b13d 66de 3a3d e290 1abd
00000120: 9ff7 0fbc 6e4e 10bd d166 b9bd 490d d1bd
00000130: 5744 8abd 1ec9 77bd 7216 093e a8e5 bfbc
00000140: 4270 92bd 5482 cdbd c2ec 743d c0a1 b5bd
00000150: 4820 16bd 3643 a9bd 5651 ba3d 217f 8b3d
00000160: e730 5d3d d22a 72bd b3b8 6a3d 13ff 10bc
00000170: 5cce 753d fed1 c73d 8185 533d 7bfd fabd
00000180: 1119 c83d cb9a 3fbd 6e7b f83d 1174 a43d
00000190: 9331 84bd 7092 2dbe 837c e0bd c44c 2dbd
000001a0: aded e03c 5d7e 92bd e87c 953d 9d61 1d3d
000001b0: 2a1f cc3d 05cd cebc 398f 0b3e fb0d 46bd
000001c0: 2ba4 51bd 3548 f5bd 59e2 68bd 5c16 aebd
000001d0: d580 7d3c b9b5 b7bb 6f7e 013e e039 963d
000001e0: 36d7 cf3d 5d8a 43bd 9165 d9bd 91f6 73bd
000001f0: 89af fcbc 8414 9a3b 8b03 973c f90c 35bb
00000200: 1b18 d93d dd1a a63d 3ee0 8a3d ac38 d33c
00000210: d081 ccbd 2483 6abd 90ef e2bd 1b9d 84be
00000220: 273f 1abc 2e37 fbbd dbe0 733d f55b e2bc
00000230: 8e6c 983d d083 04be 5058 b5bd c0f5 95bc
00000240: e861 843d 2696 81bd 567e 0abe 278f 2cbd
00000250: 2f53 ff3b 690c fc3d f8b3 be3d efa9 9c3d
00000260: 4f63 7ebc 74ca 1d3d 2d9e 1c3d a760 1fbd
00000270: 3738 ccbd a530 3f3d fb1b f3bd 7085 80bd
00000280: d3a3 2a3d 9c85 ba3c 0777 c83d a771 583d
00000290: a20d c33c 5340 c73c f894 1fbd eb56 bcbd
000002a0: fca6 9d3d ef4b e2bd 8889 bdbd 77db c43d
000002b0: 7ad0 e93d bc15 4e3d 2224 4cbd d5d6 313c
000002c0: 8ec6 fbbd d011 2dbe d242 1a3d 2548 f7bd
000002d0: 8009 9abd f127 7d3d e2fa 51bd 8da8 083e
000002e0: 1ed2 aabd 4ea6 d03d 13aa 05be 66c4 74bd
000002f0: 36c0 0abd 613a 133d b847 e13d 7cdc 5cbc
00000300: e834 c13d b71d c9bd eae3 c1bd 3afd dcbc
00000310: 0d5c ee3d 0235 19be eb62 0cbb a095 1c3d
00000320: 215e 73bd e722 dfbd 22aa 22be 60c3 c5bd
00000330: 2fba 893d 6ee7 c23d 210e c6bc 8a9e 0f3e
00000340: edbe 51bb 04ec bc3d 85cb e33d 03b7 4dbd
00000350: 39f3 f9bc 9496 b4bc 589c 01be 4bc2 12bd
00000360: 81bb bd3d b5aa 96bd f14d 3abd 7328 903d
00000370: 9a23 ac3d 171b 8a3c 54a3 413d 2251 0eba
00000380: 32e8 133d c8bd d9bd 6766 7dbd 014f c8bd
00000390: 1a19 6bbd a1dc c6bd 8a38 2fbc 402f f33d
000003a0: bc82 05be 5e0a e33d b00d c9bd f358 de3d
000003b0: 86da 17be 8700 cb3d 0556 c7bd 6a2e e93d
000003c0: e06b c63d cdb3 5b3d 2533 9abc e043 abbd
000003d0: 050e 713a 6aee 65bd 94c5 06be e87b 813d
000003e0: 6953 19bd f30a 49be 9e12 883c 97d9 6e3c
000003f0: f88c 0bbd f02a 833d 9849 f23d 1a92 8abd
-0.07078217 -0.075246684 0.029598676 -0.010535255 -0.1294126 0.07692933 -0.009855422 -0.017125426
-0.013213497 -0.1362295 0.081636675 0.012660255 -0.10889493 0.04410586 0.001727899 0.075969756
-0.071151644 0.06293739 -0.046989027 0.04151339 -0.041352328 0.109602585 0.12464973 -0.017271945
-0.032502353 -0.09807999 0.07298228 -0.06620768 0.009646562 -0.08458991 -0.036262706 -0.028234396
0.0681447 -0.015877489 0.057891082 0.042245403 -0.07468057 0.09490383 0.05633577 -0.0158874
0.13230693 -0.12605406 0.04250972 0.097273774 0.12623158 0.020174747 0.022555083 -0.06826251
0.06797892 -0.008051729 0.115958706 -0.10039553 -0.042127136 -0.045707863 0.13979469 0.14009957
-0.016965931 -0.029806724 0.036969874 0.0050725695 0.13797562 0.009434666 0.037522875 -0.049345613
-0.06131237 0.0031010974 -0.027764095 0.042074714 -0.054839835 0.08653872 0.045622252 -0.037735827
-0.008787065 -0.035231046 -0.09052814 -0.10207612 -0.06751316 -0.060494535 0.13387468 -0.023424938
-0.07150318 -0.10034624 0.059796102 -0.08868742 -0.03665188 -0.082647726 0.09097545 0.06811357
0.054001715 -0.059122868 0.05730505 -0.008849877 0.060011253 0.0975685 0.05164099 -0.12255379
0.09770406 -0.04677848 0.12132917 0.080299504 -0.06454768 -0.16950393 -0.10961249 -0.042309538
0.027457083 -0.07153008 0.072992146 0.03842317 0.099668816 -0.025244245 0.13628854 -0.048353177
-0.051181953 -0.11976663 -0.056856487 -0.085003585 0.0154726105 -0.00560638 0.12645887 0.073352575
0.1014847 -0.047739375 -0.106150754 -0.059561316 -0.03084542 0.0047021527 0.018434307 -0.002762614
0.10600301 0.081105925 0.06781052 0.02578386 -0.09985697 -0.05725397 -0.11080849 -0.25901112
-0.009414471 -0.12266384 0.05954061 -0.02763174 0.0744258 -0.12940907 -0.08854735 -0.01830566
0.06463987 -0.06327467 -0.13524756 -0.04212871 0.0077918987 0.123070545 0.0931167 0.076496
-0.015526607 0.038523152 0.038236786 -0.038910534 -0.0997166 0.04667725 -0.11870571 -0.06275451
0.04166014 0.022768788 0.09788328 0.052842762 0.023810212 0.024322664 -0.038960427 -0.09196266
0.07697865 -0.110496394 -0.09254748 0.09612172 0.11416717 0.050313696 -0.049839146 0.010854443
-0.12293731 -0.16901326 0.03766138 -0.12074307 -0.07521343 0.06180567 -0.05126465 0.13345547
-0.08340858 0.1018797 -0.1305316 -0.059757613 -0.033874713 0.035944346 0.110000074 -0.013480302
0.09433919 -0.09820121 -0.09467299 -0.026976217 0.11638651 -0.14961627 -0.0021421264 0.03822863
-0.05941594 -0.10895329 -0.15885213 -0.096564054 0.06724965 0.09516798 -0.024176659 0.14025322
-0.003200467 0.09224704 0.11122803 -0.05022336 -0.030511485 -0.022044457 -0.12657297 -0.035829823
0.09264279 -0.073567785 -0.045484487 0.07038965 0.08405228 0.01685862 0.047274902 -0.000542896
0.03611011 -0.10631901 -0.061865237 -0.09780694 -0.057396986 -0.097100504 -0.010694632 0.118742466
-0.13038152 0.11085962 -0.09817064 0.108568095 -0.14829454 0.0991221 -0.09733204 0.11385806
0.09688544 0.05363827 -0.018823216 -0.083625555 0.00091955095 -0.056135572 -0.13161308 0.06322461
-0.03743306 -0.19633083 0.01661044 0.014578245 -0.034069985 0.06404674 0.11830443 -0.06766148

encoder.6.bias f4 [32]
00000000: efc2 09be 5c57 c1bd e595 213d 89d0 a43d
00000010: 27b0 a83d f086 9b3d 86ed 45be aed7 16be
00000020: 6ad1 d13c 0b7c 2dbd 0a72 b93d ecf0 cebd
00000030: 3572 eebd 4f5a ab3c 97b9 85bd 8884 f7bc
00000040: 368c 20be 855d be3d 587b 54bd dae2 e6bc
00000050: d37a 363d ab18 b93d 0ed4 08be bfff edbd
00000060: 9333 41be fbc4 3bbc 4c0c 103d 5b2b c7b9
00000070: 52aa ab3a e8d9 ba3d 04ce c03d 162f e93d
-0.13453268 -0.094404906 0.03944959 0.080475874 0.082367234 0.07594097 -0.19328889 -0.14730713
0.025612552 -0.042354625 0.09054954 -0.10104546 -0.11642877 0.020917086 -0.06529539 -0.030214563
-0.15678486 0.09295181 -0.051875442 -0.028184343 0.044550728 0.09037908 -0.13362142 -0.11621045
-0.1886733 -0.011460538 0.035167977 -0.0003798854 0.0013097024 0.091235936 0.09414294 0.11385934

encoder.9.weight f4 [1, 32]
00000000: 78bf 153e b444 323e df95 353e 331e 3ebe
00000010: b13c de3d e3fa 283e 2538 13be 19a1 453e
00000020: 475e 263e dd25 02be 6ebe 9abd 7214 a8bd
00000030: c74a 34be 5a58 183e c046 22be 6317 2a3e
00000040: 4799 f63d 49a2 c73d 5fbd 873d d33f e6bd
00000050: 9cb7 b9bd 5d19 21be fbdb 44be 2784 103e
00000060: deee 35be 115a 373e 49c1 343e 1bee b03d
00000070: e399 a63d 9ea7 883d acb9 30be 27b6 c03d
0.14623821 0.1740902 0.17732953 -0.18566208 0.1085142 0.16501956 -0.14376886 0.19299735
0.16246901 -0.12709756 -0.07555853 -0.08207025 -0.1760665 0.14877453 -0.15847301 0.16610484
0.12040954 0.0974775 0.066279165 -0.11242642 -0.09068224 -0.15732332 -0.19224541 0.14112912
-0.17766902 0.17905451 0.17651857 0.08639165 0.0813482 0.066725954 -0.17258328 0.09409743

decoder.0.weight f4 [32, 1]
00000000: afd9 a13e 0aa0 63bf 0bd2 063f c1c0 1fbe
00000010: 6353 e0be dbc4 973e 83eb 4a3f c33f 133e
00000020: ec01 153e 57b2 093f ef51 ed3e d6ca 0c3f
00000030: 5147 333f 4530 1d3f f85e 473f 4bd8 213e
00000040: e397 433f 0452 54be f79b 5d3f 1f51 6dbf
00000050: 0ee5 61bf 33d2 a4be 3c39 7abf ebc9 29be
00000060: 5678 0b3f 3eb9 823e fc9e 653f 9935 e2be
00000070: 5ab0 6f3f 4097 f6bc 6c1f 38bf b98e 013f
0.31611392 -0.88916075 0.5266425 -0.15600874 -0.4381362 0.29642376 0.7926561 0.14379792
0.14551514 0.5378775 0.46351573 0.54997003 0.70030695 0.6140178 0.77879286 0.15805165
0.76403636 -0.20734411 0.8656611 -0.92701906 -0.88240135 -0.3219162 -0.9774358 -0.16580932
0.54480493 0.25531954 0.89695716 -0.44181517 0.93628466 -0.030101418 -0.71922946 0.506084

decoder.0.bias f4 [32]
00000000: d843 843f aa6a 94be ce89 0fbf d218 86be
00000010: 7e8e 5b3e 6d3f 55bf c2b5 23bf 08d1 49bf
00000020: d8ef e2bd 6336 28be af4e 393f f259 d5be
00000030: 1c7a f4be c7e8 4c3f 6af4 a93e a263 a2bd
00000040: 2b09 aabe 26a3 45bf b4d7 5cbf e6b6 773f
00000050: dc97 f73e cb8d 7f3e d520 1d3f 0f0d 0f3f
00000060: ceeb 503f 41ee 68bf 8fa5 4c3f f11f a2be
00000070: 7641 d03d b261 39bf b734 d63e 9d1d cc3e
1.0333204 -0.28987628 -0.5606965 -0.2619081 0.21441075 -0.83299905 -0.63949215 -0.7883458
-0.11080903 -0.16426997 0.72385687 -0.41670185 -0.47749412 0.8004269 0.33194286 -0.0792916
-0.3321012 -0.7720207 -0.86266637 0.96763456 0.48358047 0.24956433 0.6137822 0.558793
0.8160981 -0.90988547 0.7994012 -0.31664994 0.10168736 -0.72414696 0.41837093 0.39866343

decoder.2.weight f4 [64, 32]
00000000: 43e1 0abe 30a3 dfbd f572 0f3e e7b1 b5bd
00000010: 2501 14be e4c3 363d b4d2 1e3d 3489 033d
00000020: a09c a03b b289 dd3d e3d8 c1bd b39e ffbd
00000030: 6431 d4bd 0043 1f3b 3e5e e53d 0ad3 d4bd
00000040: a448 66bd ca50 dabd 7420 05be e039 45bc
00000050: bd9d 123e 7c97 40bd 3ea9 ebbd 4efa d33d
00000060: a4b5 5ebd 6bdf 09be e5ed 03be 49c3 0b3e
00000070: 0058 e8bc 2abc 0ebe a5b0 163e 7c3f 19be
00000080: ea92 b4be db20 a8bd 0f26 96bd b823 413d
00000090: 7530 81bd c6b8 d63d 2a8c 84bd 3f86 273e
000000a0: 02db a03d 1034 efbc bff9 71be e0b0 0abd
000000b0: 9c53 25be 4f63 06be 2a01 86bd b550 2cbe
000000c0: adb3 283e 7396 603d cc43 a8bd a8c0 333e
000000d0: 7a27 a83c 6f89 923d 7429 21bd 6c38 05be
000000e0: ee75 623c fe51 95bd 6da3 a9bd 66be 453e
000000f0: 44e0 453d 8ac8 a83d e62f dd3d 5482 323d
00000100: dbb1 0b3e b19f 973c 743a 323e f5c2 c13d
00000110: 9b9f e43d a5db 583d d6b6 b03d 212d d23c
00000120: 0e09 ca3c 6898 d43d 0dce 2ebe 33f7 bd3d
00000130: 3d3b 8ebd e2d2 d43c 7de2 273d 8252 2e3e
00000140: c2ed c8bd 4e2e e5bd f44a 033e 53aa 373d
00000150: d8ec 03bd 9a47 efbd 3c25 aabd b698 5c3d
00000160: 862f d53d 45d4 0ebe 250e 983d 63c2 08bd
00000170: b704 2d3e 42b7 b73d 59a0 e43d d080 b9bd
00000180: 9928 ddbc e7e8 303e ba1c b9bd f8a4 f13b
00000190: e815 fdbd ea1e c93d a064 243c 8fb2 0b3e
000001a0: 2ec0 ccbd 9d9d 85be 48e0 5f3d 9e64 ef3d
000001b0: 534d ebbd 29ac 78bd 5080 03be d413 f0bd
000001c0: d3db 38be 766e 14be f6ce c63d fa6e 4a3e
000001d0: 0996 413e eeff 393d 4d9d 1c3e 4308 0f3e
000001e0: a3f0 e13c fa6f 1cbe 658a aa3d 73bc cf3d
000001f0: 9d86 91be c0bf 323d 8c19 e3bd 250f 023e
00000200: e28c 00be f089 19bd cb57 47bd 5ec1 eb3d
00000210: e6b3 f63d 2d35 9dbd d3e8 9b3d 3cb5 42be
00000220: bb0f 59bd 1c36 10bd 7b8b 2dbc 1cf2 b23d
00000230: c1d5 8cbd e1a1 223d 107b 0e3b 6a9e c9bb
00000240: 23e5 18be f89c 09be 456b 133e d4b4 1dbd
00000250: 4004 c63c 86f6 b63d c459 f3bd 5868 e3bd
00000260: 0ced 5dbd 3e78 e6bc 9037 d33c 2083 f5bb
00000270: 1bae b33d f664 a33d c833 98bc 2502 ef3d
00000280: c860 613d b9b8 033b 12f0 8dbd ad2f f9bc
00000290: 30e6 dabc a775 793d ae50 693c 73ca 47be
000002a0: 1289 973d fc5f fc3d 5e5b 74bd 7d7f 89bd
000002b0: 6f14 133e 3306 fdbd a6ce 223e fb0a d73c
000002c0: c880 fc3c 18da a83d 8dbd e6bd 01c0 013e
000002d0: d706 f5bd 8f4b b43d 0964 d3bd 21fb 35bd
000002e0: 55a0 b03d 4e8c 163d 7a32 cb3d 66f9 49bd
000002f0: cc2c 19bd 00fb c83a cf50 323c a3d1 b3bd
00000300: 5026 16bd 7b74 ab3d 5c65 003e 3928 843d
00000310: d27f 3cbb f539 75bd 4268 fa3d 1737 e63d
00000320: 571e 623d 057f c7bc fa7a fd3d 67ac 123d
00000330: b253 e93b c578 70bd e767 083e 7dbc 303e
00000340: f250 023e 6575 a7bd 3f44 dcbd 3843 1f3d
00000350: 2fc2 88bd e67c 083d e522 0d3e e441 9439
00000360: 10d1 9fbd cd9d 813d 8f1e f8bc a0c5 233e
00000370: 49c7 1bbe 2067 d4bb 62b1 c73d 117a 323d
00000380: 7197 1ebe ffe4 09be ceef ce3d 643a 3a3d
00000390: 6885 f6bc a8a6 f2bd 624e f7bd 8a26 a93d
000003a0: c821 9fbc 597d 11be 7c79 01be 5f5d 083e
000003b0: 2533 e5bd d6b4 ea3d e06e 503d 199d 263e
000003c0: a0b6 7e3d 2e37 a53d 3eca b23d 6556 b4bd
000003d0: f174 17be c251 943d e62d febd bc0f 4a3d
000003e0: b808 05bd 66a9 10be 3fb9 b8bd e03d 32be
000003f0: 80b5 f93b 676f 033e 7ec9 d63d 37e7 29be
-0.13562493 -0.109197974 0.14008696 -0.08871823 -0.14453562 0.04462041 0.03877516 0.03211327
0.0049014837 0.10817279 -0.09465196 -0.12481441 -0.10360983 0.002430141 0.11199616 -0.10391815
-0.05622162 -0.106599405 -0.13000661 -0.012037724 0.14317985 -0.047019467 -0.1150689 0.10350476
-0.054372445 -0.13464133 -0.12883718 0.13648714 -0.028362274 -0.13938966 0.14715822 -0.14965624
-0.35268337 -0.08209392 -0.07331478 0.047153205 -0.063080706 0.104844615 -0.06472047 0.16359805
0.078542724 -0.02919963 -0.23630427 -0.033860087 -0.16145176 -0.1312382 -0.06543191 -0.16827662
0.16474791 0.05483098 -0.08216056 0.17553961 0.020526636 0.0715512 -0.039346173 -0.13009804
0.013822062 -0.072910294 -0.08283124 0.19310912 0.04830958 0.08241375 0.108001515 0.04358132
0.13642065 0.018508764 0.1740511 0.09461013 0.11163255 0.052943844 0.08628623 0.025656285
0.02466252 0.10380632 -0.1707079 0.09275665 -0.069448926 0.025979463 0.04098748 0.17023662
-0.09810974 -0.111904725 0.12821561 0.04484017 -0.032208294 -0.11683579 -0.08307883 0.053856574
0.10409455 -0.13948162 0.07424573 -0.033388507 0.1689633 0.089705005 0.111633964 -0.09057772
-0.026996898 0.17276345 -0.09038682 0.007374402 -0.12357694 0.098203495 0.0100337565 0.13642333
-0.09997593 -0.26096812 0.05465725 0.11689113 -0.11489358 -0.06071106 -0.12841916 -0.11722532
-0.18052606 -0.14495263 0.097074434 0.19768897 0.1890489 0.04541009 0.1529438 0.13967995
0.027580565 -0.1527709 0.08327178 0.10143366 -0.28423014 0.0436399 -0.11088857 0.1270109
-0.12553743 -0.037485063 -0.04866771 0.11511491 0.12046032 -0.07676158 0.07612767 -0.19014448
-0.052993517 -0.035207853 -0.010592337 0.08737585 -0.06876708 0.03970516 0.0021740831 -0.0061529176
-0.14931159 -0.13438785 0.14396389 -0.03850253 0.024171948 0.08933739 -0.11882356 -0.11103886
-0.054181144 -0.028133508 0.02578333 -0.007492438 0.08773442 0.07978241 -0.018579379 0.11670331
0.05502394 0.0020099117 -0.069305554 -0.030418241 -0.02672109 0.060903218 0.014240427 -0.19510822
0.07399191 0.12322995 -0.059657447 -0.067137696 0.14363264 -0.12354698 0.15899143 0.026250353
0.030823126 0.08244723 -0.11266623 0.126709 -0.11964195 0.08803474 -0.103218146 -0.04442895
0.08624331 0.0367549 0.09921737 -0.04931011 -0.037396237 0.0015333593 0.010883524 -0.087802194
-0.03665763 0.08371826 0.12538666 0.06452984 -0.002876271 -0.059869725 0.12226917 0.11240976
0.055204716 -0.02435256 0.123769715 0.035808947 0.007120573 -0.058708925 0.13320886 0.17259403
0.1272619 -0.08176688 -0.107552044 0.038882464 -0.066776626 0.033322237 0.13782842 0.00028277852
-0.078035474 0.06328926 -0.030288009 0.15993357 -0.1521274 -0.00648202 0.0975063 0.043573443
-0.15487458 -0.13466261 0.10104333 0.045465842 -0.03009291 -0.118481934 -0.12075497 0.08259304
-0.019425288 -0.14207973 -0.12643999 0.13316868 -0.11191396 0.11460273 0.05088699 0.16270865
0.062185884 0.08067165 0.08729981 -0.08805541 -0.14790703 0.072421566 -0.12411098 0.04933141
-0.032479018 -0.1412712 -0.09019708 -0.17406416 0.0076205134 0.12835465 0.1048765 -0.16592108

decoder.2.bias f4 [64]
00000000: 1f3f c8bd 18df e1bd 26f7 4fbe 43cb 153d
00000010: 4278 33be 4b5c 5ebd 466b 373e 4e9b df3d
00000020: 075e 083e 5c70 31bd f376 22be f5bc 123e
00000030: 5c71 2ebe e221 bf3d 48a0 203e ecb5 f13d
00000040: 964a b0bd 0ddc 75bd db08 d73d 6a05 f63d
00000050: 1075 053a 92fd 313e 909a c93d 6475 383e
00000060: 33e9 483e 62de 893d bfe4 d9bc 5dc6 05be
00000070: e051 b03d 7c77 d23d 0a85 82bd d1b7 fc3d
00000080: 63ed 1a3e 95ae acbc 6bd5 bebd d937 343e
00000090: 898e 033e abef fe3d 2004 91bd a6ae 4e3e
000000a0: d78c 903d 41b7 8b3b ffbc 01be 1386 20be
000000b0: f745 9f3a 4213 c73d 011c 763b 43b1 e8bd
000000c0: ce73 53be 0dda 953d 6052 14be 4be4 ad3c
000000d0: d52b 363e ea6d 12be 25df 1ebe 31ae 8c3d
000000e0: 80c3 1bbe be9d ac3b ba64 db3d b1f3 5f3d
000000f0: 24b7 7abd 7325 873c 5e63 11be 0b14 4abc
-0.097776644 -0.1102888 -0.20309123 0.0365708 -0.17526343 -0.054287236 0.17912015 0.10918294
0.13317119 -0.043320045 -0.15865688 0.14329894 -0.1703543 0.093326345 0.15686142 0.11802277
-0.08607976 -0.06002431 0.10499736 0.120127514 0.0005090991 0.17381886 0.098439336 0.18013531
0.19620208 0.06731869 -0.026598332 -0.13063951 0.086093664 0.10276696 -0.063730314 0.12339748
0.15129618 -0.021079341 -0.0931805 0.17599429 0.12847342 0.12448057 -0.07080865 0.2018381
0.07058113 0.004263789 -0.12669753 -0.15676145 0.0012151588 0.0972047 0.0037553313 -0.11361935
-0.20649645 0.073169805 -0.14484549 0.021227023 0.17790158 -0.14299741 -0.1551481 0.06869162
-0.15211296 0.005267828 0.107125714 0.05467576 -0.061209813 0.01649735 -0.14198062 -0.01233388

decoder.4.weight f4 [128, 64]
00000000: b8ac 90bc b8fd 4b3d e3e0 d4bc 4889 20bd
00000010: 4474 c73d c6a7 f1bd f119 833d 96fe 88bd
00000020: 0fad b0bb fa2b 8fbd 7e27 efbd acfa b33d
00000030: 309b 053d a65c c2bd dc88 89bd 185f ffbd
00000040: 4046 b4bd fccf 9bbd 983b bb3d dc7b 17bd
00000050: a018 95bd be86 8f3c 6df2 c7bd d69d d0bd
00000060: 8e94 a03d af7a 56bd a2ac 953b 3008 ba3c
00000070: 6c70 7cbd b75c b93d c008 14bc 1812 d53c
00000080: 4684 d23d 7444 9b3d 201e 4e3d d090 103d
00000090: b880 fabd c040 c73c 8d45 edbd d537 843d
000000a0: b8d5 31bd 5d0e 393c de3d a2bd 8cdb dfbd
000000b0: 7f6d 733a 66c2 8abd 3cef ce3d c8ad b9bd
000000c0: 8c22 5fbd 5042 0a3d d29c c23d 09a1 a8bc
000000d0: 607d 21bd b497 61bd 2044 41bd f60e dd3c
000000e0: 5c66 373d d5d4 b83c e74c 9c3d 463f 02be
000000f0: a1f7 a3bd d869 2e3d 5c6b 7e3d d21f f9bd
00000100: 70d3 f43d 8110 0a3e b17f 1ebe 2b42 e03d
00000110: 07a7 593d 75de db3c e75a b13d a0d0 a43d
00000120: 273d 153e fe93 8bbd f8e4 303d 2d98 dabd
00000130: a867 81bd 882d 283d dcb0 5e3c b226 83bd
00000140: a652 64bb 381a b23c 038e 4ebc 4a28 d3bd
00000150: fce4 67bd 36d8 083d 583c dbbd 0a97 83bd
00000160: 501c 233c 4065 7a3d 79f0 bd3d 87a3 ed3d
00000170: 7a4d 3f3d 8696 71bd 7c4b 30bd a4b5 893b
00000180: 65be 5f3d 4a6b 63bd a8ab 033e 0466 a1bc
00000190: 315c 943d fa4b da3d f77e 2ebc 67e7 f63a
000001a0: 40f2 f2bb 20fa b73b b220 21bd f683 38be
000001b0: 0baa 68bd 40f2 20bd 3d0f d9bd 8c09 a4bd
000001c0: 2a13 66bd a94a f1bc a432 e63d 0770 4cbd
000001d0: 973b 9b3c d017 fd3d 3249 41be f475 723d
000001e0: 4493 6d3d 35d7 243e f5d4 9f3e 09b7 413e
000001f0: ca33 adbd eca1 a03c 8be8 c33d 593b a43d
00000200: a04f 9c3c a061 dbbc d46e 813d b872 eebd
00000210: c4dd a73d 4430 323d d0d9 d9bc c8b9 a13d
00000220: 98a5 82bd 1088 72bc 80e3 babb c472 6c3d
00000230: 381d 92bd a88a b5bd daf2 b9bd 60a6 883b
00000240: c45b 3f3d 4c39 bc3d 142c 263d c052 f6bb
00000250: a006 3dbc c011 ba3c c082 ccbd 7c7e 88bd
00000260: 72e7 83bd 9c33 17bd 6876 9b3c 1877 b4bc
00000270: 16c5 a6bd b06b c3bd 4aa0 a0bd 80d6 bbbb
00000280: 0045 b83a c0ed aa3c 3ef1 a93d f0e7 02bc
00000290: 30b7 d8bc 8037 9dbc 78e6 92bc c02c e23c
000002a0: 2044 b13c 883a 5abd 4efb dfbd 44c8 9f3d
000002b0: 8843 c8bc 18fb e6bc e8d9 0c3d f497 fc3d
000002c0: 84af 98bd e074 ee3c 0ae0 d33d 48a4 f9bc
000002d0: 9026 e6bc 8e90 ca3d fa92 f93d d863 9abd
000002e0: d8da c63d 106d f4bd 5e14 d9bd 0000 663b
000002f0: 0019 6ebd d042 ddbc 00a6 82bc 381a d53c
00000300: 9060 173c 6ea0 da3d f6e9 2dbd 127c aebd
00000310: 0a9b c03d 13f5 d83d 377d f03d a434 92bd
00000320: f8e9 c6bc eecf cbbd e0e2 9b3b 41a5 dcbd
00000330: a815 5ebd 7825 b33d c817 4e3d 30a3 d73d
00000340: 2a72 fe3d 0825 9a3d 86a5 4abd 4831 a2b8
00000350: 3cda 9a3c e4d8 dfbc 7c2b c83c 2436 bd3d
00000360: 2c01 c9bd 71f3 fcbd 62f4 453d a469 833d
00000370: 7786 cabd 1389 20bd e2ff dd3c 5e26 30bc
00000380: d2cb a0bd 8393 923d a69f 17bc 5c36 5d3c
00000390: f9fe 24bd f470 30bd 6b81 f4bd 12dd 903d
000003a0: f8f3 95bd 119d d4bb e655 c93c a24b 68bd
000003b0: 0ba4 a23d fe26 f23d b288 8ebd b1f2 513d
000003c0: 4f16 febc c494 53bd 42fe bf3d f6eb 67bd
000003d0: cead 74bd 96a6 a13d 9d44 57bd e2ad 86bc
000003e0: 1c4d f7bd b575 9e3c dfed 223e 3706 bf3c
000003f0: 7091 0d3e c248 af3d 5e53 e3bd 44fd 9c3d
-0.017660484 0.049802512 -0.02598614 -0.03919342 0.09738973 -0.11799578 0.06401432 -0.066891834
-0.005391724 -0.0699081 -0.116774544 0.08788046 0.0326187 -0.094903275 -0.06715557 -0.124693096
-0.088024616 -0.07608029 0.09142226 -0.036983356 -0.072800875 0.017520305 -0.09763036 -0.10186355
0.078408346 -0.052363094 0.0045676986 0.022708982 -0.06163065 0.09050887 -0.009035289 0.026009604
0.102791354 0.07581416 0.0503217 0.035294354 -0.122315824 0.024322867 -0.115855314 0.064559616
-0.04341671 0.011294928 -0.079219565 -0.10930547 0.00092860305 -0.0677536 0.10104224 -0.09066349
-0.054476306 0.033754647 0.09502567 -0.0205846 -0.039426208 -0.055076316 -0.04718411 0.026984673
0.044775352 0.022562424 0.076318555 -0.1271945 -0.08006216 0.04258141 0.062114105 -0.12164272
0.11954391 0.13482858 -0.15478398 0.109501205 0.053137805 0.026839474 0.08659916 0.080476046
0.14574109 -0.06815337 0.04318711 -0.106735565 -0.06318599 0.041059047 0.013591971 -0.06403865
-0.0034839301 0.021741018 -0.0126071 -0.10310419 -0.05661486 0.03340932 -0.10704869 -0.06425293
0.009955481 0.061131716 0.09274382 0.11603456 0.046704747 -0.05898144 -0.043040738 0.0042025615
0.054624934 -0.05552224 0.1285845 -0.019701965 0.072441466 0.10659023 -0.010650388 0.0018837274
-0.0074141324 0.005614534 -0.03933782 -0.18019089 -0.05680279 -0.039293528 -0.105986096 -0.080096334
-0.05617062 -0.029454546 0.11240128 -0.049911525 0.018949313 0.123580575 -0.18875578 0.05919452
0.05800177 0.1609772 0.3121716 0.18917479 -0.084571436 0.01960846 0.095658384 0.08019132
0.019080937 -0.02677995 0.06319967 -0.116429746 0.08196595 0.04350306 -0.026593119 0.07896763
-0.06379241 -0.014802948 -0.0057033896 0.057726637 -0.07134479 -0.08864337 -0.090795234 0.004170224
0.046718374 0.09190616 0.04056938 -0.007517189 -0.011537224 0.022713542 -0.09985876 -0.0666475
-0.06440629 -0.036914453 0.018977359 -0.022029445 -0.0814306 -0.09542024 -0.07843073 -0.0057323575
0.001405865 0.020865321 0.082979664 -0.0079898685 -0.026454538 -0.019191504 -0.017932162 0.02760923
0.02163893 -0.053278476 -0.109366044 0.078018695 -0.024446264 -0.028195903 0.0343875 0.1233367
-0.07455352 0.029108465 0.103454664 -0.030473843 -0.02809456 0.09890853 0.12186237 -0.07538575
0.0970971 -0.119348645 -0.10599588 0.0035095215 -0.05812931 -0.027009398 -0.015948296 0.026013479
0.009239331 0.10675131 -0.04245945 -0.08519758 0.09404571 0.10593619 0.11742633 -0.07138947
-0.024281487 -0.09951769 0.00475727 -0.10773707 -0.05421987 0.08747381 0.05031565 0.105291724
0.12424119 0.075265944 -0.04947426 -7.733941e-05 0.01890289 -0.027325101 0.024434797 0.09238842
-0.09814677 -0.1235112 0.048328765 0.06416634 -0.098889284 -0.039193224 0.027099553 -0.010751335
-0.07851376 0.07157042 -0.009254372 0.01350173 -0.040282223 -0.04307647 -0.11938747 0.07073416
-0.07321924 -0.0064884503 0.024577092 -0.056712754 0.07941445 0.118238434 -0.06959666 0.05125684
-0.031016497 -0.051655546 0.09374668 -0.056621514 -0.059736066 0.07893102 -0.05255567 -0.016440336
-0.12075254 0.019343236 0.15911053 0.023318393 0.13825011 0.08558799 -0.110998854 0.07665494

decoder.4.bias f4 [128]
00000000: 7279 c7bd d53e e7bc 4077 573b 5719 75bd
00000010: 7783 8bbd 7d36 a73d 49e6 cd3d 7842 acbd
00000020: 06f5 3f3d 99ff b4bc 42c9 813d 6a08 c93d
00000030: be5d d8bd 2753 afb9 f89d c33d cb62 f8bb
00000040: 20a2 babd 10ce 1a3e a024 ee3b deb5 b1bc
00000050: 21df ac3d 29fa 193d 390e 833d f8db cf3d
00000060: 40a4 ec3c de64 3f3d a0cc f0bd 744e c43c
00000070: 38d8 e63d 1810 8d3d 274f 9cbd a498 4e3d
00000080: ea30 e5bd 7e89 93bd 5498 42bd 1c96 143d
00000090: c4ac fb3c 9f80 213e 72fb f7bd 4512 133e
000000a0: f016 88bd f6c1 023d d5f1 123e 70aa 843d
000000b0: 4fb2 183d 6ff0 e3bd ba5b a4bd 9ea9 813c
000000c0: 4d23 413c 0bfe bfbd 29ae c23a efbd 10be
000000d0: 25ae c8bc 5250 b03d 6025 00bd 5fc6 a23c
000000e0: 9a4d 8a3d c18d 653d dbe7 233e ab7a 4d3e
000000f0: 5627 053e 718c a0bd 21db 713d 3f81 203e
00000100: 43b2 1cbe 3a50 16bd 8ce4 a73d 26a2 00be
00000110: 975d 89bd b717 103e 2886 253e 0164 0d3e
00000120: 8271 023e 6151 a6bd a10d 17bd 7543 d63d
00000130: f124 9fbc 53e3 0a3d 2718 95bd e226 483d
00000140: 9239 7b3d 318a eb3d 3398 5a3e 7754 fe3d
00000150: 921f 46bd 5cd4 063c 25d7 9a3c 19dc c13d
00000160: 2e8b babc 08cd abbc 65bf 863d 8054 793d
00000170: d211 e23d 8680 95bd c7bd ad3d 27d4 dc3d
00000180: 48dc 413d a790 093e fc43 7ebd 44f3 bebd
00000190: d73b 383a 9875 75bd 8e2b 433d d0d6 e4bd
000001a0: fbc8 ee3d bdb0 f6bc be5d 793c cb10 87bc
000001b0: 5f24 9abd 2bf5 db3d 528f e4bc 698e e73d
000001c0: ef90 bf3d 822f cfbd d3bf 153d 5be7 9e3c
000001d0: d5f4 903d 8092 a03c cac6 db3d 2b7d 993d
000001e0: e01f c73d e444 b83c 80f3 d53b 2908 ac3d
000001f0: 763c 333d 5254 9e3d e88a 10be b26c 84bd
-0.09739961 -0.028228203 0.0032877475 -0.05983862 -0.06812184 0.0816469 0.10053689 -0.084111154
0.046864532 -0.022094535 0.06337215 0.09816058 -0.10564755 -0.00033440554 0.095516145 -0.0075801364
-0.09112954 0.15117669 0.0072675496 -0.021693166 0.08440996 0.037592087 0.06399197 0.101493776
0.028886914 0.046727054 -0.11757779 0.02396319 0.11271709 0.06887835 -0.076322846 0.05043854
-0.1119097 -0.07203959 -0.047508553 0.036275968 0.03072203 0.15771721 -0.12108506 0.14362438
-0.06645 0.031923257 0.14350064 0.06477821 0.037279423 -0.111298434 -0.08025308 0.01582795
0.0117882015 -0.09374627 0.0014852929 -0.14134954 -0.024497101 0.0860907 -0.031285644 0.019869981
0.067530826 0.05604339 0.16006415 0.20066325 0.13003287 -0.07839287 0.05904687 0.15674303
-0.15302376 -0.036697604 0.08197889 -0.12561855 -0.06707304 0.14071546 0.16164458 0.1380768
0.12738612 -0.081209905 -0.036878232 0.10462085 -0.019426795 0.0339082 -0.07279997 0.048865207
0.0613342 0.11500967 0.21347122 0.12418454 -0.04836995 0.008229341 0.018901417 0.094658084
-0.022771444 -0.02097179 0.06579474 0.0608716 0.11038555 -0.072999045 0.08483463 0.10782652
0.047329217 0.13434087 -0.062076554 -0.09323743 0.000702796 -0.0599266 0.04764896 -0.11173785
0.11659428 -0.030113572 0.015220104 -0.0164875 -0.075264685 0.107401215 -0.027900372 0.113064595
0.09353816 -0.10116483 0.03655989 0.019397428 0.07077948 0.019601107 0.107312754 0.07494577
0.097228765 0.022493787 0.0065292716 0.08399994 0.043758832 0.077309266 -0.14115489 -0.064660445
