Save-Models/model-lat9.pth (torch, 192994 bytes, 16 tensors)

encoder.0.weight f4 [128, 99]
0	0xbd24c8f9	-0.040230725
1	0xbde7d556	-0.113199875
2	0xbbef15ce	-0.0072963005
3	0x3d8369ba	0.0641665
4	0x3c4f3037	0.012645773
5	0xbda25902	-0.07927133
6	0x3da65bc6	0.08122973
7	0x3cf93113	0.030418908
8	0xbcb687f5	-0.022281626
9	0xbd84b6f1	-0.06480206
10	0x3db348c2	0.08754112
11	0xbc1e8ce1	-0.009677143
12	0xbd4b5df1	-0.049650136
13	0x3cdef0e6	0.027214479
14	0x3b2347c2	0.0024914597
15	0x3d87a5cb	0.066234194
16	0x3baa5320	0.0051978976
17	0x3da584eb	0.08081993
18	0x3d7761ef	0.06039613
19	0xbafb1cc3	-0.0019158352
20	0xbd08c537	-0.033391204
21	0xbdbdf230	-0.09274709
22	0xb926bcd5	-0.00015901339
23	0x3d5bf723	0.053702485
24	0x3d4c6a56	0.049906097
25	0xbdaa3f95	-0.083129086
26	0x3d60c4b6	0.0548751
27	0xbd5f4b88	-0.05451539
28	0xbcea5204	-0.028603561
29	0x3d98a3ae	0.074530944
30	0xbcccf075	-0.025017003
31	0x3b1823e4	0.0023214752
32	0xbd65bcdf	-0.056088325
33	0xbb8a35d2	-0.0042178417
34	0xbdb6934a	-0.08914812
35	0xbd603f62	-0.054747947
36	0x3db35b9b	0.08757707
37	0x3c86acdd	0.01643985
38	0x3cb540c9	0.022125619
39	0xbdb04d76	-0.086085245
40	0xbd96e527	-0.07367926
41	0xbda99675	-0.082806505
42	0xbd9e8194	-0.07739559
43	0xbd0244f1	-0.03180403
44	0xbd25cf5b	-0.040480953
45	0x3d5829d8	0.05277428
46	0xbc8f7a77	-0.01751445
47	0xbcb66414	-0.022264518
48	0x3d9630ee	0.07333551
49	0xbdabf198	-0.0839569
50	0xbda3346c	-0.07968983
51	0xbd9a1f29	-0.075254746
52	0xbd550d1e	-0.052014463
53	0x3c4c3b48	0.012465306
54	0xbdc93ec0	-0.09826422
55	0xbd8074d9	-0.06272287
56	0xbddfb2cb	-0.10922774
57	0xbdd0cd85	-0.1019545
58	0xbd3a5339	-0.045489524
59	0xbdbc0bef	-0.09181964
60	0xbdb3b7f6	-0.08775322
61	0x3d808bb3	0.062766455
62	0x3d469be5	0.048488516
63	0xbdda7a82	-0.10667898
64	0xbdacc073	-0.08435144
65	0xbcd3bc3b	-0.025846591
66	0x3d92ddd9	0.0717122
67	0xbd9ea58e	-0.07746421
68	0xbc6d266e	-0.014474494
69	0x3b80c782	0.003930033
70	0x3d55063f	0.05200791
71	0x3d946375	0.072455324
72	0x3adb2d9e	0.0016721969
73	0x3b501861	0.0031752812
74	0x3d550c5c	0.05201374
75	0xbd6c11bc	-0.0576341
76	0xbda0b4da	-0.07846995
77	0xbce28918	-0.027653262
78	0xbc31668e	-0.010827674
79	0xbdcfa32f	-0.10138547
80	0xbd394b50	-0.04523784
81	0xbcf107f4	-0.029422738
82	0xbd77ab42	-0.06046606
83	0x3cf43be9	0.029813724
84	0xbdd1d329	-0.10245354
85	0xbcf357a0	-0.029704869
86	0x3d1567ce	0.03647595
87	0xbd8c8451	-0.06861175
88	0xbd60a7e8	-0.054847628
89	0xbd97e020	-0.07415795
90	0x3d7f3ddb	0.06231485
91	0xbdb02bdd	-0.08602116
92	0xbc7c2278	-0.015389077
93	0x3d78b15f	0.06071603
94	0x3bf3ba22	0.0074379602
95	0x3baa0927	0.0051890793
96	0x3d7af8b7	0.06127235
97	0xbdcf6e3d	-0.10128448
98	0xbc37dc27	-0.011221922
99	0x3d0c6d07	0.034283664
100	0xbddb860a	-0.10718925
101	0xbd9e1ae6	-0.07719974
102	0xbb459f4e	-0.0030154767
103	0xbd3ed91e	-0.046593778
104	0xbd66e023	-0.056366097
105	0xbd94af64	-0.072600156
106	0xbdc7e2a2	-0.09760024
107	0x3d1e8071	0.03869671
108	0xbd0e934f	-0.034808453
109	0xbde5fbe3	-0.11229684
110	0x3c88f7b6	0.01671968
111	0xbde962fe	-0.113958344
112	0xbe015ff7	-0.12634264
113	0xbdb91cbf	-0.09038686
114	0xbd16d3d5	-0.036823113
115	0xbc97a2f8	-0.018510327
116	0xbdc44c1a	-0.09584828
117	0x3d1fcf52	0.039016075
118	0xbcbec1e5	-0.023285815
119	0xbc804089	-0.015655773
120	0x3d3d393e	0.04619717
121	0x3c944434	0.018098928
122	0xbdb75350	-0.089514375
123	0xbcccb0ed	-0.024986709
124	0xbdd77d9c	-0.10522005
125	0xbd9ed5bf	-0.077556126
126	0xbdc208a3	-0.094743036
127	0x3d4e36cd	0.05034523
128	0xbcea71dc	-0.028618746
129	0xbc972733	-0.018451309
130	0x3d3eda51	0.04659492
131	0xbcdc4952	-0.02689043
132	0xbda653a3	-0.08121421
133	0x3cdd041c	0.026979499
134	0x3d04c0fd	0.03241061
135	0x3cd62882	0.026142363
136	0xbd75fa91	-0.060053412
137	0xbdee35c5	-0.116313495
138	0x3d82c000	0.06384277
139	0x3ce1951b	0.02753692
140	0x3c47ab91	0.012186901
141	0xbb82f472	-0.0039964253
142	0xbd03ec30	-0.032207668
143	0x3d0cad3c	0.034344897
144	0x3d76536e	0.06013816
145	0x3d43fde8	0.047849566
146	0xbcdbfd80	-0.026854277
147	0xbda386d8	-0.07984704
148	0x3d82bbd6	0.06383483
149	0x3d8e7607	0.06956106
150	0x3d3ff0f7	0.04686066
151	0xbcd8705b	-0.026420763
152	0xbd2cf5ad	-0.042226482
153	0x3d98116e	0.074251994
154	0x3ab2db53	0.0013645686
155	0xbcf6d4ca	-0.030130763
156	0xbdddffe5	-0.10839824
157	0x3d42aa7e	0.047525875
158	0xbdadc2e6	-0.084844396
159	0x3d8c7ecf	0.06860124
160	0x3d8c487b	0.06849762
161	0x3c98376b	0.018581113
162	0x3d37187e	0.044701092
163	0xbd057a06	-0.032587074
164	0x3d6bbc0f	0.057552394
165	0xbd513ec1	-0.051085237
166	0xbdf68ce5	-0.12038592
167	0xbd8012b1	-0.06253565
168	0xbd7b989b	-0.061424833
169	0xbc762b11	-0.015024916
170	0xbcb7e1c7	-0.022446526
171	0xbd9d5744	-0.0768266
172	0xbd4d32bd	-0.050097216
173	0xbdc3ce13	-0.0956079
174	0xbd6e0b44	-0.058116212
175	0x3d09503b	0.03352378
176	0xbd14b952	-0.036309548
177	0x3d957d69	0.07299311
178	0x3d887131	0.066622145
179	0x3d828a68	0.06374055
180	0xbdc34c39	-0.09536023
181	0x3d7db0d9	0.061936233
182	0xbdb21b4b	-0.08696612
183	0xbcf6461b	-0.030062726
184	0x39f770df	0.00047195607
185	0xbd7b61be	-0.06137251
186	0xbceaf49b	-0.02868109
187	0xbdb8966b	-0.09013065
188	0x3c198bba	0.009371692
189	0xbdb9dc62	-0.09075238
190	0x3c269bd4	0.010168988
191	0xbdddc946	-0.108294055
192	0x3bec6c47	0.007215056
193	0x3d01a1ec	0.03164856
194	0x3bb25e53	0.005443373
195	0x3d44e7ed	0.048072744
196	0xbbc8a47c	-0.0061231237
197	0x3d5b5407	0.05354693
198	0x3d227b02	0.03966809
199	0xbd547bed	-0.051875997
200	0xbd8d9da8	-0.06914836
201	0xbd598d98	-0.05311355
202	0xbd0309e6	-0.03199186
203	0x3cddbfc3	0.027068978
204	0x3c503467	0.012707806
205	0xbda0a410	-0.078437924
206	0xbcf87a4c	-0.030331753
207	0xbd4ad721	-0.04952157
208	0x3d045242	0.03230501
209	0xbde8688b	-0.11348065
210	0xbdf9354c	-0.12168369
211	0xbe009dba	-0.12560168
212	0xbd56518c	-0.052323863
213	0xbd0c679c	-0.034278497
214	0x3d571ce5	0.05251779
215	0xbd83a2cb	-0.06427535
216	0xbd8fa455	-0.07013766
217	0x3c17116a	0.00922046
218	0xbd98d84b	-0.074631296
219	0x3d29d276	0.041460477
220	0x3d91ea60	0.071247816
221	0xbdef1dcc	-0.11675605
222	0xbde4f292	-0.11179079
223	0xbdac4347	-0.0841127
224	0xbbe76189	-0.0070611876
225	0xbde30a5f	-0.110859625
226	0xbde971db	-0.11398669
227	0x3d069dfc	0.03286551
228	0xbdbc67ef	-0.09199511
229	0x3d8f989a	0.07011528
230	0xbd6cc7f7	-0.05780789
231	0xbd07b2cd	-0.033129502
232	0xbcd8f676	-0.02648471
233	0xba22baf5	-0.00062076683
234	0xbde842c3	-0.11340859
235	0x3d98d6b4	0.07462826
236	0xbd930010	-0.07177746
237	0xbd8e1630	-0.06937826
238	0x3d38af84	0.04508926
239	0xbd2d6472	-0.04233212
240	0xbd250282	-0.040285595
241	0xbc9946b2	-0.018710468
242	0xbde40ca6	-0.11135225
243	0x3d7af848	0.061271936
244	0xbd457e51	-0.048216168
245	0x3d2234f5	0.039601285
246	0x3d5a09dc	0.05323206
247	0xbb85cc24	-0.0040831733
248	0xbd82c93f	-0.06386041
249	0x3d012117	0.031525698
250	0xbd2fd637	-0.0429289
251	0xbd3610b6	-0.04444953
252	0xbd9c97e4	-0.07646158
253	0xbd14980c	-0.036277816
254	0xbd720796	-0.059089266
255	0xbd6cc2fe	-0.057803147

encoder.0.bias f4 [128]
0	0xbc596e01	-0.013270856
1	0xbe017bb6	-0.12644848
2	0xbd168749	-0.03675011
3	0x3caf8fb1	0.021430822
4	0x3baabb88	0.0052103437
5	0xbca4f771	-0.02013752
6	0xbdd0e464	-0.10199812
7	0xbdaad27f	-0.0834093
8	0xbd8201e8	-0.0634802
9	0xbd1722c3	-0.036898386
10	0x3d85c177	0.06531041
11	0x3d1a19b9	0.037622187
12	0xbc8b6ac7	-0.017018689
13	0xbdf9b565	-0.121928014
14	0xbd00abe9	-0.031413946
15	0xbcccdc3a	-0.025007356
16	0x3d03bcd2	0.032162495
17	0xbc7bf1db	-0.015377487
18	0x3d4cf1f4	0.050035432
19	0xbd5daff6	-0.054122888
20	0xbd4d3a98	-0.050104707
21	0x3d7d6379	0.061862443
22	0xbdec5f69	-0.115416355
23	0x3c31fe10	0.010863796
24	0xbdc7324a	-0.09726389
25	0xbd11b9c5	-0.035577554
26	0x3c967b1f	0.018369256
27	0x3dae2580	0.08503246
28	0xbda16ace	-0.078816995
29	0xbd6e3288	-0.05815366
30	0xbd562f20	-0.052291036
31	0xbc8cacd0	-0.017172247
32	0x3d9ee86e	0.07759176
33	0xbdbabc5f	-0.0911796
34	0xbc81a672	-0.015826438
35	0xbe01cdab	-0.12676112
36	0xbca2ed5e	-0.019888576
37	0xbdb8d783	-0.090254806
38	0xbce1cd7a	-0.0275638
39	0x3d18526c	0.03718798
40	0x3c83d1e4	0.016091295
41	0xbd802189	-0.06256396
42	0x3cfdabcd	0.03096571
43	0xbdf2569d	-0.118329264
44	0xbcf6457f	-0.030062435
45	0x3d9ec17c	0.07751748
46	0x3c825692	0.01591042
47	0x3cc1ea70	0.023671359
48	0xbcb52aa9	-0.022115069
49	0xbdba8561	-0.09107471
50	0xbca29aca	-0.0198492
51	0xbd1ba8ab	-0.03800265
52	0xbe3d1750	-0.18465924
53	0x3d0748fd	0.03302859
54	0xbcb6adfc	-0.02229976
55	0xbc80cf11	-0.015723737
56	0x3d05b620	0.03264439
57	0xbcfecadb	-0.031102588
58	0x3d562acd	0.05228691
59	0x3cd0a329	0.025468426
60	0xbdd0d1c2	-0.10196258
61	0x3da9ffeb	0.083007656
62	0x3cc0ce15	0.023535768
63	0x3ba06e72	0.0048959786
64	0xbd43956b	-0.047749918
65	0xbd765d7f	-0.06014776
66	0xbda1b8c9	-0.07896573
67	0xbda3be35	-0.079952635
68	0xbd41183a	-0.047142245
69	0xbbb136b4	-0.0054081324
70	0xbd6fc89c	-0.058540925
71	0x3d07acbe	0.033123724
72	0xbdbcc695	-0.09217564
73	0xbd9fcacc	-0.07802352
74	0x3d95fe72	0.07323922
75	0xbc317fbc	-0.010833677
76	0xbd3d02c0	-0.0461452
77	0x3c670e3f	0.014102518
78	0x3da2721f	0.07931923
79	0xbc809959	-0.015698122
80	0x3c9c46db	0.019076755
81	0x3d8b6c15	0.068077244
82	0x3d9415bc	0.07230708
83	0xbd841119	-0.064485736
84	0xbdb63cb6	-0.088982984
85	0x3cb9e234	0.02269087
86	0xbdfe06a6	-0.12403612
87	0xbdd0d388	-0.101965964
88	0xbd885a02	-0.06657793
89	0xbdc0b11d	-0.09408782
90	0xbdd80527	-0.10547858
91	0xbd97086f	-0.073746555
92	0x3d9d4b22	0.07680346
93	0x3d59467d	0.05304574
94	0xbdbfc8f3	-0.093645
95	0x3d6c64d7	0.057713356
96	0x3c841d5c	0.01612728
97	0x3d8ef889	0.06980998
98	0xbc248018	-0.010040306
99	0x3b2e726b	0.0026618491
100	0xbc7049d7	-0.014666042
101	0xbcc10e4a	-0.023566384
102	0x3c34f9f7	0.011045924
103	0x3d9cbd1e	0.07653259
104	0xbd6ebd51	-0.058286015
105	0x3d53e19b	0.051728826
106	0x3a59ed09	0.0008313214
107	0x3cdc007c	0.0268557
108	0xbd80437f	-0.06262874
109	0x3da190c3	0.07888939
110	0xbcf84e8f	-0.030310897
111	0x3d28b29a	0.041185953
112	0x3c0321bf	0.008003651
113	0xbde4ed1c	-0.111780375
114	0xbc665e73	-0.014060604
115	0x3ca9fb52	0.020749722
116	0xbcfe4fc4	-0.031043895
117	0xbcd99798	-0.026561543
118	0x3cb2abcf	0.02181044
119	0xbdb91e27	-0.09038954
120	0x3c32bc8b	0.01090921
121	0x3db456d2	0.08805622
122	0x3cd20ea5	0.025641749
123	0xbda04a7b	-0.07826706
124	0x3c74fae1	0.014952392
125	0x3cf36890	0.029712945
126	0x3da864c9	0.08222348
127	0x3d6d4d2c	0.057934925

encoder.3.weight f4 [64, 128]
0	0x3d16d4a5	0.036823887
1	0xbaf61b94	-0.001877653
2	0xbd06103d	-0.03273033
3	0xbd41f801	-0.047355656
4	0xbd9b3906	-0.07579236
5	0x3c0792e8	0.008274771
6	0xbcea413a	-0.028595556
7	0xbdbde263	-0.092716955
8	0x3d54b2af	0.05192822
9	0xbd9cca74	-0.07655802
10	0x3c77d882	0.015127303
11	0x3d002746	0.031287454
12	0x3cfc79dd	0.030819828
13	0xbd9af824	-0.0756686
14	0x3d8cd984	0.06877425
15	0x3d484502	0.048893936
16	0xbd8af8b5	-0.06785718
17	0x3d30036c	0.042972013
18	0x3cb6708d	0.022270465
19	0x3dc66caf	0.096886985
20	0x3d1e0cbc	0.038586363
21	0xbb2136f9	-0.0024599417
22	0x3d4e1fc2	0.050323255
23	0x3d46acc9	0.048504625
24	0xbb7872d1	-0.0037910233
25	0xbd601e35	-0.054716308
26	0x3cc0a52a	0.023516256
27	0x3c733c18	0.01484587
28	0xbc258cde	-0.010104386
29	0x3db2910f	0.08719074
30	0x3c2c764f	0.010526254
31	0xbdb80130	-0.089846015
32	0xbced79d4	-0.028988756
33	0xbc68fd4b	-0.014220546
34	0xbd3bbbe6	-0.04583349
35	0xbb635b4b	-0.0034691866
36	0xbd0e11a0	-0.034684777
37	0x3ca31ab5	0.019910196
38	0xbdcfc827	-0.10145598
39	0xbd8252c9	-0.06363446
40	0x3b9625bb	0.0045821345
41	0xbddd5b00	-0.108083725
42	0xbd22a16c	-0.039704725
43	0xbb57fba3	-0.0032956384
44	0x3d3dd06a	0.046341337
45	0xbd172327	-0.03689876
46	0x3c11013e	0.008850394
47	0x3d63f169	0.05565015
48	0x3ca6f26d	0.02037927
49	0x3bbaef69	0.0057048094
50	0x3da9c6dd	0.08289883
51	0x3ddc8b8a	0.107688025
52	0xbc9462f1	-0.018113585
53	0x3ceaea8e	0.028676298
54	0x3b90ebb4	0.0044226293
55	0xbc5dfa70	-0.0135484785
56	0x3ca87a17	0.02056603
57	0x3db3aea2	0.08773543
58	0xbd79a70f	-0.060950335
59	0x3dd51962	0.10405232
60	0xbdc32182	-0.095278755
61	0xbc87c34d	-0.016572619
62	0xbc481f1d	-0.012214449
63	0x3d0c328f	0.034227904
64	0x3cb5f842	0.022213105
65	0xbb9f3fa2	-0.0048598805
66	0xbc985ab7	-0.018597944
67	0x3d18f32b	0.037341278
68	0xbd08f023	-0.033432137
69	0x3d3d4222	0.046205647
70	0x3d9b2a6f	0.07576453
71	0x3d798d73	0.060925912
72	0x3dbf691f	0.09346222
73	0x3d9a469a	0.075329974
74	0x3cd70152	0.026245747
75	0x3d98edb3	0.074672125
76	0xbd5033f7	-0.050830808
77	0x3d95b8cc	0.07310638
78	0x3d32db9a	0.04366646
79	0x3d5c382e	0.053764515
80	0xbddd0d8f	-0.10793602
81	0x3d9986e5	0.07496432
82	0xbd87e7ac	-0.06635985
83	0xbc9a1e10	-0.018813163
84	0x3d90e31e	0.07074569
85	0x3d44e046	0.048065446
86	0x3c24b5c8	0.010053106
87	0xbb5476d6	-0.0032419465
88	0xbd8292e7	-0.06375676
89	0x3c53faaa	0.012938181
90	0x3d843995	0.064562954
91	0x3ca1eb8f	0.019765643
92	0x3ce1e535	0.027575115
93	0xbc8314e8	-0.01600118
94	0xbd8c713c	-0.06857535
95	0xbd31719d	-0.04332124
96	0x3dc3decb	0.09563979
97	0xbd838444	-0.06421712
98	0x3d031e28	0.03201118
99	0x3bd24b43	0.0064176633
100	0x3c5e0d83	0.013553026
101	0x3d67d073	0.056595277
102	0xbda2b753	-0.079451226
103	0xbd490e84	-0.04908611
104	0xbdb719e9	-0.08940489
105	0x3d62560d	0.055257846
106	0x3dcfac40	0.10140276
107	0x3d03edb7	0.032209124
108	0xbce06563	-0.027392095
109	0x3d464095	0.048401434
110	0xbd54d3ca	-0.05195979
111	0x3dbe9d51	0.093073495
112	0xbd57afe4	-0.052657977
113	0x3dcb9891	0.09941209
114	0xbd26c594	-0.04071577
115	0x3ca97a10	0.020688087
116	0x3da670e9	0.08127005
117	0x3dc47936	0.09593432
118	0xbbf2f64e	-0.0074146157
119	0xbc6514a7	-0.013981975
120	0x3cdda738	0.027057275
121	0xbcc85570	-0.024454802
122	0x3cb02367	0.021501256
123	0xbdb50834	-0.08839455
124	0xbd0e9e7c	-0.03481911
125	0x3b531d93	0.0032213673
126	0x3dc8b437	0.09799998
127	0x3db2e5c4	0.087352306
128	0xbb4803b6	-0.003051979
129	0x3c3da100	0.01157403
130	0xbc92e5b0	-0.01793179
131	0xbd776fb9	-0.06040928
132	0xbd8729ea	-0.06599791
133	0x3d54b3bd	0.051929224
134	0x3bc130ba	0.0058957012
135	0xbd8be47d	-0.0683069
136	0xbd1ddcbc	-0.038540587
137	0x3d7dfe6b	0.06201021
138	0xbcec8b18	-0.028874919
139	0x3d75722a	0.05992333
140	0x3b9c8653	0.004776755
141	0xbdd3f6ec	-0.10349831
142	0xbd9ef309	-0.07761199
143	0x3db45c56	0.08806674
144	0x3d9bc035	0.0760502
145	0xbc09693e	-0.008386908
146	0x3d5e1ee0	0.054228663
147	0x3d76f0cc	0.060288236
148	0x3d51f5de	0.051259868
149	0xbd6216a3	-0.05519737
150	0x3c3d7144	0.011562649
151	0xbd61709c	-0.055039033
152	0x3dcede56	0.10101001
153	0x3c5952c8	0.0132643655
154	0xbc399e64	-0.011329267
155	0xbd872d57	-0.06600445
156	0x3dab3e88	0.08361536
157	0x3d6b72ff	0.057482716
158	0x3d8b4815	0.06800858
159	0xbc099281	-0.008396746
160	0x3d36cd3e	0.044629328
161	0x3d30f1aa	0.04319922
162	0xbe0ac563	-0.1355186
163	0x3dbcae3e	0.092129216
164	0x3a094f1f	0.0005237925
165	0x3d0a9dae	0.03384178
166	0xbc8c3fcd	-0.017120266
167	0x3cde5a4a	0.027142663
168	0xbbf1af3e	-0.007375627
169	0xbb90fcdc	-0.0044246744
170	0x3cbc4f19	0.022986935
171	0x3d651a72	0.055933423
172	0x3d8ad6a4	0.06779221
173	0xbcaf5752	-0.021403942
174	0xbd69cd7e	-0.05708074
175	0xbd53a86e	-0.0516743
176	0x3da040fa	0.07824893
177	0x3da70857	0.081558876
178	0x39aa706f	0.00032508696
179	0x3db869b9	0.0900454
180	0xbc0bf704	-0.00854278
181	0x3c09ec04	0.008418087
182	0x3de6e7c5	0.11274675
183	0xbd88268f	-0.066479795
184	0x3d02ee50	0.031965554
185	0x3c3cd067	0.011524296
186	0xbd756212	-0.05990798
187	0x3d31a1c9	0.04336718
188	0xbc79b61f	-0.015241175
189	0xbd8ea27b	-0.069645844
190	0xbd8ecb8b	-0.069724165
191	0xbcf93e7d	-0.030425305
192	0x3d221a69	0.039575968
193	0x3d0bea3a	0.034158923
194	0x3d4c9701	0.049948696
195	0x3d01ac65	0.03165855
196	0xbd9cdbf1	-0.07659138
197	0x3d82bfe8	0.063842595
198	0x3db44c77	0.08803647
199	0x3c3e71b1	0.011623786
200	0xbd85972d	-0.06522975
201	0xbd4fb22e	-0.050707035
202	0x3ca70c82	0.020391706
203	0x3cd720a0	0.026260674
204	0xbdc13ec9	-0.094358034
205	0xbd101cd1	-0.03518373
206	0x3da8ff39	0.08251805
207	0xbd024313	-0.03180225
208	0xbd164619	-0.036687944
209	0x3d2ff8a4	0.04296173
210	0xbd015171	-0.03157181
211	0x3dc25a8a	0.09489925
212	0x3d7176b7	0.058951106
213	0x3dbee8ec	0.0932177
214	0x3d9ba767	0.07600289
215	0x3d959e7b	0.073056184
216	0x3d6f6c50	0.058452904
217	0x3d955780	0.0729208
218	0x3c23154b	0.009953807
219	0x3b2bc217	0.0026208216
220	0x3d0d05a4	0.034429207
221	0x3d1d20a7	0.038361218
222	0xbaf76146	-0.0018873594
223	0x3d46cc4f	0.048534688
224	0xbd742ac5	-0.0596111
225	0x3d08beee	0.03338521
226	0xbd14977c	-0.03627728
227	0xbcc5d036	-0.024147134
228	0x3d62e48f	0.05539375
229	0x3c852d79	0.016257035
230	0x3c160c42	0.009158196
231	0x3cfe3b57	0.031034155
232	0x3b48c4fc	0.003063499
233	0x3b226ac2	0.002478287
234	0x3db340b0	0.087525725
235	0x3c204918	0.009783052
236	0xbcda0160	-0.026611984
237	0xbd009d96	-0.031400286
238	0xbd6defe9	-0.058090124
239	0xbcfb6625	-0.030688355
240	0xbd559b31	-0.052149955
241	0x3c162839	0.009164863
242	0xbd7a2a03	-0.06107522
243	0xbd73ef2f	-0.059554275
244	0xbd558de7	-0.05213728
245	0x3da006bd	0.07813785
246	0xbbc57039	-0.006025341
247	0x3dbc1bf0	0.09185016
248	0x3d955847	0.07292228
249	0xbd34bb6f	-0.044124063
250	0x3c1e7ab2	0.0096728075
251	0x3ba43ed4	0.0050123725
252	0xbd388aad	-0.045054127
253	0x3d83e4a5	0.06440095
254	0x3d77245a	0.060337402
255	0x3c63c6ef	0.01390241

encoder.3.bias f4 [64]
0	0x3d2e37d8	0.042533726
1	0xbc8db9c2	-0.01730049
2	0xbd711da7	-0.05886617
3	0x3d1d7812	0.038444586
4	0xbdaf4938	-0.08558887
5	0x3d3e136c	0.04640524
6	0xbda51fe3	-0.080627225
7	0x3d6ffd0c	0.058590934
8	0x3d3574ef	0.04430097
9	0xbdade924	-0.08491734
10	0x3ca1292a	0.019672949
11	0x3da45be0	0.08025336
12	0xbd897b39	-0.06712956
13	0x3d62e1c6	0.055391096
14	0xbd16eb92	-0.03684575
15	0x3d80bd7c	0.06286141
16	0xbcd40918	-0.025883242
17	0x3bbdd7f9	0.005793568
18	0x3c1eece9	0.0097000385
19	0x3d29d9ed	0.041467596
20	0xbbb99cf6	-0.005664463
21	0xbd5941fa	-0.053041436
22	0xbcf39d1b	-0.029738
23	0xbd6e6866	-0.05820503
24	0x3d86e00e	0.06585704
25	0xbd3fb86e	-0.046806745
26	0x3d61066a	0.054937758
27	0xbc14e956	-0.009088835
28	0xbd7ba6f1	-0.061438505
29	0xbdb0472d	-0.08607326
30	0x3d985ab5	0.07439176
31	0xbcd61250	-0.026131779
32	0x3d6774cb	0.056507867
33	0xbd6a1c13	-0.05715568
34	0x3dd6546f	0.10465323
35	0xbd8876d9	-0.066632934
36	0xbd9bdf4a	-0.076109484
37	0x3da70a6e	0.08156286
38	0xbdac5fdf	-0.084167235
39	0xbd432d4d	-0.047650624
40	0xbd1f7947	-0.03893402
41	0xbb3638b9	-0.0027804805
42	0x3d982b81	0.07430173
43	0xbca10ce3	-0.019659465
44	0xbb83bd4a	-0.0040203677
45	0x3d1fa9d2	0.038980313
46	0xbd0a60a0	-0.033783555
47	0xbcffd92f	-0.03123149
48	0xbbc944b1	-0.006142222
49	0x3cf6355c	0.03005474
50	0xbd91e114	-0.07123008
51	0x3d04a6b6	0.03238555
52	0xb9fb66d6	-0.0004795107
53	0xbd4d5b25	-0.05013575
54	0x3c99c5d9	0.018771099
55	0x3c8fdd17	0.017561479
56	0x3d8f76a7	0.07005053
57	0x3d904905	0.07045177
58	0x3c80c238	0.01571761
59	0xbd5e8c31	-0.054332916
60	0x3bc01a35	0.005862499
61	0xbd9d4239	-0.076786466
62	0xbc2fea11	-0.010736958
63	0x3d92e5bb	0.07172724

encoder.6.weight f4 [32, 64]
0	0xbdc90703	-0.098157905
1	0xbd810c67	-0.06301194
2	0x3d96d5e8	0.07365018
3	0xbd05ba01	-0.03264809
4	0x3db71733	0.08939972
5	0x3df71bb2	0.12065829
6	0x3cce81a2	0.025208298
7	0x3dccc334	0.099981695
8	0x3d213307	0.039355304
9	0xbcd6037c	-0.026124708
10	0x3dcbbe3e	0.09948395
11	0xbe0fe819	-0.14053382
12	0xbde665a8	-0.11249858
13	0xbd4bed53	-0.049786877
14	0x3e00a9d3	0.12564783
15	0x3d982e80	0.07430744
16	0x3d80f5eb	0.06296905
17	0x3d3f378d	0.046683837
18	0xbafe1eb0	-0.0019387808
19	0xbd34b9e7	-0.044122603
20	0x3d9f02e6	0.07764225
21	0xbd28dea5	-0.041227955
22	0xbc2e848e	-0.010651721
23	0x3dce73e5	0.10080699
24	0xbcf98764	-0.030460067
25	0x3dcfd7d9	0.101485915
26	0xbc1267f4	-0.008935917
27	0x3dd6b611	0.10483945
28	0xbd38240e	-0.04495626
29	0x3c872c5e	0.016500648
30	0xbd2c3dc3	-0.042051088
31	0xbc82eda5	-0.015982458
32	0xbe2ab287	-0.16669665
33	0xbca05cea	-0.019575555
34	0x3b9081a1	0.004409984
35	0xbd2a6e4e	-0.0416091
36	0x3d762e77	0.060102906
37	0x3e2fa776	0.17153725
38	0x3d685322	0.056719907
39	0xbd259803	-0.040428173
40	0x3d48c31c	0.049014196
41	0x3de3bb92	0.111197606
42	0x3e1445ae	0.14479706
43	0x3dafe4a9	0.08588535
44	0xbd6ba0ce	-0.057526402
45	0xbbb4194a	-0.0054961788
46	0x3c933b4a	0.017972607
47	0x3d0aaa80	0.033854008
48	0xbdbafcb6	-0.09130232
49	0x3dd9069a	0.10596962
50	0x3dce4881	0.10072423
51	0xbd0736a9	-0.033011112
52	0x3e0c29b1	0.13687779
53	0x3da57113	0.08078208
54	0x3dd16835	0.10224954
55	0xbdd39ec6	-0.10333018
56	0xbdd3e39e	-0.10346149
57	0x3d582fc2	0.05277992
58	0xbda1567e	-0.07877825
59	0xbdc30a66	-0.09523468
60	0xbd36ffd0	-0.044677556
61	0xbcbef4f2	-0.023310158
62	0x3d367471	0.04454464
63	0xbcec7252	-0.028863106
64	0xbdc37e3d	-0.095455624
65	0xbc112976	-0.008859983
66	0x3c93a10b	0.018021127
67	0x3dcf0234	0.10107842
68	0xbd7f929a	-0.06239567
69	0x3d8a705c	0.06759712
70	0x3c2f29e9	0.0106911445
71	0xbe3dd6e4	-0.18539006
72	0x3aff80a6	0.0019493296
73	0x3e0fd250	0.14045072
74	0xbd884baf	-0.066550605
75	0x3c70602c	0.014671367
76	0xbd84ae45	-0.06478552
77	0xbd0b6a1c	-0.03403674
78	0xbdd346a3	-0.10316207
79	0xbdf13ab1	-0.117787726
80	0x3d920b95	0.07131115
81	0x3dbe66b3	0.09296932
82	0xbd7deaaa	-0.06199137
83	0xbd0c542b	-0.034259956
84	0x3d35e0e2	0.044403918
85	0xbdb093f7	-0.08621972
86	0x3b564bbe	0.0032698954
87	0xbdbe145a	-0.092812255
88	0x3db65790	0.0890342
89	0x3d9b47f6	0.07582085
90	0xbbcb811e	-0.0062104603
91	0x3de54431	0.11194647
92	0x3d88bb35	0.06676332
93	0xbb2b426b	-0.0026132117
94	0xbdd2fdac	-0.1030229
95	0xbd515612	-0.051107474
96	0xbd194d8f	-0.03742748
97	0x3b0fc27e	0.0021935995
98	0x3d3dca7b	0.04633568
99	0xbd176981	-0.03696585
100	0xbd3d22bd	-0.046175707
101	0xbd857234	-0.06515923
102	0x3de36772	0.11103715
103	0xbd98a936	-0.074541494
104	0x3bac0ae5	0.005250322
105	0xbd127bec	-0.035762712
106	0x3de7c780	0.113173485
107	0x3d590ab6	0.05298873
108	0x3ce39eef	0.027785746
109	0xbdbd0f39	-0.09231419
110	0xbd874ca5	-0.06606416
111	0x3e07b0d4	0.13251048
112	0x3cd655ff	0.026164053
113	0x3b64fe12	0.0034941477
114	0x3d5b5939	0.053551886
115	0x3c666d8a	0.014064202
116	0xbd9cd7d6	-0.07658355
117	0x3df8acce	0.12142335
118	0xbdd5855d	-0.10425828
119	0xbb74d3fc	-0.0037357798
120	0x3d3bea73	0.045877885
121	0xbdcde50c	-0.10053453
122	0xbb00b9aa	-0.0019641914
123	0x3d753043	0.05986048
124	0xbdf1f7b4	-0.11814824
125	0x3ddb7e0b	0.107174
126	0xbcfa9db3	-0.030592775
127	0x3d1c5994	0.038171366
128	0x3dcc92b2	0.099889174
129	0xbd9f5def	-0.07781588
130	0x3d8d63cf	0.069038026
131	0x3e0cfecd	0.13769074
132	0xbdd187b0	-0.102309585
133	0xbda560ec	-0.08075127
134	0x3d8ce3c8	0.06879383
135	0x3d160977	0.03663012
136	0x3c6bcf5c	0.0143927
137	0xbd1a1901	-0.0376215
138	0x3d87bb0e	0.06627475
139	0x3d1e384c	0.038627908
140	0x3d69092c	0.056893513
141	0x3dfb7455	0.12278048
142	0x3d3ad7c4	0.045615926
143	0xbdde16b2	-0.108441725
144	0x3d44f71e	0.04808723
145	0x3cde543b	0.027139774
146	0x3dd5977c	0.10429284
147	0xbdcc19e7	-0.09965878
148	0x3d806b7a	0.062704995
149	0xbd939200	-0.07205582
150	0xbdbdfaf3	-0.092763804
151	0xbd8a207a	-0.06744476
152	0xbdb60204	-0.08887103
153	0xba8ce12e	-0.0010748261
154	0x3d33af12	0.043868132
155	0xbd6466e1	-0.055762175
156	0x3d0aa773	0.0338511
157	0x3d57a103	0.052643787
158	0xbce2b527	-0.02767427
159	0xbd663bb1	-0.05620927
160	0x3de6008f	0.11230575
161	0xbda1abee	-0.07894121
162	0x3bcd1e24	0.0062596966
163	0x3ab47880	0.0013768822
164	0xbd9c9044	-0.07644704
165	0xbd60404d	-0.054748822
166	0x3de609a7	0.1123231
167	0x3ca7afb4	0.020469524
168	0x3c0180a1	0.007904203
169	0xbdf0af71	-0.11752213
170	0xbb757c86	-0.0037458255
171	0x3c8c84cd	0.017153168
172	0xbdd5bb3a	-0.10436101
173	0xbca3a9b9	-0.019978391
174	0x3d20dfe5	0.039276022
175	0xbd94f303	-0.07272913
176	0xbb111629	-0.0022138453
177	0xbd966906	-0.073442504
178	0xbe01c8e4	-0.1267429
179	0xbcea6831	-0.028614135
180	0x3e482ea2	0.19549039
181	0x3d56840b	0.05237202
182	0x3d3e8a67	0.04651871
183	0x3e01a728	0.12661421
184	0x3dbb7207	0.09152608
185	0x3d86cc25	0.06581906
186	0x3d17509c	0.03694211
187	0xbdad47eb	-0.08460983
188	0x3e5f13a9	0.21784844
189	0xbdd52da7	-0.10409098
190	0x3b1891b4	0.0023280205
191	0x3d617466	0.055042647
192	0xbd3077f0	-0.04308313
193	0xbdfaa697	-0.12238806
194	0xbcf4204d	-0.029800558
195	0x3dd1f938	0.10252613
196	0x3e12fcea	0.14354292
197	0x3e157ade	0.14597651
198	0x3e046923	0.12930731
199	0x3d4a3653	0.049368214
200	0x3de25e6c	0.11053166
201	0xbde2e255	-0.11078326
202	0x3cd538bd	0.026028031
203	0xbd262314	-0.040560797
204	0x3df544b8	0.11975998
205	0xbc12c788	-0.008958705
206	0x3d13648b	0.035984557
207	0x3d85e5fd	0.065380074
208	0xbd63eef4	-0.055647805
209	0xbd86252e	-0.0655006
210	0xbd20a3f0	-0.039218843
211	0x3d74651a	0.05966673
212	0xbd5260d4	-0.051361874
213	0xbcd87249	-0.026421683
214	0xbd83c7de	-0.06434606
215	0xbce9911a	-0.028511573
216	0x3c7c0277	0.015381447
217	0x3d8b6d31	0.06807936
218	0xbda2224d	-0.079166986
219	0xbd821c0b	-0.06353005
220	0x3cf76ec2	0.03020418
221	0x3e0178a4	0.12643677
222	0x3d8b649d	0.068063
223	0x3d313ba1	0.043269757
224	0x3d32e707	0.043677356
225	0x3d7d716a	0.06187574
226	0x3dc11f70	0.09429824
227	0xbdf16388	-0.11786562
228	0xbdb7bea4	-0.08971909
229	0xbd8c57e0	-0.06852698
230	0x3dbca8e6	0.09211902
231	0xbd63cd41	-0.055615667
232	0x3d243a21	0.0400945
233	0x3dceb32e	0.100927696
234	0xbc2a5be3	-0.010397884
235	0xbdb91111	-0.09036458
236	0x3dbe2b23	0.092855714
237	0xbd1a124f	-0.037615117
238	0xbdb06863	-0.0861366
239	0xbd302db6	-0.043012343
240	0xbd830860	-0.06398082
241	0xbd0c6c41	-0.034282926
242	0xbb95e1d5	-0.0045740404
243	0x3e0724aa	0.1319758
244	0xbda6ba64	-0.0814102
245	0x3da1e715	0.079054035
246	0xbd1c1fb4	-0.038116172
247	0x3d87fcbb	0.066400014
248	0xbda8d0fd	-0.08242986
249	0xbda54819	-0.08070392
250	0xbde963ab	-0.11395963
251	0xbd9c79dd	-0.07640431
252	0xbd48b4b0	-0.049000442
253	0xbda148c3	-0.07875206
254	0xbd2e0a6e	-0.042490415
255	0x3c5f0cb0	0.013613865

encoder.6.bias f4 [32]
0	0x3d8d6835	0.069046415
1	0xbd552744	-0.0520394
2	0xbdcce104	-0.10003856
3	0x3d19497b	0.037423592
4	0x3d1a7dd5	0.03771766
5	0x3d9efd09	0.077631064
6	0x3d770f5e	0.06031739
7	0x3d60b29a	0.054857828
8	0xbd8512ea	-0.06497748
9	0xbd916365	-0.07099036
10	0xbdcf5b2f	-0.10124814
11	0xbcfd054f	-0.03088632
12	0x3cfa350e	0.030542877
13	0xbd6fae5c	-0.05851589
14	0xbda857ad	-0.08219848
15	0xbdc95c7d	-0.09832094
16	0xbde6a394	-0.11261669
17	0x3df0f47d	0.117653824
18	0xbda03e56	-0.0782439
19	0xbe169e48	-0.14708817
20	0xbbc4ee57	-0.0060098576
21	0xbd9e9d8e	-0.07744895
22	0x3d992a05	0.07478718
23	0x3d8ebf24	0.06970051
24	0xbc0d2ee5	-0.008617138
25	0x3ccc532b	0.024942001
26	0x3d6c1251	0.057634655
27	0xbd97793a	-0.07396169
28	0x3d028ad2	0.03187067
29	0xbd9c523b	-0.07632872
30	0x3d9b1a6a	0.075733975
31	0xbd165e87	-0.036711242

encoder.9.weight f4 [9, 32]
0	0xbc586d5c	-0.013209667
1	0xbe11b8a3	-0.1423059
2	0x3ba4b364	0.005026268
3	0xbcd2fc44	-0.025755055
4	0xbda519c7	-0.08061557
5	0x3db821ae	0.08990799
6	0xbe0d61a8	-0.13806784
7	0x3db49356	0.088171646
8	0xbe3ef70e	-0.18648931
9	0xbd2b8e83	-0.041883957
10	0x3d9ef73f	0.07762002
11	0xbd919999	-0.071093746
12	0xbe0fe7fc	-0.14053339
13	0xbe058de9	-0.13042416
14	0xbe2daa09	-0.16959395
15	0xbdeeaf11	-0.11654485
16	0xbd96e042	-0.073669925
17	0xbe24f15a	-0.16107693
18	0xbe2f0fa1	-0.17095806
19	0x3c368057	0.011138997
20	0xbd785053	-0.06062348
21	0xbdea9de1	-0.11455894
22	0x3a4d7e78	0.00078389747
23	0x3a9b1c4d	0.0011833996
24	0x3dcbe346	0.09955458
25	0xbe36fcce	-0.17869875
26	0x3d99998f	0.07499992
27	0x3c9d338e	0.019189622
28	0x3de084e5	0.109628476
29	0x3c852b88	0.016256109
30	0xbd7f0bf4	-0.06226726
31	0x3e27a2a2	0.16370633
32	0x3a868674	0.0010263459
33	0xbe3bc7fc	-0.18338007
34	0x3da4d5de	0.080486044
35	0x3dcef6e0	0.101056814
36	0xbd564164	-0.052308455
37	0x3e19f45d	0.15034623
38	0x3e2570cb	0.16156308
39	0xbdcf89ca	-0.10133703
40	0xbe253354	-0.16132861
41	0xbdbc8edf	-0.09206938
42	0xbe4ba66e	-0.19887707
43	0xbe3e9e22	-0.1861501
44	0x3c314078	0.010818593
45	0xbe0cc882	-0.13748363
46	0xbe38cde6	-0.18047294
47	0x3c8fda7e	0.01756024
48	0xbce1770e	-0.02752259
49	0x3e0e5f7a	0.13903609
50	0xbda364d7	-0.07978218
51	0xbdf15bf5	-0.117851175
52	0x3d83c046	0.064331576
53	0x3e3e3e0e	0.1857836
54	0xbdd0bb6e	-0.101919994
55	0xbdfb5f74	-0.122740656
56	0x3e00277e	0.12515065
57	0x3cd8b578	0.026453719
58	0x3d551f4a	0.052031793
59	0x3c7f7a1b	0.015593077
60	0x3deea823	0.11653163
61	0xbaf28e01	-0.0018505455
62	0x3d545407	0.051837947
63	0xbd5c3852	-0.05376465
64	0xbe3e9853	-0.18612795
65	0xbdc090ad	-0.09402595
66	0x3dfd573c	0.12370154
67	0xbd8cff81	-0.06884671
68	0xbe56b658	-0.20967996
69	0xbe17f896	-0.14840922
70	0x3dbd6881	0.09248448
71	0xbded2b13	-0.115804814
72	0x3d919fda	0.071105674
73	0x3e3557fa	0.17709342
74	0xbb5b71ef	-0.0033484658
75	0x3d96c37c	0.073615044
76	0x3bcded9d	0.006284429
77	0x3db5e9fd	0.0888252
78	0xbcba1f4e	-0.022720005
79	0x3dd03a8f	0.10167419
80	0xbd99d7b1	-0.07511843
81	0x3d8e21bb	0.06940027
82	0x3dfba0ed	0.122865535
83	0x3e687fad	0.22704954
84	0xbd338518	-0.0438281
85	0x3d9fe70c	0.078077406
86	0x3e4698c9	0.1939422
87	0x3dc6b792	0.09702982
88	0xbdbf6997	-0.093463115
89	0x3daced29	0.08443672
90	0xbdfe3321	-0.12412096
91	0x3dc01d9f	0.0938065
92	0xbe373aa3	-0.17893462
93	0xbd5cd7f3	-0.053916883
94	0x3dff97ce	0.12480126
95	0x3cf1cafc	0.029515736
96	0xbd70921e	-0.0587331
97	0xbe0a64a2	-0.13514951
98	0xbe3fb74a	-0.18722263
99	0x3bdaa994	0.0066730473
100	0xbc1dafcc	-0.009624433
101	0xbdfbd172	-0.12295808
102	0x3d614ab6	0.05500289
103	0x3d10c900	0.03534794
104	0xbdd55fff	-0.104187004
105	0xbe212ec2	-0.15740493
106	0xbd3f86a9	-0.04675928
107	0xbc808c96	-0.015692037
108	0x3e0ee3e9	0.13954128
109	0xbd3e370b	-0.04643921
110	0xbdb654f6	-0.08902924
111	0xbdf486e1	-0.119397886
112	0x3d380e13	0.044935297
113	0x3e0ff6b1	0.14058949
114	0x3d225c78	0.039638966
115	0xbd045b61	-0.03231371
116	0xbd937d0c	-0.07201585
117	0xbb903186	-0.004400435
118	0xbdbc3ecc	-0.09191665
119	0xbdfc9f0c	-0.12335023
120	0xbe1412bc	-0.14460272
121	0x3ccae9dc	0.024769716
122	0x3e49f376	0.19721779
123	0xbc6155be	-0.013753353
124	0x3d9492a4	0.07254532
125	0x3c40d59a	0.011769677
126	0xbe2c56ae	-0.1682994
127	0x3cd558c2	0.0260433
128	0xbd98f889	-0.07469279
129	0x3c104a9c	0.008806851
130	0xbe2efb25	-0.17087992
131	0xbc961c39	-0.018324004
132	0x3e4f0539	0.20216836
133	0xbda37ec7	-0.07983165
134	0xbd2608ff	-0.040535923
135	0xbd502f0e	-0.050826125
136	0xbd3b06f9	-0.045660947
137	0xbc14ad53	-0.009074527
138	0xbddc6e3c	-0.10763213
139	0xbdc84645	-0.09779028
140	0xbc2c080d	-0.010499966
141	0xbe2695d0	-0.16268086
142	0x3d1da193	0.038484167
143	0x3d5e8499	0.054325674
144	0xbd1d3a5a	-0.038385727
145	0xbcb66102	-0.022263054
146	0x3c97fced	0.018553222
147	0xbda05b9b	-0.07829972
148	0x3d9b5181	0.07583905
149	0x3d89c55d	0.06727097
150	0xbdedac9b	-0.116051875
151	0x3e039f17	0.12853657
152	0x3de423de	0.111396536
153	0x3d9f0868	0.07765275
154	0x3dfb59fb	0.12273022
155	0x3e18ae58	0.14910257
156	0x3ded5035	0.11587564
157	0x3e314f8b	0.173155
158	0x3e0a16a5	0.134852
159	0x3e1a3462	0.15059045
160	0x3de8881b	0.11354085
161	0x3e220787	0.15823184
162	0x3cdb5a25	0.026776383
163	0xbd0629e4	-0.032754794
164	0xbe218654	-0.15773898
165	0x3dc45159	0.09585828
166	0xbde75ecb	-0.11297377
167	0x3c733363	0.0148437945
168	0xbdb0bd96	-0.08629911
169	0x3c288103	0.010284665
170	0xbd90b58b	-0.070658766
171	0x3c8a764f	0.016902117
172	0xbde995c5	-0.114055194
173	0x3e3e56e2	0.1858783
174	0xbd27e2d8	-0.04098782
175	0x3e0f60a6	0.14001712
176	0xbd5073fa	-0.050891854
177	0xbdf81e50	-0.12115157
178	0xbdd8c7f7	-0.10585015
179	0x3b1ba229	0.0023747778
180	0xbb614a8a	-0.0034376704
181	0xbde0fb0e	-0.10985385
182	0xbd30e80d	-0.04319005
183	0x3ddf5d5f	0.10906481
184	0xbc7765dc	-0.015099969
185	0x3daf1b4d	0.08550129
186	0xbddb7d2c	-0.10717234
187	0xbd5d323c	-0.054002985
188	0xbd69c755	-0.057074863
189	0xbda542e8	-0.08069402
190	0xbcc94fed	-0.024574244
191	0xbe060ad2	-0.13090065
192	0x3e06cff2	0.13165262
193	0xbe09ed63	-0.13469462
194	0x3e6548b0	0.2239101
195	0x3d64c524	0.05585207
196	0x3d80d6f7	0.06291001
197	0xbe0363ab	-0.12830989
198	0xbcf9a662	-0.030474845
199	0xbd92b27a	-0.07162948
200	0xbc85e6eb	-0.016345462
201	0xbddd590c	-0.10808
202	0xbc7d797f	-0.015470861
203	0x3c30b41d	0.01078513
204	0x3d2e058e	0.042485766
205	0x3bea8401	0.0071568494
206	0xbd3fba15	-0.04680832
207	0x3d33b2ac	0.043871567
208	0x3d0d4e4e	0.034498505
209	0x3e7926ef	0.24331258
210	0xbe197a28	-0.14988005
211	0xbd0fb9ea	-0.03508941
212	0x3e149ce8	0.1451298
213	0xbce76973	-0.028248524
214	0xbe0a8da8	-0.135306
215	0xbcae7d3f	-0.021299956
216	0xbe00c65b	-0.12575667
217	0x3dfe48a8	0.12416202
218	0xbd4c5b5b	-0.04989181
219	0x3d7d2eaf	0.0618121
220	0xbd32e999	-0.043679807
221	0xbd2154b5	-0.039387424
222	0x3e3817f1	0.17977883
223	0xbe3e67b8	-0.18594253
224	0x3e09ab97	0.13444363
225	0xbdc3608b	-0.095398985
226	0x3e16d7e9	0.147308
227	0x3dd926bf	0.10603093
228	0x3e0550e6	0.13019142
229	0xbd112a1c	-0.03544055
230	0xbdc8f742	-0.09812786
231	0xbe02c9fd	-0.12772365
232	0xbd9cc92b	-0.07655557
233	0x3dc1a95b	0.0945613
234	0x3d1dfdaa	0.03857199
235	0xbd47f365	-0.048816103
236	0xbe20894b	-0.15677373
237	0xbd92b685	-0.07163719
238	0x3e10a220	0.14124346
239	0x3d1183de	0.03552615
240	0xbe139cd3	-0.14415292
241	0x3d62bb03	0.05535413
242	0x3e42f4dc	0.19038719
243	0xbdae5f6c	-0.08514294
244	0x3da3d4d2	0.07999577
245	0xbc060975	-0.008180966
246	0xbe1e2cce	-0.15446779
247	0xbdee8687	-0.11646753
248	0x3dd9dede	0.10638212
249	0x3ab2cc7f	0.0013641267
250	0x3e0e2d20	0.13884401
251	0x3df96d87	0.12179094
252	0x3c4a96c6	0.012365049
253	0x3d08ab00	0.033366203
254	0x3e15aeb1	0.1461742
255	0x3e416b90	0.18888688

encoder.9.bias f4 [9]
0	0xbdcdfe5e	-0.10058282
1	0xbdc8b73f	-0.098005764
2	0xbd993e01	-0.074825294
3	0xbde2a796	-0.11067121
4	0xbe01e2a7	-0.12684117
5	0x3e277ea9	0.16356911
6	0x3a43f908	0.0007475768
7	0x3d9745ec	0.073863834
8	0x3c9688a9	0.018375712

decoder.0.weight f4 [32, 9]
0	0x3e6d8a0d	0.23197193
1	0x3e1109f0	0.14163947
2	0xbe5d9ff0	-0.21643043
3	0xbe46ecb0	-0.19426227
4	0xbe45ecb0	-0.1932857
5	0x3e9e0a19	0.3086708
6	0xbeadc930	-0.33942556
7	0x3e3ff367	0.18745194
8	0xbe60dfdb	-0.21960394
9	0x3e5d0a35	0.21585925
10	0x3dd33671	0.10313118
11	0xbe78955b	-0.24275725
12	0x3d7f7385	0.062366027
13	0x3e819b3e	0.25313753
14	0x3d2a676a	0.04160253
15	0x3e81b315	0.2533194
16	0xbe97c0a4	-0.2963916
17	0xbd9f7b6b	-0.07787212
18	0xbe05c1be	-0.13062188
19	0x3e9dd9e7	0.3083031
20	0x3e4625e6	0.19350395
21	0xbe689315	-0.22712357
22	0x3d6509ba	0.05591748
23	0xbd116c93	-0.035503935
24	0xbe287dc5	-0.16454227
25	0x3e240022	0.16015676
26	0x3e62d770	0.22152495
27	0x3db25711	0.08708013
28	0x3c0492cb	0.008091639
29	0x3eac3aac	0.33638513
30	0xbeacb11a	-0.33728868
31	0xbc92fe5d	-0.017943555
32	0x3d97b8dd	0.07408307
33	0x3dbd87ae	0.092543945
34	0x3eb06a42	0.34456068
35	0xbe53bdd4	-0.20677882
36	0xbe9f99ca	-0.3117202
37	0x3e872d87	0.26401922
38	0xbe14e896	-0.1454185
39	0x3d87dba7	0.06633692
40	0x3d9f060c	0.07764825
41	0x3cd87322	0.026422087
42	0x3de5b8d1	0.112168916
43	0x3e9f0263	0.31056508
44	0x3ead9e89	0.33910015
45	0xbe92e819	-0.286927
46	0xbe672691	-0.22573306
47	0x3eaa73d1	0.33291486
48	0xbbcbb526	-0.006216663
49	0x3e1c2f76	0.1525248
50	0x3dd5c4eb	0.1043795
51	0x3e4d043f	0.20021151
52	0xbe03b645	-0.12862499
53	0xbdd2cca4	-0.10292938
54	0x3dfe3620	0.12412667
55	0xbe5ef7ed	-0.21774264
56	0xbe4f99c5	-0.20273502
57	0x3bcaf7c8	0.0061940886
58	0xbe87bd50	-0.2651162
59	0xbd8e8735	-0.069593824
60	0xbdce759b	-0.10081025
61	0x3e265bea	0.16246
62	0xbe4579ac	-0.19284695
63	0x3e47be0b	0.1950609
64	0xbea17a31	-0.31538537
65	0xbe50c1e4	-0.20386463
66	0x3ea0c621	0.3140116
67	0x3cb8f8fa	0.022579659
68	0x3e498793	0.19680624
69	0x3e93fb4c	0.28902662
70	0x3df35ec1	0.11883307
71	0xbe23d79a	-0.16000214
72	0xbd80a55f	-0.06281542
73	0xbdfe89c9	-0.12428624
74	0x3e604a7d	0.21903415
75	0x3d489350	0.048968613
76	0x3e29aa63	0.16568904
77	0x3e9d0f5b	0.30675778
78	0xbe6d5e04	-0.23180395
79	0xbe9bbbe5	-0.3041679
80	0xbea3ae84	-0.31969082
81	0xbeb41d6b	-0.35178694
82	0x3d9afd59	0.075678535
83	0xbe141eed	-0.14464922
84	0x3e9393b4	0.28823626
85	0x3bcd2bd8	0.00626133
86	0x3e90494f	0.2818093
87	0xbd15ce9d	-0.036573995
88	0xbeb24da3	-0.34824857
89	0x3e1ef317	0.15522419
90	0x3e1742d9	0.14771594
91	0xbe24ba30	-0.1608665
92	0x3e8893df	0.26675317
93	0x3d95fc3c	0.073235005
94	0x3e866a22	0.26252848
95	0x3d949783	0.07255461
96	0x3ebfc367	0.37453768
97	0x3e38d953	0.18051653
98	0x3e254a70	0.16141677
99	0xbea8df07	-0.32982656
100	0x3dcd1d50	0.100153565
101	0xbe9219c6	-0.2853529
102	0x3e6f3a33	0.23362045
103	0x3eae2a00	0.34016418
104	0x3e7a3a8d	0.24436398
105	0xbe87edf2	-0.26548725
106	0x3ead53fd	0.3385314
107	0xbe26f5bc	-0.16304678
108	0xbcbcb4cc	-0.02303543
109	0xbdd76419	-0.10517139
110	0xbd113349	-0.0354493
111	0xbe3aed17	-0.18254505
112	0x3ea61139	0.32435015
113	0xbe9a405e	-0.30127233
114	0xbe9e74e0	-0.30948544
115	0x3d239ed6	0.0399464
116	0x3eae0c71	0.33993867
117	0xbea37ee4	-0.31932747
118	0xbea9809d	-0.33105937
119	0x3d764978	0.06012866
120	0x3da3c0fc	0.07995793
121	0xbe20e0e8	-0.15710795
122	0xbe52487a	-0.2053546
123	0x3e04fef7	0.12987886
124	0xbe013f10	-0.12621713
125	0x3ca95ed7	0.020675106
126	0xbcd09900	-0.025463581
127	0x3eac1f28	0.3361752
128	0xbe7feea7	-0.24993382
129	0x3da4485c	0.08021614
130	0xbdf206eb	-0.11817726
131	0xbd9875dc	-0.07444355
132	0x3c410877	0.011781803
133	0x3d6f2b9c	0.0583912
134	0xbe2a0237	-0.16602407
135	0xbe018988	-0.1265012
136	0x3e7b6cf9	0.24553289
137	0xbc7ef877	-0.015562168
138	0x3e887cb2	0.26657635
139	0xbce0e928	-0.027454928
140	0xbe9b4c80	-0.30331802
141	0x3d270dfa	0.040784813
142	0x3e5a841e	0.21339461
143	0x3d13322f	0.03593653
144	0x3d6bc981	0.057565216
145	0x3ce89024	0.028389044
146	0x3e2a7792	0.16647175
147	0x3dd3d58a	0.10343464
148	0xbe9cacf6	-0.3060071
149	0x3e6e846c	0.23292702
150	0xbead402f	-0.3383803
151	0x3d20b1d2	0.039232083
152	0x3eabd63e	0.3356189
153	0xbe8067c0	-0.25079155
154	0xbe9f2d02	-0.31089026
155	0xbe799054	-0.24371463
156	0x3e1eb03c	0.15496916
157	0x3d868db7	0.06569999
158	0x3e2d56d3	0.16927652
159	0xbd468f86	-0.04847672
160	0xbe986cb1	-0.29770425
161	0xbe1e2b0b	-0.15446107
162	0xbeac4f4d	-0.33654252
163	0x3d838b74	0.06423083
164	0xbca3ff1c	-0.020019107
165	0xbea08e78	-0.31358695
166	0x3e8114ad	0.25211087
167	0xbd89f349	-0.06735856
168	0xbe40b828	-0.1882025
169	0xbd81786a	-0.06321795
170	0x3d68d4a0	0.0568434
171	0x3e39065e	0.18068835
172	0x3e9ba280	0.30397415
173	0xbe08b395	-0.13349755
174	0x3e331cd2	0.17491463
175	0xbe601032	-0.21881178
176	0xbe552543	-0.20814995
177	0xbd715449	-0.05891827
178	0x3ded8fdc	0.115997046
179	0x3e9a4177	0.3012807
180	0x3e84d1ec	0.25941408
181	0x3dfed747	0.12443405
182	0x3e8465b1	0.25858834
183	0xbe34ce90	-0.17656922
184	0xbe96771c	-0.29387748
185	0xbd0e206c	-0.03469889
186	0x3e92275a	0.28545648
187	0x3b2fb14b	0.0026808556
188	0x3db9a45c	0.09064552
189	0xbe5d3888	-0.21603596
190	0x3d777801	0.06041718
191	0xbd9841ab	-0.074344
192	0xbe8938c4	-0.2680112
193	0x3e2205b8	0.15822494
194	0x3e783dfc	0.24242395
195	0xbe94e94f	-0.2908425
196	0x3e60e5e0	0.2196269
197	0xbd33120e	-0.04371839
198	0x3e19ab5e	0.15006778
199	0xbdc96ae2	-0.098348394
200	0xbe569b78	-0.20957744
201	0xbd8ed538	-0.06974262
202	0xbe8f115f	-0.2794294
203	0x3e999a54	0.30000556
204	0x3eafe2b6	0.34352654
205	0x3e8dea94	0.2771803
206	0xbe9de768	-0.3084061
207	0x3dbefb05	0.09325222
208	0x3ea430e8	0.32068563
209	0x3e39b821	0.18136646
210	0x3e509ac4	0.20371538
211	0x3e78a735	0.24282534
212	0xbe6a3a5e	-0.22873828
213	0x3dc959a8	0.09831554
214	0xbe3a6900	-0.18204117
215	0xbdffda44	-0.12492803
216	0x3de914b0	0.11380899
217	0xbdf408a7	-0.11915713
218	0x3e6906d4	0.22756511
219	0x3dbae927	0.091265015
220	0xbdff0bb6	-0.124534056
221	0xbe82d3f9	-0.25552347
222	0xbe8254b3	-0.25455245
223	0xbe4e7311	-0.20161082
224	0x3e28a528	0.16469252
225	0x3e803172	0.25037724
226	0x3c403348	0.011730976
227	0xbd1b05ac	-0.037847206
228	0x3e890c82	0.26767355
229	0xbeb7fab4	-0.3593346
230	0x3dcaaf60	0.098967314
231	0x3e3c6fe7	0.18402062
232	0xbeb0e882	-0.3455239
233	0xbea84ff5	-0.32873502
234	0xbd982b82	-0.074301735
235	0xbd15293d	-0.03641628
236	0xbe0a51f7	-0.1350783
237	0xbd71ce22	-0.059034474
238	0xbdcd2388	-0.10016543
239	0x3e9e95ad	0.3097357
240	0x3ec6bd74	0.38816416
241	0x3e311a05	0.17295082
242	0x3d7f9ecd	0.062407304
243	0xbdd5f057	-0.10446232
244	0xbe19767b	-0.14986603
245	0x3d5ab27e	0.05339288
246	0x3e4005ae	0.18752167
247	0xbd52b2eb	-0.05144016
248	0xbe2b2fc5	-0.16717441
249	0x3e854506	0.26029223
250	0x3e337193	0.17523794
251	0xbe608f9b	-0.21929781
252	0xbeb1154e	-0.34586567
253	0xbb8a7e91	-0.0042265137
254	0x3e732e7d	0.23748203
255	0xbe1fb5e5	-0.15596731

decoder.0.bias f4 [32]
0	0xbe9b6cc8	-0.3035643
1	0x3d1c802f	0.038208183
2	0x3d9a977d	0.07548425
3	0x3d4b07a6	0.04956784
4	0x3eb2df98	0.34936213
5	0xbe83a5f0	-0.25712538
6	0x3d36de81	0.04464579
7	0xbe5a8172	-0.21338442
8	0x3ea2ef39	0.31823137
9	0xbe520806	-0.20510873
10	0x3e8f518a	0.27991897
11	0x3e8a86b5	0.27055898
12	0x3e2cd1d2	0.16876915
13	0xbd370b63	-0.044688594
14	0x3ded2813	0.11579909
15	0x3df28975	0.11842624
16	0x3cc70523	0.024294442
17	0xbc92b317	-0.017907662
18	0xbde8d3bd	-0.11368511
19	0x3eaed528	0.34147
20	0x3eafecc2	0.3436032
21	0x3eb544b4	0.3540398
22	0xbe765ede	-0.24059626
23	0xbd23a7af	-0.039954837
24	0x3e01efce	0.12689134
25	0xbd726762	-0.059180625
26	0x3e4ffd95	0.20311578
27	0x3ead908d	0.33899346
28	0x3e8ed1a6	0.27894324
29	0xbdc111ff	-0.094272606
30	0xbbfe3a03	-0.0077583804
31	0x3c57ff81	0.0131834755

decoder.2.weight f4 [64, 32]
0	0x3e060329	0.13087143
1	0x3e43111d	0.19049497
2	0x3de64485	0.11243538
3	0x3a90800a	0.0011024487
4	0xbc8f5352	-0.017495785
5	0xbe14de82	-0.14538005
6	0xbcc4e281	-0.024033787
7	0x3dc8ba7d	0.09801195
8	0xbe145f74	-0.14489537
9	0x3e2bb327	0.1676756
10	0xbce385d3	-0.027773773
11	0x3c9dcdad	0.019263113
12	0xbddeb53d	-0.10874412
13	0x3d3e1bcb	0.046413224
14	0x3d9c0a9c	0.07619211
15	0xbd9feee2	-0.07809235
16	0xbe1870c1	-0.14886762
17	0x3d9c55ed	0.076335765
18	0xbdeabe18	-0.11462039
19	0x3daf2360	0.08551669
20	0xbd265c88	-0.04061559
21	0xbdcd2878	-0.100174844
22	0xbe178164	-0.14795452
23	0x3d809fdc	0.06280491
24	0x3df26cf5	0.11837188
25	0x3c7c61e0	0.015404195
26	0x3e016c93	0.12639074
27	0x3e110e8a	0.14165702
28	0x3d7c5b82	0.061610706
29	0xbe10c86e	-0.14138958
30	0xbddd5aeb	-0.10808357
31	0x3e22f94d	0.15915413
32	0x3e2436e0	0.16036558
33	0x3e7212ca	0.2363998
34	0x3d585560	0.052815795
35	0x3e1d7340	0.15375996
36	0x3ddadbae	0.10686432
37	0xbc8123d2	-0.01576415
38	0x3cf7ef79	0.030265557
39	0xbdb64bef	-0.08901202
40	0x3e102cb5	0.14079554
41	0xbc6117e1	-0.013738603
42	0xbd34457a	-0.04401157
43	0xbe05435a	-0.13013974
44	0x3d52c37c	0.05145596
45	0xbd99afc8	-0.07504231
46	0x3dbef34b	0.09323748
47	0x3dac965a	0.08427115
48	0x3e169375	0.14704688
49	0xbc5272dd	-0.012844768
50	0x3e2eacc5	0.17058094
51	0x3df66083	0.12030127
52	0xbd7becc2	-0.061505087
53	0xbd43a6d6	-0.04776653
54	0x3e368cba	0.1782712
55	0x3e275351	0.16340376
56	0xbd40e9cc	-0.047097966
57	0xbdbcc193	-0.09216609
58	0x3cf7c00c	0.030242942
59	0xbdafcb9a	-0.08583756
60	0xbd469bda	-0.048488475
61	0x3d9ed82d	0.07756076
62	0xbded546a	-0.11588366
63	0x3d43599d	0.047692884
64	0xbdba797f	-0.09105205
65	0x3d4eb8c8	0.05046919
66	0xbd749a76	-0.059717618
67	0xbd82ed7b	-0.06392952
68	0xbe10563a	-0.14095393
69	0xbe2ebb70	-0.17063689
70	0x3d16fb18	0.036860555
71	0xbc81e2b8	-0.015855178
72	0xbd8940fc	-0.06701848
73	0xbda2705a	-0.079315856
74	0xbdf35290	-0.11880982
75	0x3d1a87a8	0.037727028
76	0xbe13dc81	-0.14439584
77	0x3d4fbac8	0.050715238
78	0x3db46d4a	0.08809908
79	0x3bd6aaa0	0.006551102
80	0x3d9837b6	0.07432501
81	0xbc93bfc0	-0.01803577
82	0xbd9fcd4f	-0.078028314
83	0xbd8213c7	-0.063514285
84	0x3d04ca84	0.032419696
85	0x3e24c939	0.16092385
86	0x3e0e2e97	0.1388496
87	0x3d5cae08	0.053876907
88	0xbd69746c	-0.056995794
89	0x3c933178	0.017967924
90	0xbdf8bf74	-0.12145892
91	0xbe212c66	-0.15739593
92	0xbd1456ec	-0.036215708
93	0x3d9b16da	0.07572718
94	0x3e08c387	0.13355838
95	0xbcefcb50	-0.029271752
96	0x3e14099c	0.1445679
97	0x3d487036	0.048935138
98	0x3d9310de	0.071809515
99	0x3d8ba71b	0.06818982
100	0xba2f6181	-0.00066902494
101	0xbdbc9d1b	-0.09209653
102	0xbd7dc93f	-0.0619595
103	0xbc57df20	-0.013175756
104	0x3e0c9488	0.13728535
105	0xbcefb1e3	-0.029259628
106	0xbe193f64	-0.14965588
107	0xbdfea589	-0.12433917
108	0xbd7a92e3	-0.06117524
109	0x3e0a32ee	0.1349599
110	0xbce30f26	-0.027717184
111	0x3a123d34	0.0005578578
112	0x3ca427ee	0.020038571
113	0xbdbef25c	-0.0932357
114	0x3e26dedd	0.16295953
115	0x3d487d0e	0.048947386
116	0xbdc6ce7a	-0.09707351
117	0xbd67a581	-0.05655432
118	0x3e009655	0.12557347
119	0xbe0e01a8	-0.1386782
120	0x3e667b71	0.22508027
121	0xbab06513	-0.0013457857
122	0x3dbcb4aa	0.092141464
123	0x3e2a5ebe	0.16637704
124	0x3ddb734a	0.10715349
125	0xb9ec3235	-0.00045050835
126	0xbdb256ac	-0.087079376
127	0x3d8d2ee6	0.06893711
128	0x3e832bef	0.25619456
129	0x3994ba98	0.00028367783
130	0x3d89c533	0.06727066
131	0xbdb46b6b	-0.08809551
132	0x3e419e7a	0.1890811
133	0x3d2a09ae	0.041513138
134	0xbd033552	-0.032033272
135	0x3b19743e	0.0023415233
136	0x3da1d8eb	0.07902702
137	0x3e1d7cc1	0.15379621
138	0xbc03bc75	-0.008040537
139	0x3c062b66	0.008189058
140	0xbd493ab7	-0.04912826
141	0xbdc34707	-0.09535032
142	0x3e38647a	0.18007079
143	0xbdb7448b	-0.089486204
144	0x3db563a3	0.08856895
145	0xbdbee46a	-0.0932091
146	0xbdb888ab	-0.09010442
147	0x3decca5b	0.11562034
148	0xbd8b8c98	-0.068139255
149	0xbe2905de	-0.16506144
150	0xbc7da6e7	-0.015481687
151	0x3e2c680c	0.16836566
152	0xbdf5b0ba	-0.119965985
153	0xbdb3180d	-0.08744822
154	0x3c15782e	0.009122891
155	0xbdc6090b	-0.096696936
156	0x38300048	4.1961932e-05
157	0x3e07ffa3	0.13281111
158	0x3dc544f3	0.09632292
159	0x3e17a29a	0.14808121
160	0x3cb8b798	0.022548482
161	0xbcf3dfb4	-0.029769756
162	0x3e41addd	0.1891398
163	0xbbd4ad56	-0.00649039
164	0xbd8fc341	-0.070196636
165	0x3d1813b3	0.03712816
166	0x3d48f785	0.049064178
167	0xbac041e2	-0.0014668072
168	0x3cc05352	0.02347723
169	0x3dcaf808	0.099105895
170	0x3e2c0016	0.16796908
171	0x3e36595b	0.17807524
172	0x3e0b0652	0.1357663
173	0xbe1cd6f0	-0.15316367
174	0x3d7c5075	0.061600167
175	0xbe1629a5	-0.14664324
176	0x3d889dc9	0.0667072
177	0xbde16440	-0.11005449
178	0xbdf6f01c	-0.12057516
179	0xbd981a09	-0.07426841
180	0x3d40c55f	0.047063228
181	0x3e05833c	0.13038343
182	0x3e1b1ae6	0.1514698
183	0x3dfa6201	0.12225724
184	0xbe22c167	-0.1589409
185	0x3d9e0f56	0.07717769
186	0xbd699881	-0.057030205
187	0xbda79246	-0.08182196
188	0xbdf9062b	-0.121593796
189	0xbd5c3cc7	-0.0537689
190	0x3caab83f	0.020839809
191	0x3ca7da0b	0.020489713
192	0xbda3810e	-0.079835996
193	0x3bc6bcb1	0.0060649742
194	0xbc49d113	-0.012317914
195	0x3e0cba20	0.13742876
196	0xbe0474d4	-0.12935191
197	0x3d926b98	0.07149428
198	0x3de0f89f	0.10984921
199	0x3c3acd96	0.011401555
200	0x3cb94b3a	0.022618879
201	0x3dd15678	0.10221571
202	0x3de2a53b	0.110666715
203	0x3d365a1b	0.044519525
204	0x3d18a39c	0.037265405
205	0x3e2cf2e8	0.16889536
206	0x3ca8a439	0.02058612
207	0x3dda9825	0.106735505
208	0xbdef0e05	-0.11672596
209	0xbe33d5c2	-0.17562011
210	0x3da35b2d	0.07976375
211	0xbe3dae7e	-0.18523595
212	0xbcf94e85	-0.030432949
213	0xbce783c8	-0.02826108
214	0xbce9d7a4	-0.028545208
215	0xbdb377f1	-0.087631114
216	0x3e867857	0.26263687
217	0x3e66cc53	0.22538881
218	0xbd987075	-0.074433245
219	0xbdc24a8a	-0.094868734
220	0x3c7d6d55	0.015467961
221	0xbdf90c8e	-0.12160598
222	0x3e3c2878	0.18374813
223	0x3d449f36	0.048003398
224	0xbbc2cfc8	-0.0059451796
225	0x3ce5ac51	0.028036268
226	0x3d9d69d8	0.07686204
227	0xbe0ba91b	-0.13638727
228	0xbe18f45f	-0.1493697
229	0x3e0f4869	0.13992466
230	0xbdceff1c	-0.10107252
231	0xbdf832a7	-0.12119036
232	0xbd84730d	-0.06467257
233	0xbd3f6b79	-0.046733353
234	0xbdabcf12	-0.08389105
235	0xbdfa4c45	-0.122215785
236	0x3e0e747f	0.13911627
237	0x3e0680c2	0.13135055
238	0xbce029f2	-0.027363751
239	0xbdd2c1bd	-0.10290859
240	0x3c7fd9a6	0.015615856
241	0xbe22e03a	-0.15905848
242	0x3d3fdd76	0.04684206
243	0x3e15e56d	0.146383
244	0xbcce06f0	-0.025149792
245	0x3dce3fdb	0.10070773
246	0xbe39c06c	-0.1813981
247	0x3d34d03a	0.044143893
248	0x3d0adeac	0.033903763
249	0x3d811913	0.06303611
250	0x3e366e24	0.17815453
251	0x3e06f5f7	0.13179766
252	0x3d83e1c8	0.06439549
253	0x3e1b2e00	0.15154266
254	0x3dbc99d9	0.092090316
255	0x3e10ece6	0.1415287

decoder.2.bias f4 [64]
0	0xbdf72751	-0.12068046
1	0xbc376886	-0.011194354
2	0xbdb15274	-0.08658305
3	0xbe1637a5	-0.14669664
4	0x3c67fabf	0.014158904
5	0xbe1cc635	-0.15309985
6	0xbdbe59da	-0.092944816
7	0xbe148d3b	-0.14507
8	0x3d661a9a	0.056177713
9	0x3e66b960	0.22531652
10	0x3e1cc315	0.15308793
11	0x3de53162	0.1119106
12	0xbc0df4f7	-0.008664361
13	0xbde0317e	-0.1094694
14	0x3d5bb829	0.053642426
15	0x3da2875c	0.07935974
16	0xbdfb5c2f	-0.12273442
17	0xbdfe904f	-0.124298684
18	0x3c8f4865	0.017490575
19	0xbd937c02	-0.07201387
20	0xbe0b2ca2	-0.13591245
21	0xbdcf31c2	-0.101169124
22	0x3d0057d7	0.03133377
23	0x3de7fb14	0.11327186
24	0xbe0b513e	-0.1360521
25	0x3d9ae40b	0.07563027
26	0x3d53c2ec	0.051699564
27	0x3dd492f9	0.10379595
28	0xbdc9e08a	-0.098572806
29	0x3c73d324	0.014881883
30	0x3e111694	0.14168769
31	0xbdb47e3d	-0.088131405
32	0x3ccc444f	0.024934916
33	0x3dc79119	0.09744472
34	0x3dcf83d8	0.10132569
35	0x3dace674	0.08442393
36	0x3e28924b	0.16462056
37	0x3e26c532	0.16286162
38	0xbd23f1ec	-0.040025637
39	0x3e062873	0.13101368
40	0x3dadedd8	0.08492631
41	0xbdc91d02	-0.09819986
42	0x3c803d99	0.015654372
43	0xbe20ad52	-0.15691116
44	0xbe15c534	-0.14626008
45	0xbe207c97	-0.15672527
46	0xbdf97fd1	-0.12182582
47	0xbe06e2fa	-0.13172522
48	0xbc8210b8	-0.015877113
49	0xbdae8d28	-0.08523017
50	0x3d61f275	0.055162866
51	0xbd01d7df	-0.03170001
52	0xbd8c8b9c	-0.06862566
53	0x3de3416d	0.11096463
54	0xbce98b12	-0.028508697
55	0xbdfabdad	-0.12243209
56	0xbe0fd924	-0.14047676
57	0xbdb89681	-0.09013081
58	0xbdbb1032	-0.091339484
59	0x3e01e7b6	0.12686047
60	0x3e12620a	0.14295211
61	0xbcd791ca	-0.026314635
62	0x3da54cc9	0.08071286
63	0x3ceac02f	0.028656093
