Save-Models/model-lat5.pth (torch, 191970 bytes, 16 tensors)

encoder.0.weight f4 [128, 99]
0	0xbd67f83d	-0.056633223
1	0x3d226c3d	0.039654005
2	0x3cbb8c1a	0.022893954
3	0xbd8d681d	-0.06904624
4	0x3cff25d6	0.031145971
5	0xbdc0774b	-0.09397753
6	0x3ca9e9c0	0.020741343
7	0x3dac1c13	0.08403792
8	0xbd8a98d8	-0.06767434
9	0xbd599726	-0.053122662
10	0xbda249fa	-0.07924266
11	0xbc8b393c	-0.016995065
12	0xbdcddd37	-0.10051959
13	0x3d898a81	0.06715871
14	0xbdb478d2	-0.08812107
15	0x3c8b1550	0.016977936
16	0xbcecdc00	-0.028913498
17	0xbdcb3a26	-0.099232
18	0x3d39decb	0.045378488
19	0xbd365562	-0.04451502
20	0xbce95dc3	-0.028487092
21	0x3da17fc9	0.07885701
22	0x3d303722	0.04302133
23	0xbda0fd5a	-0.07860823
24	0xbc328985	-0.010897045
25	0xbda3aca4	-0.07991913
26	0xbd829c7c	-0.06377503
27	0x3b81b350	0.0039581433
28	0x3d0b4dac	0.03400962
29	0xbd09af16	-0.03361424
30	0xbddc46f7	-0.10755723
31	0xbd0e23bb	-0.034702044
32	0xbd410eb7	-0.047133174
33	0xbdd3fe8d	-0.10351286
34	0x3d85376e	0.06504713
35	0xbd835417	-0.06412523
36	0x3b91dac2	0.004451127
37	0xbd08c0d8	-0.033387035
38	0xbd85eed5	-0.06539694
39	0xbdcadce4	-0.09905413
40	0xbd413d22	-0.04717744
41	0xbcced332	-0.02524719
42	0x3d4d2229	0.050081406
43	0x3b7e498e	0.0038801166
44	0xbd93651a	-0.07197018
45	0xbd674a68	-0.056467444
46	0xbcb7ba3e	-0.022427674
47	0x3c86fecb	0.016478917
48	0xbc78d425	-0.015187298
49	0xbdbc5908	-0.09196669
50	0x3db062b2	0.08612575
51	0x3d849f9d	0.06475756
52	0xbc8f3084	-0.017479189
53	0x3d630d12	0.055432387
54	0xbcf64cba	-0.030065883
55	0xbc56006a	-0.013061622
56	0xbd2200c9	-0.03955153
57	0x3d40c8da	0.047066547
58	0xbd989a70	-0.074513316
59	0xbdadca29	-0.084858246
60	0xbd6a07bd	-0.057136286
61	0xbd50f8d2	-0.051018544
62	0xbd6e74a9	-0.058216725
63	0x3da35698	0.07975501
64	0xb9dcd37e	-0.00042119244
65	0xbc2de5ca	-0.010613868
66	0x3d17d198	0.03706512
67	0x3c72bac0	0.0148150325
68	0xbd9cb7d4	-0.0765225
69	0x3b3e9b7c	0.0029084375
70	0xbd703c1c	-0.058651075
71	0xbd9d45a5	-0.07679299
72	0xbce2f46d	-0.027704442
73	0xbd46128c	-0.04835753
74	0xbdc49c09	-0.09600074
75	0xbcba44da	-0.02273791
76	0xbdce8e46	-0.1008573
77	0x3ccca945	0.024983058
78	0xbdad3eae	-0.08459221
79	0x3b9a09f5	0.004700894
80	0xbd9212be	-0.07132481
81	0x3d2b2969	0.04178754
82	0xbd851295	-0.06497685
83	0xbdaabfd9	-0.08337373
84	0x3cff62ad	0.031174982
85	0xbd643602	-0.05571557
86	0xbdbe3c9d	-0.09288905
87	0xbd57dc8c	-0.052700564
88	0xbdd8eb75	-0.10591785
89	0xbc9587a1	-0.01825315
90	0x3d521942	0.05129362
91	0x3d2451f2	0.04011721
92	0x3c351869	0.011053183
93	0xbda0fa36	-0.07860224
94	0x3d9812f0	0.07425487
95	0xbd4cef95	-0.05003317
96	0x3d52b564	0.05144252
97	0x3cd7fae6	0.026364755
98	0x3c9376b5	0.01800094
99	0x3da03fb6	0.07824652
100	0xbd215743	-0.03938986
101	0xbd8c5afb	-0.06853291
102	0xbd995d71	-0.07488526
103	0xbdc4916b	-0.09598049
104	0xbd1b8cd1	-0.03797609
105	0xbd25019c	-0.040284738
106	0xbd189d73	-0.03725953
107	0x3d65dfa3	0.05612148
108	0xbb2f45cf	-0.002674449
109	0x3d9aef31	0.075651534
110	0xbd56bd9c	-0.05242692
111	0x3c848806	0.016178142
112	0x3d91f2cd	0.07126389
113	0xbd24b7cd	-0.04021435
114	0xbaebd386	-0.0017992116
115	0xbdce212f	-0.10064923
116	0xbc85e2da	-0.016343523
117	0xbdd668f4	-0.10469237
118	0xbd1593da	-0.036517955
119	0xbccf9dd8	-0.02534382
120	0xbdd9c3f2	-0.10633077
121	0x3da5fe9d	0.08105204
122	0xbd7fe280	-0.062471867
123	0xbdc5fddf	-0.09667563
124	0xbd97732a	-0.07395013
125	0xbc820253	-0.015870249
126	0xbd71a3a3	-0.058993947
127	0xbd6cdc85	-0.05782749
128	0xbd87f09a	-0.06637688
129	0x3d7db173	0.061936807
130	0x3dad6b40	0.08467722
131	0x3daa2883	0.08308508
132	0xbcd9f451	-0.026605757
133	0xbdc703de	-0.097175345
134	0x3da01ea3	0.078183435
135	0x3d6a591b	0.057213884
136	0xbd2fea68	-0.042948157
137	0xbd97f23d	-0.0741925
138	0xbdc20427	-0.09473448
139	0xbcbe3821	-0.023220124
140	0xbd1c6bbe	-0.03818869
141	0x3da033b0	0.078223586
142	0x3d42d107	0.047562625
143	0x3d386df5	0.04502674
144	0x3d83369e	0.06406902
145	0x3d3b019e	0.04565584
146	0xbd3ea718	-0.04654607
147	0x3d576da8	0.05259481
148	0xbde9f022	-0.11422755
149	0x3d0716df	0.032980796
150	0xbd547a56	-0.05187448
151	0x3d522ac1	0.051310305
152	0xbce1582f	-0.02750787
153	0xbdd41eb2	-0.10357417
154	0xbdc0f1ef	-0.09421145
155	0xbd914157	-0.07092541
156	0x3d3c7bf8	0.046016663
157	0x3d9730ed	0.07382379
158	0xbbceedf6	-0.0063149882
159	0xbd190674	-0.03735967
160	0x3d87b2f1	0.06625927
161	0x3c7b5935	0.015341093
162	0xbd0c3781	-0.03423262
163	0xbdc5d231	-0.096592315
164	0x3cda1ac2	0.026624087
165	0xbca231a3	-0.01979906
166	0x3cb84117	0.022491975
167	0xbd9afa01	-0.07567216
168	0x3d67f7a4	0.056632653
169	0xbddc80df	-0.10766768
170	0xbbbdfd9d	-0.0057980553
171	0xbb8080c4	-0.0039216
172	0xbc3ba655	-0.011453231
173	0xbdf33280	-0.118748665
174	0x3d984503	0.07435038
175	0xbd82f833	-0.063949965
176	0x3d1e5fda	0.03866563
177	0x3ba6f5a2	0.0050951997
178	0xbdb0aeac	-0.08627066
179	0xbdef4206	-0.11682515
180	0x3caa6b90	0.020803243
181	0xbd5a4e87	-0.053297546
182	0xbd98dc83	-0.07463934
183	0xbd268109	-0.0406504
184	0xbda89c66	-0.08232956
185	0xbdcf63ee	-0.10126482
186	0x3d220e4c	0.039564416
187	0xbdcf2ef6	-0.10116379
188	0xbdc5b01f	-0.09652733
189	0xbc9de1f2	-0.019272778
190	0xbc7fb734	-0.015607644
191	0xbd027438	-0.031849116
192	0xbbc1d4a5	-0.005915242
193	0xbd650ea8	-0.05592218
194	0xbdc5a8db	-0.09651347
195	0xbb8340c2	-0.0040055225
196	0xbd3e8859	-0.04651675
197	0xbcf6053a	-0.03003179
198	0xbe3272d5	-0.17426617
199	0xbd0316d1	-0.03200418
200	0xbdcaca4d	-0.09901867
201	0xbe1336f1	-0.14376427
202	0xbe040cfc	-0.12895578
203	0xbdcb6c93	-0.09932818
204	0xbdd2f640	-0.10300875
205	0xbd70d448	-0.058796197
206	0xbd694cf2	-0.056958146
207	0xbcee8993	-0.029118335
208	0x3d8491b1	0.06473101
209	0x3d26cc03	0.040721904
210	0x3cb13e13	0.021636045
211	0xbbfb6e5f	-0.0076730694
212	0xbc35ebd8	-0.011103593
213	0xbd8435f1	-0.06455601
214	0xbdfabdfc	-0.12243268
215	0xbb09a2e5	-0.0021001634
216	0xbde7a236	-0.11310236
217	0xbdd590cb	-0.10428008
218	0xbe02961c	-0.12752575
219	0xbb58ed1d	-0.0033100315
220	0xbcad8fc9	-0.021186726
221	0xbd18f5cf	-0.037343796
222	0xbd48af7f	-0.04899549
223	0x3c0c2705	0.008554225
224	0xbc79371f	-0.015210896
225	0x3da465da	0.08027239
226	0x3d87592f	0.06608807
227	0xbdd85e3a	-0.10564847
228	0x3cbe9513	0.023264444
229	0x3c5bb7d9	0.013410532
230	0xbcfdb061	-0.030967893
231	0x3d700bb1	0.0586049
232	0xbdb7451b	-0.08948728
233	0xbdaa88ca	-0.08326872
234	0x3d1c7862	0.038200743
235	0xbc1d945d	-0.009617892
236	0xbdd44de4	-0.10366419
237	0xbd6f2704	-0.058386818
238	0xbd845d14	-0.06463066
239	0x3d3cbc47	0.046077993
240	0xbdd0eea4	-0.10201767
241	0xbb6acdfa	-0.0035828338
242	0xbc29fd48	-0.010375328
243	0xbd83e8de	-0.064409
244	0xbdb8b44c	-0.09018764
245	0xbb910050	-0.004425086
246	0x3da91a5b	0.0825698
247	0xbd965097	-0.0733959
248	0xbd88126c	-0.06644139
249	0xbd5ff33f	-0.054675337
250	0x3d4648b4	0.04840918
251	0x3b801597	0.0039088237
252	0xbdbd17dd	-0.09233067
253	0xbd66af4b	-0.056319516
254	0xbd0b9f91	-0.03408772
255	0x3b5adf07	0.0033397095

encoder.0.bias f4 [128]
0	0xbde63472	-0.11240472
1	0xbe016e7c	-0.12639803
2	0xbe973039	-0.29528978
3	0xbceb1fd4	-0.0287017
4	0xbde36ab2	-0.11104335
5	0x3cc27ca9	0.023741083
6	0xbdc181c7	-0.09448581
7	0xbdb0ca66	-0.086323544
8	0xbe15637f	-0.14588736
9	0xbdd29ff4	-0.10284415
10	0xbe00733b	-0.12543957
11	0x3b0b2e0d	0.0021237165
12	0xbdfc6fdf	-0.12326025
13	0xbdb6ced6	-0.089261696
14	0xbe04da1e	-0.1297383
15	0xbe23b3a0	-0.1598649
16	0xbd7238f1	-0.059136335
17	0xbd8aed1d	-0.06783507
18	0xbc7aa22a	-0.015297452
19	0x3be0299c	0.0068408977
20	0xbe06b4a4	-0.13154846
21	0xbdb370ab	-0.08761724
22	0xbc2f4ee6	-0.010699963
23	0xbe240f74	-0.1602152
24	0x3d98b658	0.07456654
25	0xbcf2bfe3	-0.029632514
26	0xbdcea89f	-0.10090756
27	0xbdf342c8	-0.11877972
28	0xbd8ba623	-0.068187974
29	0xbd61e5ae	-0.05515068
30	0xbe11a7ab	-0.14224117
31	0xbe09dffa	-0.13464347
32	0xbd079500	-0.03310108
33	0xbe15eb43	-0.14640526
34	0x3b7b4cb0	0.003834527
35	0xbdb38033	-0.087646864
36	0x3d1a507d	0.037674416
37	0xbe0d2444	-0.13783365
38	0xbe534751	-0.20632674
39	0xbe43f6d1	-0.19137122
40	0xbe011bbe	-0.12608239
41	0xbdcd3480	-0.10019779
42	0xbe248b9f	-0.16068886
43	0xbd72e7fb	-0.059303265
44	0xbd76afff	-0.060226437
45	0xbde08a0a	-0.10963829
46	0x3e71fe32	0.23632124
47	0xbe59f0fc	-0.21283334
48	0xbde1380b	-0.109970175
49	0xbdd1f836	-0.102524206
50	0xbbb562b2	-0.005535447
51	0x3d3b0eb0	0.045668304
52	0x3ca33b6b	0.019925794
53	0xbe021bb6	-0.12705883
54	0x3cf2c626	0.0296355
55	0x39318151	0.0001692821
56	0xbdab90a6	-0.08377199
57	0xbeafc1bd	-0.34327498
58	0xbdb3ed3d	-0.08785484
59	0xbdfb8ca0	-0.122826815
60	0xbe18e68c	-0.14931697
61	0xbdaaab61	-0.08333469
62	0x3d81861a	0.06324406
63	0xbd190ef1	-0.037367765
64	0xbba8876f	-0.005143098
65	0xbe0635da	-0.1310648
66	0xbaa9f0a8	-0.0012965398
67	0xbe22baaa	-0.15891519
68	0xbe3cb385	-0.18427856
69	0xbcf52873	-0.029926514
70	0x3ca34271	0.019929143
71	0xbd7a73dd	-0.061145652
72	0xbe193cef	-0.1496465
73	0xbc1e3f5a	-0.009658659
74	0xbe21c613	-0.15798216
75	0xbe16074e	-0.14651224
76	0xbdc26c91	-0.09493364
77	0xbdc3e1e6	-0.09564571
78	0x3c186be0	0.009303063
79	0x3befd0ae	0.0073185777
80	0xbe507264	-0.20356137
81	0xbe91447f	-0.2837257
82	0xbde2bab0	-0.11070764
83	0x3c690d67	0.014224387
84	0xbdfaa1cc	-0.122378916
85	0xbdf90879	-0.12159819
86	0xbd39d5a4	-0.04536976
87	0xbd54c4b6	-0.05194541
88	0x3d756e3e	0.05991959
89	0xbda1b2fd	-0.078954674
90	0xbb838dcd	-0.0040147067
91	0xbdfce507	-0.12348371
92	0xbd6a683f	-0.057228323
93	0xbcb0aac3	-0.0215658
94	0xbd871be7	-0.06597119
95	0xbd68e7cf	-0.056861695
96	0xbd096f86	-0.033553623
97	0x3d53ea6a	0.051737227
98	0x3cc6b9a0	0.024258435
99	0xbce2b245	-0.027672896
100	0xbdb3d049	-0.087799616
101	0x3e96926f	0.29408595
102	0xbdf4e5af	-0.11957871
103	0xbe0f7179	-0.1400813
104	0xbdadbfb9	-0.08483834
105	0xbd924150	-0.071413636
106	0xbde7180e	-0.11283885
107	0xbd966d97	-0.07345121
108	0xbe102dc8	-0.14079964
109	0xbdfb78d9	-0.12278909
110	0xbda7a8e4	-0.0818651
111	0x3ca29fa7	0.019851519
112	0xbe11a570	-0.14223266
113	0x3cfec963	0.031101888
114	0x3abce0c6	0.001441025
115	0xbd3084dd	-0.04309546
116	0xbe052f55	-0.13006337
117	0xbe081f63	-0.13293223
118	0xbc252091	-0.010078565
119	0xbd3a032e	-0.04541319
120	0xbe391d67	-0.18077622
121	0xbe320074	-0.17382985
122	0xbe3380f6	-0.17529663
123	0xbde7dc6e	-0.113213405
124	0xbe123a54	-0.14280063
125	0x3b900b56	0.0043958826
126	0x3d60009c	0.05468808
127	0xbd318beb	-0.043346327

encoder.3.weight f4 [64, 128]
0	0xbc80fb30	-0.015744776
1	0xbd467c68	-0.048458487
2	0xbc5b2488	-0.013375409
3	0xbc3993f1	-0.011326776
4	0x3d4672f4	0.04844947
5	0x3d47a876	0.04874464
6	0x3da531cf	0.08066141
7	0xbd9c0f56	-0.076201126
8	0xbd457b1e	-0.048213117
9	0x3cb3715b	0.021904638
10	0x3d7704b4	0.06030722
11	0x3c7011cc	0.014652681
12	0x3d92eebb	0.071744405
13	0xbc69bfd2	-0.014266925
14	0x3d775cea	0.060391344
15	0xbd83db03	-0.064382575
16	0xbd355f4d	-0.04428034
17	0xbb78959e	-0.0037930976
18	0x3d459610	0.048238814
19	0xbc9f3462	-0.019434158
20	0xbcc03b9e	-0.023465928
21	0x3ceed659	0.029154943
22	0x3d9c96b9	0.076459356
23	0xbcf3e917	-0.029774232
24	0xbd0df762	-0.03465975
25	0x3d74ea4f	0.059793767
26	0x3da5f650	0.08103621
27	0x3d2bca96	0.041941248
28	0xbd124163	-0.03570689
29	0x3da5d7c1	0.080977924
30	0x3cf4e024	0.029892035
31	0xbd6ce3b6	-0.05783435
32	0xbc08cb48	-0.008349247
33	0xbcada0be	-0.021194812
34	0x3d9bb9aa	0.07603772
35	0xbc91cd08	-0.017797962
36	0xbc2d950f	-0.01059462
37	0xbbe5521e	-0.0069983145
38	0xbd282cf7	-0.041058507
39	0xbd82c468	-0.06385118
40	0x3cc3283c	0.023822896
41	0xbc199937	-0.009374908
42	0xbbd06cb2	-0.0063606137
43	0x3cb63ee3	0.022246784
44	0x3d846ae4	0.064657
45	0x3dab18b6	0.083543226
46	0x3cc458ac	0.023968063
47	0xbcc3dbe3	-0.023908561
48	0x3cf0867c	0.029361002
49	0xbcc46d32	-0.02397785
50	0x3d7dfb19	0.062007044
51	0xbc961d52	-0.018324528
52	0x3b3feb05	0.002928437
53	0x3cffff60	0.031249702
54	0x3d690575	0.05688997
55	0x3dbec914	0.09315696
56	0x3dca7ff6	0.09887688
57	0xbd9a236d	-0.07526288
58	0xbc866443	-0.01640523
59	0x3db13f03	0.08654597
60	0xbd888c94	-0.06667438
61	0x3d6fff5b	0.058593135
62	0x3d5b9074	0.053604558
63	0x3d7256aa	0.05916468
64	0xbbbb719f	-0.005720332
65	0x3da9812c	0.08276591
66	0x3d867d81	0.06566907
67	0x3d499924	0.049218312
68	0xbdc20df9	-0.09475321
69	0xbd6405de	-0.055669658
70	0x3d64b6b6	0.05583831
71	0x3bfa173e	0.007632165
72	0x3dd64153	0.10461678
73	0xbd333280	-0.043749332
74	0x3d9ae79d	0.07563708
75	0xbd0d2f45	-0.034468908
76	0x3d604517	0.05475339
77	0x3b2a652c	0.0026000245
78	0x3d5a0787	0.053229835
79	0x3d99903f	0.07498216
80	0x3be37390	0.0069412664
81	0xbd47c4dc	-0.048771724
82	0x3d900a9d	0.07033274
83	0xbdc62f6d	-0.096770145
84	0x3d69d282	0.05708552
85	0x3db3cc5c	0.08779213
86	0x3db52577	0.088450365
87	0x3d33febb	0.0439441
88	0x3d67fed4	0.056639507
89	0x3d343599	0.043996427
90	0x3daa3938	0.08311695
91	0xbd809656	-0.06278674
92	0x3c73e8f0	0.01488708
93	0x3c0a223e	0.008431016
94	0x3c4ca43c	0.012490328
95	0xbcafba4f	-0.021451144
96	0xbcbf3e5b	-0.023345163
97	0x3d772a3d	0.060343016
98	0x3d09bf5c	0.03362976
99	0xbd40c136	-0.04705926
100	0xbcc9bbcd	-0.024625683
101	0xbd4075b5	-0.046987254
102	0xbd058344	-0.032595888
103	0x3d1ac64b	0.037786763
104	0xbcc5a91b	-0.024128487
105	0xbd6966b9	-0.05698273
106	0x3ba7393b	0.005103258
107	0xbd8327be	-0.064040646
108	0xbd78a779	-0.06070659
109	0x3d51675c	0.05112396
110	0x3ccda8bf	0.025104878
111	0xbd597adc	-0.053095683
112	0x3cba6c5f	0.022756753
113	0x3db631e0	0.08896232
114	0x3daaf318	0.08347148
115	0xbd0beded	-0.03416245
116	0x3d65319b	0.05595551
117	0x3dd636c5	0.10459665
118	0x3d927e60	0.0715301
119	0x3d2e3a42	0.042536028
120	0xba3a3247	-0.0007102829
121	0xbdac6929	-0.08418495
122	0xbd6d5f03	-0.05795194
123	0xbb7548cc	-0.0037427424
124	0xbda908ac	-0.08253607
125	0xbd43e116	-0.04782208
126	0x3b1a7cf2	0.0023573008
127	0xbd2a9e71	-0.041655008
128	0xbc9f9ab1	-0.019482942
129	0xbdecc4ba	-0.1156096
130	0x3d38b5ee	0.045095377
131	0xbd8898b1	-0.066697486
132	0xbd674d82	-0.0564704
133	0xbc844b4e	-0.01614919
134	0x3d8f71c2	0.070041195
135	0x3d074c52	0.03303177
136	0x3dc77700	0.09739494
137	0xbbd7ddb4	-0.0065877084
138	0xbce6e794	-0.028186597
139	0xbc29722b	-0.010342161
140	0x3b0f4a37	0.0021864304
141	0x3d17b84a	0.037040986
142	0xbd636429	-0.055515442
143	0x3d8cb219	0.06869907
144	0x3d9289b0	0.07155168
145	0xbd648fad	-0.055801082
146	0xbd76f9e5	-0.06029691
147	0xbd351f39	-0.04421923
148	0x3d697bef	0.057002958
149	0x3b0ff3fa	0.002196549
150	0xbddc7f0f	-0.10766422
151	0x3c0c7f19	0.008575224
152	0x3d08cf01	0.03340054
153	0xbca1092e	-0.019657698
154	0x3ca554dd	0.020182068
155	0xbd19be8a	-0.037535228
156	0xbd8022d1	-0.06256641
157	0x3c657795	0.014005561
158	0x3df3a53e	0.11896752
159	0xbd3de0a9	-0.04635683
160	0x3cb55efa	0.022140015
161	0x3dc21d59	0.09478254
162	0x3db61459	0.088906
163	0x3d300ece	0.04298287
164	0x3dee3d6c	0.11632809
165	0xbd11fe43	-0.035642873
166	0x3c3b2b6e	0.011423929
167	0x3d4f82f1	0.050661985
168	0x3dce623b	0.1007733
169	0xbc4e51c2	-0.012592735
170	0xbc1086d0	-0.008821204
171	0xbd3d1524	-0.04616274
172	0xbdad41c7	-0.08459812
173	0xbd01fa5d	-0.031732906
174	0x3d518e10	0.051160872
175	0x3bea80b0	0.007156454
176	0x3dad9ca5	0.08477143
177	0xbdb15143	-0.086580776
178	0x3d24a47f	0.04019594
179	0x3daa0846	0.08302359
180	0x3ddd1f6d	0.107970096
181	0x3d9f7828	0.0778659
182	0x3dc987bf	0.09840345
183	0xbd645d12	-0.05575282
184	0x3dad255a	0.0845439
185	0x3cedb23b	0.029015651
186	0x3dc87e4c	0.09789714
187	0xbd5da95c	-0.05411659
188	0x3d723a9a	0.059137918
189	0xbd01bb49	-0.03167275
190	0x3dc1551b	0.09440061
191	0xbd466539	-0.048436377
192	0x3d247823	0.040153634
193	0xbc9350aa	-0.0179828
194	0xbd281655	-0.041036922
195	0xbdf3977c	-0.11894128
196	0x3d2d31e1	0.042283896
197	0xbcfa31b8	-0.030541286
198	0x3b122301	0.0022298696
199	0xbcb1cfac	-0.021705471
200	0xbcab9009	-0.020942705
201	0x3d020670	0.03174442
202	0xbdc41f9c	-0.095763415
203	0xbdb6e3d9	-0.08930177
204	0xbcb6e865	-0.022327611
205	0x3cd6346e	0.026148047
206	0xbad2877e	-0.0016062108
207	0x3d368ad7	0.044566
208	0x3d8b980f	0.06816112
209	0x3d9b2240	0.07574892
210	0x3d261b87	0.040553596
211	0xbd508826	-0.05091109
212	0x3c8c66e5	0.017138908
213	0x3ced7fac	0.028991543
214	0xbd73f6f0	-0.05956167
215	0x3da559a3	0.080737375
216	0xbbe3a624	-0.0069472957
217	0xbcb16729	-0.021655636
218	0x3defad3b	0.11702963
219	0xbd17f357	-0.0370973
220	0x3db5c3cb	0.08875235
221	0xbc18bc45	-0.009322231
222	0x3de0c181	0.10974408
223	0x3c1c677f	0.00954616
224	0xbdbbff9f	-0.09179615
225	0x3de9a35a	0.1140811
226	0xbca84372	-0.020539973
227	0x3d8b366d	0.0679749
228	0xbdc66faf	-0.09689271
229	0x3d1abd21	0.037778024
230	0xbd960544	-0.07325223
231	0x3d31bdb4	0.043393806
232	0x3d2a5008	0.04158023
233	0xbd18f9fe	-0.037347786
234	0xbbc7d244	-0.0060980637
235	0xbd48e904	-0.049050346
236	0x3dcaf667	0.09910279
237	0x3a20121a	0.0006106213
238	0xbde7f0fb	-0.1132526
239	0x3d8af1f1	0.06784428
240	0x3d801ac0	0.06255102
241	0x3b1004ed	0.0021975592
242	0xbc4bc532	-0.012437152
243	0xbbec56fc	-0.007212518
244	0xbcafde0a	-0.021468181
245	0xbce91857	-0.028453989
246	0x3dcc458e	0.09974204
247	0xbc9dc550	-0.019259125
248	0x3d4b66ae	0.04965847
249	0xbd4c5289	-0.0498834
250	0xbd428be7	-0.047496703
251	0xbe02a86f	-0.12759565
252	0xbdea2f3b	-0.1143479
253	0x3dea1f0d	0.11431704
254	0x3d970e32	0.073757544
255	0xbd15e9c0	-0.036599874

encoder.3.bias f4 [64]
0	0x3dcdfb36	0.1005768
1	0xbd1b7637	-0.037954535
2	0x3d5505b5	0.052007396
3	0x3d477151	0.04869205
4	0xbd846718	-0.06464976
5	0xbdafba4a	-0.08580454
6	0x3d995015	0.074859776
7	0xbc07b6c4	-0.008283321
8	0x3da0cf3f	0.07852029
9	0x3d88ac06	0.06673436
10	0xbc5a2f96	-0.013317009
11	0xbd450ca6	-0.048107766
12	0xbcd51ec6	-0.02601565
13	0x3b92e0e4	0.0044823755
14	0xbcc66f09	-0.024222868
15	0xbcea5eab	-0.028609594
16	0xbd1db813	-0.038505625
17	0xbd919844	-0.071091205
18	0xbca8dbb3	-0.020612573
19	0x3d037f76	0.032103978
20	0xbd8e881c	-0.069595546
21	0xbdc498ff	-0.09599494
22	0xbd144f30	-0.03620833
23	0x3d259e5d	0.04043423
24	0xbe278332	-0.16358641
25	0xbc1feb37	-0.009760669
26	0xbe3c4666	-0.1838623
27	0xbc867d0a	-0.016417045
28	0xbde05e2f	-0.10955464
29	0xbe3c5f04	-0.1839562
30	0xbe024a7a	-0.12723723
31	0xbd922bc8	-0.07137257
32	0xbcf3d86e	-0.029766288
33	0xbe142d99	-0.14470519
34	0x3bdefe2d	0.0068052025
35	0xbdd20543	-0.1025491
36	0xbd02e27c	-0.031954274
37	0xbdc123ba	-0.094306424
38	0xbd2199a8	-0.03945318
39	0xbd9448af	-0.07240426
40	0xbb7f60fc	-0.003896772
41	0x3ccb9fdd	0.024856502
42	0xbd91e9fd	-0.07124708
43	0xbe6186bd	-0.22024055
44	0xbb972731	-0.0046128263
45	0xbc9d16b3	-0.019175863
46	0xbdbc004b	-0.091797434
47	0xbd9d545a	-0.076821044
48	0xbd3699f1	-0.044580404
49	0xbd013f8c	-0.031554744
50	0x3c9471e5	0.018120715
51	0x3e2fc9bf	0.17166804
52	0xbe047b3b	-0.12937634
53	0xbe175e19	-0.14781989
54	0x3da7cf20	0.08193803
55	0xba59ef0e	-0.0008313515
56	0xbd2fd56d	-0.042928148
57	0x3d53340e	0.051563315
58	0x3c0b847c	0.008515473
59	0xbdd7e571	-0.10541809
60	0xbd2531f1	-0.04033083
61	0xbdafb321	-0.08579088
62	0xbe149242	-0.14508918
63	0xbc62b955	-0.013838132

encoder.6.weight f4 [32, 64]
0	0xbd9c4863	-0.07630994
1	0xbd63c992	-0.055612154
2	0x3d044d14	0.03230007
3	0x3d8e1eef	0.06939494
4	0xbd81b66c	-0.06333622
5	0x3e07b5bd	0.13252921
6	0xbdc21130	-0.094759345
7	0x3d9660b1	0.07342661
8	0x3ad5cc34	0.0016311468
9	0xbe01739f	-0.12641762
10	0xbd375ab1	-0.044764224
11	0x3d7b2abc	0.06132005
12	0xbd46ed4f	-0.04856616
13	0x3dc07ee2	0.09399201
14	0x3ce14329	0.027497845
15	0x3d32b6e5	0.043631453
16	0x3e0bb48a	0.13643089
17	0xba36f974	-0.00069799204
18	0x3cdffa31	0.02734098
19	0xbd0b7451	-0.034046475
20	0xbb193f94	-0.0023383843
21	0x3d95e1cb	0.07318457
22	0x3ddf1c8b	0.10894116
23	0x3b44b888	0.0030017216
24	0xbda1ed41	-0.07906581
25	0xbd21784f	-0.039421376
26	0xbdd80b0c	-0.10548982
27	0xbbfa446f	-0.0076375525
28	0x3d928d5e	0.0715587
29	0xbe0ec194	-0.13941032
30	0x3d59dd74	0.05318971
31	0xbde2938c	-0.110632986
32	0x3dce72b2	0.1008047
33	0x3e0a4086	0.13501176
34	0x3c8cda5c	0.017193966
35	0xbd4a5630	-0.0493986
36	0x3db7a024	0.08966091
37	0xbcf71ff9	-0.030166613
38	0x3d3d7ff4	0.046264604
39	0x3df17d68	0.117914975
40	0xbd28309d	-0.041061986
41	0x3dfe3f25	0.124143876
42	0x3d7b0ee2	0.06129349
43	0x3de42908	0.111406386
44	0x3dd2d857	0.1029517
45	0x3de0c146	0.10974364
46	0xbd1366a8	-0.035986573
47	0xbd9a0b5a	-0.075216964
48	0x3c43ec72	0.011958228
49	0x3d9dee4d	0.07711468
50	0xbd8546f1	-0.065076716
51	0x3af3f321	0.0018611887
52	0xbd1cefab	-0.038314503
53	0x3d391fd4	0.04519637
54	0x3d31f130	0.043442905
55	0x3df16aa1	0.11787916
56	0xbcf6942d	-0.030099953
57	0xbd4855e8	-0.04891005
58	0x3d275c58	0.04085955
59	0x3d70692f	0.05869406
60	0xbcf12285	-0.029435406
61	0xbbbee008	-0.0058250464
62	0xbceea7a8	-0.02913268
63	0x3db06ffa	0.08615108
64	0x3de94cca	0.113915995
65	0x3e19d4e1	0.15022613
66	0xbd40dfbc	-0.04708837
67	0x3d102404	0.035190597
68	0x3b9bcb62	0.0047544697
69	0x3d7af42a	0.06126801
70	0xbd22bc05	-0.03973009
71	0x3d7f0712	0.062262602
72	0xbb6b3ea4	-0.003589549
73	0xbbebab01	-0.007192016
74	0x3dc16299	0.09442634
75	0xbdea0abe	-0.1142783
76	0x3de6e825	0.11274747
77	0xbe1e0a46	-0.15433607
78	0x3e195cf6	0.14976868
79	0xbd67e4bf	-0.056614634
80	0x3d336561	0.043797854
81	0xbc057bdb	-0.008147205
82	0xbd859ef8	-0.065244615
83	0xbcb5da46	-0.022198807
84	0x3d328bb8	0.043590277
85	0xbe16cbf6	-0.14726242
86	0xbd2c3372	-0.04204125
87	0xbcf14780	-0.02945304
88	0x3d8cf4dd	0.068826415
89	0x3c86b1cb	0.0164422
90	0x3e16635c	0.1468634
91	0x3df5837c	0.11987969
92	0x3dfb808e	0.12280379
93	0xbdaa988e	-0.08329879
94	0xbc4a1a77	-0.012335411
95	0x3d9de2b0	0.07709253
96	0xbd2da8f2	-0.042397447
97	0x3ccc66e9	0.024951415
98	0xbd3c87ca	-0.046027936
99	0x3dc4c426	0.09607725
100	0xbd59210c	-0.05301003
101	0x3d96aef3	0.07357588
102	0x3ae88346	0.0017739318
103	0xbd60301f	-0.05473339
104	0x3de5f6ad	0.1122869
105	0xbdc8f9d3	-0.09813275
106	0x3c829d0e	0.01594403
107	0xbdc2d1b5	-0.09512655
108	0x3cd04f91	0.025428565
109	0xbd999816	-0.07499711
110	0xbdd5f50b	-0.10447129
111	0x3de4dd89	0.11175067
112	0x3cacca4c	0.021092556
113	0xbe2222bf	-0.15833567
114	0x3e10b7af	0.1413257
115	0x3d822a25	0.06355695
116	0xbd88e84e	-0.066849336
117	0x3d2eba3e	0.042658083
118	0xbd8e540e	-0.06949626
119	0xbc38613e	-0.011253653
120	0x3df93912	0.121690884
121	0x3e1ed812	0.15512112
122	0x3dd0f0a0	0.102021456
123	0xbe1e4764	-0.15456921
124	0xbdbef2b4	-0.09323636
125	0xbe4e9b74	-0.20176488
126	0x3e072665	0.1319824
127	0xbcea6a37	-0.0286151
128	0xbdd1bd91	-0.10241235
129	0xbcf4a461	-0.029863538
130	0xbcd1b5a5	-0.02559931
131	0x3d9273d2	0.07150997
132	0xbd1ff76b	-0.039054316
133	0xbdf2a9e0	-0.11848807
134	0xbe3eac6c	-0.18620461
135	0xbd24bf1c	-0.04022132
136	0xbc3ed3a6	-0.011647141
137	0xbd9c5f7d	-0.076354004
138	0x3d12b0c6	0.035813116
139	0x3d5688a5	0.052376408
140	0x3d2fdf3e	0.04293751
141	0x3cf87371	0.030328484
142	0xbdcbc9d5	-0.09950606
143	0xbe3ce7cc	-0.18447798
144	0x3e1ab196	0.15106806
145	0xbc064866	-0.008195972
146	0x3db4a631	0.08820761
147	0xbdef2a23	-0.11677959
148	0xbdced566	-0.10099296
149	0x3d8293c7	0.063758425
150	0xbd93b367	-0.07211953
151	0xbdd7506b	-0.105133854
152	0xbd18cf1e	-0.037306897
153	0x3e832802	0.2561646
154	0xbd9b0a11	-0.075702794
155	0xbd8f9156	-0.070101425
156	0x3daf614d	0.085634805
157	0xb92f4a74	-0.00016717036
158	0x3dd36089	0.10321147
159	0x3d21f535	0.03954049
160	0xbc6a90f6	-0.014316788
161	0x3d16cadd	0.03681456
162	0xbcb88cf9	-0.022528159
163	0xbe234da4	-0.15947586
164	0xbb362913	-0.0027795478
165	0xbe02503e	-0.12725922
166	0xbd825dd2	-0.06365551
167	0x3da92f73	0.08261003
168	0xbd0616e4	-0.032736674
169	0xbcf50949	-0.029911654
170	0x3e357889	0.17721762
171	0x3d02d58d	0.03194194
172	0xbdc1d41a	-0.09464283
173	0xbd313382	-0.043262012
174	0xbc1a99cf	-0.009436085
175	0x3da558ad	0.08073554
176	0xbc947a37	-0.018124683
177	0x3dab9dcb	0.08379706
178	0xbdb89b5e	-0.09014009
179	0xbc171c50	-0.009223059
180	0x3da29cb4	0.07940045
181	0x3d8d6ad1	0.06905139
182	0x3deab332	0.1145996
183	0x3dc8e7f2	0.09809865
184	0x3cddafd7	0.027061386
185	0x3ce16e65	0.02751846
186	0x3ca75a99	0.020428943
187	0xbcf4124c	-0.02979388
188	0x3dd97548	0.10618073
189	0x3c715ee4	0.014732096
190	0x3cb7af29	0.02242239
191	0xbc3d63e8	-0.011559464
192	0x3db37904	0.08763316
193	0xbdb02cac	-0.086022705
194	0x3da7424e	0.081669435
195	0xbd3962ca	-0.04526023
196	0x3d70fb16	0.058833204
197	0xbcfd3f18	-0.030913875
198	0x3dd0d6e1	0.10197235
199	0x3d8f529c	0.06998178
200	0xbdb38d14	-0.08767143
201	0xbc9d889e	-0.019230183
202	0xbdfe371d	-0.12412856
203	0xbdbf40ba	-0.093385175
204	0x3e020ac6	0.12699422
205	0xbd1014a6	-0.035175942
206	0x3d88ee6e	0.06686102
207	0x3dbe0b5b	0.0927951
208	0xbc3b38ab	-0.011427085
209	0x3e04b119	0.12958182
210	0x3c926f50	0.017875344
211	0x3dcf4775	0.10121051
212	0xbd595f02	-0.053069122
213	0xbe144a5b	-0.1448149
214	0xbdcf8b61	-0.10134006
215	0x3d614044	0.05499293
216	0x3e01f432	0.1269081
217	0x3c9e4dac	0.019324146
218	0xbc6ddbb6	-0.014517715
219	0xbdc0fbb0	-0.094230056
220	0xbddd8059	-0.10815496
221	0x3e0389cb	0.12845533
222	0xbe23a11b	-0.15979426
223	0xbd6879b3	-0.056756686
224	0xbe3f5d77	-0.18687998
225	0xbd630c8a	-0.05543188
226	0xbbed97ef	-0.007250778
227	0xbd8f02d0	-0.06982958
228	0x3dc3fe92	0.0957004
229	0x3dea7df7	0.11449807
230	0xbd3931f5	-0.04521366
231	0x3d2ed6c1	0.042685274
232	0xbd899cad	-0.06719337
233	0xbdde2f67	-0.10848885
234	0xbbb12c90	-0.0054069236
235	0x3d83616e	0.064150676
236	0xbd6f27e0	-0.058387637
237	0x3c9567b8	0.018237934
238	0x3d3aab47	0.0455735
239	0x3d8db35f	0.06918978
240	0xbd278111	-0.04089457
241	0xbe1ebcc9	-0.15501703
242	0x3df5d30e	0.12003146
243	0xbd87aeee	-0.06625162
244	0x3da50f57	0.080595665
245	0x3d9864be	0.0744109
246	0xbd15c545	-0.036565084
247	0xbe23ecae	-0.16008255
248	0x3e043f1e	0.12914702
249	0x3d024836	0.031807147
250	0xbd8217fc	-0.06352231
251	0xbe0e51f8	-0.13898456
252	0xbdd3f0d3	-0.10348668
253	0x3d40c25a	0.047060348
254	0x3b2c5475	0.0026295458
255	0xbe26366c	-0.16231698

encoder.6.bias f4 [32]
0	0x3d5e295f	0.054238673
1	0xbd99d847	-0.07511955
2	0xbe2af97c	-0.16696733
3	0x3dc8bc6b	0.09801563
4	0xbe28d8fc	-0.16489023
5	0x3d7cd9b0	0.06173104
6	0xbca9e208	-0.020737663
7	0x3e18b29b	0.14911883
8	0xbdcdf659	-0.10056753
9	0x3ce4817c	0.027893774
10	0x3db858ab	0.09001287
11	0x3d31fafd	0.04345225
12	0xbcf0da43	-0.02940095
13	0xbd7cd6da	-0.061728336
14	0xbc407b67	-0.011748171
15	0xbdfb16f5	-0.12260238
16	0x3df24194	0.11828914
17	0x3dc0dd1f	0.094171755
18	0xbde725c7	-0.11286502
19	0x3c9c9a32	0.019116495
20	0xbddd263a	-0.10798307
21	0x3d85800c	0.06518564
22	0x3d7d3fd1	0.06182844
23	0x3d7be6e2	0.061499484
24	0x3b1e410e	0.0024147662
25	0xbbf3f449	-0.0074448925
26	0xbdf3a659	-0.11896963
27	0xbd0d6cf3	-0.03452773
28	0xbe13c938	-0.14432228
29	0x3bb76c26	0.005597609
30	0x3cbf765e	0.023371872
31	0x3df83f16	0.12121408

encoder.9.weight f4 [5, 32]
0	0xbe035c13	-0.12828092
1	0x3d9b49b1	0.07582415
2	0xbdab13a3	-0.08353355
3	0x3e03bd33	0.12865143
4	0xbdca4001	-0.09875489
5	0xbe2ee1ee	-0.17078373
6	0xbd84e1ff	-0.06488418
7	0x3db1ac18	0.086754024
8	0xbcf5b4d7	-0.029993458
9	0x3e0b1762	0.13583139
10	0xbe251bb2	-0.16123846
11	0x3e332797	0.17495571
12	0x3e4868d4	0.19571239
13	0x3df6bc89	0.12047679
14	0x3df972ad	0.12180076
15	0x3c96af0a	0.018394012
16	0x3daa8ad7	0.08327263
17	0x3e171bc7	0.1475669
18	0xbde352ae	-0.11099754
19	0x3e094c66	0.1340805
20	0x3e35e344	0.17762476
21	0x3dae1dd8	0.08501786
22	0x3e0058b5	0.12533839
23	0x3e3fa79d	0.18716283
24	0x3bd4b074	0.0064907614
25	0x3db8b39f	0.09018635
26	0x3e213211	0.15741755
27	0xbd929424	-0.07157162
28	0xbe16470d	-0.14675541
29	0xbdd5287d	-0.10408113
30	0x3c33e1a9	0.010979095
31	0xbe2c5cc9	-0.1683227
32	0x3d7c07d7	0.061530914
33	0x3d1ab9f7	0.037775006
34	0xbdedd2d1	-0.11612476
35	0xbe0f0cc1	-0.13969709
36	0xbe01b625	-0.12667139
37	0x3e2f79af	0.17136262
38	0xbdb86fd2	-0.09005703
39	0x3e639afe	0.22227094
40	0x3ddaa0c1	0.106751926
41	0xbe636e46	-0.22210035
42	0x3cb46495	0.022020617
43	0x3e0c0917	0.13675343
44	0x3e0a849c	0.13527149
45	0x3e12d43b	0.14338772
46	0xbe14560a	-0.14485946
47	0x3e4b6a06	0.19864663
48	0x3e1b61a5	0.15173967
49	0x3d883cf7	0.06652253
50	0xbdffdc61	-0.12493206
51	0xbe0b8cb4	-0.13627893
52	0x3cc13d00	0.023588657
53	0xbe269eb9	-0.16271485
54	0xbe110f83	-0.14166074
55	0xbdd30b72	-0.103049174
56	0x3e3557a5	0.17709215
57	0x3d97af89	0.074065275
58	0x3d349a87	0.04409268
59	0x3cfe5d88	0.031050459
60	0xbd2c61e6	-0.04208555
61	0xbd9e692a	-0.07734902
62	0xbe23a7b0	-0.15981936
63	0x3e324a10	0.17411065
64	0xbd5be2d2	-0.05368311
65	0xbe394f0a	-0.18096557
66	0x3e677907	0.22604762
67	0x3c202d54	0.009776432
68	0xbd458fa9	-0.048232708
69	0x3e29bf2f	0.16576837
70	0x3e3164eb	0.17323653
71	0x3e44fdef	0.19237493
72	0x3d80c96d	0.06288419
73	0x3c408fbd	0.01175302
74	0xbd6470ec	-0.055771753
75	0x3d0bcb3b	0.034129363
76	0xbb7767e9	-0.0037751144
77	0xbd4f2804	-0.05057527
78	0x3e0634ec	0.13106126
79	0x3da3b31e	0.07993148
80	0xbd970a81	-0.0737505
81	0xbe3e059e	-0.1855683
82	0x3e01c408	0.12672436
83	0x3dd24bf6	0.10268395
84	0x3e14ae18	0.14519536
85	0xbc819068	-0.015815929
86	0xbe137511	-0.14400126
87	0x3c2e3c03	0.010634425
88	0x3e090bbb	0.13383381
89	0x3df5fba4	0.12010887
90	0x3ca4f553	0.020136511
91	0x3d2971aa	0.041368164
92	0x3e203015	0.15643342
93	0xbcea02d9	-0.028565811
94	0xbe3cb418	-0.18428075
95	0xbb69113d	-0.0035563253
96	0x3dc6000e	0.09667979
97	0x3dcfd524	0.10148075
98	0xbd4be532	-0.049779125
99	0xbda45e9e	-0.08025859
100	0x3cf3d1e8	0.029763177
101	0xbc82732e	-0.015924063
102	0x3c734b49	0.014849492
103	0x3d0635c6	0.032766126
104	0x3df0ffd3	0.117675446
105	0xbdd8713b	-0.10568472
106	0x3d9f6c0a	0.07784279
107	0x3d8f549f	0.06998562
108	0xbd675967	-0.056481745
109	0xbcd382a3	-0.025819128
110	0xbd5a52da	-0.05330167
111	0x3e0e3109	0.13885893
112	0x3dca9345	0.09891371
113	0x3dd5b4e4	0.10434893
114	0xbd9dac81	-0.07698918
115	0x3df4730c	0.11936006
116	0x3cf8409b	0.030304244
117	0x3d4e9234	0.0504324
118	0xbc74d937	-0.014944366
119	0x3dec6b7b	0.11543938
120	0x3bae0c15	0.005311499
121	0xbe2df79e	-0.1698899
122	0xbe0de14b	-0.13855474
123	0x3e47f316	0.19526324
124	0x3cc9f831	0.02465448
125	0xbe175cc9	-0.14781488
126	0xbe24a337	-0.16077887
127	0xbe64a005	-0.22326668
128	0x3daa5e54	0.08318773
129	0x3df57122	0.11984469
130	0xbe141f52	-0.14465073
131	0x3deb5c05	0.11492161
132	0x3d1a7fb4	0.037719443
133	0xbccb9480	-0.024851084
134	0xbe421c37	-0.18956076
135	0xbc74f995	-0.014952083
136	0xbdfb7ef2	-0.12280072
137	0xbd1bb32a	-0.03801266
138	0xbdc86631	-0.097851165
139	0x3d8b278d	0.06794653
140	0xbde147b9	-0.11000008
141	0xbd6a9a1e	-0.057275884
142	0x3d7c9c5e	0.06167256
143	0xbe3b3f51	-0.18285872
144	0x3d994b3d	0.07485054
145	0x3ddbf87a	0.107407525
146	0xbdffb359	-0.1248538
147	0xbd487fbe	-0.04894995
148	0x3c8af37d	0.016961807
149	0xbded6433	-0.11591377
150	0x3c3cfbbd	0.011534628
151	0x3e1db5cf	0.15401386
152	0xbe242cb4	-0.16032678
153	0xbd0392df	-0.03212249
154	0xbc64d6ad	-0.013967198
155	0x3db1ee94	0.08688083
156	0x3dd836d7	0.10557335
157	0x3da583ed	0.080818035
158	0xbd773d7b	-0.060361367
159	0x3e5e9f01	0.21740343

encoder.9.bias f4 [5]
0	0xbd8ea930	-0.06965864
1	0x3d25a7f8	0.04044339
2	0x3d3bb17c	0.04582356
3	0x3d17eb36	0.03708955
4	0xbcd9b8d4	-0.02657739

decoder.0.weight f4 [32, 5]
0	0x3eb49f6a	0.35277873
1	0x3dc88242	0.0979047
2	0x3e91ed94	0.2850157
3	0x3d7794e2	0.06044472
4	0x3dd43a0e	0.103626356
5	0x3eb37559	0.35050467
6	0x3e63a4ec	0.22230881
7	0xbde6de89	-0.11272914
8	0x3e01d963	0.12680583
9	0xbeb77f7b	-0.35839447
10	0xbee02f59	-0.43786123
11	0x3eb3b0c1	0.3509579
12	0xbe5cec0b	-0.21574418
13	0x3eac7dc6	0.33689708
14	0x3cd96f2d	0.02654227
15	0xbeeb2c3a	-0.4593218
16	0xbe7d4fb1	-0.24737431
17	0x3e7c46f7	0.24636446
18	0x3bcf780b	0.006331449
19	0x3e39dc58	0.1815046
20	0xbecf3544	-0.40470326
21	0xbcf38de7	-0.02973075
22	0xbeb4854b	-0.35257944
23	0x3d80d8fc	0.062913865
24	0xbe848e7d	-0.2588996
25	0x3d8cb9c9	0.06871373
26	0x3d8b1bba	0.06792398
27	0x3ea546b3	0.32280502
28	0xbe3da17c	-0.18518633
29	0x3eb4829e	0.35255903
30	0xbccb5f8b	-0.024825832
31	0x3ed90966	0.42389983
32	0x3e724906	0.23660669
33	0x3e5f5991	0.2181151
34	0x3e8fcdf3	0.28086814
35	0xbef01b93	-0.46896037
36	0x3eac366f	0.3363528
37	0xbe2c292e	-0.16812584
38	0x3d9a1069	0.07522661
39	0xbe8056d2	-0.2506624
40	0x3eed7e9e	0.46385664
41	0xbe9baae3	-0.30403814
42	0x3dcafe66	0.09911804
43	0x3e660e01	0.2246628
44	0x3eda2b84	0.42611325
45	0x3a930c53	0.0011218883
46	0xbe0dd027	-0.13848935
47	0x3d078a5e	0.03309094
48	0x3ef5547b	0.47916016
49	0xbee92bd0	-0.4554124
50	0x3e5b9956	0.21445212
51	0xbea482a6	-0.32130927
52	0xbe37d925	-0.17953928
53	0x3a6accb4	0.0008956895
54	0x3e3426cf	0.1759293
55	0x3e26e367	0.16297685
56	0x3dda4e77	0.10659497
57	0xbe21cdcc	-0.15801162
58	0xbe44ea52	-0.19230011
59	0xbd6966bf	-0.056982752
60	0xbe97b516	-0.29630345
61	0xbeb21cf0	-0.34787703
62	0xbeb40366	-0.35158843
63	0x3e0935b4	0.13399392
64	0x3cd8c316	0.026460212
65	0x3e93943a	0.28824025
66	0xbebd64ea	-0.36991054
67	0x3eb145c2	0.34623533
68	0x3d8a1594	0.06742397
69	0xbd666f5d	-0.056258548
70	0x3ea1948e	0.3155865
71	0xbecf6f25	-0.40514484
72	0x3e15c6a6	0.1462656
73	0xbe9a1450	-0.30093622
74	0x3ea5e4bb	0.3240107
75	0x3ebaa56f	0.3645434
76	0xbe3542b6	-0.1770123
77	0xb822c710	-3.88092e-05
78	0xbe4bffb9	-0.19921769
79	0xbd8b0225	-0.067875184
80	0xbe399720	-0.18124056
81	0xbe903b7f	-0.28170392
82	0x3e3ba290	0.18323731
83	0x3e91ef71	0.28502992
84	0x3e8b20c7	0.27173445
85	0xbd6c222c	-0.057649776
86	0x3d921193	0.07132258
87	0xbd213a20	-0.039362073
88	0x3ec0b697	0.37639305
89	0xbd617a6f	-0.055048402
90	0x3eaeb534	0.34122622
91	0xbe5c21c7	-0.2149726
92	0xbe37ccdf	-0.17949246
93	0xbcc195cd	-0.023631
94	0x3e7e794a	0.24850956
95	0x3cf82e5f	0.030295549
96	0xbdf516e6	-0.11967258
97	0xbe41bba3	-0.18919234
98	0x3efd9f6f	0.495357
99	0x3ea4d161	0.32190993
100	0x3e9ed3c6	0.31020945
101	0x3ed2f5a4	0.41203034
102	0xbe5855bb	-0.21126454
103	0xbda99047	-0.08279472
104	0x3cf553be	0.029947158
105	0xbea14ea8	-0.31505322
106	0xbd9b7583	-0.07590773
107	0x3e20a9a8	0.15689719
108	0x3e993702	0.2992478
109	0x3ebccbb2	0.36874157
110	0x3b9c273c	0.0047654193
111	0xbea85215	-0.32875124
112	0xbe928005	-0.28613296
113	0xbe6d8c6d	-0.231981
114	0x3e7f4bc9	0.24931253
115	0x3eb046a6	0.344289
116	0xbca74521	-0.020418705
117	0xbef295b7	-0.47379848
118	0x3e292078	0.16516292
119	0xbec86d4b	-0.39145884
120	0xbee7ff41	-0.4531193
121	0xbe8a47c0	-0.27007866
122	0x3e225b3d	0.15855117
123	0xbdbc9fab	-0.09210142
124	0x3ca9542b	0.020670017
125	0x3e84bf68	0.2592728
126	0xbe197178	-0.14984691
127	0x3e056b6d	0.13029261
128	0xbee43d8c	-0.44578207
129	0x3e6fbef5	0.23412688
130	0x3ef0be11	0.4702001
131	0x3d628349	0.055300985
132	0x3dd273b0	0.10275972
133	0x3e041bae	0.12901184
134	0x3ddbcda2	0.10732581
135	0xbeebf83b	-0.46087822
136	0x3eae39f3	0.34028587
137	0x3ed4c3fd	0.41555777
138	0xbe607250	-0.21918607
139	0xbe55182d	-0.20810004
140	0x3e185832	0.14877394
141	0x3e26c1b1	0.16284825
142	0x3e1f235b	0.15540831
143	0xbec77bff	-0.3896179
144	0xbe3d4525	-0.18483408
145	0x3e0fe792	0.14053181
146	0x3e5791ac	0.21051663
147	0xbe8d52ac	-0.27602136
148	0xbee4e628	-0.44706845
149	0x3eb00d24	0.34385026
150	0x3e83ea19	0.2576454
151	0xbdec977c	-0.11552331
152	0x3efa4066	0.48877257
153	0x3e31d7c3	0.17367463
154	0x3ee2fbac	0.44332635
155	0xbe38fc96	-0.18065104
156	0xbe58e667	-0.21181642
157	0x3e36b442	0.178422
158	0xbe3ab458	-0.18232858
159	0x3ec2bcb2	0.38034588

decoder.0.bias f4 [32]
0	0xbe9ad8f9	-0.30243662
1	0xbeb3873a	-0.35064107
2	0x3d57a08d	0.052643348
3	0x3eb9f11e	0.3631677
4	0xbe0968e3	-0.13418917
5	0xbc8a040f	-0.016847638
6	0x3e50bfc5	0.20385654
7	0x3ec57093	0.3856245
8	0xbdfebd34	-0.124384314
9	0x3e9d7191	0.30750707
10	0xbe758df8	-0.23979938
11	0x3e68764a	0.22701374
12	0x3d9ffdcc	0.0781208
13	0xbdf9f476	-0.1220483
14	0xbe2df44b	-0.16987722
15	0x3e86df17	0.2634208
16	0xbe18c08b	-0.149172
17	0x3edc0c62	0.42978197
18	0x3e781cd3	0.24229746
19	0xbe3a2a8f	-0.18180297
20	0x3eb8f401	0.3612366
21	0x3e1ce9cc	0.15323561
22	0x3f015394	0.50518155
23	0xbe0c7f45	-0.13720424
24	0x3da6e804	0.08149722
25	0xbc1d005e	-0.009582607
26	0x3e208236	0.15674672
27	0xbd43316d	-0.047654558
28	0x3e8aae21	0.27085975
29	0x3e8cf37d	0.27529517
30	0xbd1de105	-0.038544673
31	0x3ea322d9	0.31862524

decoder.2.weight f4 [64, 32]
0	0xbd1974ed	-0.037465025
1	0xbd86c6e9	-0.06580908
2	0x3d04982b	0.03237168
3	0xbde8f6fd	-0.11375234
4	0xbd92e59b	-0.071727
5	0x3e22992d	0.15878744
6	0x3c5c5b98	0.013449572
7	0xbdbe2c43	-0.09285786
8	0x3dc0f072	0.09420861
9	0xbc8d30ef	-0.017235247
10	0x3d2b1978	0.041772336
11	0xbe0f7636	-0.14009938
12	0x3e2ee882	0.17080882
13	0x3d618db9	0.055066798
14	0x3df6a804	0.12043765
15	0x3e290d1f	0.16508912
16	0x3e18fa82	0.14939311
17	0x3d31a18e	0.04336696
18	0x3d63deeb	0.055632513
19	0xbc88bed8	-0.016692564
20	0xbd77672c	-0.060401127
21	0xbdaae5fe	-0.08344649
22	0xbe0cf1dd	-0.13764139
23	0x3e5b4052	0.21411255
24	0xbe24891d	-0.1606793
25	0x3df9620a	0.121769026
26	0x3d276336	0.0408661
27	0xbae611f2	-0.0017552956
28	0xbceb9f2a	-0.028762419
29	0x3de74960	0.11293292
30	0x3d5dc4ec	0.054142877
31	0x3caf2d64	0.021383949
32	0x3e2c5c29	0.16832031
33	0xbdcabca3	-0.09899261
34	0x3d588b90	0.052867472
35	0x3e3957aa	0.18099847
36	0x3d966640	0.073437214
37	0x3dffcf79	0.12490744
38	0xbd8fc911	-0.07020772
39	0x3dfeae24	0.124355584
40	0xbe2204d2	-0.15822151
41	0x3e3a4e3d	0.18193908
42	0x3e4a2e93	0.19744329
43	0xbe175bdf	-0.1478114
44	0x3e3652d5	0.17805035
45	0xbbcf371f	-0.0063237096
46	0xbd41047d	-0.04712342
47	0xbd8133db	-0.06308719
48	0x3e039157	0.12848412
49	0x3e1a776d	0.1508462
50	0x3dc4c567	0.09607964
51	0x3de9d40b	0.11417397
52	0xbe421184	-0.18951994
53	0xbd39c6e9	-0.04535571
54	0x3dab5f7f	0.08367824
55	0x3df28ab4	0.11842862
56	0xbd90fb29	-0.07079155
57	0x3cbb4543	0.022860175
58	0x3d7adc6c	0.061245367
59	0xbdd7ee0e	-0.10543452
60	0x3e127d17	0.1430553
61	0x3e299b88	0.16563237
62	0xbd276ba9	-0.040874157
63	0xbdf5a328	-0.1199401
64	0x3d844303	0.06458094
65	0xbd402a87	-0.046915557
66	0x3dd7aa11	0.105304845
67	0x3e1076ac	0.1410777
68	0xbdb685c9	-0.08912236
69	0xbe129032	-0.14312819
70	0xbce37c0a	-0.027769107
71	0xbe0cb9db	-0.13742773
72	0x3d71e9e2	0.05906094
73	0x3e568594	0.20949394
74	0xbd538248	-0.051637918
75	0xbd019add	-0.03164183
76	0xbdb1b4d7	-0.086770706
77	0x3dfd8159	0.12378187
78	0xbd56c702	-0.052435882
79	0x3c9c66a6	0.019091915
80	0x3c166c8d	0.009181154
81	0x3d874505	0.06604961
82	0xbdcad245	-0.09903387
83	0x3dc688c3	0.09694054
84	0xbe2bd317	-0.16779743
85	0x3cf11b5e	0.029431995
86	0xbe826872	-0.2547031
87	0xbcbdbf98	-0.023162648
88	0xbcc9883f	-0.0246011
89	0x3d90e764	0.07075384
90	0xbdd8091c	-0.105486125
91	0x3db9d73d	0.090742566
92	0xbcd50ff3	-0.026008582
93	0x3e2a1687	0.16610156
94	0x3e404d58	0.18779504
95	0x3d9f509b	0.07779046
96	0xbe5e7fb1	-0.21728398
97	0x3d5f9f3f	0.05459523
98	0xbd9d0d68	-0.07668573
99	0x3d1b9248	0.0379813
100	0xbd8b22f7	-0.067937784
101	0x3ab8fb04	0.0014112894
102	0xbe476eeb	-0.19475906
103	0x3d086707	0.03330138
104	0xbca2a445	-0.01985372
105	0xbca29bc5	-0.019849667
106	0xbd1b3180	-0.037889004
107	0x3e2a9ce5	0.16661413
108	0x3c9ad499	0.018900203
109	0xbde0913d	-0.10965202
110	0x3e28d8ed	0.16489
111	0x3d288703	0.041144382
112	0xbeb25bd1	-0.34835675
113	0x3ddd675e	0.10810731
114	0x3db934e3	0.090432905
115	0xbdc5a180	-0.09649944
116	0x3d0b7902	0.03405095
117	0x3c3d1fc4	0.011543218
118	0x3d9a8dde	0.0754659
119	0xbe31ae74	-0.17351705
120	0xbe933568	-0.28751683
121	0xbd452068	-0.048126608
122	0xbe3dedae	-0.18547699
123	0xbe3c3225	-0.18378504
124	0x3e0e700c	0.1390993
125	0x3b9eab63	0.004842208
126	0xbc6a94b0	-0.014317676
127	0xbd46b298	-0.048510164
128	0xbe399f1e	-0.18127105
129	0xbd13c2f9	-0.036074612
130	0x3da68fd1	0.081328996
131	0x3dec16fc	0.115278214
132	0x3d6e10dd	0.05812155
133	0x3d8d41ad	0.06897292
134	0x3ddadb6c	0.10686383
135	0xbd3bb041	-0.045822386
136	0xbe126a6e	-0.14298412
137	0xbd64e9e1	-0.055887107
138	0x3dccd394	0.10001293
139	0x3dc9394c	0.09825382
140	0x3d6ba433	0.05752964
141	0xbca0ee04	-0.019644745
142	0xba8c2479	-0.0010692022
143	0xbdc39b8f	-0.09551155
144	0xbd91b268	-0.071141064
145	0x3d3892e1	0.04506195
146	0xbd946ee9	-0.07247717
147	0xbdc09500	-0.094034195
148	0xbbe413cb	-0.0069603673
149	0xbac53a7a	-0.0015047335
150	0xbd9f33b8	-0.077735364
151	0xbe12edb2	-0.14348486
152	0xbe289f96	-0.16467127
153	0x3da39e10	0.079891324
154	0xbd976b6b	-0.07393535
155	0x3ddc4ffa	0.10757442
156	0xbda531f2	-0.08066167
157	0x3d0b16a4	0.03395714
158	0xbcd437f4	-0.025905587
159	0xbe20c2eb	-0.15699355
160	0x3e1c7ad2	0.15281227
161	0x3b8ab0de	0.00423251
162	0xbe494be2	-0.19657853
163	0x3ce00eb5	0.027350763
164	0x3d9d31c7	0.0767551
165	0x3dbb3226	0.091404244
166	0xbdb7955e	-0.089640364
167	0x3d85ad2a	0.06527169
168	0xbe0f3f77	-0.13989054
169	0xbdd4f2a5	-0.10397843
170	0x3ab9b827	0.0014169262
171	0x3e3bd576	0.18343148
172	0xbdc434d4	-0.09580389
173	0x3e0d0bdf	0.1377406
174	0x3da08e2d	0.07839618
175	0xbe13bed5	-0.14428265
176	0x3dc21ff1	0.094787486
177	0x3e398e7e	0.18120763
178	0x3e13f560	0.14449072
179	0x3e290ebd	0.16509528
180	0xbde068b2	-0.10957469
181	0x3b2a7ceb	0.0026014398
182	0x3d672863	0.056435
183	0x3d119498	0.0355421
184	0xbd8728af	-0.06599557
185	0x3d9e33db	0.077247344
186	0xbd29f69b	-0.041494947
187	0xbe2ff06d	-0.17181559
188	0x3bc05c08	0.005870346
189	0xbd0e7bdd	-0.034786094
190	0x3d7696ca	0.060202397
191	0x3e2e3b89	0.17014898
192	0xbd6a251e	-0.057164304
193	0xbcd57a51	-0.026059302
194	0xbdedd75c	-0.11613342
195	0x3e0a7cbd	0.13524146
196	0xbde99850	-0.114060044
197	0xbc93f69e	-0.018061932
198	0x3db8dff2	0.09027089
199	0xbe248c2c	-0.16069096
200	0xbafda520	-0.0019351579
201	0x3e84f619	0.25969008
202	0xbcdfba78	-0.027310595
203	0x3e18acee	0.14909717
204	0x3cd0cf71	0.02548954
205	0x3e33cf82	0.17559627
206	0xbe175779	-0.14779462
207	0x3ddce5ae	0.107859954
208	0xbe2e09a6	-0.16995868
209	0xbe03df67	-0.1287819
210	0xbd89576b	-0.06706127
211	0x3c81f380	0.01586318
212	0x3dab23fe	0.08356474
213	0xbdb1750a	-0.086649016
214	0x3e48b00d	0.19598408
215	0x3e5918e0	0.21200895
216	0xbd9111ca	-0.07083471
217	0xba52d345	-0.0008042346
218	0xbd88b615	-0.066753544
219	0x3e046470	0.12928939
220	0x3e27cab8	0.16385925
221	0x3e0c5215	0.13703187
222	0x3d9a6ea0	0.07540631
223	0x3e778fd5	0.24175961
224	0xbe1b93ac	-0.15193051
225	0xbca2395e	-0.019802745
226	0x3cd73bb1	0.02627358
227	0xbc8e7c0f	-0.01739314
228	0xbc4815d2	-0.012212234
229	0x3dea9b70	0.114554286
230	0xbe056e9e	-0.13030478
231	0xbcdf11a5	-0.027230093
232	0x3bde02a2	0.006775216
233	0x3d23c15f	0.039979335
234	0xbd7a870b	-0.061163943
235	0xbe133eff	-0.143795
236	0x3d96f568	0.07371026
237	0x3cb51a4f	0.022107271
238	0xbd8d2997	-0.06892698
239	0x3e00f77f	0.12594412
240	0x3e1b0ba0	0.15141153
241	0x3dbbcdef	0.09170138
242	0xbdaf0720	-0.08546281
243	0xbbeb21c4	-0.007175656
244	0x39fd9f18	0.00048374454
245	0x3e3b970a	0.18319336
246	0x3e038d20	0.12846804
247	0x3d7efe60	0.06225431
248	0x3d254e4d	0.040357877
249	0xbcd76836	-0.026294809
250	0x3cb03afe	0.021512505
251	0x3e194962	0.149694
252	0xbd7fc33d	-0.062442053
253	0xbda36f44	-0.079802066
254	0x3d951229	0.072788544
255	0x3c1b4bd9	0.009478533

decoder.2.bias f4 [64]
0	0x3c15c0a9	0.009140172
1	0xbdeb6c2a	-0.1149524
2	0xbd1f4f66	-0.03889408
3	0xbdd61e56	-0.10455005
4	0xbdb5b409	-0.088722296
5	0x3e2cdcd2	0.16881111
6	0xbdafa192	-0.08575739
7	0x3de94a79	0.11391158
8	0xb9007eda	-0.00012254287
9	0x3df27b96	0.118399784
10	0x3cc39032	0.023872469
11	0xbbe764b5	-0.0070615658
12	0x3e21051f	0.1572461
13	0xbbffb339	-0.0078033474
14	0x3e192010	0.14953637
15	0xbe4365c0	-0.19081783
16	0xbdd34db4	-0.10317555
17	0x3dff78e8	0.12474233
18	0x3dbc8353	0.092047356
19	0xbd666f01	-0.056258205
20	0xbd99cc73	-0.07509699
21	0xbcefe3e5	-0.029283473
22	0x3c9b6570	0.018969268
23	0x3e0916cb	0.13387601
24	0x3bd3f189	0.006468002
25	0x3dc0be3e	0.09411286
26	0x3d5c99e9	0.053857718
27	0xbd5dc3ae	-0.054141693
28	0xbd91854a	-0.07105501
29	0x3e37e44d	0.17958184
30	0xbe0e915b	-0.13922636
31	0xbe528bc7	-0.20561133
32	0x3dbfc35a	0.09363432
33	0x3e26845f	0.16261433
34	0x3d0e3dae	0.03472679
35	0x3e107c5f	0.14109944
36	0x3cf74ca9	0.030187922
37	0x3def5de1	0.11687828
38	0xbb0a7b29	-0.0021130538
39	0xbd9aa16b	-0.07550319
40	0xbe2e2614	-0.17006713
41	0xbd193fa0	-0.037414193
42	0xbd4e8700	-0.050421715
43	0xbda639d0	-0.081164956
44	0xbda6e97b	-0.081500016
45	0x3e548ba7	0.20756398
46	0xbdd0cbc5	-0.10195116
47	0x3d869aec	0.06572518
48	0xbc88bfc4	-0.016693003
49	0xbe1a5312	-0.15070751
50	0x3e0b27b3	0.13589363
51	0xbd0473b0	-0.03233689
52	0xbcffdf9e	-0.031234559
53	0xbd3f243b	-0.04666541
54	0xbd12431f	-0.035708543
55	0x3dda36cd	0.10654984
56	0xbdabe4cb	-0.08393248
57	0xbe988a91	-0.29793218
58	0xbdbdd269	-0.09268648
59	0x3d83415f	0.06408953
60	0xbe31ed24	-0.17375618
61	0x3e42a6d6	0.19008955
62	0x3b80465c	0.0039146375
63	0x3d452e30	0.04813975
