Save-Models/model-lat2.pth (torch, 191202 bytes, 16 tensors)

encoder.0.weight f4 [128, 99]
0	0xbdb4d15a	-0.08828993
1	0x3d0941d8	0.03351006
2	0xbd80cec0	-0.062894344
3	0xbd8d65c1	-0.06904174
4	0xbce98173	-0.028504109
5	0x3d3a8d50	0.045544922
6	0x3db9c477	0.09070676
7	0x3ce78383	0.028260952
8	0x3d8dc8f0	0.069230914
9	0x3dc9fc75	0.098626055
10	0xb71f7a44	-9.505606e-06
11	0x3d808e49	0.06277139
12	0xbdba4283	-0.09094717
13	0xbd2776f1	-0.040884916
14	0xbdbd4daa	-0.09243329
15	0xbd1c2ce8	-0.038128763
16	0x3c627206	0.013821131
17	0x3d86d2c2	0.065831676
18	0x3da390b5	0.07986585
19	0xbb60f989	-0.0034328422
20	0xbd6314a8	-0.05543962
21	0xbdb3f869	-0.08787615
22	0x3d914086	0.07092385
23	0x3d8584b6	0.06519453
24	0xbdb54533	-0.08851089
25	0xbc899e15	-0.016799012
26	0xbd80eace	-0.062947854
27	0xbd0caf7b	-0.03434704
28	0x3d4dd021	0.050247315
29	0x3b8010d0	0.003908254
30	0x3c5e9d89	0.013587364
31	0xbd8da0bc	-0.06915423
32	0x3d8b02d7	0.06787651
33	0xbdd81fa1	-0.10552908
34	0xbd725ce4	-0.05917062
35	0xbdb826a8	-0.08991748
36	0xbdbf9d96	-0.09356229
37	0xbcb525fe	-0.022112843
38	0x3c2ed394	0.010670561
39	0xbda7c7e9	-0.08192427
40	0x3ba64c9f	0.005075052
41	0x3c97a074	0.018509127
42	0xbd10bb5c	-0.03533493
43	0xbd66e069	-0.056366358
44	0xbdce2680	-0.10065937
45	0x3d5997a3	0.053123128
46	0x3d7fd531	0.062459175
47	0xbcfe5a1d	-0.031048829
48	0x3d6ff030	0.05857867
49	0xbcc4b088	-0.024009958
50	0x3c040207	0.008057124
51	0xbdaddf6a	-0.084898785
52	0xbd3faa41	-0.046793226
53	0x3c25f95c	0.010130253
54	0xbc80c9ee	-0.015721288
55	0x3cb2d4ac	0.021829925
56	0xbc7b2393	-0.015328306
57	0x3db20746	0.086927935
58	0x3d0f3cc8	0.034970075
59	0x3d7a680c	0.061134383
60	0xbc3c1460	-0.011479467
61	0xbd16bfc3	-0.036803972
62	0x3cb1dcc8	0.021711722
63	0xbd0515f8	-0.032491654
64	0x3bee303c	0.0072689336
65	0xbdc89d1f	-0.097955935
66	0x3d9631fb	0.07333752
67	0xbd1c5dc7	-0.03817537
68	0xbdd6ecf0	-0.10494411
69	0x3da9ff69	0.08300669
70	0xbd6e3c35	-0.058162887
71	0x3c815ff5	0.015792826
72	0xbd58d7bd	-0.05294012
73	0xbc6d8cf3	-0.014498937
74	0x3c941009	0.018074052
75	0x3d998b1e	0.074972376
76	0x3d7facf2	0.062420793
77	0x3d90707a	0.07052703
78	0xbd8c769d	-0.06858561
79	0x3dadad8b	0.08480366
80	0xbd430090	-0.04760796
81	0xbddf75da	-0.1091115
82	0x3db63d44	0.08898404
83	0xbd43c571	-0.047795717
84	0x3dc0f970	0.094225764
85	0xbd64587a	-0.05574844
86	0xbd021008	-0.03175357
87	0x3d8ec1b3	0.06970539
88	0xbd300360	-0.04297197
89	0xbd913b60	-0.07091403
90	0x3ce79518	0.028269336
91	0xbd3445b1	-0.044011775
92	0xbceb0cde	-0.028692659
93	0xbcedb56c	-0.029017173
94	0xbd40973e	-0.047019236
95	0xbd711a87	-0.05886319
96	0xbdc2722f	-0.09494435
97	0x3d3287cf	0.04358655
98	0x3cbcdaa1	0.02305347
99	0xbc9a3a8b	-0.018826744
100	0x3d4e5442	0.050373323
101	0xbcb918b8	-0.022594795
102	0xbcf72007	-0.030166639
103	0xbd249e57	-0.040190067
104	0x3b1cf842	0.0023951684
105	0xbdcc9295	-0.09988896
106	0xbcf08372	-0.029359553
107	0xbd55aa79	-0.05216453
108	0x3d2e0aec	0.042490885
109	0x3dc7e447	0.09760337
110	0x3db93b4b	0.09044512
111	0xbcfe9fba	-0.031082023
112	0x3cffbc8f	0.031217841
113	0x3dab9ea0	0.08379865
114	0xbd3a64f8	-0.045506448
115	0xbd81f5fa	-0.063457444
116	0xbd291889	-0.041283164
117	0x3d99af2e	0.07504116
118	0xbcc80735	-0.0244175
119	0xbdba9c0e	-0.09111796
120	0xbd1274bd	-0.03575586
121	0x3cfaf474	0.030634142
122	0x3dc8480e	0.09779368
123	0xbd866cc1	-0.06563712
124	0x3d2c1523	0.042012345
125	0x3dc7ceac	0.097562164
126	0x3dc275d0	0.09495127
127	0x3db54690	0.08851349
128	0xbd126e86	-0.035749935
129	0xbcf30340	-0.029664636
130	0xbd384474	-0.044987157
131	0xbdbc6e5d	-0.092007376
132	0xbd872c5b	-0.06600257
133	0x3beadb3d	0.0071672485
134	0x3d8d26e5	0.06892184
135	0xbdcf0f3d	-0.10110328
136	0xbd57d056	-0.05268892
137	0x3cd4f59b	0.02599602
138	0x3dc2e54a	0.0951639
139	0xbd5bd90e	-0.053673796
140	0xbd6b9ab6	-0.05752059
141	0xbcdd8ebe	-0.027045604
142	0x3d0b6345	0.034030218
143	0xbdace5d8	-0.08442277
144	0x3d2ce32e	0.042208843
145	0xbcaa6432	-0.02079973
146	0xbcf6be53	-0.03012005
147	0xbd583685	-0.05278637
148	0xbd513934	-0.051079944
149	0x3cb818a1	0.022472681
150	0x3dbad0fa	0.0912189
151	0xbd312fa2	-0.043258317
152	0x3dc939d8	0.09825486
153	0xbda6f57c	-0.08152291
154	0x3d8255f2	0.06364049
155	0x3d469168	0.048478514
156	0x3dd3d2c9	0.103429385
157	0xbd87fa8e	-0.066395864
158	0xbd8fe9f7	-0.07027047
159	0x3d71ea5e	0.0590614
160	0xbd35708b	-0.044296782
161	0x3c781272	0.015141116
162	0xbdb42984	-0.08796981
163	0x3d9f7edf	0.077878706
164	0x3be14fb1	0.006875955
165	0x3c010052	0.0078736115
166	0xbb6f0a56	-0.0036474667
167	0x3cf677ce	0.030086424
168	0xbd54fdeb	-0.051999968
169	0xbd5d9be7	-0.05410376
170	0xbd1804a7	-0.03711381
171	0x3cba945f	0.022775827
172	0x3da22cca	0.07918699
173	0x3d0244ae	0.03180378
174	0xbdb4b5c8	-0.088237345
175	0xbdbb6a67	-0.09151154
176	0xbd4072e3	-0.046984565
177	0x3d75f886	0.060051464
178	0xbc3385d3	-0.010957199
179	0xbbd2bf6e	-0.0064315116
180	0xbd9118ae	-0.070847854
181	0xbdc3db48	-0.09563309
182	0xbdb72667	-0.089428715
183	0xbdad675f	-0.08466982
184	0xbc507ac5	-0.012724583
185	0xbdab9152	-0.08377327
186	0x3b59c7e0	0.0033230707
187	0xbd931955	-0.07182566
188	0xbd62304c	-0.05522184
189	0xbdb34358	-0.08753079
190	0xbdb19796	-0.08671491
191	0x3c1e5b55	0.00966533
192	0xbd7e0579	-0.062016938
193	0x3d1d34fa	0.0383806
194	0xbd847a8c	-0.064686865
195	0xbd9e60a5	-0.07733277
196	0xbd180596	-0.037114702
197	0x3912fcfa	0.00014017886
198	0xbd46eae6	-0.04856386
199	0xbd75432a	-0.059878506
200	0xbd38baad	-0.045099903
201	0x3da45e32	0.08025779
202	0x3c967642	0.018366937
203	0xbda99e92	-0.08282198
204	0xbd0dd162	-0.03462351
205	0xbd3a77b9	-0.045524333
206	0xbcb4aac3	-0.022054082
207	0xbc3a7cf9	-0.011382335
208	0x3d5671c4	0.05235459
209	0xbd6fffbd	-0.0585935
210	0xbd18899d	-0.037240613
211	0x3cdb49d0	0.026768595
212	0xbd8ead7c	-0.06966683
213	0x3c0f4154	0.008743603
214	0x3c35947a	0.011082763
215	0xbdc5d1de	-0.096591696
216	0xbd8c2b39	-0.068441816
217	0xbdb575fd	-0.08860395
218	0x3d0c9d3d	0.03432964
219	0xbdb98fa8	-0.090606034
220	0xbda4794e	-0.080309495
221	0xbd2b6c79	-0.041851494
222	0x3be90278	0.00711089
223	0x3c7639a6	0.015028393
224	0x3cfbf640	0.03075707
225	0xbd726527	-0.059178498
226	0xbd633fea	-0.055480875
227	0x3d43cc7a	0.047802426
228	0xbce538a4	-0.02798111
229	0xbd6ad79e	-0.057334535
230	0x3d8385e0	0.06422019
231	0xbbef4eb3	-0.007303083
232	0xbd48fa0c	-0.04906659
233	0x3dd1ec59	0.10250158
234	0x3dc1380f	0.094345205
235	0xbd5c5cd5	-0.05379947
236	0x3dc8e1e2	0.09808709
237	0xbcb52345	-0.022111544
238	0x3da6b05b	0.08139106
239	0xbd6a9132	-0.057267375
240	0xbc5f27c3	-0.01362032
241	0xbdbc67ff	-0.09199523
242	0x3d1e602d	0.03866594
243	0xbd6c0fa4	-0.057632104
244	0x3d89a332	0.0672058
245	0x3daa759d	0.08323214
246	0x3cd695b2	0.026194427
247	0x3d5af496	0.05345591
248	0xbd3761d2	-0.044771023
249	0xbd74738b	-0.059680503
250	0x3cd73bdd	0.026273662
251	0x3d963b11	0.07335485
252	0xbd1abbfb	-0.03777693
253	0xbc7c8061	-0.015411467
254	0x3d642aff	0.055705067
255	0xbc5b5c2c	-0.013388675

encoder.0.bias f4 [128]
0	0xbeab3df5	-0.33445707
1	0xbd4f6f2e	-0.05064314
2	0xbe1fd002	-0.15606692
3	0xbe644c9a	-0.22294846
4	0xbe2cbaeb	-0.16868179
5	0xbe16c231	-0.14722516
6	0xbebe73c0	-0.37197685
7	0xbddd2e0c	-0.10799798
8	0xbec4fa93	-0.38472423
9	0xbe14f0ea	-0.14545026
10	0xbe99d87e	-0.30047983
11	0xbeaca41e	-0.3371896
12	0xbbedbb4a	-0.0072549926
13	0xbe18093a	-0.1484727
14	0x3e17f215	0.1483844
15	0xbea2dd37	-0.318094
16	0x3e9c8a2d	0.3057417
17	0xbe67d11c	-0.22638363
18	0xbdb85300	-0.09000206
19	0xbd7db296	-0.06193789
20	0xbe286a02	-0.16446689
21	0xbeeb0d8e	-0.4590878
22	0x3e08869d	0.13332601
23	0xbf0e207a	-0.55518305
24	0xbe49092d	-0.19632407
25	0xbede32cc	-0.4339813
26	0xbe4d4b57	-0.20048271
27	0xbe93d365	-0.2887222
28	0xbeb4774e	-0.35247272
29	0xbeda3dde	-0.42625326
30	0xbe967506	-0.29386157
31	0xbeee04da	-0.46488076
32	0xbeba635f	-0.3640394
33	0xbe99c973	-0.30036506
34	0x3e95d037	0.29260418
35	0xbe8b53db	-0.27212414
36	0x3e3e7268	0.1859833
37	0xbeb72eb8	-0.3577783
38	0xbece75ef	-0.4032435
39	0xbe13720f	-0.14398979
40	0xbe89e92c	-0.2693571
41	0xbde0e5c1	-0.10981322
42	0xbeccc7cf	-0.39996192
43	0xbe096564	-0.13417584
44	0xbe6a97f6	-0.22909531
45	0xbec8c9c6	-0.3921644
46	0xbeb9f63b	-0.3632067
47	0xbe60d0ac	-0.21954602
48	0xbeb4fd4b	-0.35349497
49	0xbea35bdf	-0.3190603
50	0xbe901fb2	-0.28149182
51	0xbe48db36	-0.19614872
52	0xbe1eee1a	-0.15520516
53	0x3dcf0d7d	0.101099946
54	0xbed8a192	-0.42310768
55	0xbe9f3a19	-0.31099012
56	0xbe38b319	-0.1803707
57	0xbeaf3f60	-0.3422804
58	0xbe550f28	-0.20806563
59	0xbe431729	-0.19051804
60	0xbdd4646b	-0.10370716
61	0xbed02c30	-0.40658712
62	0xbe91759d	-0.28410044
63	0xbeb5679b	-0.35430607
64	0xbe186db5	-0.148856
65	0xbdbc40c4	-0.091920406
66	0xbdc36fc5	-0.09542803
67	0xbefb6bd5	-0.49105707
68	0xbe8d71a9	-0.27625778
69	0xbdf41918	-0.11918849
70	0xbebdc5e2	-0.37065035
71	0xbebe5117	-0.37171242
72	0xbecb0a5c	-0.3965634
73	0xbeaa4ee0	-0.33263302
74	0xbe1d2d77	-0.15349375
75	0xbe8549a3	-0.26032743
76	0xbe567156	-0.20941672
77	0xbee6da4b	-0.4508842
78	0xbe5619af	-0.20908235
79	0xbebe3e27	-0.37156793
80	0xbea3759d	-0.3192567
81	0xbecbdde0	-0.39817715
82	0xbee16675	-0.4402348
83	0xbed5fa60	-0.41792583
84	0xbe926113	-0.28589687
85	0xbec63ac0	-0.38716698
86	0xbf0562e9	-0.5210405
87	0xbe8c510c	-0.27405584
88	0xbe6d3f2f	-0.23168634
89	0xbe9333c2	-0.28750426
90	0xbecfe90f	-0.40607497
91	0xbe9edd84	-0.31028378
92	0xbee9f6e2	-0.4569617
93	0xbeaf801d	-0.3427743
94	0xbe94b34d	-0.29043046
95	0xbea30e12	-0.31846672
96	0xbee2bf2f	-0.44286487
97	0xbdccf35c	-0.100073546
98	0xbed5e5c3	-0.41776857
99	0xbe1ba85f	-0.15200947
100	0xbebfe256	-0.37477368
101	0xbee2e94f	-0.44318625
102	0xbeb35f5c	-0.3503369
103	0xbee7c3dc	-0.45266616
104	0xbe9de97f	-0.30842206
105	0xbe7882c7	-0.24268638
106	0xbe57c3e7	-0.21070825
107	0xbe98e24b	-0.29860148
108	0xbefc879b	-0.4932221
109	0xbe5be12d	-0.21472616
110	0xbec3a9d6	-0.38215512
111	0xbdb995b6	-0.09061758
112	0xbe97f3c2	-0.2967816
113	0xbe8323e4	-0.2561332
114	0xbe8d07e2	-0.27545077
115	0xbe9193d7	-0.28433105
116	0xbeab0d09	-0.33408383
117	0xbe08f80a	-0.1337587
118	0xbe9ba645	-0.3040029
119	0xbea39892	-0.3195234
120	0xbe07baf7	-0.13254915
121	0xbea09b04	-0.31368268
122	0xbea077d9	-0.31341437
123	0xbea34524	-0.31888688
124	0xbec46b11	-0.38362935
125	0xbdb7cfb0	-0.0897516
126	0xbded1295	-0.1157581
127	0xbe5872bb	-0.21137516

encoder.3.weight f4 [64, 128]
0	0x3c944048	0.018097058
1	0xbd0e4478	-0.034733266
2	0x3bedb002	0.007253648
3	0xbdd4c338	-0.103887975
4	0xbd82cef7	-0.06387132
5	0xbdd22c76	-0.102623865
6	0x3de57328	0.11203605
7	0x3cca75bb	0.024714341
8	0x3aa17c57	0.0012320381
9	0x3ce780f6	0.028259736
10	0x3d37f860	0.044914603
11	0x3d2eb529	0.042653237
12	0x3d6c0445	0.05762126
13	0xbce41c0e	-0.027845409
14	0xbe93978a	-0.28826553
15	0x3b98f09e	0.0046673557
16	0xbe4d9582	-0.20076564
17	0xbdb281ef	-0.08716189
18	0x3db3f926	0.08787756
19	0x3d71b3d9	0.059009407
20	0x3d40438c	0.046939418
21	0x3c5db4ca	0.013531873
22	0xbe3bab28	-0.1832701
23	0xbc746341	-0.014916242
24	0xbcc58b11	-0.024114164
25	0xbda7fddc	-0.08202717
26	0xbc9819f4	-0.018567063
27	0xbdd00475	-0.101571
28	0xbd254d69	-0.040357027
29	0xbc85231b	-0.016252091
30	0xbd10ad7e	-0.035321705
31	0x3cd18830	0.025577635
32	0xbc3ec328	-0.011643209
33	0x3dde3e72	0.10851754
34	0xbde3b990	-0.111193776
35	0xbcce3ed6	-0.025176447
36	0xbe01e51c	-0.12685055
37	0xbdd17ce1	-0.10228897
38	0x3db24f73	0.0870656
39	0xbbfe51a4	-0.007761197
40	0x3cbec792	0.023288522
41	0xbdabaa9c	-0.083821505
42	0x3992ce48	0.00028000982
43	0x3db903de	0.09033941
44	0xbb1b74f5	-0.0023720835
45	0x3ba8de52	0.005153456
46	0x3dabf414	0.083961636
47	0x3d8067d2	0.06269802
48	0xbd3dea1e	-0.04636585
49	0xbde303e2	-0.11084725
50	0x3df4ff56	0.11962764
51	0xbc208e2b	-0.0097995205
52	0x3d686aa8	0.05674234
53	0xbda2b168	-0.07943994
54	0xbdc67d42	-0.0969186
55	0xbc39b1a5	-0.011333858
56	0xbc9080bb	-0.017639508
57	0xbd9181c5	-0.0710483
58	0x3c6c3f80	0.014419436
59	0x3c7dc2df	0.015488355
60	0xbd3ffcca	-0.046871938
61	0x3c415150	0.011799172
62	0xbb24f3af	-0.002516966
63	0xbcb930c7	-0.022606267
64	0xbe06b08e	-0.13153288
65	0xbd0451df	-0.03230464
66	0x3d4e222a	0.05032555
67	0xbd360036	-0.044433795
68	0x3db7225f	0.08942103
69	0x3dc2c2b9	0.09509797
70	0xbce465d0	-0.02788058
71	0x3d4ee1bc	0.050508246
72	0xbbdc9381	-0.006731451
73	0x3969c900	0.0002229549
74	0x3d206b77	0.039164986
75	0x3de51b95	0.111869015
76	0xbc844680	-0.016146898
77	0x3d899191	0.06717218
78	0x3d6aed84	0.05735542
79	0x3dca2fe7	0.09872418
80	0xbc94ed66	-0.018179607
81	0xbc4caafa	-0.012491936
82	0xbd68524b	-0.056719106
83	0xbdccfada	-0.10008784
84	0xbcfc0256	-0.030762833
85	0xbdf3a2b8	-0.118962705
86	0x3cc4b71f	0.0240131
87	0xbd4fa849	-0.0506976
88	0xbba9c028	-0.0051803775
89	0x3c87bb76	0.01656888
90	0x3d972656	0.07380359
91	0x3d0c5423	0.034259927
92	0xbd617335	-0.05504151
93	0x3db1e8b3	0.08686962
94	0xbd4b1048	-0.049576074
95	0xbd36902a	-0.04457108
96	0x3e04ed5a	0.12981167
97	0xbd942ce0	-0.07235122
98	0xbd9261b9	-0.07147545
99	0x3d4c8210	0.049928725
100	0x3dd757cd	0.105147935
101	0x3da32a0b	0.079670034
102	0xbd15b632	-0.036550708
103	0x3ddd13f9	0.10794825
104	0x3d5aa218	0.05337724
105	0xbd32dd7c	-0.043668255
106	0x3d86aa7b	0.06575485
107	0x3c43f699	0.011960649
108	0x3d004389	0.031314407
109	0xbd149dba	-0.036283232
110	0x3defe18a	0.1171294
111	0x3d2d9f17	0.042388048
112	0xbd3e8192	-0.046510287
113	0x3bcddcd6	0.006282429
114	0x3b025ed1	0.001989294
115	0x3d36dc01	0.044643406
116	0x3b8eb52e	0.0043550944
117	0xbae00912	-0.0017092547
118	0x3d05d53c	0.03267406
119	0xbe31cbaf	-0.17362855
120	0xbdc6b9ac	-0.09703383
121	0x3d97f427	0.07419615
122	0x3cf62f2d	0.030051792
123	0xbdbaa707	-0.09113889
124	0xbc3e21fe	-0.011604784
125	0xbd90eddd	-0.07076619
126	0xbe01cf6d	-0.12676783
127	0xbb992ee9	-0.0046747816
128	0x3d942b56	0.07234828
129	0x3d1abf3a	0.037780024
130	0x3d886ed8	0.06661767
131	0xbb62e36e	-0.0034620422
132	0xbd6a614e	-0.057221703
133	0x3dab936c	0.08377728
134	0xbb5cfd99	-0.0033720492
135	0x3cd8209d	0.026382739
136	0xbd717718	-0.058951467
137	0x3d073e36	0.033018313
138	0x3e592c29	0.21208252
139	0x3d6f453c	0.058415636
140	0x3cf534e8	0.029932454
141	0x3d2daa04	0.042398468
142	0xbd949797	-0.07255476
143	0x3d52f96f	0.05150741
144	0xbe70133c	-0.23444837
145	0xbc5f81f0	-0.013641819
146	0xba076b4e	-0.0005165831
147	0x3d1554dc	0.03645788
148	0x3d7eb19e	0.062181108
149	0x3d5229ed	0.051309515
150	0xbe8527fa	-0.26007062
151	0xbc109c25	-0.00882629
152	0x3da8acb5	0.08236066
153	0x3d1d5863	0.03841437
154	0x3dc21fa0	0.09478688
155	0x3dc37b58	0.0954501
156	0x3d644d11	0.05573756
157	0xba741f02	-0.0009312482
158	0xbd87792e	-0.0661491
159	0xbe136ab4	-0.14396173
160	0x3d7fa896	0.062416635
161	0x3c96404d	0.018341208
162	0xbed446df	-0.4146032
163	0xbd1bcf23	-0.038039338
164	0xbe014122	-0.12622502
165	0xbd735dc4	-0.059415594
166	0xbd724a3f	-0.059152838
167	0xbd8b26aa	-0.06794484
168	0x3c082ea3	0.0083119
169	0x3d611fe4	0.054962054
170	0x3d93b512	0.07212271
171	0xbbd0e700	-0.0063751936
172	0x3ccdc98b	0.025120517
173	0x3dba567c	0.09098527
174	0x3b6901ec	0.0035554124
175	0x39c33c98	0.00037238444
176	0x3d180fab	0.037124317
177	0xbc7b7ec8	-0.015350051
178	0x3e053e9f	0.1301217
179	0xbabe886d	-0.0014536508
180	0x3cbd0df3	0.02307794
181	0xbed5d0ac	-0.41760767
182	0xbc004603	-0.007829192
183	0xbcf8ce23	-0.030371731
184	0x3a665ae9	0.00087873504
185	0x3d6c053d	0.057622183
186	0x3d8af776	0.06785481
187	0x3df709ef	0.120624416
188	0x3d92714f	0.07150518
189	0x3d5e22c9	0.054232392
190	0xbd82c9fd	-0.063861825
191	0xbd7c6abe	-0.061625235
192	0x3c0216fa	0.007940048
193	0x3da5088a	0.08058269
194	0xbd477fcf	-0.048705872
195	0x3c79e91e	0.015253333
196	0x3c47e713	0.0122010885
197	0xbc18fcfb	-0.009337659
198	0x3cc5e5fb	0.024157515
199	0x3dee0efa	0.1162395
200	0x3d0312cf	0.03200036
201	0x3d215072	0.03938336
202	0x3d94e852	0.07270874
203	0x3db4aa21	0.08821512
204	0x3cdacad3	0.026708042
205	0x3dc17ba5	0.094474114
206	0x3d94a587	0.07258134
207	0x3d8f53c3	0.06998398
208	0x3c283b78	0.010268085
209	0xbcfb6b75	-0.030690888
210	0xbe26bbed	-0.16282625
211	0x3daea662	0.08527829
212	0xba233245	-0.0006225447
213	0xbbac5952	-0.0052596712
214	0x3dba92fe	0.09110068
215	0xbcf37be2	-0.029722158
216	0x3be07809	0.006850247
217	0x3cf5323c	0.02993118
218	0x3da2fe49	0.07958657
219	0x3ca09a1f	0.01960474
220	0xbc0c5f02	-0.0085675735
221	0x3dd1b868	0.10240251
222	0x3dbc1e19	0.09185428
223	0x3d2dbbca	0.042415418
224	0x3d384d4a	0.044995584
225	0x3d9a62bc	0.07538363
226	0x3d18ccbc	0.037304625
227	0xbd10981c	-0.035301313
228	0xbcb46b60	-0.022023857
229	0xbe4a1d9e	-0.1973786
230	0x3dc265d5	0.09492079
231	0x3d80831b	0.062750064
232	0x3d832be2	0.06404854
233	0xbdde3c33	-0.10851326
234	0x3db2e644	0.08735326
235	0x3dd5b34d	0.104345895
236	0xbd3e6fb2	-0.04649324
237	0x3d995a97	0.07487982
238	0x3d0b7aa3	0.034052502
239	0x3cee7a51	0.02911106
240	0xbd1efe1e	-0.038816564
241	0x3d198935	0.037484366
242	0x3ce2fa50	0.027707249
243	0x3d94321a	0.072361186
244	0x3d827224	0.06369427
245	0x3c780a06	0.0151391085
246	0x3db8d3e9	0.09024794
247	0xbc94fd2b	-0.018187126
248	0xbd3a143b	-0.04542945
249	0x3de42140	0.111391544
250	0x3dccfc20	0.100090265
251	0x3d9a4a4e	0.07533704
252	0x3da34cbe	0.07973622
253	0xbcda8795	-0.026675979
254	0xbd314d2d	-0.04328649
255	0xbd80dc79	-0.06292052

encoder.3.bias f4 [64]
0	0xbd4b4faf	-0.04963654
1	0xbe63894e	-0.22220346
2	0xbe6b9b4a	-0.23008457
3	0xbdd7c63c	-0.10535857
4	0xbd333ab3	-0.04375715
5	0x3d201aa4	0.039087906
6	0xbe266e2d	-0.16252966
7	0xbed7455b	-0.42045102
8	0xbe247f8c	-0.1606428
9	0xbe276077	-0.16345392
10	0xbd8c6487	-0.068551116
11	0xbe9b1455	-0.3028895
12	0xbe232888	-0.1593343
13	0xbdfb9d9d	-0.12285922
14	0xbea021a6	-0.31275672
15	0xbe4b3039	-0.19842614
16	0xbd8e1fde	-0.06939672
17	0xbd94b00e	-0.07260142
18	0xbeccae7b	-0.39976868
19	0xbd29b739	-0.0414345
20	0xbd9ae17e	-0.075625405
21	0xbd4cf318	-0.05003652
22	0xbe407d18	-0.1879772
23	0xbe2d9ba7	-0.16953908
24	0x3e25a94b	0.16177861
25	0xbd54c251	-0.051943127
26	0xbe4eb691	-0.20186831
27	0xbdafd4dd	-0.08585522
28	0xbd4bae2e	-0.049726658
29	0xbec9f901	-0.39447787
30	0xbc956601	-0.018237116
31	0x3d40bcef	0.04705518
32	0xbe4c4e65	-0.1995178
33	0x3c32e42c	0.010918658
34	0xbe1abc4f	-0.15110897
35	0xbdcc47d6	-0.09974639
36	0xbda0a7f5	-0.07844535
37	0xbdbb13f9	-0.09134669
38	0xbe35bd6d	-0.17748041
39	0xbcfcd76a	-0.030864436
40	0xbd63e029	-0.055633698
41	0xbd1740b9	-0.03692696
42	0xbe2a108a	-0.16607872
43	0xbe608467	-0.21925507
44	0xbe3e0bc1	-0.18559171
45	0xbdd0f409	-0.10202796
46	0xbd32ed47	-0.043683317
47	0xbdd00e8b	-0.10159024
48	0xbcc61fe1	-0.024185123
49	0xbde5b705	-0.11216549
50	0xbde7de72	-0.11321725
51	0xbee53540	-0.4476719
52	0xbe2b4e57	-0.16729103
53	0xbd935588	-0.07194048
54	0xbe623dfe	-0.2209396
55	0xbf06c334	-0.52641606
56	0xbe8ed407	-0.2789614
57	0x3cede1e1	0.029038372
58	0x3c55fb74	0.013060439
59	0xbc656061	-0.014000029
60	0xbd11d3da	-0.035602428
61	0xbe74cbbd	-0.23905845
62	0xbe911402	-0.28335577
63	0xbdc92a31	-0.098225005

encoder.6.weight f4 [32, 64]
0	0x3d1c83b4	0.03821154
1	0x3d302e24	0.043012753
2	0xbcd86f4a	-0.026420254
3	0x3d9d6d39	0.07686848
4	0x3c17475b	0.009233321
5	0xbc91593a	-0.017742742
6	0x3dcac28b	0.099003874
7	0xbc01a228	-0.007912196
8	0xbe1a7132	-0.15082243
9	0xbe30bdd3	-0.17259912
10	0xbe16a735	-0.14712222
11	0xbc86884c	-0.016422413
12	0x3d80456d	0.06263242
13	0xbe1911a6	-0.14948139
14	0x3e304b5f	0.17216252
15	0x3d979433	0.07401314
16	0xbd2e9974	-0.042626813
17	0xbdb790bc	-0.08963153
18	0x3db808e8	0.08986074
19	0xba9a01e5	-0.0011749832
20	0x3c930a4f	0.017949251
21	0xbac78fe7	-0.0015225381
22	0x3e371812	0.17880276
23	0xbd17a2ce	-0.037020497
24	0xbe7e4822	-0.24832204
25	0xbd9c22c4	-0.076238185
26	0xbd5ea656	-0.05435785
27	0xbb847c9d	-0.0040431754
28	0x3d117c65	0.035519022
29	0x3e97ba50	0.29634333
30	0x3ce31aae	0.027722683
31	0x3da88f31	0.082304366
32	0x3dd9c1cf	0.10632669
33	0xbd96fa1f	-0.073719256
34	0xbe3eb203	-0.18622594
35	0x3db94457	0.09046238
36	0xbc88d50b	-0.01670315
37	0xbda56ef4	-0.08077803
38	0x3d53f2c6	0.0517452
39	0xbe38266f	-0.17983411
40	0x3cafdaa8	0.021466568
41	0x3d1b0ed3	0.037855934
42	0x3d8cf533	0.068827055
43	0xbdb2c3cb	-0.08728751
44	0xbddba4b9	-0.10724778
45	0xbe3a9e88	-0.18224537
46	0xbbafa794	-0.005360553
47	0xbd87d1f5	-0.06631843
48	0xbd82d2ce	-0.06387864
49	0xbcb5fca9	-0.022215204
50	0x3d5ca6da	0.05387006
51	0x3e740e67	0.23833619
52	0x3d9ab336	0.07553713
53	0x3e21cfd4	0.15801936
54	0xbd879649	-0.066204615
55	0x3e445e8c	0.19176692
56	0xbcc07250	-0.023492008
57	0xbe89dc59	-0.26925924
58	0x3e8632e2	0.26210696
59	0xbd8f61dc	-0.07001087
60	0x3d8893c0	0.06668806
61	0xbd993f4d	-0.07482777
62	0x3deae495	0.1146938
63	0x3de570c2	0.112031475
64	0xbe1d53e6	-0.15364036
65	0x3e01b933	0.12668304
66	0x3d859e56	0.06524341
67	0xbe3263b1	-0.17420842
68	0x3d08c93e	0.033395045
69	0xbe634802	-0.22195438
70	0xbd27e45c	-0.040989265
71	0x3e0cd18d	0.13751812
72	0x3de989df	0.1140325
73	0xbc999f8f	-0.018752841
74	0x3da3d7c2	0.08000137
75	0xbcf4f6cd	-0.02990284
76	0xbd011e7d	-0.031523217
77	0x3d503394	0.05083044
78	0x3dfe59a2	0.1241944
79	0xbcf0a35c	-0.02937477
80	0xbbe1c33c	-0.006889729
81	0x3e0fe6ff	0.14052962
82	0xbd33c314	-0.043887213
83	0x3dc4956a	0.09598811
84	0x3d111a2b	0.035425346
85	0x3e0fedb1	0.14055516
86	0x3c846806	0.016162883
87	0x3df755a5	0.12076882
88	0xbd5334ec	-0.051564142
89	0x3ddc74ae	0.107644424
90	0xbc27e3be	-0.010247169
91	0xbe036107	-0.12829982
92	0x3d2d2348	0.042269975
93	0x3d90773e	0.07053994
94	0xbd139910	-0.036034644
95	0xbc83a1b5	-0.016068319
96	0xbe314672	-0.17312029
97	0xbd821051	-0.06350768
98	0x3dd84d25	0.10561589
99	0xbbce2526	-0.0062910495
100	0xbd2bf3da	-0.0419806
101	0xbd06fe3a	-0.032957293
102	0x3dd96585	0.106150664
103	0x3deaeb47	0.11470657
104	0x3e09ebae	0.13468811
105	0xbe856b27	-0.26058313
106	0x3c420e78	0.01184427
107	0xbc392418	-0.011300109
108	0x3da79dbc	0.08184382
109	0xbd2a3b11	-0.041560236
110	0x3e37fa15	0.17966492
111	0xbe1868ac	-0.14883679
112	0x3db3fb6e	0.08788191
113	0x3e1b908c	0.15191859
114	0xbc796805	-0.015222554
115	0x3de401e2	0.111331716
116	0xbda9c1d3	-0.08288922
117	0xbcebc027	-0.028778149
118	0x3e26ca34	0.16288072
119	0x3d82a944	0.06379941
120	0xbaf4b769	-0.0018670383
121	0x3dfe1425	0.12406186
122	0xbdc396b4	-0.09550229
123	0xbd7269fa	-0.0591831
124	0xbd130296	-0.035891138
125	0x3dec5fa1	0.11541677
126	0xbd5f7015	-0.05455025
127	0xbcd1fdcd	-0.025633717
128	0xbc4c0e69	-0.0124546075
129	0x3b911c5f	0.004428431
130	0xbde04153	-0.109499596
131	0xbd601677	-0.054708924
132	0xbc6f9598	-0.014623068
133	0xbe4ecb8c	-0.20194834
134	0x3d66418a	0.056214847
135	0xbcb6fa38	-0.02233611
136	0x3c926a3b	0.01787292
137	0x3d3fb82e	0.046806507
138	0x3d1b8ea8	0.037977844
139	0xbdf76bd9	-0.12081117
140	0xbd3f05f6	-0.046636544
141	0x3ccba3ab	0.024858316
142	0x3d978fa1	0.07400442
143	0xbe42ce1a	-0.19023934
144	0xbd563f73	-0.052306604
145	0x3daa1dbc	0.08306453
146	0x3cb60437	0.022218807
147	0xbca4e2c9	-0.02012767
148	0xbdce500e	-0.10073863
149	0x3e06c78b	0.13162057
150	0xbd550a6c	-0.052011892
151	0x3d9ec2ac	0.077519745
152	0xbe351851	-0.17685057
153	0x3dc33996	0.09532468
154	0x3d888f73	0.06667986
155	0xbdbe55a7	-0.09293681
156	0xbe05b658	-0.1305784
157	0x3d9fcc50	0.078026414
158	0xbc276131	-0.010216043
159	0xbe050e24	-0.12993675
160	0xbd9fdf78	-0.07806295
161	0xbe229bef	-0.15879796
162	0xbceebc30	-0.02914247
163	0xbcd513e6	-0.026010465
164	0xbd739599	-0.05946884
165	0xbb878d92	-0.0041367495
166	0xbd12a64c	-0.035803124
167	0x3da8d39a	0.08243485
168	0x3db2feeb	0.08740028
169	0xbe3aca0a	-0.18241134
170	0x3dd3ef22	0.10348345
171	0x3dd7f30a	0.10544403
172	0xbd8a5321	-0.06754137
173	0xbd3a41a2	-0.04547275
174	0x3c6a15fd	0.014287469
175	0xbe1db233	-0.15400009
176	0x3dbeb844	0.0931249
177	0x3de60de0	0.11233115
178	0x3d32df0a	0.043669738
179	0x3ca98030	0.020691007
180	0xbd3e3d80	-0.04644537
181	0x3d51367b	0.051077347
182	0xbc311c58	-0.01080998
183	0x3dad7932	0.08470382
184	0x3da9f00a	0.08297737
185	0xbde41f2c	-0.11138758
186	0x3d814c37	0.06313365
187	0xbe7b97ac	-0.24569577
188	0xbe44786f	-0.19186567
189	0xbcbde89f	-0.023182211
190	0xbda5f8b5	-0.08104078
191	0x3d1b7881	0.03795672
192	0xbd049428	-0.032367855
193	0x3d83fdc0	0.06444883
194	0x3dad9d01	0.08477212
195	0x3dfd6da5	0.12374429
196	0xbe25bc41	-0.16185094
197	0x3def290b	0.1167775
198	0x3d31dd5f	0.043424007
199	0xbdc32e5a	-0.09530325
200	0xbb848874	-0.004044587
201	0xbdfc7e3f	-0.12328767
202	0xbc851c45	-0.016248832
203	0x3ce80c37	0.028326137
204	0xbd1e7050	-0.03868133
205	0x3cb6f3f2	0.022333119
206	0x3ccfb545	0.02535499
207	0x3e32b6da	0.17452565
208	0xbd0f0d9a	-0.03492508
209	0xbdd4ce7c	-0.10390946
210	0x3de664d2	0.11249699
211	0xbda41ef7	-0.080137186
212	0xbdb84699	-0.089978404
213	0xbc37be40	-0.011214793
214	0x3dac5fcc	0.08416709
215	0x3e2acb4f	0.16679119
216	0xbe53f47c	-0.20698732
217	0xbe1fdbf7	-0.15611254
218	0x3d2ba004	0.04190065
219	0x3d2fef32	0.042952724
220	0xbd3db5b4	-0.046315864
221	0x3d784cbf	0.060620066
222	0x3de64a51	0.112446435
223	0xbd1dadf5	-0.038495976
224	0x3cb0c975	0.021580437
225	0x3e192c11	0.14958216
226	0xbd2d5882	-0.042320736
227	0x3ca61115	0.020271817
228	0x3def44bb	0.11683031
229	0x3c96c8f0	0.018406361
230	0xbe2d382d	-0.1691596
231	0xbe814320	-0.25246525
232	0x3bd25c22	0.0064196745
233	0x3bfa3f27	0.007636923
234	0xbe0f9a82	-0.14023784
235	0xbd82b22d	-0.063816406
236	0x3cf3c824	0.02975852
237	0xbe1f4b29	-0.15556015
238	0x3d62f3ec	0.055408403
239	0x3db6b18b	0.089205824
240	0xbe5cf812	-0.21579006
241	0x3e1dc29a	0.15406266
242	0xbd5e6d19	-0.054303262
243	0x3d984a60	0.07436061
244	0x3cffffb7	0.031249864
245	0xbbccf970	-0.006255321
246	0xbd9fd502	-0.078043
247	0x3dbf16a7	0.093304925
248	0xbe892483	-0.2678567
249	0xbe355a2d	-0.1771018
250	0xbdd348e4	-0.10316637
251	0x3c924581	0.017855408
252	0xbd2c30cd	-0.042038728
253	0xbe0ec4d7	-0.13942276
254	0x3cd4a1ce	0.02595606
255	0x3d90bcee	0.070672855

encoder.6.bias f4 [32]
0	0x3d1c209e	0.038117044
1	0x3d5be9f5	0.053689916
2	0x3d3cea11	0.04612166
3	0xbe356212	-0.17713192
4	0x3d03367f	0.032034393
5	0x3d82b97c	0.063830346
6	0x3d3a4d87	0.045484092
7	0x3dc6cd52	0.097071305
8	0x3d89594d	0.06706486
9	0x3d656eea	0.05601398
10	0x3c90b100	0.017662525
11	0x3d47e429	0.048801575
12	0x3d472154	0.04861577
13	0x3d23857d	0.039922226
14	0x3c3308c0	0.010927379
15	0x3c897133	0.01677761
16	0xb6d438b0	-6.3246916e-06
17	0xbd2c8c4d	-0.04212599
18	0x3d229023	0.03968824
19	0x3ced555d	0.028971368
20	0x3d9f4202	0.07776262
21	0x3ced5ef2	0.028975938
22	0xbe25be66	-0.16185912
23	0x3c01f957	0.007932982
24	0xbc0b1039	-0.0084877545
25	0x3d013582	0.03154517
26	0x3d5cde02	0.05392266
27	0x3cf19f95	0.02949504
28	0xbd706216	-0.058687292
29	0xbd5078f1	-0.05089659
30	0x3c37b66c	0.011212926
31	0x3d6e4fe3	0.058181655

encoder.9.weight f4 [2, 32]
0	0x3d956539	0.07294697
1	0x3d43129c	0.04762517
2	0x3e338ca1	0.17534114
3	0xbda13321	-0.0787108
4	0xbc848751	-0.016177805
5	0x3d826e48	0.06368691
6	0xbc72b744	-0.014814202
7	0xbd938f57	-0.07205074
8	0x3d6ba941	0.05753446
9	0x3e09332f	0.13398431
10	0xbe10f606	-0.1415635
11	0xbe234a24	-0.15946251
12	0x3d21c5a7	0.039495137
13	0x3e179731	0.14803769
14	0x3d3b80bf	0.04577708
15	0x3d9e1cfd	0.07720373
16	0xbe35c4a6	-0.17750797
17	0x3dcca6c6	0.09992747
18	0xbd560d07	-0.052258518
19	0x3d869272	0.06570901
20	0xbd0546cf	-0.03253823
21	0xbd122861	-0.03568304
22	0xbcab8fa1	-0.020942511
23	0xbdd7db0e	-0.10539828
24	0x3d8b4b90	0.06801522
25	0x3e407699	0.18795241
26	0x3e31546b	0.17317359
27	0x3e3cbaee	0.18430683
28	0xbe5ee927	-0.21768628
29	0xbe2d842b	-0.1694495
30	0x3da53ed6	0.08068626
31	0xbe48d307	-0.1961175
32	0xbe557583	-0.20845608
33	0x3de2844b	0.11060389
34	0x3d13866b	0.036016863
35	0xbe4d564c	-0.20052451
36	0x3dfaface	0.122548684
37	0x3e14302d	0.14471503
38	0x3e285c28	0.16441405
39	0xbe2cc370	-0.16871428
40	0x3e2396b7	0.15975462
41	0x3e1c369c	0.15255207
42	0xbd9ef30a	-0.077612
43	0xbcb9db34	-0.022687532
44	0x3e150304	0.14551932
45	0x3e15ce31	0.14629437
46	0x3e1203d7	0.14259277
47	0xbe497699	-0.19674148
48	0xbe1998c3	-0.1499968
49	0x3e3de24e	0.1854336
50	0xbdb942fd	-0.0904598
51	0xbe376d49	-0.17912783
52	0xbe23f220	-0.16010332
53	0x3e02debc	0.12780279
54	0x3e6051fa	0.21906272
55	0xbd71672c	-0.058936283
56	0x3e0cba3b	0.13742916
57	0x3d8afe56	0.06786792
58	0x3da7552e	0.081705436
59	0x3c2b13c8	0.010441728
60	0xbd0b5b94	-0.034022883
61	0xbde16e24	-0.11007336
62	0xbe5954a2	-0.21223691
63	0xbcb305eb	-0.021853408

encoder.9.bias f4 [2]
0	0x3d8d259a	0.068919376
1	0xbcfdf41c	-0.03100019

decoder.0.weight f4 [32, 2]
0	0x3f30d27e	0.69071186
1	0xbf002d50	-0.5006914
2	0x3f0f6ff2	0.5603019
3	0xbd4e3b69	-0.050349627
4	0x3f206ea8	0.6266885
5	0x3ee39bd7	0.44454834
6	0xbebc657c	-0.36796176
7	0x3ea1ca3c	0.31599605
8	0xbe851a4c	-0.25996625
9	0xbe9f2b93	-0.31087932
10	0x3eec7bc3	0.46188173
11	0xbe0358d8	-0.1282686
12	0xbf33b330	-0.70195293
13	0xbe514740	-0.20437336
14	0x3e0addd8	0.13561189
15	0xbedbe624	-0.4294902
16	0xbe608024	-0.21923882
17	0xbf1b6e77	-0.6071543
18	0x3d05bb70	0.032649457
19	0x3dfc2509	0.123117514
20	0xbf17411c	-0.59083724
21	0x3ec043b1	0.37551644
22	0x3eefc3ee	0.4682917
23	0xbee0e523	-0.43924817
24	0xbd8fd3b5	-0.07022802
25	0xbe3d9e35	-0.18517382
26	0xbe4c04b3	-0.19923668
27	0xbe060d6e	-0.1309106
28	0xbf2c614d	-0.6733597
29	0x3e988ccf	0.29794928
30	0xbf12dbb6	-0.573665
31	0x3e546a6e	0.20743725
32	0xbef6d44e	-0.4820885
33	0x3de172b4	0.11008206
34	0x3e9ad864	0.30243218
35	0x3f1b1f02	0.6059419
36	0x3f3878e8	0.7205949
37	0x3e1e8bc1	0.15483
38	0xbe25ff6c	-0.16210717
39	0xbf19d193	-0.6008541
40	0xbd3eb07e	-0.046555035
41	0xbe482357	-0.19544731
42	0x3ee24fe1	0.44201568
43	0xbe9c4817	-0.3052375
44	0xbd6231d1	-0.05522329
45	0x3f157eb1	0.5839644
46	0x3e084618	0.13307989
47	0x3ddf6244	0.109074146
48	0x3e23ce57	0.15996681
49	0x3de35b51	0.111014016
50	0xbebe6144	-0.37183583
51	0x3d09238d	0.03348117
52	0x3e41e486	0.18934831
53	0x3f059511	0.5218058
54	0xbdb957a3	-0.090499185
55	0xbeefaa7e	-0.46809763
56	0x3ea3f3f0	0.32022047
57	0x3e3f56b9	0.18685426
58	0x3f0e006e	0.55469406
59	0xbe772397	-0.2413467
60	0xbdb382a2	-0.087651506
61	0xbea80252	-0.3281427
62	0x3f26fc50	0.6522875
63	0x3f2086cb	0.6270568

decoder.0.bias f4 [32]
0	0xbd29c5ef	-0.04144853
1	0x3df1e93a	0.118120626
2	0xbe68628c	-0.22693843
3	0xbf109e6e	-0.56491745
4	0x3eb7862c	0.35844553
5	0xbf2803c4	-0.65630746
6	0x3edf62fb	0.43630204
7	0xbf12a1cb	-0.57278126
8	0x3e1c6208	0.15271771
9	0xbf53a599	-0.82674557
10	0x3e79e713	0.24404554
11	0xbdf8d5db	-0.12150165
12	0x3d3e2b91	0.046428267
13	0x3ef19242	0.47181898
14	0xbed7937d	-0.42104712
15	0xbeb5eb56	-0.3553111
16	0x3f3b554f	0.73177046
17	0x3d1f6d5f	0.038922664
18	0x3eb7c5bd	0.3589305
19	0x3e0354e2	0.12825349
20	0xbef460b8	-0.4773004
21	0x3ef8db8e	0.48605007
22	0x3ec73e7f	0.38914868
23	0x3e9f940a	0.31167632
24	0xbe310a11	-0.17288996
25	0x3ef22d88	0.47300363
26	0x3f2e7b0a	0.6815649
27	0x3e83c043	0.25732622
28	0xbf0091a8	-0.50222254
29	0x3f366a5a	0.7125603
30	0xbebc4302	-0.36769873
31	0x3f23b93a	0.6395451

decoder.2.weight f4 [64, 32]
0	0x3b9d2923	0.0047961636
1	0x3beb40e9	0.0071793688
2	0x3dd7cdc0	0.105372906
3	0x3d8d0e79	0.06887526
4	0xbe3aa3be	-0.18226525
5	0x3ac78663	0.0015222545
6	0xbdc4b2b9	-0.09604401
7	0x3d90a3b9	0.070624776
8	0x3e1c5c60	0.15269613
9	0xbdc91b05	-0.09819607
10	0xbd29206f	-0.041290697
11	0x3dbc3974	0.09190646
12	0x3e0a5601	0.1350937
13	0xbd907fe5	-0.07055644
14	0x3e8a36f8	0.26995063
15	0x3dcfe62a	0.10151322
16	0x3c5c8479	0.013459318
17	0xbe02c451	-0.12770201
18	0x3debc186	0.11511521
19	0x3dbd3db5	0.09240285
20	0x3e8b6eac	0.27232873
21	0xbccb2c68	-0.024801448
22	0x3cb29a9d	0.021802241
23	0xbc325de8	-0.010886647
24	0x3d64156b	0.05568449
25	0xbd74514c	-0.059647843
26	0xbc057470	-0.008145437
27	0x3d260350	0.040530503
28	0x3e178304	0.14796072
29	0x3c93c7f3	0.01803968
30	0x3d8ff08b	0.07028302
31	0x3ddbb958	0.10728711
32	0xbd34a6e1	-0.04410446
33	0x3e2f27c2	0.1710501
34	0x3e0dfa58	0.1386503
35	0x3c00b5a1	0.007855804
36	0xbc890226	-0.016724657
37	0x3ddcbbb9	0.10777993
38	0xbe876ce3	-0.2645026
39	0xbdd21c35	-0.10259286
40	0x3d4e0f2a	0.05030743
41	0xbeee7890	-0.46576357
42	0x3d76099f	0.06006777
43	0xbde48e73	-0.111599825
44	0xbe2ce58a	-0.16884437
45	0x3cc75611	0.024333032
46	0xbe14f682	-0.1454716
47	0xbe25aa5c	-0.16178268
48	0x3dc4cefa	0.0960979
49	0xbdc8b03a	-0.097992375
50	0x3d82507c	0.063630074
51	0xbe1552a5	-0.14582308
52	0xbdb7eaeb	-0.08980354
53	0x3d766096	0.060150705
54	0x3e3db757	0.1852697
55	0xbce3e9c8	-0.027821437
56	0xbe00fa3a	-0.12595454
57	0x3da2b33a	0.07944341
58	0x3dfefaf3	0.124502085
59	0xbe52a44a	-0.20570484
60	0xbc6c4845	-0.014421527
61	0x3da80d65	0.0820568
62	0xbd475374	-0.04866357
63	0xbda8ec2a	-0.0824817
64	0xbdf94554	-0.121714264
65	0xbe3fc4ae	-0.18727371
66	0x3da9afab	0.08285459
67	0x3e179894	0.14804298
68	0xbd1f0a7a	-0.03882835
69	0x3e5af66f	0.2138307
70	0xbbde6db1	-0.0067879786
71	0x3ddb84c3	0.10718682
72	0x3e2b0de6	0.1670452
73	0x3e692788	0.22768986
74	0x3b27811a	0.0025559128
75	0x3e07aa5b	0.13248579
76	0xbde09e4e	-0.10967694
77	0xbdbc60d9	-0.0919816
78	0xbdb1a96d	-0.086748935
79	0xbe3dde69	-0.18541874
80	0x3db50577	0.08838933
81	0x3d86d229	0.065830536
82	0xbe024d57	-0.12724815
83	0x3da1ba09	0.078968115
84	0xbe64db8c	-0.22349375
85	0xbd66a669	-0.056311045
86	0x3ddc9090	0.107697606
87	0x3e0aaba0	0.13542032
88	0xbdd76ec8	-0.10519177
89	0x3e01ceca	0.1267654
90	0x3da09af3	0.07842054
91	0x3e1038f1	0.14084221
92	0xbd854a56	-0.06508319
93	0xbe5ec7a3	-0.21755843
94	0x3e3175da	0.17330113
95	0xbd897d93	-0.067134045
96	0x3d081e36	0.033231936
97	0x3dd7aa8a	0.105305746
98	0xbca4b7a9	-0.020107107
99	0xbd9d561c	-0.0768244
100	0x3d2ad852	0.041710205
101	0x3dedda9b	0.11613961
102	0x3dac7448	0.084206164
103	0x3de04ed6	0.10952537
104	0x3d02286b	0.031776827
105	0xbedec406	-0.4350893
106	0xbd1e7f98	-0.0386959
107	0x3e40e563	0.18837504
108	0xbd748fb4	-0.05970736
109	0x3e1d8f26	0.15386638
110	0x3df49972	0.1194333
111	0x3d8a5b21	0.06755663
112	0xbdccfe49	-0.100094385
113	0x3e3442e4	0.17603642
114	0xbe25ed8b	-0.16203897
115	0x3d60a734	0.054846957
116	0x3d33f46e	0.04393428
117	0x3cb9914f	0.022652296
118	0x3e346f58	0.176206
119	0x3d0c4f27	0.034255173
120	0x3dc267d5	0.09492461
121	0xbe3aa4bc	-0.18226904
122	0xbe2615b5	-0.16219218
123	0x3e1784b5	0.14796717
124	0xbe350740	-0.17678547
125	0x3dd2fc8e	0.10302077
126	0x3d9833c0	0.074317455
127	0x3e3d6b5b	0.18497984
128	0x3e169e35	0.14708789
129	0x3c806d42	0.015677098
130	0x3d115c8b	0.035488646
131	0xbe72ebbd	-0.2372274
132	0x3dc28a6e	0.094990596
133	0xb98e2eaf	-0.00027119133
134	0xbdfda50c	-0.12384996
135	0x3e17c059	0.14819469
136	0xbe0751cf	-0.13214801
137	0xbec8eba8	-0.3924229
138	0x3d3dacc6	0.046307348
139	0x3cd990c6	0.026558291
140	0xbe01d27a	-0.12677947
141	0x3c739fdb	0.0148696555
142	0xbe270428	-0.16310179
143	0xbe0bfc81	-0.13670541
144	0x3d947ba0	0.07250142
145	0x3e0c671b	0.13711207
146	0x3dd08b21	0.10182787
147	0xbd13e5fa	-0.036107995
148	0xb994fa7d	-0.00028415388
149	0x3c98d70a	0.018657226
150	0x3e0747fb	0.13211052
151	0x3da5f482	0.08103277
152	0xbe3dbf8c	-0.185301
153	0xbe33b2f3	-0.17548732
154	0xbc440d66	-0.011966085
155	0xbd362a6d	-0.044474054
156	0xbdfa1e87	-0.12212854
157	0x3de7fd4d	0.1132761
158	0x3d59fa6d	0.05321734
159	0xbd4d9966	-0.05019512
160	0xbe2d5cbc	-0.16929907
161	0x3d2a4970	0.04157394
162	0xbe1ceee5	-0.15325506
163	0xbdb3c8b5	-0.08778516
164	0xbdb2d278	-0.0873155
165	0x3df60c4e	0.12014066
166	0xbdc51943	-0.09623959
167	0xbd7605f4	-0.06006427
168	0xbe217c24	-0.15770012
169	0x3b9b9aa0	0.0047486573
170	0x3d7fdfac	0.06246917
171	0xbdf3e626	-0.11909132
172	0x3e11c565	0.14235456
173	0x3e320a5f	0.17386769
174	0xbdfb7438	-0.12278026
175	0x3d56169c	0.052267656
176	0x3bf96940	0.0076114237
177	0xbd4aff1c	-0.049559698
178	0xbe3390cd	-0.17535706
179	0xbdeae64e	-0.114697084
180	0x3d8c4496	0.06849019
181	0xbe0a056f	-0.13478635
182	0xbe003b00	-0.12522507
183	0xbe2efe34	-0.17089158
184	0xbe0c2932	-0.1368759
185	0xbd888de4	-0.066676885
186	0xbc29c2a0	-0.010361344
187	0x3ddf6ab2	0.109090224
188	0x3dfa9a66	0.122364804
189	0x3e15a375	0.14613135
190	0x3e2a1157	0.16608177
191	0xbe14023d	-0.14453979
192	0x3e488479	0.19581784
193	0xbd7c5e51	-0.061613385
194	0x3cac8151	0.021057757
195	0xbe348732	-0.17629698
196	0xbe76188f	-0.24032806
197	0xbcca2cb0	-0.024679512
198	0xbdcbec1e	-0.09957145
199	0xbe483eb1	-0.19555165
200	0xbd078537	-0.033086028
201	0xbeb73cf7	-0.357887
202	0x3e8cc080	0.27490616
203	0x3e9e079c	0.3086518
204	0xbe6e050e	-0.23244116
205	0xbca3442d	-0.01992997
206	0xbd63e7f6	-0.055641137
207	0xbe697b3e	-0.2280092
208	0xbdcc9c7c	-0.099907845
209	0x3e2ded12	0.16984966
210	0x3cfbabe4	0.030721612
211	0xbdeb1590	-0.11478722
212	0xbe098d82	-0.13432887
213	0x3e0ccfe6	0.13751182
214	0x3e40532e	0.1878173
215	0x3e04767a	0.1293582
216	0xbe0934ab	-0.13398997
217	0x3dabdaa7	0.08391314
218	0x3c33f660	0.010984033
219	0xbe994f47	-0.29943296
220	0x3df596ca	0.11991651
221	0x3c2bc19e	0.010483174
222	0xbe9eba81	-0.31001666
223	0xbc97e024	-0.018539496
224	0x3e59aa9a	0.21256486
225	0xbe633a48	-0.22190201
226	0xbe1b9ccc	-0.15196532
227	0x3e060e8d	0.13091488
228	0xbe07c128	-0.13257277
229	0xbe9b32fc	-0.30312335
230	0xbdc596fa	-0.09647937
231	0x3d2fa83b	0.042885046
232	0xbe16a62b	-0.14711826
233	0xbe2d9c84	-0.16954237
234	0xbdac4187	-0.08410936
235	0x3e118f78	0.14214885
236	0x3c104101	0.008804561
237	0x3dc746f7	0.09730332
238	0xbe73afb0	-0.23797488
239	0x3d9a067a	0.075207666
240	0xbd6a718d	-0.057237197
241	0xbdc3ba7f	-0.09557056
242	0xbeca335c	-0.3949231
243	0x3dcce7a4	0.100051194
244	0xbdd4b515	-0.10386101
245	0x3d1a1a77	0.037622895
246	0x3de23402	0.11045076
247	0xbedc9f51	-0.430903
248	0xbbbf58b5	-0.005839432
249	0x3cf340a5	0.02969391
250	0x3d39ceed	0.045363355
251	0x3db43f49	0.08801133
252	0x3e24b505	0.16084678
253	0x3e70e07e	0.23523137
254	0x3e03d5f1	0.12874581
255	0xbe7da055	-0.24768193

decoder.2.bias f4 [64]
0	0xbd95e1d0	-0.07318461
1	0x3daa001c	0.08300802
2	0x3e3012e4	0.17194706
3	0x3cc40f13	0.02393297
4	0x3e172a88	0.14762318
5	0xbdf125dc	-0.11774799
6	0x3db38a4e	0.08766614
7	0xbce0ce2f	-0.027442066
8	0x3e3f2f49	0.18670382
9	0xbd933d6d	-0.071894504
10	0xbc334307	-0.0109412735
11	0x3dece7be	0.11567639
12	0xbd22b3e6	-0.039722346
13	0x3ddc16af	0.10746514
14	0xbcac6c3d	-0.021047706
15	0xbe266e77	-0.16253076
16	0xbd72ea44	-0.059305444
17	0x3e64b213	0.22333555
18	0x3bc9c005	0.0061569237
19	0x3b109768	0.0022062901
20	0xbd7b0223	-0.061281335
21	0x3db5e69a	0.088818744
22	0xbe2eb052	-0.17059448
23	0x3e1f46aa	0.155543
24	0x3d9105b6	0.070811674
25	0x3e2552ae	0.16144821
26	0xbd384f59	-0.044997547
27	0x3e38b1a8	0.1803652
28	0x3e19cc3a	0.15019313
29	0xbd893297	-0.06699102
30	0x3b3eeff0	0.0029134713
31	0x3d236d62	0.039899237
32	0xbd34f850	-0.04418212
33	0x3e13641a	0.14393654
34	0x3e47c476	0.19508538
35	0xbe37e544	-0.17958552
36	0x3e73ba26	0.23801479
37	0x3d62fe3f	0.05541825
38	0xbd86fde7	-0.06591397
39	0x3e616b8d	0.22013684
40	0xbe3510ed	-0.17682238
41	0x3ac0edb2	0.0014719276
42	0x3cbdda36	0.02317534
43	0x3d890f55	0.066923775
44	0x3df8ae27	0.12142592
45	0xbda075b3	-0.07834949
46	0x3e240a0a	0.16019455
47	0x3dfa3a4a	0.12218149
48	0x3d631d1e	0.05544769
49	0x3e6f7d0f	0.2338755
50	0x3d934ff1	0.07192982
51	0x3cce6f09	0.02519943
52	0x3db11b2b	0.0864776
53	0xbd74e7ab	-0.05979125
54	0x3db76110	0.0895406
55	0xbe1a16fc	-0.1504783
56	0xbd6c557e	-0.05769872
57	0x3d85cc19	0.06533069
58	0x3d5ccc24	0.05390562
59	0x3e55c1e2	0.20874742
60	0x3e01660a	0.12636581
61	0x3e2f6c04	0.17131048
62	0x3d00e4fa	0.03146837
63	0x3dbecfc0	0.09316969

decoder.4.weight f4 [128, 64]
0	0xbe0ce162	-0.13757852
1	0xbd362770	-0.044471204
2	0x3e398ce2	0.18120149
3	0xbd5c0b94	-0.05372198
4	0x3dc3bcf2	0.09557523
5	0x3aac8400	0.0013161898
6	0xbd1732ff	-0.036913868
7	0x3da14e68	0.07876283
8	0xbf175ba7	-0.59124225
9	0xbe05426d	-0.1301362
10	0x3b21ce09	0.0024689457
11	0xbd0febc6	-0.03513696
12	0x3bcd0995	0.006257246
13	0xbd9362f2	-0.07196607
14	0xbd3c1dac	-0.045926735
15	0x3d979486	0.074013755
16	0x3d4b663a	0.049658038
17	0xbe978d0e	-0.29599804
18	0xbeb97e10	-0.3622899
19	0xbef3bb7b	-0.47603974
20	0xbdc99a98	-0.098439395
21	0xbc2b0e74	-0.010440458
22	0xbe278d07	-0.16362391
23	0x3d9a187b	0.075242005
24	0x3da3d879	0.08000273
25	0xbc8df0bf	-0.01732671
26	0xbe3349b7	-0.17508589
27	0xbd4ceb5f	-0.050029155
28	0x3e003582	0.12520412
29	0x3d961251	0.07327712
30	0x3aee4347	0.0018178009
31	0x3daac218	0.08337802
32	0x3d12c46e	0.03583186
33	0x3e6ad555	0.22932942
34	0xbceed47b	-0.029154053
35	0xbcfe76dd	-0.031062538
36	0xbdff9d56	-0.12481181
37	0xbef7a34e	-0.4836678
38	0xbe306281	-0.17225076
39	0xbdd6c738	-0.10487217
40	0xbd92fd63	-0.07177236
41	0x3ea6ad34	0.32554018
42	0xbebeb04c	-0.3724388
43	0x3dbede2a	0.09319718
44	0x3ea8c057	0.32959244
45	0xbda856d4	-0.08219686
46	0xbdec4603	-0.11536791
47	0xbef0d7cf	-0.4703965
48	0x3d513a00	0.051080704
49	0xbe631321	-0.22175266
50	0xbd68722e	-0.056749515
51	0x3e70a50c	0.2350046
52	0x3de213b7	0.110389166
53	0x3dd8c104	0.1058369
54	0xbc9198ee	-0.017773118
55	0xbe7808ca	-0.24222103
56	0xbe4e3a53	-0.20139436
57	0xbd466170	-0.048432767
58	0x3df96280	0.121769905
59	0xbe003d4f	-0.12523387
60	0x3e123c15	0.14280732
61	0x3e66239f	0.22474526
62	0x3e3fb84e	0.1872265
63	0x3d8b1a79	0.06792159
64	0xbdac0de0	-0.08401084
65	0x3c4fb80e	0.012678159
66	0x3d980c19	0.074241824
67	0xbdc373fc	-0.09543607
68	0xbdad92b2	-0.084752455
69	0xbcd779d8	-0.026303217
70	0xbdb0d700	-0.08634758
71	0xbc11c27c	-0.008896466
72	0xbd4e45fe	-0.05035972
73	0xbc7c079a	-0.015382672
74	0xbd11d844	-0.035606638
75	0x3c121aa9	0.008917489
76	0x3de65753	0.112471245
77	0xbdb094e9	-0.08622152
78	0x3c92679b	0.017871669
79	0x3c98132a	0.018563826
80	0x3ddd43f9	0.108039804
81	0xbd7393fc	-0.0594673
82	0xbde13b35	-0.10997621
83	0x3d41aa74	0.047281697
84	0xbcde3c7a	-0.027128447
85	0xbdfd5c16	-0.123710796
86	0xbdfe8bae	-0.124289855
87	0x3dc05472	0.09391107
88	0x3d637c20	0.055538297
89	0x3cf37551	0.029719027
90	0xbd9c3119	-0.07626552
91	0xbe018595	-0.12648614
92	0xbd1fc7f7	-0.03900906
93	0xbd4b3147	-0.04960754
94	0x3cfce328	0.030870035
95	0x3da0c06d	0.07849202
96	0x3d9603ea	0.07324965
97	0xbd98b1e4	-0.07455805
98	0x3cebb689	0.028773563
99	0xbd3930b9	-0.04521248
100	0x3da83e17	0.08214968
101	0x3c9797c2	0.018504981
102	0x3de2b6a8	0.11069995
103	0x3d9e0616	0.077160046
104	0xbdfb64d0	-0.12275088
105	0xbe07da32	-0.13266829
106	0xbdb86e96	-0.090054676
107	0x3de56039	0.11199994
108	0x3d3b7918	0.04576978
109	0x3dc83217	0.09775179
110	0xbdfbdc10	-0.12297833
111	0xbda8a260	-0.082340956
112	0xbd04845a	-0.032352783
113	0x3dba0058	0.09082097
114	0x3c93baa2	0.01803333
115	0xbdc7b620	-0.097515345
116	0x3d79e217	0.06100663
117	0x3d5ec103	0.05438329
118	0xbdd5aa49	-0.1043287
119	0x3db6acac	0.08919653
120	0xbdae9c7a	-0.08525939
121	0xbd8f2218	-0.06988925
122	0x3d03ff80	0.032226086
123	0xbd05b0eb	-0.032639425
124	0xbbb38460	-0.005478427
125	0x3de3f7fa	0.11131282
126	0x3ddfde0e	0.109310254
127	0xbd0fe959	-0.035134647
128	0xb98b12b9	-0.00026526095
129	0x3d88bc11	0.06676496
130	0xbd247c92	-0.040157862
131	0x3dd56c76	0.10421078
132	0xbd1a0fbe	-0.03761267
133	0xbdfa6e9c	-0.12228128
134	0xbdc4e18c	-0.09613332
135	0xbd834587	-0.06409746
136	0x3dc7e428	0.09760314
137	0x3c34bb8e	0.011031045
138	0xbccee3c7	-0.025255097
139	0xbd2c40a0	-0.04205382
140	0xbc0117bb	-0.007879193
141	0xbcfe6a5e	-0.03105658
142	0x3b86dcb8	0.004115667
143	0x3d248498	0.040165514
144	0x3d2ba8ad	0.04190891
145	0xbd17649c	-0.036961183
146	0x3d8c6559	0.06855268
147	0xbc433233	-0.011913824
148	0x3d949fbe	0.07257031
149	0xbde5205f	-0.11187815
150	0xbce08d74	-0.0274112
151	0x3d29167d	0.041281212
152	0x3db98ab5	0.090596594
153	0xbcde06a2	-0.027102772
154	0xbdf46f94	-0.11935344
155	0xbdf0ff49	-0.11767442
156	0x3dfc0727	0.12306052
157	0x3c7c4f69	0.015399792
158	0x3d734f41	0.059401754
159	0xbcb69f35	-0.022292713
160	0xbd94b9b7	-0.07261985
161	0xbe3a4aa2	-0.18192533
162	0x3a55e73e	0.0008159763
163	0x3d83e2bb	0.0643973
164	0xbe61705c	-0.22015518
165	0xbe169cb7	-0.1470822
166	0xbdf4bd9a	-0.11950226
167	0x3c8ddc5d	0.017316991
168	0xbdc37a53	-0.09544816
169	0xbe284076	-0.1643084
170	0x3dd475a4	0.10374001
171	0xbd672378	-0.05643031
172	0xbe1d039e	-0.15333411
173	0x3d8ceaa3	0.06880691
174	0xbd17ac85	-0.03702976
175	0xbd8134ec	-0.06308922
176	0xbdb88060	-0.090088606
177	0xbc318dd1	-0.010837034
178	0x3d493aeb	0.049128454
179	0xbe41cd50	-0.18925977
180	0xbd2658fa	-0.0406122
181	0x3d82e3cd	0.06391106
182	0x3d72d08c	0.059280917
183	0xbdf708e1	-0.120622404
184	0xbdb42108	-0.08795363
185	0x3dfd75a3	0.12375953
186	0x3d307c6e	0.043087415
187	0xbca1694d	-0.019703532
188	0x38c49d14	9.3752664e-05
189	0x3c3be2f9	0.011467689
190	0x3e3b552f	0.18294214
191	0xbde4635a	-0.11151762
192	0xbd879075	-0.0661935
193	0x3da7f670	0.08201301
194	0xbcdbfb0e	-0.02685311
195	0xbd1e5a19	-0.038660143
196	0x3dc59ed8	0.09649438
197	0x3d3a1484	0.04542972
198	0xbdad7b23	-0.08470752
199	0xbda84c74	-0.08217707
200	0xbb9f9efe	-0.0048712483
201	0x3d864f6a	0.06558116
202	0xbd1750ad	-0.036942173
203	0xbd69c9a0	-0.05707705
204	0xbd9303bc	-0.07178447
205	0xbbcc8117	-0.0062409746
206	0xbd508ce1	-0.050915603
207	0xbdadfb35	-0.084951796
208	0x3dc892ea	0.09793647
209	0xbd486e21	-0.048933152
210	0x3d9316e1	0.07182098
211	0xbdd8d7d6	-0.105880424
212	0x3da1f81c	0.07908651
213	0xbd35cf81	-0.044387344
214	0xbdbf41e0	-0.093387365
215	0x3c57a46a	0.013161758
216	0xbc9bbe82	-0.01901174
217	0xbc79c449	-0.015244552
218	0xbb196675	-0.0023407016
219	0x3e1454c3	0.14485459
220	0x3e05e1ec	0.13074464
221	0x3cdf2756	0.027240437
222	0x3d1cc4cf	0.03827363
223	0x3d2d967a	0.042379834
224	0xbd96ccc4	-0.07363275
225	0xbe1070d6	-0.14105543
226	0x3e056b09	0.13029112
227	0x3d3312c1	0.043719057
228	0xbe0334ce	-0.12813112
229	0xbd0331bb	-0.03202985
230	0x3d2fe45d	0.042942394
231	0x3e27fb28	0.16404402
232	0xbd3925ea	-0.045202173
233	0xbc5d0957	-0.013490996
234	0x3d928f5d	0.071562506
235	0xbdaea475	-0.085274614
236	0x3cca2a52	0.024678383
237	0x3dcd6d29	0.10030586
238	0x3cf564e8	0.029955342
239	0x3d4cc90d	0.049996424
240	0xbc60ad85	-0.013713245
241	0x3c441c9e	0.0119697135
242	0xbdea28be	-0.11433552
243	0x3c9a72aa	0.018853504
244	0x3be62e5b	0.007024569
245	0x3e19fd78	0.15038097
246	0x3d10137b	0.035174828
247	0xbcded441	-0.02720082
248	0xbbd040a7	-0.0063553634
249	0x3dee5731	0.11637724
250	0x3cbfd501	0.023416998
251	0x3d546e1b	0.051862817
252	0x3daae624	0.08344677
253	0x3d305535	0.04305001
254	0x3e387505	0.1801339
255	0x3cfc379e	0.03078824

decoder.4.bias f4 [128]
0	0x3bbaa461	0.005695865
1	0xbdd4cf6b	-0.10391124
2	0xbd131954	-0.035912827
3	0xbd50cddf	-0.050977584
4	0x3d042f1b	0.032271486
5	0xbc67bae5	-0.01414368
6	0x3dfca30b	0.123357855
7	0x3dac9630	0.084270835
8	0x3c7f99b4	0.0156006105
9	0x3dcaaf0b	0.09896668
10	0xbdc25533	-0.09488907
11	0xbcc2f3a7	-0.023797823
12	0x3b59c2bf	0.003322765
13	0xbddb4157	-0.10705822
14	0x3cee5e6e	0.029097762
15	0x3d56f3bc	0.052478537
16	0xbd39097b	-0.045175057
17	0x3ddacd4a	0.10683687
18	0x3e14767d	0.14498325
19	0x3d6bd4ef	0.057576116
20	0xbdcdbc66	-0.100457
21	0xbd68f3aa	-0.056873
22	0x3df2b774	0.11851397
23	0x3d8362e4	0.06415346
24	0x3d5d77a2	0.05406917
25	0x3d27899b	0.040902715
26	0x3b2a37c8	0.002597319
27	0xbd366049	-0.04452542
28	0xbd17acb9	-0.037029956
29	0xbd8bda88	-0.06828791
30	0xbdb048f7	-0.08607667
31	0xbd7085d8	-0.058721393
32	0xbcd036a1	-0.025416674
33	0x3e0a765a	0.1352171
34	0xbcea4157	-0.02859561
35	0x3c3a9a00	0.0113892555
36	0x3e0b243d	0.13588043
37	0xbdc6ae91	-0.09701265
38	0x3e31d341	0.17365743
39	0xbd7752ce	-0.060381703
40	0x3dca32d6	0.098729774
41	0x3de99f98	0.11407393
42	0x3de285e4	0.11060694
43	0x3c39e280	0.011345506
44	0x3e2de86a	0.1698319
45	0xbd82b690	-0.06382477
46	0x3e29e20b	0.16590135
47	0xbc8b69b8	-0.017018184
48	0xbd910a2d	-0.07082019
49	0x3e2adefd	0.16686626
50	0x3daa8286	0.083256766
51	0xbc27d8a9	-0.010244527
52	0xbdda6a1d	-0.10664771
53	0xbe045845	-0.12924297
54	0x3e00fc3a	0.12596217
55	0x3e039944	0.12851435
56	0x3e237e04	0.1596604
57	0xbd98e3c5	-0.074653186
58	0xbd67df38	-0.056609362
59	0x3e2041b6	0.15650067
60	0x3d48cad6	0.049021564
61	0x3da4a362	0.08038975
62	0xbd3e8c49	-0.046520505
63	0xbd170d73	-0.03687806
64	0xbe0643de	-0.13111827
65	0xbd2cd0d5	-0.042191345
66	0xbd286c04	-0.041118637
67	0xbd03e79c	-0.0322033
68	0x3d8591b6	0.06521933
69	0xbd5901ae	-0.052980117
70	0x3dd413ac	0.103553146
71	0xbdd67f8a	-0.10473545
72	0xbcf6372c	-0.030055605
73	0x3df1cf44	0.11807111
74	0x3da1d183	0.07901289
75	0x3cf135ea	0.029444654
76	0x3d832d57	0.06405132
77	0x3de8f906	0.113756225
78	0x3e3255c4	0.1741553
79	0xbd05b14c	-0.032639787
80	0x3da5f2e8	0.08102971
81	0xbcb031bb	-0.021508088
82	0x3e50b121	0.2038007
83	0x3e050a08	0.12992108
84	0x3d6d202d	0.057892013
85	0xbc9520a8	-0.018204048
86	0x3d183abf	0.0371654
87	0xbc034bd4	-0.008013684
88	0xbd436279	-0.047701333
89	0x3dd112d5	0.1020867
90	0xbd6e2760	-0.05814302
91	0x3d3d8305	0.046267528
92	0x3d1d9cfe	0.038479798
93	0x3bf62386	0.007511559
94	0x3e073657	0.13204323
95	0x3e076922	0.13223699
96	0x3e0f9d20	0.14024782
97	0x3e002f8f	0.12518142
98	0xbd640abd	-0.055674303
99	0x3d839934	0.064257056
100	0xbdcab6e6	-0.09898166
101	0x3b2873d8	0.0025703814
102	0xbd02d42f	-0.031940635
103	0x3e15c66f	0.14626478
104	0x3dc0c446	0.09412436
105	0x3e0ee916	0.13956103
106	0x3d25d92c	0.040490314
107	0xbd93b334	-0.07211915
108	0xbd6c603b	-0.05770896
109	0x3dc6de8a	0.09710415
110	0x3e188389	0.14893927
111	0xbc006efa	-0.007838959
112	0x3e0d64a9	0.1380793
113	0xbca6037a	-0.02026533
114	0x3d109086	0.03529408
115	0x3b7b8036	0.003837598
116	0xbcc25bec	-0.023725472
117	0x3db55a68	0.08855134
118	0x3d0cc05f	0.034363147
119	0xbd116acc	-0.03550224
120	0xbda4cd9d	-0.0804703
121	0x3deeab1e	0.11653732
122	0x3e01fbe4	0.12693745
123	0x3dfea0a3	0.12432983
124	0xbd820f29	-0.06350548
125	0x3db1d44f	0.08683073
126	0xbd354daa	-0.04426352
127	0xbdd1bba9	-0.102408715
