Save-Models/model-lat5.pth (torch, 191970 bytes, 16 tensors)

encoder.0.weight f4 [128, 99]
000000 82 0d 5e 3d 70 d1 78 3d 97 b7 0a 3c 70 07 bc bd
       0.0542121 0.06074661 0.008466623 -0.09181106
000010 d0 ed d3 bd 58 63 a7 bb 75 d1 90 bd 32 0b a4 3d
       -0.103480935 -0.0051082782 -0.07071201 0.08009948
000020 83 e5 b2 ba 9e f6 be bc 5d 50 bf bd 93 20 d0 3d
       -0.0013648722 -0.023310956 -0.093415 0.10162463
000030 dc be 09 bd 7e 3e c1 3d 1e 8c c0 3c ea 6c 33 bd
       -0.033629283 0.094357476 0.023504313 -0.04380504
000040 b5 93 9a bd a5 f4 87 bd 59 27 38 3d 64 fe 66 bd
       -0.07547704 -0.06638459 0.0449594 -0.05639495
000050 a0 8c 9b 3d ce 8b a3 3d ff 33 1c bd a9 69 df 3d
       0.075951815 0.0798565 -0.038135525 0.10908825
000060 d7 a2 d7 3d 07 e1 c8 3c 54 ec 86 3c 9b 26 3c 3d
       0.10529106 0.024521364 0.016470112 0.045935255
000070 fd a2 ce 3d 79 55 7d bd 05 c4 c9 3d 33 79 48 bd
       0.10089681 -0.06184909 0.09851841 -0.04894371
000080 7d 20 a6 bd 32 e7 29 3d 59 43 dc 3d 53 76 7d bd
       -0.081116654 0.04148025 0.10755033 -0.06188042
000090 fb bc 8d 3d 9a 02 a3 3d 36 e5 1a 3c 9a c6 df 3d
       0.06920811 0.079594806 0.009454062 0.10926552
0000a0 d5 bc 32 3d 08 cc b1 3c 9c af 9e 3d 99 94 f4 3d
       0.043637116 0.021703735 0.077483386 0.11942405
0000b0 a5 8d 05 3c 18 78 3e 3d c8 e1 b6 3d 27 68 5f 3d
       0.0081514465 0.04650125 0.08929783 0.054542687
0000c0 26 4a 8d 3c 60 6f df bc f5 10 bf b9 14 fb 9d 3d
       0.01724727 -0.027274787 -0.00036442993 0.07713905
0000d0 54 e4 65 3d 0e b6 35 3d ab 66 c0 3d 9a 69 57 3d
       0.056125954 0.044363074 0.09394582 0.052590944
0000e0 67 f9 4f 3d b8 52 38 3d 87 6a a7 3d b5 8e 92 bd
       0.050774958 0.04500076 0.08174615 -0.071561255
0000f0 6c c1 e8 3d be 54 80 3d 41 ac 9b bb 30 9d 83 bc
       0.11365017 0.06266163 -0.004750759 -0.016066164
000100 65 d6 05 3d 22 77 16 3c f9 aa 7f 3d eb 5c a4 3d
       0.032675166 0.009183677 0.06241891 0.08025535
000110 69 47 42 bc d8 a7 59 3d 8f 2b f5 3d 77 12 23 bd
       -0.011857846 0.053138584 0.11971199 -0.03981253
000120 54 f9 f3 3d 53 c0 27 bd 38 94 88 3d b8 8a 8e bd
       0.1191279 -0.0409549 0.066688955 -0.06960052
000130 dd 4f a0 3d a2 12 31 3d 6f 7c c0 bc 04 5a 38 bd
       0.07827733 0.04323066 -0.023496835 -0.04500772
000140 67 8e 76 bd c6 cd de 3c 66 11 07 bc aa 11 3e 3d
       -0.0601944 0.02719773 -0.008243894 0.046403565
000150 c5 8e 16 3d 5e 93 09 3c ef cb 9d ba d6 a0 4b bd
       0.03675725 0.0083969515 -0.0012038926 -0.049713932
000160 ac 62 6b bc 0e 96 91 bd cd ea dd 3d fb f5 9e bc
       -0.014366787 -0.07108699 0.108358 -0.019404402
000170 89 72 56 3d e3 3a 0e bd eb bd 81 bd 4b 1f 36 bc
       0.052355323 -0.034724128 -0.06335052 -0.011115859
000180 27 a7 8d 3d 31 cb ce 3d 44 c1 aa 3d ed c6 02 bd
       0.069166474 0.100973494 0.08337644 -0.03192799
000190 0e cd 8c bd bf 99 89 3d bd c3 dd bd 3c 68 72 bd
       -0.068750486 0.06718778 -0.1082835 -0.059181437
0001a0 a3 c4 94 3d cc a7 32 bd 47 a3 99 3c e8 f8 87 bc
       0.07264068 -0.043617055 0.018754615 -0.01659818
0001b0 2e bb a1 bd 27 98 77 3d c3 a1 97 3d 9c 74 99 bd
       -0.0789703 0.06044784 0.074039005 -0.074929446
0001c0 52 16 86 3d d4 36 68 3b 23 1f d9 3c a9 ee 23 3d
       0.06547226 0.003543307 0.026504105 0.040022526
0001d0 bd 8f c8 bd 8b 0a 46 bd 51 1a 8c 3a d7 a4 9e bc
       -0.09793041 -0.0483499 0.0010688995 -0.019365711
0001e0 3a bf 99 bd 75 94 92 3d 66 87 c3 bd dc 19 a0 bc
       -0.07507177 0.07157222 -0.095473096 -0.01954358
0001f0 34 51 82 3c d0 35 1a bd 7e ba ae bd d6 ec 4e bb
       0.015907861 -0.037648976 -0.08531664 -0.003157427
000200 e3 40 d9 3b f0 d3 91 bc 9a 8a 1c 3d 78 fc ea bd
       0.0066300496 -0.017801255 0.03821812 -0.11473936
000210 e6 11 25 3b 38 3e 1b bd f3 39 84 bd 66 fe a3 3d
       0.002518767 -0.037901133 -0.064563654 0.08007507
000220 ac 97 9f 3d 08 cb 8a 3d 0f 10 95 3d 5b 4c df bc
       0.07792601 0.067770064 0.072784536 -0.027258089
000230 13 9e 82 3d ee 98 92 3d 3b a6 51 3b 0b a0 dd bd
       0.063778065 0.07158075 0.003198995 -0.108215414
000240 3c f0 69 bd 66 e3 d1 bc fd 1f 9c bd 72 09 45 bd
       -0.05711387 -0.025621127 -0.07623289 -0.04810471
000250 4b 41 96 3b 4f ee 5c 3c b7 f1 d9 bd 12 84 a7 bd
       0.0045854202 0.013484552 -0.106418066 -0.08179487
000260 02 44 a8 3d fd d9 87 bd df 93 de bc 6b 4f d7 bd
       0.082160965 -0.06633375 -0.02717012 -0.10513195
000270 47 49 db bd 79 b9 92 bd 23 b8 51 bc 31 15 7c bd
       -0.10707336 -0.07164282 -0.012800249 -0.061543647
000280 0d c0 19 3d aa 4a 86 bd 13 45 f1 3c e7 22 02 3d
       0.03753667 -0.0655721 0.029451882 0.031771567
000290 4e 17 81 ba f4 eb cc bd c1 f3 c8 bd 56 74 ac 3d
       -0.0009848864 -0.10005942 -0.09812117 0.08420627
0002a0 9c 8e 92 bd 07 98 a7 3d 7f c3 59 3c a9 3e 40 bd
       -0.07156107 0.08183294 0.013291239 -0.046934757
0002b0 bd 42 5d bd 0e 74 6e 3d 1f 74 78 3d 60 ba 0c bd
       -0.054018725 0.058216147 0.060657617 -0.03435743
0002c0 60 2e a9 3d fc fc de bd 47 4d 8a bc b4 d7 d9 bd
       0.082607985 -0.10888097 -0.016882552 -0.10636845
0002d0 91 d3 ad bd 39 ca e2 bd 4a 3d d1 bc eb 73 e6 3c
       -0.08487619 -0.11073727 -0.02554192 0.028131446
0002e0 4a 0b dc bd fb c0 6f bd e2 7b c4 3c 6f 09 27 bb
       -0.10744341 -0.05853365 0.023984853 -0.00254878
0002f0 31 d0 ee 3b 82 26 74 bd 0d 83 c6 bd f4 19 dd 3c
       0.007288002 -0.059607036 -0.09692965 0.026989914
000300 66 9a 8e 3d ea 04 74 3d 89 6d 2c 3c 4e cb a8 bd
       0.06963043 0.059575 0.010524162 -0.08241902
000310 29 82 7f bd e2 14 da bd d4 3e cc 3c 2f 17 f9 3c
       -0.06237999 -0.10648514 0.024932303 0.030406563
000320 b3 ef 62 3d 6b d0 96 3d d2 53 9e 3d cb e7 c1 bd
       0.055404376 0.07363971 0.07730831 -0.09468039
000330 e3 49 94 3d bb 40 47 bb 22 dc 3c ba 0d 85 85 3d
       0.07240655 -0.0030403573 -0.0007204433 0.06519518
000340 73 a5 d7 3c 6e 95 5b 3c 5e 00 b5 bd 51 ca 24 bb
       0.02632401 0.013402326 -0.08837961 -0.0025145004
000350 fd 88 b6 bd 20 c0 b7 3d 08 9d 7b bd 70 55 68 3d
       -0.08912847 0.08972192 -0.061429054 0.056722105
000360 da 1e ab 3d 95 2f 11 bd bd 35 90 3d dd 35 cc 3b
       0.08355494 -0.03544577 0.070415 0.006232007
000370 3a dc b8 bd 75 35 ea bc 30 87 4c bd d5 e5 09 bd
       -0.0902638 -0.028589943 -0.049933612 -0.03366645
000380 b5 35 87 bd 20 ba 5b bc 3d 7e b0 3c 2a 4b 30 bd
       -0.06602041 -0.013411075 0.02154457 -0.043040432
000390 9e f1 e7 3d 7d 04 1d bc fe f4 5a 3c d6 34 b4 3d
       0.11325382 -0.00958359 0.013364075 0.0879914
0003a0 c5 37 e4 3c 97 f5 5d 3c 30 43 3e 3d e5 47 99 bd
       0.027858624 0.013547323 0.046450794 -0.07484416
0003b0 d5 0f 8d 3b a1 19 d6 3d 63 0a 94 bd 36 1c f8 bc
       0.004304866 0.10454107 -0.072285436 -0.03028689
0003c0 e2 58 6a bd f3 e8 96 bd 20 de 97 3d 48 6c 93 3c
       -0.05721367 -0.0736865 0.07415414 0.017995968
0003d0 e2 ac 70 3c c4 11 86 3d 63 7d 86 3d 43 aa 41 3d
       0.014689656 0.06546357 0.06566884 0.047281515
0003e0 04 47 b0 3d 4f 33 03 bd 35 40 ca 3d f5 5f ea bb
       0.08607295 -0.032031354 0.09875528 -0.0071525523
0003f0 67 52 1b 3d 1f 2e 93 bd 26 bc 61 3d cb 77 09 bc
       0.037920382 -0.07186531 0.055111073 -0.008390377

encoder.0.bias f4 [128]
000000 e5 ff 00 be a6 b9 9b 3d cc 0f 47 bd 6f 72 a3 bc
       -0.12597616 0.07603769 -0.04859905 -0.019952027
000010 f0 81 fc bd 48 27 c7 bc 59 40 f1 bc de 9c b4 bd
       -0.12329471 -0.024310723 -0.029449629 -0.088189825
000020 a6 ef e7 bc 6d 8c 21 be e4 26 5f 3c 2c 5c 66 3e
       -0.028312515 -0.15776224 0.013620112 0.22496098
000030 47 ee 18 bd c9 fa 03 bb b5 c2 3f bd f7 3f 87 3d
       -0.037336614 -0.0020138493 -0.046816546 0.06603997
000040 fd f5 c1 bd 85 41 80 bb 4b 8f 25 3d 18 9d 59 bd
       -0.09470747 -0.0039140605 0.040419858 -0.053128332
000050 54 50 3c 3d f3 7f 21 bd ea 9d bc bc 45 40 99 bd
       0.045975044 -0.039428663 -0.023024518 -0.074829616
000060 f4 5c 39 3d c8 e7 67 bd ba e2 b7 bd fc bc af bd
       0.045254663 -0.05661753 -0.089787915 -0.08580968
000070 17 ac d1 bc a2 5d 9f 3d ff d3 e9 bd 56 da 44 bd
       -0.025594754 0.07781531 -0.11417388 -0.048059784
000080 d9 1d ad bd 41 8e e6 bd 60 cd 1b 3d bd 6a 93 bd
       -0.084529586 -0.112576015 0.038037658 -0.07198093
000090 55 ef 6e 3d ca c5 2d 3d eb ee 1e 3c 8f 90 f7 bd
       0.058333714 0.042424954 0.009700517 -0.12088119
0000a0 d5 b9 0a be df ce a3 3d 06 40 28 3d 60 65 ed bd
       -0.13547452 0.07998442 0.041076683 -0.11591601
0000b0 0b 2f 05 be 2d dc 31 bd 44 3b 07 be c9 37 60 bc
       -0.13006227 -0.043422867 -0.13206202 -0.013685175
0000c0 b2 28 e1 3c e4 33 ee bd 48 c1 69 3d 88 03 fc bd
       0.027485225 -0.11630991 0.057069093 -0.12305361
0000d0 4c 92 1f bd e0 54 90 bd ec 05 ad bd 05 e6 95 3c
       -0.03895788 -0.070474386 -0.08448395 0.018298158
0000e0 e9 02 63 bd 9a 28 08 be 97 63 77 bd 89 fd 95 bd
       -0.055422697 -0.13296738 -0.06039771 -0.073237486
0000f0 65 a5 7b bd 05 ae e2 bd dc f9 f3 bd 97 76 55 bd
       -0.06143703 -0.11068348 -0.11912891 -0.05211505
000100 40 fb 89 3d 77 e3 3b be 76 fb e4 bd 04 b1 21 bd
       0.06737375 -0.1834849 -0.11180775 -0.039475456
000110 66 bd 7f b9 04 cb a5 bc bf 5c 4b 3d 26 0e f0 bd
       -0.00024389251 -0.020238407 0.049648996 -0.117214486
000120 30 ad a6 3c 03 70 9f 3c ad 18 07 3d e6 df d9 bd
       0.020346254 0.019462591 0.032982517 -0.10638408
000130 0c d3 1b bd 5f 14 c7 bd ee e3 9b bc 62 21 16 bd
       -0.038043067 -0.09720682 -0.019029584 -0.03665293
000140 1b 75 e0 bd c3 d6 8c bc ca 6b af bd 58 77 05 3c
       -0.10959836 -0.01719225 -0.08565481 0.00814613
000150 fc 9b 29 bd ee 5b 88 3d 79 de 89 3d 05 ca 46 bd
       -0.041408524 0.06658159 0.067318864 -0.048532505
000160 bf 28 d4 bc 5a 12 d8 bd 91 2c 71 bd 46 ca 59 bd
       -0.025898336 -0.10550375 -0.058880392 -0.05317142
000170 0c 1a b7 3c 13 bb 17 3d b1 5f 32 3b e3 a0 35 3b
       0.022351287 0.037043642 0.002721768 0.0027714304
000180 57 37 a6 3b b4 0e d8 bd a9 b6 d1 bd 2f b4 06 bd
       0.005072515 -0.105496794 -0.10239918 -0.03288668
000190 9e 76 ad bd 3b 59 34 bd e0 fb 93 3d c1 5e 96 bc
       -0.0846989 -0.04403041 0.07225776 -0.018355729
0001a0 64 0a f7 bb 21 4f 82 bd d7 bb 27 bd 4e ba 0c bd
       -0.0075390805 -0.06362749 -0.040950622 -0.03435736
0001b0 0f 5f d1 bd 6e 39 41 be 26 91 a7 3d 13 c0 57 bd
       -0.10223209 -0.18869564 0.08181982 -0.05267341
0001c0 7d 2a 05 bc 23 50 b0 bc fc 98 e4 bd ad 7c 8d bd
       -0.008127806 -0.021522587 -0.11161992 -0.06908546
0001d0 66 7b 8b 3d c8 56 02 be 81 e2 1b bc d1 ce ec 3c
       0.06810646 -0.12728417 -0.009514452 0.028907211
0001e0 d8 4e 4a 3c b6 f6 9f 3c 56 79 aa bd a8 dd 9e bc
       0.012347899 0.01952682 -0.08323924 -0.019392803
0001f0 35 ca 20 3d 4b 95 9e b9 19 ee e5 3c bf f1 14 bc
       0.03925534 -0.0003024734 0.028067635 -0.00909084

encoder.3.weight f4 [64, 128]
000000 dd 42 70 bd e1 82 4b 3d 4c b6 0d bd 9e 59 9f 3c
       -0.058657516 0.049685363 -0.03459768 0.019451912
000010 95 ed 0a 3c da 25 0d bd 54 77 a4 3d 5d 7d d3 3c
       0.0084794955 -0.034459926 0.080305725 0.025816614
000020 3a f7 9d 3c 0c 63 a1 bd 9d de 27 bc bc 13 10 3d
       0.019282926 -0.0788022 -0.010245946 0.03517507
000030 50 54 92 bd f0 94 58 3c 76 7c 0e 3d 74 17 39 3d
       -0.071449876 0.013219103 0.034786664 0.045188382
000040 47 66 68 bb 1a 7b 48 3d e1 df a4 3d 4f f3 1f 3b
       -0.0035461353 0.048945524 0.08050514 0.0024406498
000050 b7 2d 27 bd 20 05 d7 3d f1 fd 27 3d 13 76 15 bd
       -0.04081508 0.104990244 0.04101366 -0.036489557
000060 3d dd a4 bc 8f 58 33 3d 4c ba a1 bc 88 41 b2 bc
       -0.020125026 0.043785628 -0.019742154 -0.021759763
000070 32 37 c0 3b 10 f4 de 3d da 6b c6 3c ad d4 63 3a
       0.005865955 0.10886395 0.02422135 0.0008691054
000080 7b 22 13 bd 20 91 74 bd 95 74 2b bc c9 51 66 bd
       -0.035921555 -0.059708714 -0.010464807 -0.05623034
000090 76 13 4a bd ed a1 2c 3b 51 a6 44 bc 76 bc 23 bc
       -0.049334966 0.0026341632 -0.012002544 -0.009993663
0000a0 f0 b4 fa ba ad ae a3 3d d9 20 d9 3d 69 6d 2a 3c
       -0.001912741 0.07992301 0.10601968 0.010402062
0000b0 86 9f ad bd b1 8c 06 3d 04 f1 48 3d 0f 33 1d bc
       -0.08477692 0.032849018 0.049057975 -0.009594693
0000c0 c1 78 d9 3d 81 b2 15 bc 46 09 28 bd cf 98 c1 3d
       0.10618735 -0.009136797 -0.04102447 0.09452974
0000d0 e7 b4 b2 3b c1 6f d1 3d ca 53 06 3d ba d6 51 3d
       0.005453694 0.102263935 0.03279475 0.05123017
0000e0 07 95 1c bc 9b bb 82 3d cc c0 6c bd 97 05 c5 3d
       -0.009557015 0.06383439 -0.057801053 0.09620207
0000f0 5d d4 9d bc b3 ec 9e 3d 7c 57 d7 3d 34 72 af 3c
       -0.019266302 0.077599905 0.10514733 0.021416761
000100 5a 7d 87 3d 14 6b 12 3c a0 7b 04 be 40 65 81 3d
       0.06615706 0.008936662 -0.12937784 0.0631814
000110 52 c0 c8 bc cb 9f 97 bc 48 e5 5b 3d 23 05 cc bc
       -0.024505768 -0.018508812 0.053685457 -0.024904793
000120 30 2d 51 bd d9 ec f0 3c 58 01 cc 3c ea df e3 3c
       -0.051068485 0.029409813 0.024902984 0.027816731
000130 eb 0e 62 3c e5 a5 97 3d cb 1f 68 bc 64 bc 64 3d
       0.013797502 0.07404689 -0.014167736 0.055843726
000140 1f 6e af bd c1 75 4b bd 3a e8 c7 3c 88 22 de bb
       -0.08565926 -0.049672846 0.024402726 -0.006779019
000150 00 d2 ca 3c 1d 2a e3 3d 4d fe 28 3d 8e 59 b5 3d
       0.024758339 0.11092017 0.041258145 0.08854972
000160 69 7f 97 ba 78 a8 cd 3d 3d b8 a6 3d a5 9d 35 bd
       -0.0011558357 0.100418985 0.081406094 -0.044339795
000170 c5 ff 37 bd d1 03 00 3d 4d 86 aa 3d 38 2a 89 3b
       -0.044921655 0.03125364 0.08326397 0.004185941
000180 f2 28 29 bc 66 4c 09 bd cc c6 0b bd 78 01 0b bd
       -0.0103247035 -0.033520125 -0.034125134 -0.033936948
000190 6d 46 bc bc 7c f6 99 3d 2c 59 8d 3d 8d 2a b3 3b
       -0.0229828 0.07517716 0.06901774 0.005467719
0001a0 e7 8a 32 3d f4 ea 68 3c cd a9 01 3d 67 9a 76 bd
       0.0435895 0.014216173 0.031656075 -0.060205843
0001b0 bd 4a 12 3d fd 44 04 bc df f6 fa 3c 99 88 a5 3d
       0.035715807 -0.008073089 0.030635295 0.080826946
0001c0 a0 39 7c bc 44 f3 ba 3d ee cb 91 bd d7 0d 39 3d
       -0.015394598 0.091284305 -0.071189746 0.045179214
0001d0 e1 0f ca 3c 4a f0 d8 bd 67 ce 12 bd f3 3c b9 3d
       0.024665775 -0.105927065 -0.035841372 0.09044828
0001e0 a1 c3 64 bd 7c b5 b6 3d 9a 65 df 3c 4d b9 9d bd
       -0.05585063 0.08921334 0.027270127 -0.07701359
0001f0 21 18 18 3d 83 5d 39 3d 34 21 ab bd 96 54 30 bd
       0.037132386 0.045255195 -0.08355942 -0.043049417
000200 5b fc fc bc 08 ca a9 3d 03 7c e6 bd b3 39 6a bd
       -0.030882051 0.082904875 -0.11254122 -0.057183933
000210 06 45 64 3d a9 6a a0 3d 43 95 b5 3b 33 4b 86 3d
       0.05572989 0.07832844 0.005541475 0.06557312
000220 ff 7e 95 3d e1 e4 a0 3b 85 c6 30 3d 64 61 fc 3c
       0.07299613 0.004910097 0.043158073 0.030808158
000230 02 0c 24 bc b5 15 84 bd 19 5c 8d 3d 67 c5 26 3d
       -0.0100126285 -0.06449453 0.06902332 0.0407156
000240 fd 7c b8 3d 1a 1b 16 3d 79 d9 16 3c 84 b1 8e bd
       0.090082146 0.03664694 0.009207123 -0.06967452
000250 36 3d a8 bc ad 5e 84 bd a5 1c 88 bd 97 25 8c 3d
       -0.020537 -0.064633705 -0.066460885 0.06843107
000260 ea 8e 1d 3d 8a 1b a1 bd f0 d2 ce bb 43 45 24 3d
       0.03846637 -0.07866581 -0.006311767 0.040105116
000270 ac 10 b7 3d e8 5e 31 3d 20 7f 1d bd ec e4 f5 3b
       0.08938727 0.0433034 -0.038451314 0.0075040963
000280 bc 6f bb bc d4 55 5f 3c bf 4a 3f 3d 14 50 27 bc
       -0.022880428 0.013631303 0.046702143 -0.010211963
000290 8a 62 0e 3d 06 1c 0c bc ab ed 3b 3d 88 74 be bd
       0.034761943 -0.008551603 0.045880955 -0.0929957
0002a0 4f 09 a8 bc f0 f8 87 3c d2 46 64 bd f6 8a a5 bc
       -0.020512251 0.016598195 -0.055731602 -0.020207863
0002b0 75 5d 0a 3d dd c7 b2 3d 98 8e bb 3b 20 a0 70 3d
       0.033780534 0.08729527 0.0057237856 0.058746457
0002c0 00 a3 37 bd ff bb 18 bd 8f 76 bf 3d 01 4a 50 3c
       -0.044833183 -0.037288662 0.09348785 0.012712956
0002d0 2f c6 29 bd af 15 40 bd fc 7b 92 3d 82 9a f0 3c
       -0.04144877 -0.04689568 0.071525544 0.02937055
0002e0 cb a2 a3 3d d1 a1 75 3d 9a b3 99 bc d1 fc 95 bc
       0.07990035 0.059968773 -0.018762399 -0.018309029
0002f0 0d f2 b1 bc 97 89 b5 39 ea 5d a0 bc 00 f3 b4 3c
       -0.021721864 0.00034625523 -0.019576032 0.022088528
000300 c2 a1 1f 3d be c6 8c bd 64 f6 7b bd 4c 06 59 bc
       0.038972624 -0.068738446 -0.061514273 -0.01324613
000310 6b af cf bc e8 31 d9 bc 08 6c 4c bd 5c 8f 4b 3c
       -0.0253522 -0.026513055 -0.049907714 0.012424316
000320 5d 90 b4 3a c8 b9 ac 3d 15 3b 38 3c 11 ac 89 bd
       0.0013775934 0.084338725 0.011244555 -0.06722272
000330 78 92 bf bd c9 ee d4 3c 15 b9 75 3c 95 b8 25 bc
       -0.093541086 0.025992768 0.01499774 -0.010114809
000340 4b dd 09 3d 7c b4 13 bd f2 44 52 3c 59 29 6f bc
       0.033658307 -0.036060795 0.012833821 -0.01459726
000350 e9 ec 92 bd fa c3 dd 3c b0 9f 38 3d 73 b7 9a bd
       -0.07174093 0.027070988 0.045074165 -0.075545214
000360 3c 89 1a 3d 50 c5 8e bc dc 22 77 bd d1 bb 87 3c
       0.037728533 -0.01742807 -0.06033598 0.01656905
000370 3d 6c 87 bd 8e f6 96 3d 37 4a 87 3d 2d 0e 7c bd
       -0.06612442 0.07371245 0.06605952 -0.061536957
000380 a3 a7 c4 3c 2c b4 36 3d 98 75 db 3c 10 ee c9 bc
       0.024005717 0.04460542 0.026789472 -0.02464965
000390 f4 b8 92 bc 29 0d 8d bd fe 43 28 bd 57 d3 8b bc
       -0.017910458 -0.06887276 -0.041080467 -0.017068548
0003a0 df 69 4b 3d 30 37 00 3d 4d 27 02 bc b7 8d 94 3d
       0.049661513 0.03130263 -0.00794394 0.072535925
0003b0 3a 08 94 bd 1e 51 6d bd 07 4b a7 bc 7a bd 89 3d
       -0.072281316 -0.057938688 -0.020421518 0.06725593
0003c0 a5 b0 0b 3d 72 95 90 3d 5a cd 4c 3c 7b 33 55 3d
       0.03410401 0.070597544 0.0125001315 0.05205105
0003d0 38 4d 32 3d be 7f e0 bb 83 e5 e6 bd 4b 32 20 3c
       0.043530673 -0.0068511656 -0.11274245 0.009777616
0003e0 2c 30 5e bc 75 03 d5 3c 6d f7 ad 3c 95 5e f2 3c
       -0.01356129 0.026002625 0.021236146 0.029586116
0003f0 60 be ad bb 12 b5 84 3d 18 b4 eb 3c 41 b1 a2 3c
       -0.0053022355 0.06479849 0.028772399 0.019859912

encoder.3.bias f4 [64]
000000 1c f7 a6 bc db 05 35 3d 27 37 18 3d ef 2f 57 bd
       -0.020381503 0.044195037 0.037161972 -0.052535947
000010 1e bd b3 3c 63 98 3c 3d a2 e8 5b 3d 6c cf c1 bc
       0.021940764 0.046043765 0.053688653 -0.023658477
000020 1d 02 99 3b 2a ae 8c 3d 24 ef 5d bc fa 3d 5f 3d
       0.0046694414 0.06869157 -0.013545785 0.054502465
000030 e6 15 89 3b a4 45 7e bd 86 cd 83 bd 6e 91 0f bd
       0.0041835187 -0.062078133 -0.06435685 -0.035050802
000040 66 07 87 3d f6 af 8b ba fc c5 9b 3b b5 bb af bd
       0.06593208 -0.0010657299 0.004753826 -0.08580724
000050 b5 da 53 3d 66 4c 03 3d 91 a8 e8 bd f5 36 16 3d
       0.051722247 0.03205528 -0.113602765 0.036673505
000060 74 29 9e bd 20 51 36 bd 9d 9d 45 3d 86 41 fa bc
       -0.0772275 -0.04451096 0.048246015 -0.030548822
000070 4a 75 73 3d 43 68 8c bd 0c ff ae bd 07 31 4d 3c
       0.059438027 -0.06855824 -0.0854474 0.012523896
000080 00 9f d1 bd 51 c2 08 bd 42 83 13 be af b9 90 3d
       -0.10235405 -0.03338844 -0.1440554 0.07066666
000090 65 c0 be bd 40 4e 8c bd ca 54 20 bd bf a0 ab bc
       -0.0931404 -0.068508625 -0.03914336 -0.020950673
0000a0 d0 1c b9 3c 99 2c 60 3d 57 1e 96 bd 7a ef 03 3d
       0.022596747 0.05473003 -0.073300056 0.032210805
0000b0 30 2d 97 bc a5 51 b0 bd c4 b2 20 bc c7 c0 0b bc
       -0.018454164 -0.086093225 -0.009808246 -0.008529848
0000c0 47 17 19 3d 64 e1 9f bd dd 5d 9a bd 16 00 a7 bd
       0.037375715 -0.07806662 -0.07537434 -0.08154313
0000d0 da 12 e2 3c 8d 76 c3 bc 67 6d 09 3d 0a 1e 09 bc
       0.02759688 -0.02386024 0.0335516 -0.008368978
0000e0 3c 7a 88 3d 71 fb 80 3d 46 02 94 3c 7d e1 ab bd
       0.06663939 0.06297959 0.01806749 -0.08392618
0000f0 13 47 af bc 04 09 e3 bc 0b 16 e3 bb 27 38 4a 3d
       -0.021396196 -0.02771426 -0.006930118 0.049369957

encoder.6.weight f4 [32, 64]
000000 a2 1b 19 3e 37 94 10 3c 2c 04 88 3c 76 6a d2 bb
       0.14951947 0.0088244 0.016603552 -0.0064213825
000010 d1 59 ed bc e0 fb 3f 3d c6 ac 5f bd 22 31 64 3d
       -0.028973492 0.046871066 -0.05460813 0.05571092
000020 4a b6 28 bd ea 99 c9 3d 17 73 ca bd 62 c0 fe bb
       -0.04118947 0.0984381 -0.09885233 -0.0077743987
000030 69 64 d5 bb 25 2b 86 3d af 75 b7 3d f2 6f fc 3d
       -0.006512214 0.06551198 0.08957993 0.123260394
000040 01 60 b8 3d 48 97 76 bd 30 72 27 3b 49 77 93 bc
       0.09002686 -0.060202867 0.0025550239 -0.018001216
000050 d2 29 80 bd fa 39 3a 3e 3c 5a ad 3c 13 7f a7 bc
       -0.062579766 0.18186179 0.021161191 -0.020446336
000060 86 5b 14 be 03 2c 7c 3d df e6 9b 3d 14 3d e0 bd
       -0.14488038 0.06156541 0.076123945 -0.1094915
000070 2f cb 11 3d 6f cc fb 3b 91 81 ea bd c9 7f 47 bd
       0.03559416 0.0076842825 -0.11450494 -0.04870585
000080 64 4f 72 3d 31 30 c8 bc f4 2a 56 3c 4d 94 99 bd
       0.059157744 -0.024437042 0.013071764 -0.07498989
000090 a1 1c b4 3d 83 1e 8c 3c 20 ee 79 3d c9 af bd 3d
       0.08794523 0.017104393 0.06101811 0.09262044
0000a0 08 d4 2f be 4a c0 3e bc 9b 26 52 bd 62 a2 90 bd
       -0.17170727 -0.011642525 -0.05130635 -0.07062222
0000b0 1d 6f 05 3d 93 41 7d 3d ae c3 56 3d 0d 55 bd 3d
       0.03257667 0.061830115 0.05243271 0.09244738
0000c0 38 02 6a bd be 02 fd 3d 2f 7b e5 3c 7c c8 e1 3d
       -0.057131022 0.12354039 0.02801284 0.110245675
0000d0 82 95 82 3d e4 6d df 3c 24 88 3e 3d 49 eb c2 bb
       0.063761726 0.02727408 0.046516553 -0.0059484583
0000e0 d8 49 f6 3d ac d1 ad bd fd f2 aa bd f7 36 78 3d
       0.12025803 -0.08487257 -0.083471276 0.060599294
0000f0 fd 62 ff 3d 54 47 67 bd cd 47 0e bd 50 63 ed 3c
       0.124700524 -0.05646451 -0.034736443 0.02897802
000100 63 d1 72 bd 3f a1 e4 bc 96 33 90 3c 17 e9 cb bd
       -0.059281718 -0.02790892 0.017602723 -0.09956568
000110 0f 67 31 3d c8 83 0e 3d 86 3b 2c 3b 37 44 c9 bd
       0.043311175 0.034793645 0.0026280596 -0.09827464
000120 1e e3 c2 3d a2 7f 70 bd 5e 43 c8 3d 63 78 15 3e
       0.095159754 -0.05871547 0.09778474 0.14596705
000130 80 4e f8 3d 5a 47 a3 bd a0 28 33 3d aa d3 0a 3d
       0.12124348 -0.079725936 0.043739915 0.033893265
000140 36 86 86 bd 3d 03 99 3d 81 8d c5 bb 75 d2 1f 3e
       -0.065685675 0.07471321 -0.0060288315 0.15607627
000150 15 70 a7 bc 97 70 8d bd 21 a9 18 3e f0 72 15 3e
       -0.020439187 -0.069062404 0.14908268 0.14594626
000160 44 9d ad bc 7f 2b 85 bd c8 fd 86 3d f1 a9 11 3e
       -0.021193154 -0.06502437 0.06591374 0.14224984
000170 b6 5f 01 be 5d e8 e8 3d 21 a2 3a bc 7e 4c 26 bd
       -0.12634167 0.11372445 -0.011391194 -0.040600292
000180 99 32 79 3d 74 dc a8 3d a7 35 ff 3c b2 ba 61 bd
       0.06083927 0.08245173 0.031153513 -0.055109687
000190 aa 34 f5 bc fb 3b 01 be 65 26 c1 3d 78 2c 28 bd
       -0.029932339 -0.12620537 0.09431151 -0.041058034
0001a0 c8 21 b1 3d d5 d4 1c 3e 83 98 f6 3d 1a c7 48 bd
       0.086490214 0.15315564 0.12040808 -0.049018003
0001b0 3f 2b 56 bd 10 5a 6a bd 23 75 0e 3d ab 7e bd 3c
       -0.052287336 -0.057214797 0.03477968 0.023131689
0001c0 17 3d 70 3d 8f ea 34 bd cc 1d ae 3d e4 25 e4 bd
       0.05865201 -0.044169005 0.08501777 -0.111400396
0001d0 9f 8a ba 3d 12 72 d8 3d 13 fe a2 3d 1d 64 f5 bd
       0.09108471 0.10568632 0.07958617 -0.11981986
0001e0 11 68 fe bd 6d dd 2f 3d 3f 0e ce 3d 87 63 cd 3d
       -0.12422193 0.042935777 0.10061311 0.10028749
0001f0 b2 d4 af 3d 3f fa 2c 3d 6f d6 95 bc 65 7a 5b bd
       0.0858549 0.04223084 -0.018290726 -0.05358352
000200 32 56 ee bd 10 16 f8 bd 34 41 8a 3d e2 d2 26 be
       -0.11637534 -0.12113583 0.06750718 -0.16291383
000210 c8 b0 9c 3d ff cd 42 bd 12 e1 d8 3d 79 10 3d 3d
       0.07650906 -0.047559734 0.10589804 0.046158288
000220 28 0f 87 3d 56 b6 84 bd 6a da e4 bc 59 e9 db 3d
       0.06594688 -0.0648009 -0.02793618 0.10737867
000230 43 1d bf 3d 3d 15 11 3e 03 bd 61 bd a9 ff 85 3d
       0.09331753 0.14168258 -0.055111896 0.06542904
000240 c8 6b f4 3d b1 6f 6b bc 02 83 ef ba 38 70 bb bd
       0.1193462 -0.014369891 -0.0018273296 -0.091522634
000250 a2 27 ce 3d 35 7a 33 be 68 b8 dc 3b 32 26 d3 bc
       0.10066153 -0.17527087 0.00673585 -0.025775049
000260 fa 2c bf bc a6 ca 07 3c ec c1 26 bd 6e 6b 26 bd
       -0.023336876 0.008288061 -0.040712282 -0.040629797
000270 35 39 64 bc 2c 2e c9 bd b6 7e 05 3e 4b f1 a6 3b
       -0.013929655 -0.0982326 0.13036618 0.0050946823
000280 52 0f 6c bc 8b 45 01 be 30 e7 71 bd a6 c3 c3 3d
       -0.0144079495 -0.12624185 -0.05905837 0.09558801
000290 f8 d6 38 bd 4f ed ae bc 2b d3 c7 3c c1 08 14 be
       -0.045126885 -0.021353392 0.024392685 -0.14456464
0002a0 36 03 69 3d 4f 79 40 3d 48 80 0f 3d 4f b5 30 3c
       0.056887828 0.04699069 0.035034448 0.010785415
0002b0 2e 85 6d bd 26 f7 8f bd ce d7 dd 3c e5 b4 0b bd
       -0.05798834 -0.07029562 0.027080443 -0.03410806
0002c0 0c 7b d1 bd 68 36 2b be dd 1e 03 3e b7 0f 30 3d
       -0.102285475 -0.16719973 0.12804742 0.042983737
0002d0 b5 e4 6c bd dd 58 00 3e af 56 96 3d 22 ee cd bd
       -0.0578353 0.12533899 0.07340752 -0.10055186
0002e0 99 fb 94 bc c0 4b a3 3d 7a b3 0f 3e 2e 90 d8 bd
       -0.018186377 0.079734325 0.14033309 -0.10574375
0002f0 34 8a 92 bd 26 a6 8e bd 22 72 81 bd 0b c6 f7 bd
       -0.071552664 -0.06965284 -0.06320597 -0.120983206
000300 84 81 bb 3d 24 7a c3 3d 53 27 98 3c 3a b4 e8 bd
       0.091555625 0.09544781 0.018573439 -0.113625005
000310 67 00 83 3d 95 22 80 bb 4d 06 af bd e6 a6 d9 3d
       0.06396561 -0.0039103725 -0.08546124 0.106275365
000320 37 1d 40 3d 6d 07 e8 3d c3 0f 99 3d 7b 2a 04 be
       0.04690286 0.11329541 0.074737094 -0.1290683
000330 6a c6 c6 bd d1 bc 61 3d af 45 51 bd a0 e0 e3 bd
       -0.09705813 0.05511171 -0.051091846 -0.11126828
000340 19 c9 e5 3d 1b e3 19 bc c6 f9 9a bd 16 b5 35 be
       0.11219997 -0.009392525 -0.07567172 -0.1774486
000350 92 3e 59 3d 84 13 b6 3d e7 18 e6 bd 46 f9 5d bc
       0.053038187 0.08890441 -0.112352185 -0.013548201
000360 45 3b 85 3d 70 bc 9a 3d 4c dc ef bd 88 7e 91 b9
       0.065054454 0.07555473 -0.1171194 -0.00027750828
000370 f3 24 7f 3d ee b2 f9 bd d9 80 d1 bd 43 80 9c 3d
       0.062291097 -0.12192331 -0.10229654 0.076416515
000380 5e 42 2a 3d a6 8b b9 3c 4e d8 ee 3c 24 04 02 be
       0.0415672 0.022649597 0.029155876 -0.12696892
000390 c3 78 9a 3d bd 5a e1 3d de 66 d2 bd f7 f9 69 3d
       0.07542565 0.11003635 -0.102735266 0.05712315
0003a0 0c d3 63 3d 60 b5 ae 3d 3b 46 f5 3c 91 02 9b 3d
       0.05562119 0.08530688 0.029940715 0.07568849
0003b0 04 52 7b bd c6 58 31 3d 93 b9 15 be 4f ba 28 3d
       -0.061357513 0.04329755 -0.14621572 0.041193303
0003c0 15 aa d9 3d 0c c2 19 3d d0 33 79 bb cd 90 af bc
       0.10628144 0.037538573 -0.0038025267 -0.021431351
0003d0 36 65 4f 3c ad 76 a1 3d 44 49 79 bd 10 61 9a 3d
       0.012658408 0.07883964 -0.060860887 0.075380445
0003e0 6f d8 88 3d 70 14 09 3d 34 65 ab 3d 79 72 cb 3d
       0.066819064 0.033466756 0.08368912 0.09933943
0003f0 36 fd 01 3e 22 75 8e bc 94 8c 21 bd c1 11 42 bd
       0.12694249 -0.017389838 -0.039440706 -0.047380213

encoder.6.bias f4 [32]
000000 f6 c0 5c bd 1d 16 e7 3b 90 ec a8 3d cb fc 20 bd
       -0.05389496 0.0070521967 0.08248246 -0.039303582
000010 01 b8 0e bd a1 4c aa bd c6 df 15 be eb d0 3a bd
       -0.03484345 -0.08315397 -0.14636144 -0.045609396
000020 df 06 ca 3d fd cb ba bc ec 61 38 3d cc a8 d3 3d
       0.09864592 -0.022802347 0.04501526 0.1033493
000030 a9 b3 8f 3d 57 bb cf bd d3 32 82 bd e9 bf da 3d
       0.07016689 -0.10143154 -0.0635735 0.10681135
000040 84 fc ed 3a 02 20 12 3d 74 89 7d 3d 4d 3a 11 bd
       0.001815692 0.035675056 0.061898664 -0.03545599
000050 fe f2 6b bd 90 6d 10 3d 64 72 01 3e 7a eb 75 3c
       -0.057604782 0.035260737 0.12641293 0.015009755
000060 41 b3 07 3e 54 28 e4 bd 33 9f bf bc 86 99 a1 bb
       0.13251974 -0.111405045 -0.023391342 -0.0049316315
000070 f8 86 d5 3d 54 39 e8 3c 3d 2e 4b 3d 31 ee a8 3d
       0.10426134 0.028347649 0.049604643 0.082485564

encoder.9.weight f4 [5, 32]
000000 08 5c 51 bc 6a 56 2a 3e 06 c0 6d bd be 41 51 3c
       -0.01277829 0.16634527 -0.058044456 0.012772022
000010 aa 2c b1 bd b5 59 eb bd 5d 75 21 be b1 42 f1 3d
       -0.08651097 -0.1149172 -0.15767427 0.117802985
000020 dc 89 f9 3d fb dd de 3c 85 26 00 be e6 5b 83 bd
       0.12184498 0.027205458 -0.12514694 -0.064140126
000030 b5 44 b6 3c d5 3a 1e 3c 87 7d 94 3d ed 7e f8 3a
       0.022249559 0.009657581 0.07250505 0.0018958725
000040 74 99 ca 3c cc 4e 84 3d d6 2b 35 be d5 bc 8b bb
       0.024731375 0.06460342 -0.17692503 -0.004264454
000050 05 38 de 3d 49 02 c7 bd 8d dc e1 3d 07 c6 5c be
       0.10850529 -0.09717233 0.11028395 -0.21559916
000060 37 04 15 3e ff b7 39 3d ef fb ec bc df 2c 0b 3d
       0.14552389 0.045341488 -0.028928725 0.03397834
000070 24 5e 29 be f8 3a 28 3e b8 7f 92 3c f6 af 28 be
       -0.16539818 0.16428745 0.017883167 -0.16473374
000080 a4 a9 3b 3e e4 c8 14 be d8 d0 54 bd c9 5c 05 3d
       0.18326432 -0.14529759 -0.05195698 0.03255919
000090 46 20 4f be 92 c0 0a be 52 1f a6 3d 87 3e 36 3e
       -0.20227155 -0.13550022 0.081114426 0.1779729
0000a0 c8 2a ee 3d 8d fe 17 be 6c 1a 49 bd bc 82 37 3e
       0.116292536 -0.14843197 -0.049097463 0.17920965
0000b0 b2 a0 a0 ba 41 1f b3 3c 3a e2 8d ba a6 d5 27 3e
       -0.0012254922 0.021865489 -0.0010824867 0.16390094
0000c0 81 3a 03 3e ee 91 fd bd 0e b4 8a bc be 13 d0 3d
       0.12815286 -0.123813495 -0.01693156 0.101600155
0000d0 29 03 2b be 97 3c 3a be ee 7b 23 bd 01 e9 40 be
       -0.16700424 -0.18187176 -0.03991311 -0.18838884
0000e0 ea 40 83 3b 8e d9 8b 3d 46 c5 96 bd bc f1 7f 3c
       0.004005541 0.06828605 -0.07361846 0.015621599
0000f0 37 24 99 bd 51 2e 99 3d f6 7a 65 3d e1 cb 04 3e
       -0.074776106 0.07479537 0.056025468 0.12968399
000100 32 41 fe 3d 58 66 14 3e e2 7f 37 bc 17 c5 99 3d
       0.12414779 0.14492166 -0.011199923 0.07508295
000110 96 1a 6d bd 25 d1 53 bd 2c c0 e3 bd 9d b3 05 3e
       -0.057886682 -0.051713128 -0.11120638 0.13056798
000120 5e 4b 46 bd 76 dc 57 be e2 58 ca 3c 5c 5f 03 3e
       -0.04841172 -0.21080193 0.024700586 0.12829345
000130 2c c3 17 3c 62 94 10 3e e3 fa 92 3c fc e6 f8 3d
       0.009262841 0.14119104 0.017941898 0.12153432
000140 d6 de a3 bd ab 34 e0 3d 59 67 ec 3d 38 5a 5d bd
       -0.08001487 0.109475456 0.115431495 -0.054041117
000150 c0 cd 3d be e3 11 f1 bd 93 99 19 be ab 96 c9 3d
       -0.18535519 -0.1177099 -0.1499999 0.09843191
000160 a8 40 71 bc cc 6e f0 3d 27 a1 7f bd 0d 15 df bd
       -0.014724888 0.11739883 -0.062409546 -0.10892687
000170 cf a9 c8 bc 62 c2 0d be 78 64 69 3d a8 ee 14 3e
       -0.024495034 -0.13843682 0.05698058 0.14544165
000180 1a 36 b3 bc e8 2c d0 bd 5b 9a 9a bd b7 25 d8 3d
       -0.021876384 -0.10164815 -0.07548972 0.105540685
000190 ed e5 72 bd 52 31 23 be c0 bc c0 3d c6 44 c2 3c
       -0.059301306 -0.15936783 0.09411001 0.023714434
0001a0 8a db 08 3e 73 ce 9a 3c 09 6a c0 3d a3 b0 ed 3d
       0.13364998 0.01889727 0.093952246 0.116059564
0001b0 48 64 ec 3d 90 43 b0 3c 93 ff c1 3d 4c a2 be 3c
       0.11542565 0.021516591 0.09472575 0.023270749
0001c0 00 2a 35 be d0 ae d2 3d 18 80 b5 3b fe cf ca 3d
       -0.17691803 0.10287249 0.0055389516 0.099029526
0001d0 77 db ca 3b b5 3d be bd 18 0b f3 bd 63 75 07 3e
       0.006190713 -0.092891134 -0.1186735 0.13228373
0001e0 02 24 37 3e d0 8c 0f 3e ce ed 18 3e 5a b3 3c be
       0.1788483 0.1401856 0.14934465 -0.18427792
0001f0 0c 3d 13 be d1 6c 2e 3e 82 b4 9d 3d fe 15 5f 3d
       -0.14378756 0.17033698 0.07700445 0.054464333
000200 75 f7 1b 3d 83 1d 4f 3e bb c6 c3 3d ee e9 48 3d
       0.03807779 0.20226102 0.09559389 0.049051218
000210 72 b5 86 bd 0a 7e 1c 3e 80 82 66 3e 6b df 41 bd
       -0.06577577 0.15282455 0.2251072 -0.04733221
000220 c7 7e 25 3d 29 50 06 3e c8 76 96 3d 27 97 3b be
       0.040404107 0.13116516 0.073468745 -0.18319379
000230 8e 7e ed bc db 51 11 be 91 46 71 3d d0 26 c4 bd
       -0.02899101 -0.14191382 0.058905188 -0.095777154
000240 e6 9e b4 3d 8f a9 51 bd 60 01 70 3d 54 67 e5 bd
       0.0881937 -0.051187094 0.05859506 -0.11201349
000250 c9 95 0b 3e a0 5b d8 3d ac 2f 2c 3e 22 ff 60 3d
       0.13631357 0.10564351 0.1681506 0.054930814
000260 24 b9 62 bd fa 1c 2a be 0f 40 7d bd 9c 14 1f 3e
       -0.055352345 -0.16612616 -0.06182867 0.15535206
000270 48 73 b7 3d 8c fe 40 3e fc d3 fb bc df 24 bc 3b
       0.08957535 0.18847102 -0.03074073 0.0057417

encoder.9.bias f4 [5]
000000 10 9b a8 bd 5d 5d e6 bd ce 85 21 3e d8 c2 00 be
       -0.08232701 -0.112482764 0.15773699 -0.12574327
000010 12 34 9d 3c
       0.019189868

decoder.0.weight f4 [32, 5]
000000 36 7a ab be 72 49 d9 be 05 d7 1a 3e 9a 3e dc 3d
       -0.33491677 -0.42438847 0.15121086 0.10754128
000010 8c b8 c9 bc df 8e 83 3e 80 f2 94 be c6 ae aa be
       -0.024624132 0.2569494 -0.29091263 -0.33336467
000020 83 43 db bb f4 53 a8 be 7d 11 a2 be 11 3a f1 3d
       -0.0066913976 -0.3287655 -0.31653967 0.117786534
000030 4f 7c 6f bd b2 ac cd be 99 36 94 3e 41 a3 d6 3e
       -0.05846816 -0.4017082 0.28947905 0.41921428
000040 8c 88 36 bd 05 91 91 3e 15 9e c4 be 30 72 ce 3e
       -0.044563815 0.28430954 -0.38401857 0.40321493
000050 0f 71 86 3e 14 13 86 bd 9a 2a 3f be c7 43 af be
       0.26258132 -0.065466076 -0.18668595 -0.34231398
000060 fe 52 7c 3e 2c fe b3 be 3b 93 27 bd 0a 80 ba 3e
       0.24641034 -0.35154855 -0.040911894 0.3642581
000070 8a f7 d0 bc 04 de e6 3a 20 a2 c9 be a0 3c 8c be
       -0.02550866 0.0017613773 -0.39381504 -0.27390003
000080 55 4b 37 3e 76 c3 5e 3b a5 1e 66 3e 62 74 c8 3d
       0.1789983 0.0033991016 0.22472627 0.09787823
000090 a6 16 58 3e 0a 02 e7 bd f3 da 06 3e 0a fd 96 bd
       0.2110239 -0.11279686 0.1316946 -0.07372482
0000a0 3c 42 70 3d bb c2 a2 bd fd 58 0f bc 58 56 5b 3e
       0.058656916 -0.07947298 -0.008749244 0.21419656
0000b0 0d db c0 be bc ef e6 3e ff e0 54 bb ec 6d ec bd
       -0.37667122 0.45104778 -0.003248274 -0.115444034
0000c0 2e 76 e0 be c5 f5 50 be 5d ea df be e6 c2 c0 be
       -0.43840164 -0.20406254 -0.43733492 -0.37648696
0000d0 b2 e6 aa be e2 30 7f be 78 bd 01 3e 63 2a 8c be
       -0.33379132 -0.24920991 0.12669933 -0.27376089
0000e0 fc 0b d8 3e 0d b9 27 be c9 84 99 be 37 0b 93 3c
       0.42196643 -0.16379185 -0.2998412 0.017949684
0000f0 c8 55 91 bd 4f 67 45 3e 8e 5a a1 3e a7 69 66 3e
       -0.070964396 0.1927769 0.315144 0.2250124
000100 8c 2e dc 3e 9c b0 fb be 91 18 7d be 15 e1 a1 be
       0.43004262 -0.4915818 -0.24716403 -0.31617036
000110 31 3b 70 3e 11 32 74 be 1e 3f 59 bb 30 3f 06 be
       0.2346008 -0.23847224 -0.0033149193 -0.13110042
000120 cd c0 9b bd ec 68 0d 3b 6e f0 10 be 4e 09 3d bd
       -0.07605133 0.002157743 -0.14154217 -0.04615145
000130 e8 ea a8 3e 76 14 bd 3d 94 74 63 3e e9 96 ba 3e
       0.3299172 0.09232418 0.2221244 0.3644326
000140 94 e7 bd be 76 b4 80 be b4 95 aa be c1 e1 ec be
       -0.37090743 -0.2513768 -0.3331734 -0.46265987
000150 a8 d7 e5 3e 58 65 b5 3e 36 d0 0c 3d 30 d7 34 be
       0.44891095 0.35428882 0.034378253 -0.17660213
000160 78 16 6d 3e 88 c0 15 be e5 78 04 be 2a 64 d0 bd
       0.23153102 -0.14624226 -0.12936743 -0.10175355
000170 c4 8d 98 be b3 57 c5 be af 0f 12 be bf 6d 97 3e
       -0.2979566 -0.38543472 -0.14263795 0.29575917
000180 cb 39 00 3e ed 70 13 3e b5 18 dc 3e 9a 39 e5 bd
       0.12522046 0.14398547 0.429876 -0.11192627
000190 c6 59 e1 3d 14 26 99 be 05 56 9f 3e 3e 9e 92 3e
       0.11003451 -0.29911864 0.31120315 0.28636354
0001a0 41 02 ff 3d ec 89 c5 be 5f e6 91 3e 70 42 1a be
       0.12451602 -0.3858179 0.28496072 -0.15064406
0001b0 d3 70 de bd 44 9e 6d bd 7f d8 f3 bd 96 5b 8c be
       -0.10861363 -0.058012262 -0.11906528 -0.27413625
0001c0 3f 56 ea 3d 39 85 13 3e 5f c3 b0 3e 7a 26 d1 be
       0.114422314 0.14406289 0.34524056 -0.40849668
0001d0 89 7a df 3e bc 76 06 3e 6f 22 ba 3e 83 33 ba be
       0.43648174 0.13131231 0.36354396 -0.36367425
0001e0 ab 18 32 be 19 8b b5 3e 5c 05 0b bd 95 f7 9d be
       -0.17392223 0.35457686 -0.033940658 -0.30852953
0001f0 c1 2e 0f be be 6a c9 3d f4 fc 3f be 27 b6 df 3d
       -0.13982679 0.098348126 -0.18748838 0.10923415
000200 50 a8 da be 30 ff d8 3d 47 c5 78 3d e9 25 a6 3e
       -0.42706537 0.10595548 0.060735013 0.32450798
000210 e9 c8 fd 3a 03 a2 11 3e 08 75 5e 3d 5a 0f d8 3e
       0.0019362244 0.14221959 0.05431083 0.42199212
000220 75 df 97 bd cd 43 83 bd 48 f6 2e 3e 48 f1 1c be
       -0.07415668 -0.06409416 0.17086136 -0.15326416
000230 4d 48 60 3e 1b 59 9c be a5 c5 94 3e 2b 85 c7 3e
       0.2190258 -0.30536732 0.2905704 0.38968787
000240 57 af e3 bd 81 f3 5a bd 7e 32 c2 3d 86 f4 d4 3e
       -0.11117428 -0.05345488 0.09482287 0.41592807
000250 9c 07 d3 3e e1 f4 7e 3e 63 55 74 be cb 98 7b bd
       0.41216743 0.24898101 -0.23860697 -0.06142501
000260 6a ae 87 3c 5c 75 d2 be d9 b0 e7 3d a2 8e 7e 3e
       0.01656266 -0.41105163 0.11313028 0.24859098
000270 d1 42 be 3e 1d d4 72 be 3a d0 ae be 7a 61 ce be
       0.37160352 -0.23713727 -0.3414324 -0.40308744

decoder.0.bias f4 [32]
000000 5d b4 cc be 15 fb d1 3e 8e 02 c0 3d ff 78 90 3e
       -0.39981356 0.41011873 0.09375487 0.28217313
000010 cb 9d 80 be bc f9 ec 3c 97 c0 de 3e 82 08 1e be
       -0.25120386 0.028927676 0.4350631 -0.15432933
000020 2b 2b cf bd 92 5f b2 be 35 c6 0d 3e 3a 7a 8d 3d
       -0.101156555 -0.3483854 0.13845141 0.069080785
000030 86 f2 9c bd b0 95 76 bd ed 12 e0 be 56 03 aa 3e
       -0.07663445 -0.060201347 -0.4376444 0.3320567
000040 75 47 d7 3e d4 cc 2b bd 3e ae 53 be 10 82 a3 3d
       0.42046705 -0.041943386 -0.20671937 0.07983792
000050 d6 d0 e2 3d 22 ee 27 be f0 49 2b be e1 5a 72 be
       0.110749885 -0.16399434 -0.16727424 -0.2366748
000060 c3 5f a5 3e b9 87 38 be 7b f8 11 3e 2b 52 b4 3e
       0.32299623 -0.18020524 0.14254944 0.3521894
000070 d6 6e 02 3e dd ba 42 be cc 47 ee 3c 83 c2 e8 3c
       0.12737593 -0.19016595 0.02908697 0.028413063

decoder.2.weight f4 [64, 32]
000000 fc 89 fa 3d d3 a7 a9 3e 21 a0 f8 bd 5e 31 b5 3d
       0.1223335 0.33135852 -0.12139917 0.08847307
000010 52 d8 10 be e8 d6 44 3d ff 16 8d bd d8 ca 23 be
       -0.1414502 0.048056513 -0.06889152 -0.15995347
000020 7f a3 25 3e de 54 94 3d db 4c 89 bd 22 d4 0f bd
       0.1617565 0.0724275 -0.06704112 -0.035114415
000030 d7 53 07 3d 7b 44 39 3e 8c 91 49 3e 21 d1 e0 3d
       0.03303894 0.1809253 0.19684428 0.10977388
000040 de 71 36 3e 0e dc 04 3d b5 23 f9 bc ff c1 2b be
       0.17816874 0.032436423 -0.030412534 -0.16773222
000050 ec 0a 06 3e 46 df 47 3c 93 fa 2a bd cc a0 2b 3d
       0.13090104 0.012199229 -0.041742872 0.041901395
000060 cf fa a9 bd 18 7e cc bc fd 9e 12 be 27 4c f1 bd
       -0.08299791 -0.02496247 -0.14318462 -0.11782103
000070 55 fe 9a 3d 18 1c 29 bd 6b 43 d7 bd a3 ff 11 be
       0.07568041 -0.041286558 -0.10510906 -0.14257674
000080 58 e1 3d 3d 7b 03 a6 3d 7e 60 01 be 10 d7 9a 3d
       0.046357483 0.081061326 -0.12634465 0.07560551
000090 11 12 ab bc 1b 1d cf 3d f5 23 88 bb 8d 93 5a 3d
       -0.020882638 0.10112973 -0.004154677 0.05336337
0000a0 a3 6e 21 3e b9 8c 02 be 2a 81 00 be fb 00 6e 3e
       0.15764861 -0.12748994 -0.12549272 0.23242562
0000b0 b1 53 96 3d 94 54 76 3d 97 2a 0c 3e e5 41 6d bd
       0.073401816 0.060139254 0.13688122 -0.05792417
0000c0 36 df 13 be 45 aa 8d 3c 63 ab 1a be 76 0f 7c bc
       -0.14440617 0.017293105 -0.15104441 -0.015384546
0000d0 d5 e2 02 bd 7d a9 45 3e 0d 2a 2c 3e 69 8e 4a bd
       -0.031954605 0.19302936 0.16812916 -0.04945222
0000e0 84 09 d6 3b 37 69 56 bd e9 86 f8 3d 06 e3 9e bd
       0.006531896 -0.052346434 0.12135107 -0.07758145
0000f0 af a3 e5 3d de ff be 3c 21 3a 04 3e da 07 f3 bc
       0.11212861 0.023315366 0.129128 -0.02966683
000100 5d c6 25 be 49 4e 25 3d 97 f8 88 bc d9 10 1d 3e
       -0.16188951 0.04035786 -0.0167201 0.15338458
000110 1f 57 07 3e ff 4a b1 3c 11 9d ff bd 5e 1a e8 3d
       0.13216828 0.021642206 -0.1248113 0.11333154
000120 a5 6b 16 3d fa 72 8a 3d 8b 4e 16 be 0e 9b ef bc
       0.03672375 0.06760211 -0.146784 -0.02924874
000130 57 42 a3 bd 95 e2 01 be b4 5b 89 bc c2 89 fb bd
       -0.07971638 -0.1268409 -0.01676736 -0.122821346
000140 40 20 e6 3d 41 d4 b6 bc 93 70 41 be 54 7f 0f 3d
       0.1123662 -0.022318007 -0.188906 0.03503354
000150 2d 45 34 3e 95 6d f2 bd a2 4d 5c 3d 75 c6 d0 3d
       0.17604513 -0.11837307 0.053784974 0.10194103
000160 5f 27 91 bd b6 cb 8e bd e0 03 71 3c fb 73 ca 3d
       -0.070875876 -0.069724485 0.0147103965 0.09885403
000170 04 05 1c be e7 ab fe 3d 23 55 85 bd 40 2e 10 3e
       -0.15236288 0.124351315 -0.06510379 0.14080143
000180 44 22 ce 3c 98 7b 71 3c f3 67 c4 3d 4e 14 8a bd
       0.025162823 0.01473894 0.09590139 -0.06742154
000190 8f cd 10 3e f0 02 39 3e 69 2c 02 bd 7f 63 7b bd
       0.14140914 0.18067527 -0.031780634 -0.061374184
0001a0 bd 31 c6 3d 25 49 1c be 6c b2 5c be 0e ba bc 3d
       0.096774556 -0.15262277 -0.21552438 0.092151746
0001b0 b1 9f 86 3d 91 22 6b bc 56 9d c7 bd af a7 cb bd
       0.065734275 -0.014351503 -0.09746806 -0.099440925
0001c0 1c dd dc bd 71 a6 fe 3d e5 e3 3d 3d a5 f6 00 3d
       -0.10784361 0.1243409 0.046359915 0.03148522
0001d0 c1 be 9f 3c 56 e1 77 3e c7 2f bf 3d e2 de a2 3d
       0.019500138 0.24207053 0.09335285 0.07952668
0001e0 36 35 1f bd 2a 70 07 be 01 ff 22 3d 21 d3 31 bd
       -0.038869105 -0.13226381 0.039793972 -0.04341424
0001f0 4c d0 38 3e 56 de 1f be 07 8e 0a be fe 8e 0d 3e
       0.18048209 -0.15612158 -0.13530742 0.13824078
000200 2a 22 ce bd 83 03 85 3d 18 1c d5 3b a5 d3 5b 3c
       -0.1006511 0.064948104 0.006503593 0.013417159
000210 e3 39 6c bd 2c f5 90 3d 35 04 ab 3d d2 d5 dc 3d
       -0.057672393 0.07078013 0.08350412 0.107829705
000220 77 4a 11 be 0e 4d 07 be 67 6e 05 3e 81 55 8b bc
       -0.14188562 -0.13212988 0.13030396 -0.017008545
000230 0f 51 ec bd 1d 51 60 3e 66 0a ad 3d ca 50 a5 bd
       -0.11538898 0.21905942 0.08449249 -0.0807205
000240 a3 bc 1b bd 8f 40 c1 3b 23 75 e1 3c 1a a6 2a 3e
       -0.038021695 0.0058975886 0.027521675 0.16664925
000250 5e be b5 3c 67 ad 3e 3d 34 c6 06 3d f7 78 86 bc
       0.0221855 0.046552088 0.032903865 -0.016415102
000260 46 19 b3 3d bd e7 7a bd 07 39 a2 3d 37 e1 33 bb
       0.08745055 -0.06125616 0.07921033 -0.002744747
000270 72 cc d3 3c ab 39 19 be 53 70 48 be 74 5c c5 bd
       0.025854323 -0.14963405 -0.19574098 -0.09636775
000280 5b e9 99 3a 3d 78 4a 3e 4c a2 11 bd 2d 9b f3 3d
       0.0011742519 0.1977243 -0.03555517 0.11894832
000290 e2 ba 30 bd d4 06 bb bc 0a 99 b1 bc b4 2c 37 be
       -0.043146975 -0.022830404 -0.02167942 -0.17888147
0002a0 ba 3b 1d 3e cc 4a 2a be 90 35 d8 3d 64 7f f7 3d
       0.15354815 -0.16630095 0.10557091 0.12084845
0002b0 3d fc 13 be b9 e9 0b 3d ef 71 e6 bc b4 4f db bd
       -0.1445169 0.034158442 -0.0281305 -0.107085615
0002c0 51 dd 1a be fe 62 35 be 36 17 e5 3d 6a 29 ac 3d
       -0.15123488 -0.17713544 0.11186068 0.084063366
0002d0 fe 44 b0 3c 93 9c 27 3d d0 d5 96 3d c7 67 c2 3d
       0.021517273 0.040920805 0.07365 0.0949245
0002e0 5d 01 ac 3d 15 3e a7 3b 92 54 05 3d 85 74 13 3e
       0.083986975 0.0051038363 0.032551356 0.14399917
0002f0 ed 7c 16 3d 14 1a b8 bc 7d c0 a6 bd 65 ca 0b 3e
       0.036740232 -0.022473373 -0.08142183 0.13651426
000300 ce 92 32 3e 69 12 05 3d bc aa 99 bc 03 3e 16 3e
       0.17438814 0.03248826 -0.01875817 0.14672093
000310 69 22 02 be e2 a7 0e be 71 bd 47 3d 3b dc 12 bd
       -0.12708439 -0.1393123 0.04876465 -0.03585456
000320 24 bf 18 be 01 95 11 3e f0 67 ba bc 82 65 c8 bd
       -0.14916664 0.14216997 -0.02275464 -0.09784986
000330 2b bb 35 be 98 77 87 bd b2 7d be 3d 69 78 f1 bd
       -0.1774718 -0.066146076 0.09301318 -0.117905445
000340 80 96 78 bd 9e 65 8d bd 74 97 47 bc 81 e4 1c 3e
       -0.060690403 -0.069041476 -0.012182105 0.15321542
000350 9f cb ae bd b3 ef 19 3e 04 b5 07 bd 68 8d 32 3e
       -0.085349314 0.15032844 -0.033131614 0.17436755
000360 fb db e6 bd 66 04 24 be 76 8a e1 bd ab 34 2b 3e
       -0.11272427 -0.16017303 -0.110127375 0.1671931
000370 c4 39 a3 3d 34 c7 3c bd 23 58 3d 3d 57 89 d2 3c
       0.07970002 -0.046088412 0.04622663 0.025700254
000380 01 98 09 be 74 c0 ac 3d 71 9a 0a 3d 4e 88 ad 3c
       -0.13436891 0.08435145 0.033838693 0.02118316
000390 5d 10 43 be 3b 40 28 3e a3 68 00 3d cd fe 42 bd
       -0.19049211 0.16430752 0.03134979 -0.04760628
0003a0 d4 e1 21 bd b8 78 e4 3d 6a 84 3c 3d 5e c7 15 be
       -0.039522007 0.11155838 0.046024717 -0.14626834
0003b0 96 6a 18 be df 88 1b be 59 41 4f 3b ce 49 12 3e
       -0.1488441 -0.15188931 0.0031624644 0.14285967
0003c0 ea cd 88 3c 00 79 03 be 43 f0 d2 bd 41 c6 db bd
       0.01669975 -0.12839127 -0.102997325 -0.10731173
0003d0 e7 ec 0e 3e a7 97 ab bd ef aa 06 bd b5 5d bf bd
       0.13957559 -0.08378535 -0.03287786 -0.09344045
0003e0 1a 6d b5 3d fe 20 5d be 0d 7a 4d be f5 4e 3f bd
       0.088587 -0.21594617 -0.2006609 -0.04670616
0003f0 9a dc 66 bd e2 ac 9e bc 1c 7d fc bd 2b 4b b0 bd
       -0.056362726 -0.019369546 -0.1232855 -0.08608087

decoder.2.bias f4 [64]
000000 48 0c f7 3d 50 d6 80 3b 36 f2 de bd da 7a 49 3e
       0.12062889 0.003931798 -0.10886042 0.1967577
000010 0c 4f f2 bd f6 f1 10 be 89 9f 57 bd 3a 86 4b 3e
       -0.11831483 -0.14154801 -0.05264238 0.19875422
000020 62 e4 3d 3e ce 54 b5 bb 18 3b 8d bd 5d 65 f4 bc
       0.18544152 -0.005533791 -0.06896037 -0.02983349
000030 be e2 a1 bd cf 91 ae 3d 38 61 90 3c 99 92 c8 bd
       -0.07904576 0.085239045 0.017624483 -0.09793586
000040 c2 97 b6 3d 19 2b 76 bc 3f 66 02 3d 14 87 a1 bd
       0.08915664 -0.015024924 0.03183579 -0.07887092
000050 99 d4 2d 3e 20 80 d3 bc 2f 6f ba 3d d1 b2 28 bd
       0.16975631 -0.02581793 0.09103238 -0.041186158
000060 fd 2a 92 bd 70 2d 46 bd de 40 43 3e 49 0e 5d be
       -0.071371056 -0.048383176 0.19067714 -0.2158748
000070 1f 1c ec 3c a9 76 b5 bd 60 e0 87 bd 64 c4 1a 3e
       0.028822003 -0.08860523 -0.06634593 0.1511398
000080 af fb fb bd 90 9a 3d 3d 6e 07 4c 3e 30 90 f4 3d
       -0.12303864 0.04628998 0.19924709 0.11941564
000090 73 92 51 bc a5 45 fa 3d dc 95 8b 3d 78 5b 8d 3d
       -0.012791264 0.12220315 0.06815693 0.06902212
0000a0 54 2e 4d 3e 04 14 13 be a3 32 e5 3d df 84 cd 3c
       0.20037204 -0.14363104 0.11191299 0.025087772
0000b0 18 5d ad 3d 3e 59 0f be 68 98 8a bd dc fa f8 bd
       0.08465022 -0.13998887 -0.067673504 -0.12157223
0000c0 fd c5 b2 3c f6 42 f0 bd f1 42 64 3e 3e 44 8a bd
       0.021822924 -0.11731522 0.22291161 -0.067512974
0000d0 aa bd c9 bd f8 be f3 bd 6c a1 de 3d 22 09 d5 3d
       -0.09850629 -0.11901659 0.108706325 0.104021326
0000e0 08 33 8a bd 44 7f 2e bc 0a 8c 16 be 71 b0 0f 3b
       -0.06748015 -0.01065046 -0.14701858 0.0021925236
0000f0 c8 2f dd 3d 31 4e 66 3e 53 92 27 bd 08 bd 9e 3d
       0.10800129 0.22490765 -0.04091103 0.077508986
