Save-Models/model-lat4.pth (torch, 191714 bytes, 16 tensors)

encoder.0.weight f4 [128, 99]
0	0xbda60c54	-0.0810782
1	0xbd383b37	-0.044978347
2	0xbd8a46c4	-0.06751779
3	0x3c29ce79	0.010364168
4	0xbdab03a2	-0.08350302
5	0xbb1175f3	-0.0022195547
6	0x3da8c096	0.08239858
7	0xbdb9d498	-0.09073752
8	0xbde38d9b	-0.111109935
9	0xbc9b837d	-0.018983597
10	0x3d88e7f2	0.06684865
11	0xbcef3186	-0.02919842
12	0xbdaaa362	-0.08331944
13	0x3d3063cf	0.043063935
14	0xbc4eb0ac	-0.012615364
15	0xbd99f0d7	-0.0751664
16	0x3d3f7f80	0.046752453
17	0xbd7b3eb4	-0.061339095
18	0xbd95fbc2	-0.073234096
19	0xbd871fe2	-0.06597878
20	0x3d9846c6	0.07435374
21	0xbb60eab7	-0.0034319588
22	0x3d9ddb00	0.077077866
23	0x3d247bd5	0.040157158
24	0xbdad99ca	-0.084765986
25	0x3c559569	0.01303611
26	0xbd9410f1	-0.07229794
27	0xbd3a60da	-0.04550252
28	0x3d927a59	0.07152242
29	0xbba61266	-0.0050681112
30	0x3c92ef70	0.017936438
31	0x3d5f3192	0.054490633
32	0xbdda809a	-0.1066906
33	0x3da3cc0c	0.07997903
34	0xbd32295a	-0.043496467
35	0xbdcfd6d3	-0.10148396
36	0xbda95d13	-0.082697056
37	0x3d80621b	0.06268712
38	0xbd6760ff	-0.056488987
39	0xbd3a5634	-0.045492366
40	0xbcb1e5f1	-0.02171609
41	0x3d1e09d2	0.038583584
42	0xbdcf8435	-0.10132638
43	0x3d4449d6	0.047921978
44	0xbdbc5e5e	-0.091976866
45	0x3c9a7635	0.018855194
46	0xbde4a043	-0.1116338
47	0xbc8516d4	-0.016246237
48	0x3b85e7e0	0.0040864795
49	0xbd00ecd0	-0.031475842
50	0xbd624bad	-0.05524795
51	0x3dad39e1	0.08458305
52	0xbd5796df	-0.052634116
53	0xbdc4889e	-0.0959637
54	0x3d7ce964	0.061746016
55	0x3d43b866	0.047783278
56	0xbd91ea0b	-0.07124718
57	0xbcdc6d6f	-0.02690765
58	0xbc7660a6	-0.015037691
59	0x3c45fc3c	0.012084063
60	0xbbb25669	-0.00544243
61	0xbd9e2f45	-0.0772386
62	0xbd8d422e	-0.068973884
63	0x3dc340dd	0.09533856
64	0x3dd46427	0.10370665
65	0x3c144a26	0.0090508815
66	0x3da21e31	0.07915915
67	0x3d485d08	0.048916847
68	0xbdb17a90	-0.08665955
69	0x3dc47383	0.095923446
70	0xbd3e7ed8	-0.046507686
71	0xbd897d99	-0.06713409
72	0x3dc34577	0.09534734
73	0x3d0163fc	0.031589493
74	0x3d819d40	0.06328821
75	0x3beed32a	0.0072883563
76	0xbd10e264	-0.035372153
77	0xbc9f8060	-0.019470394
78	0xbd78c2b8	-0.060732573
79	0x3b243aab	0.0025059383
80	0x3d70a56d	0.058751512
81	0xbcf8bb86	-0.030362856
82	0xbd2cf734	-0.04222794
83	0x3cc36c73	0.023855424
84	0xbc707e7f	-0.0146785965
85	0x3cc0b88d	0.0235255
86	0x3d1e6ee6	0.03867998
87	0xbc19af50	-0.009380177
88	0xbd399df5	-0.045316655
89	0xbb92a144	-0.0044747908
90	0xbc5fd028	-0.013660468
91	0xbd50225a	-0.05081401
92	0xbdbe393e	-0.09288262
93	0x3c486087	0.012230045
94	0xbdcb81d2	-0.09936871
95	0xbc0a598a	-0.008444199
96	0xbd4969ba	-0.049173094
97	0xbddb06d7	-0.10694664
98	0x3d0354ad	0.032063175
99	0x3d730b81	0.059337143
100	0xbd997916	-0.074937984
101	0xbd992fda	-0.0747983
102	0x3d030990	0.03199154
103	0x3b9c5546	0.0047709076
104	0x3bd5d561	0.006525681
105	0x3d4a9001	0.04945374
106	0xbd13809f	-0.036011335
107	0x3d48ccb2	0.049023338
108	0x3dd58bfb	0.1042709
109	0xbd4e0a46	-0.050302766
110	0xbd594f15	-0.053053934
111	0x3d844799	0.06458969
112	0x3dd76512	0.105173245
113	0xbadc53e5	-0.001680967
114	0x3c37295a	0.011179293
115	0xbc401ce4	-0.011725638
116	0x3aa6cc4c	0.001272568
117	0x3ddafd7b	0.10692879
118	0x3d1b2977	0.03788134
119	0xbd069c9f	-0.03286421
120	0xbda2a174	-0.07940951
121	0xbc8a092a	-0.016850073
122	0xbd638a65	-0.055551905
123	0x3ddb2f88	0.10702425
124	0x3dc08b33	0.0940155
125	0x3d46f4da	0.048573352
126	0x3d77f3b9	0.060535166
127	0xbd8302a1	-0.06396986
128	0x3d09ae82	0.03361369
129	0x3da1b3e8	0.078956425
130	0xbd087f7b	-0.0333247
131	0xbd8f0cfc	-0.069848984
132	0xbbeb7766	-0.0071858643
133	0xbc9e15ef	-0.019297568
134	0x3dffd323	0.12491443
135	0x3de39430	0.11112249
136	0x3b2b7054	0.0026159482
137	0xbd582c6c	-0.05277674
138	0x3dca37a7	0.09873896
139	0x3ceeaee8	0.029136136
140	0x3ddef245	0.10886053
141	0x3957c0a1	0.00020575758
142	0xbd1f236b	-0.038852137
143	0x3daf7f17	0.08569162
144	0xbd9c51f1	-0.076328166
145	0xbcb7d62e	-0.022440996
146	0x3df4e3d1	0.11957515
147	0x3d860210	0.06543362
148	0x3d54f688	0.051992923
149	0x3dd5a958	0.104326904
150	0x3d6b0861	0.057381038
151	0xbd3ae824	-0.045631543
152	0x3d843c59	0.06456823
153	0x3c1e95df	0.009679287
154	0xbd1cd38a	-0.038287677
155	0xbd94e868	-0.072708905
156	0x3dd56421	0.10419489
157	0xbd9c4695	-0.0763065
158	0xbd0ccc1e	-0.03437435
159	0x3dcebee6	0.10095005
160	0x3d062f4d	0.032759953
161	0x3c4be84b	0.01244552
162	0x3d9069fc	0.07051465
163	0x3dade931	0.08491743
164	0xbd53943f	-0.05165505
165	0xbc8417a7	-0.01612456
166	0x3dd007d5	0.10157744
167	0xbd17d649	-0.037069593
168	0xbd4b16d5	-0.04958232
169	0xbd25b798	-0.04045829
170	0x3d4713da	0.048602916
171	0x3db453e6	0.08805065
172	0xbce25bb2	-0.027631614
173	0x3dd8415a	0.1055934
174	0x3d85a566	0.06525688
175	0xbd5b97f2	-0.053611703
176	0x3ce2e22c	0.027695738
177	0xbd8a3dc4	-0.06750062
178	0x3d93ca9c	0.07216379
179	0x3dd1eec0	0.10250616
180	0xbd821509	-0.063516684
181	0x3ca383f7	0.019960387
182	0x3dc6df65	0.09710578
183	0x3d9bdc6a	0.076104
184	0x3d4ac9c2	0.049508817
185	0xbd3841a5	-0.04498448
186	0xbd90d565	-0.07071952
187	0x3d8e0492	0.069344655
188	0x3d438e59	0.047743175
189	0xbd2ba9e5	-0.04191007
190	0xbd7574de	-0.059925906
191	0xbc26df85	-0.010185127
192	0x3d90607c	0.07049653
193	0x3d03b42e	0.032154255
194	0xbd2b7a09	-0.04186443
195	0xbd287b88	-0.041133434
196	0xbca074a8	-0.019586876
197	0x3c8fc707	0.017550958
198	0xbd7b8e90	-0.061415255
199	0xbd9c6c56	-0.07637851
200	0xbdd781cf	-0.10522806
201	0x3caf218c	0.021378301
202	0xbd1830e2	-0.037155993
203	0xbd421ca4	-0.047390595
204	0xbd2e4ff5	-0.04255672
205	0x3ba7a542	0.005116136
206	0xbccdef11	-0.02513841
207	0x3cadafb5	0.021201948
208	0xbd6ebce2	-0.0582856
209	0xbd9fa63d	-0.07795379
210	0x3da0cabf	0.07851171
211	0xbc3a2a4d	-0.011362624
212	0xbce555ed	-0.027995074
213	0xbcd01b62	-0.025403682
214	0xbd73d211	-0.059526507
215	0x3d31ae38	0.04337904
216	0x3daa9e96	0.08331029
217	0x3d2103f3	0.039310407
218	0xbda04b52	-0.07826866
219	0xbdb66400	-0.08905792
220	0x3d4778d5	0.04869922
221	0xbd5e1409	-0.054218326
222	0x3d399c4d	0.045315076
223	0xbc2ed112	-0.010669963
224	0xbdc851b6	-0.0978121
225	0x3acd0d97	0.0015644309
226	0xbd4511a9	-0.048112545
227	0xbcd98b94	-0.026555814
228	0xbb53454b	-0.0032237347
229	0x3d9a041f	0.07520317
230	0x3b96e69d	0.004605128
231	0x3d8dd9e5	0.06926326
232	0xbc4ce6f9	-0.01250624
233	0xbd2aabf0	-0.04166788
234	0xbc8936aa	-0.016749699
235	0xbdd90df0	-0.105983615
236	0xbde36932	-0.11104049
237	0xbddc2083	-0.107483886
238	0xbd0a5383	-0.03377105
239	0xbd9181cc	-0.07104835
240	0xbdddf571	-0.1083783
241	0xbc762463	-0.015023324
242	0x3b88b2c3	0.0041717007
243	0x3daeae51	0.08529342
244	0xbc011198	-0.00787773
245	0x3cc77e71	0.024352284
246	0xbce4ca51	-0.027928503
247	0xbd8aa3ac	-0.06769499
248	0xbda18d50	-0.07888281
249	0xbd8f7e01	-0.07006455
250	0xbd9eb03b	-0.07748457
251	0x3d7029a7	0.058633473
252	0xbbf9a108	-0.0076180734
253	0x3d8a6eb1	0.06759394
254	0xbc40e1d3	-0.011772591
255	0x3d87e129	0.06634743

encoder.0.bias f4 [128]
0	0xbe1bed4a	-0.15227237
1	0xbe3b710d	-0.18304844
2	0xbd810bda	-0.06301089
3	0xbd8b8ee4	-0.068143636
4	0xbdc88a1e	-0.09791969
5	0xbdff6938	-0.12471241
6	0xbdab74de	-0.083719
7	0x3d1106c4	0.035406843
8	0xbdecec9e	-0.11568569
9	0xbd9dbfe7	-0.07702618
10	0xbe195ff6	-0.14978012
11	0xbe4f3a55	-0.20237096
12	0x39f61410	0.00046935724
13	0xbdd88357	-0.10571926
14	0xbe38aec2	-0.18035415
15	0xbeb6cb2e	-0.3570189
16	0xbde86e4b	-0.11349162
17	0xbc633816	-0.013868352
18	0xbd415502	-0.04720021
19	0xbe04469b	-0.12917559
20	0xbd4f6209	-0.050630603
21	0xbdb593e5	-0.08866099
22	0x3c46dca3	0.012137565
23	0xbc373975	-0.011183132
24	0xbebdce7a	-0.37071592
25	0xbcb97c6f	-0.022642342
26	0xbd30b557	-0.04314169
27	0x3ca1f827	0.019771649
28	0xbd5604a8	-0.052250534
29	0xbca03888	-0.019558206
30	0xbe4b3cc0	-0.19847393
31	0x3e61b09e	0.2204003
32	0xbe17aa6c	-0.14811105
33	0xbdc53491	-0.09629167
34	0xbded74bc	-0.11594531
35	0xbe234236	-0.15943226
36	0xbc91c71c	-0.017795138
37	0xbe5ac227	-0.21363126
38	0xbea54676	-0.3228032
39	0xbdf87607	-0.12131887
40	0xbe4e00f8	-0.20117557
41	0xbdf082cb	-0.11743697
42	0xbe9e5ca9	-0.3093007
43	0xbeb31577	-0.34977314
44	0xbc2b138b	-0.010441671
45	0xbe50b7dd	-0.20382638
46	0xbe12441e	-0.14283797
47	0xbdeff9c9	-0.117175646
48	0xbd57b5d1	-0.052663628
49	0xbe574514	-0.21022445
50	0xbe3c3c45	-0.18382366
51	0xbdb74969	-0.08949549
52	0xbdee4692	-0.11634554
53	0xbde7710d	-0.113008596
54	0xbe5d7b7d	-0.21629138
55	0xbd725aaa	-0.059168495
56	0x3acd5e3f	0.0015668346
57	0xbe0c831b	-0.13721888
58	0xbc13c290	-0.009018555
59	0xbe17411e	-0.14770934
60	0xbd97b66e	-0.074078426
61	0xbe2c586d	-0.16830607
62	0xbdb8c253	-0.090214394
63	0xbdf2e828	-0.118606865
64	0x3de45563	0.11149099
65	0x3cbe0ae3	0.02319855
66	0xbe6c53d5	-0.23078854
67	0xbc8c5b12	-0.01713327
68	0xbd3b0e2b	-0.04566781
69	0xbdf1f828	-0.1181491
70	0xbd9c84ba	-0.07642503
71	0xbdcf9c54	-0.10137239
72	0xbdc31f58	-0.09527463
73	0xbdf9126a	-0.12161715
74	0xbe2163d9	-0.15760745
75	0xbd922e00	-0.0713768
76	0xbdb229c3	-0.08699372
77	0xbe80fdbf	-0.25193593
78	0xbe027ce7	-0.12742959
79	0xbdcd794d	-0.10032902
80	0xbdc65ef2	-0.09686078
81	0xbc758bbe	-0.01498693
82	0xbda30c4b	-0.07961329
83	0xbe4c52f7	-0.19953524
84	0xbe913ab5	-0.28365102
85	0xbe0e2555	-0.13881429
86	0xbe813dcb	-0.25242457
87	0xbe20ef90	-0.15716386
88	0xbdf71a67	-0.12065583
89	0xbe1cb28a	-0.15302482
90	0xbe5f2384	-0.21790892
91	0xbddf139b	-0.10892411
92	0xbe3bcd8f	-0.18340133
93	0xbdb56878	-0.088578165
94	0xbccf0815	-0.025272409
95	0xbb8f3229	-0.004369993
96	0xbe3da505	-0.18519981
97	0xbe20da79	-0.1570834
98	0xbe20d551	-0.15706374
99	0xbe03492c	-0.12820882
100	0xbe28bbd5	-0.16477902
101	0xbd959368	-0.07303506
102	0xbe1abb16	-0.1511043
103	0xbe2e60aa	-0.17029062
104	0xbe36ca03	-0.17850499
105	0xbc90e13e	-0.017685529
106	0xbe15038e	-0.14552137
107	0xbd33f8f2	-0.043938585
108	0xbe807f7e	-0.2509727
109	0xbe440901	-0.1914406
110	0xbd056a58	-0.03257212
111	0xbdde9d98	-0.10869902
112	0x3d5ad69e	0.05342733
113	0xbd0a4445	-0.033756513
114	0xbe21fddd	-0.15819497
115	0xbe945fdc	-0.28979385
116	0xbd5138cc	-0.051079556
117	0xbd1e67fc	-0.038673386
118	0x3d88deb7	0.066831045
119	0xbe767b5b	-0.24070494
120	0xbe1ac768	-0.1511513
121	0xbdc78a11	-0.09743131
122	0xbdb7b589	-0.08970172
123	0x3c39592a	0.011312762
124	0xbe1f85cc	-0.15578383
125	0xbc1e9b4d	-0.009680581
126	0xbe4ed95b	-0.20200102
127	0xbd55cb20	-0.05219567

encoder.3.weight f4 [64, 128]
0	0x3dbb1caf	0.0913633
1	0xbde1c51b	-0.11023923
2	0x3c43bbd9	0.011946642
3	0x3db300e8	0.08740407
4	0x3d4af284	0.049547687
5	0xbabd1251	-0.0014425014
6	0xbd0a3be5	-0.033748526
7	0x3d6ef0bf	0.058335062
8	0xbc1c5213	-0.009541052
9	0x3de17618	0.11008853
10	0x3d2d0182	0.042237766
11	0x3cb0b568	0.021570876
12	0xbbbdff5b	-0.005798263
13	0xbc0ce685	-0.008599882
14	0xbc5f9559	-0.013646447
15	0xbd216f26	-0.03941264
16	0x3caa56b1	0.02079329
17	0xbc9a50c5	-0.018837342
18	0xbdca93b9	-0.09891457
19	0xbcbeb9c7	-0.023281945
20	0xbd34881a	-0.04407511
21	0xbc97092e	-0.018436994
22	0x3d126ff1	0.035751287
23	0xbc996350	-0.018724114
24	0x3cbd140b	0.023080846
25	0xbd58066d	-0.052740503
26	0xbd262190	-0.04055935
27	0xbd67d0c1	-0.056595568
28	0xbc5d785b	-0.0135174645
29	0x3dd09f1b	0.10186597
30	0x3b0b1398	0.0021221396
31	0xbd6b31de	-0.057420604
32	0x3dc282ce	0.09497605
33	0xbd290969	-0.04126874
34	0xbd50a92b	-0.05094258
35	0xbdbe006f	-0.092774265
36	0x3de5f291	0.112279065
37	0xbdd1e42c	-0.102485985
38	0xbc13fbc0	-0.00903219
39	0x3aef9b2d	0.0018280499
40	0xbdb97e88	-0.09057337
41	0xbcc719a4	-0.024304219
42	0xbe06614f	-0.13123058
43	0x3c5222ca	0.012825677
44	0x3d2d1857	0.04225954
45	0xbd64700b	-0.055770915
46	0xbdbf6e5f	-0.093472235
47	0x3d7732b7	0.0603511
48	0x3d46f858	0.048576683
49	0x3d919a98	0.071095645
50	0x3c7a5071	0.015277968
51	0x3d039eac	0.032133743
52	0x398bf940	0.00026697852
53	0xbceb91e4	-0.02875609
54	0x3d9ad1ac	0.07559523
55	0xbd174684	-0.036932483
56	0x3da3c799	0.079970546
57	0xbd481b16	-0.048853956
58	0x3cff0ded	0.03113457
59	0x3dd24e80	0.10268879
60	0x3d97f948	0.074205935
61	0xbd2af2d4	-0.041735485
62	0xbc4f1029	-0.01263813
63	0x3ccb3bf7	0.024808867
64	0xbd7eb8a7	-0.062187817
65	0x3d826761	0.06367374
66	0x3c3b0a2e	0.011416001
67	0xbd6fc5dc	-0.058538303
68	0xbcb66aab	-0.02226766
69	0xbcf6fea8	-0.030150726
70	0xbdd3d7de	-0.10343908
71	0x3d8ec9d8	0.069720924
72	0x3d21088b	0.039314788
73	0x3d79be43	0.060972463
74	0xbce9bbca	-0.028531928
75	0x3dd20f32	0.102568045
76	0xbc8d5734	-0.017253496
77	0x3c44028c	0.011963498
78	0xbcf2a225	-0.029618332
79	0xbdef2626	-0.11677198
80	0x3d6f130a	0.058367766
81	0x3db8a3b0	0.09015596
82	0x3d105380	0.03523588
83	0xbc8c9348	-0.017160073
84	0xbc5915e2	-0.013249846
85	0x3c835c33	0.016035175
86	0xbd1e6ed5	-0.038679916
87	0xbd6bc22e	-0.05755823
88	0x3b8ff8ec	0.0043936875
89	0x3def7876	0.11692898
90	0x3c7c61b1	0.015404151
91	0xbd465ad1	-0.048426453
92	0xbd031115	-0.031998713
93	0x3d4134dd	0.047169555
94	0xbca877a4	-0.020564862
95	0xbc4cf91a	-0.012510562
96	0xbdc486cb	-0.09596022
97	0xbcb4c51e	-0.022066649
98	0x3d8f9926	0.070116326
99	0xbd6bbdd3	-0.057554077
100	0xbdc91a4a	-0.09819467
101	0xbd742fee	-0.05961602
102	0x3c16d540	0.009206116
103	0x3ca64393	0.020295894
104	0x3d5f50d4	0.054520443
105	0x3cdccd5b	0.02695339
106	0x3d6ff566	0.05858364
107	0xbc82a6a3	-0.0159486
108	0x3dcbe163	0.099550985
109	0xbd64b797	-0.055839147
110	0xbcc2548a	-0.023721952
111	0xbd550984	-0.052011028
112	0x3d8b239f	0.067939036
113	0xbd70aecf	-0.05876046
114	0x3c4a056e	0.012330396
115	0xbd291183	-0.041276466
116	0xbdbe2e69	-0.09286196
117	0x3d824e99	0.063626476
118	0xbcacea74	-0.02110789
119	0xbddc5400	-0.10758209
120	0xbd691347	-0.05690315
121	0xbcf730d0	-0.030174643
122	0x3dea9ee2	0.11456086
123	0x3c07189e	0.008245615
124	0x3cdc30de	0.02687877
125	0xbd18c125	-0.037293572
126	0xbd6f860d	-0.05847745
127	0xbc94b40a	-0.018152256
128	0x3d0d7464	0.034534827
129	0xbda1cb8f	-0.07900154
130	0x3d3b8a32	0.04578609
131	0x3dcd0929	0.10011513
132	0xbcee1f89	-0.029067772
133	0x3dcc32cc	0.09970626
134	0x3ce0cdfe	0.027441975
135	0x3d43541e	0.047687642
136	0x3d5a1bee	0.053249292
137	0x3c418265	0.011810874
138	0x3d2ec7c4	0.04267098
139	0x3db2b636	0.0872616
140	0xbd98383f	-0.07432603
141	0x3dce6710	0.10078251
142	0x3cf71f07	0.030166162
143	0xbd1de7b9	-0.038551066
144	0x3d369228	0.04457298
145	0x3dd9d895	0.10637013
146	0x3c58a8b0	0.013223812
147	0xbde64d42	-0.112452045
148	0xbd605142	-0.054764993
149	0xbc9054f8	-0.017618641
150	0x3dad62cb	0.08466109
151	0x3db28b96	0.0871803
152	0x3bd773c9	0.006575082
153	0xbd34e708	-0.04416564
154	0x3be1cbe2	0.00689076
155	0xbd49c623	-0.049261224
156	0x3dafccdb	0.08583995
157	0x3db63225	0.08896283
158	0x3ccf71f7	0.025322897
159	0xbe0d9435	-0.13826068
160	0x3c330400	0.010926247
161	0x3cd3e5f6	0.02586649
162	0xbd924d71	-0.07143677
163	0xbc2102ce	-0.009827329
164	0x3d881e44	0.06646398
165	0xbc06685a	-0.00820359
166	0x3d70d416	0.05879601
167	0xbda75220	-0.08169961
168	0xbcc9ce51	-0.024634512
169	0x3cfff79e	0.031246003
170	0xbd5fdcce	-0.054653935
171	0x3db1204c	0.08648738
172	0x3da78b61	0.08180881
173	0x3d9e5d17	0.07732599
174	0x3d1263e7	0.035739806
175	0x3c89efcb	0.016837975
176	0xbd938e1e	-0.07204841
177	0xbcdc9498	-0.026926324
178	0xbd73eea6	-0.059553765
179	0x3cdabb7c	0.026700728
180	0x3b053f22	0.002033182
181	0x3d634699	0.05548725
182	0x3d352c58	0.044231743
183	0xbd2c1a60	-0.04201734
184	0x3d23b3dc	0.03996645
185	0xbca51b5b	-0.020154646
186	0x3c83fb91	0.016111167
187	0xbb8b7ec6	-0.004257056
188	0xbc228f49	-0.009921857
189	0xbcdf3102	-0.027245048
190	0x3d0f104d	0.034927655
191	0x3d8b0cab	0.067895256
192	0xbe1772ef	-0.14789937
193	0x3c8cac8a	0.017172117
194	0xbd9145fa	-0.07093425
195	0xbcedf451	-0.029047163
196	0x3ce37abd	0.027768487
197	0x3d79bcd0	0.06097108
198	0x3c9e779d	0.019344145
199	0x3da0622b	0.07831224
200	0xbcbd125d	-0.023080045
201	0xbd44eee2	-0.04807938
202	0xbd5996a1	-0.053122167
203	0xbd50ece9	-0.051007185
204	0xbceb5196	-0.028725427
205	0xbc90e1ae	-0.017685737
206	0xbd567d05	-0.05236532
207	0x3ca5f4f5	0.020258406
208	0x3d70bfd3	0.058776688
209	0x3c87aa69	0.01656075
210	0xbd6bf6b1	-0.05760831
211	0xbdb05459	-0.08609838
212	0xbd2760b8	-0.040863723
213	0x3abfac3c	0.0014623473
214	0xbdd8b970	-0.105822444
215	0xbbd86536	-0.006603862
216	0x3d56fabe	0.05248522
217	0x3dadbaaa	0.08482869
218	0xbcb60e9d	-0.022223765
219	0xbd9357b9	-0.07194466
220	0xbd3b5bc9	-0.04574183
221	0xbc822508	-0.015886799
222	0x3c6565d8	0.014001332
223	0xbb9b1839	-0.004733112
224	0xbc868684	-0.016421564
225	0x3ca9e6f0	0.020740002
226	0x3da8fa3a	0.08250852
227	0xbb87dfb8	-0.0041465424
228	0xbd2420c2	-0.040070303
229	0x3d2366d9	0.039893005
230	0x3dc03b3b	0.09386297
231	0xbd3e2bcd	-0.04642849
232	0x3db209a5	0.08693246
233	0x3d6aea75	0.057352502
234	0xbcc53aed	-0.02407595
235	0xbd637012	-0.0555268
236	0x3df00918	0.117204845
237	0x3d90f920	0.07078767
238	0xbd1b440e	-0.0379067
239	0x3d6cef63	0.057845484
240	0xbe156c2f	-0.1459205
241	0x3d8109c2	0.06300689
242	0xbb4f36ea	-0.0031618425
243	0xbdb69d03	-0.08916666
244	0xbc74de62	-0.014945598
245	0xbcd0d1e3	-0.025490707
246	0xbd04a02a	-0.032379307
247	0x3ccbbdae	0.02487072
248	0x3c6ee42f	0.01458077
249	0x3d04d520	0.032429814
250	0xbb7e75b0	-0.0038827471
251	0x3d989d72	0.07451905
252	0xbd41ddf6	-0.04733082
253	0x3dda44e8	0.10657674
254	0x3c54caad	0.012987775
255	0x3c729de7	0.014808155

encoder.3.bias f4 [64]
0	0xbd6e50ae	-0.05818241
1	0xbdb74020	-0.08947778
2	0xbc891309	-0.01673271
3	0x3d2ab84b	0.04167966
4	0xbddcc998	-0.107806385
5	0xbdd49647	-0.10380226
6	0x3d0e6efd	0.034773815
7	0xbe843227	-0.25819513
8	0xbe37a5ef	-0.17934392
9	0xbd2a71e8	-0.041612536
10	0xbdc32736	-0.09528963
11	0xbd52bb1e	-0.05144798
12	0xbd75637f	-0.05990934
13	0x3b81a4a2	0.0039563933
14	0xbd4b486a	-0.049629606
15	0xbc879694	-0.016551293
16	0xbdb981c6	-0.090579554
17	0x3cacfa2a	0.021115381
18	0x3c8dc19c	0.017304234
19	0xbe56924e	-0.20954248
20	0xbe43186a	-0.19052282
21	0xbc7b807d	-0.015350458
22	0xbd980384	-0.074225456
23	0x3d830af9	0.06398577
24	0xbdec709d	-0.11544917
25	0xbe0abc06	-0.13548288
26	0xbdd0e02a	-0.10199006
27	0x3b2464d6	0.0025084517
28	0xbcf73327	-0.030175759
29	0xbc4c325f	-0.012463181
30	0xbe15308a	-0.14569297
31	0xbdb13c53	-0.08654084
32	0xbd9c77f2	-0.07640065
33	0x3ccf2e82	0.025290731
34	0xbe2aa7da	-0.16665593
35	0xbe4d3f37	-0.20043646
36	0xbdb58ef8	-0.0886516
37	0x3ae1c204	0.0017223959
38	0xbddeeb1b	-0.108846866
39	0xbea97c36	-0.33102578
40	0xbde544a1	-0.111947306
41	0xbd3e8454	-0.046512917
42	0xbd849509	-0.06473739
43	0xbd2f34a1	-0.0427748
44	0xbde455cd	-0.11149178
45	0xbe6c031d	-0.23048063
46	0xbd8ac988	-0.0677672
47	0xbddca1cb	-0.10773047
48	0xbd842b37	-0.06453555
49	0xbdaa35c1	-0.08311034
50	0xbce12593	-0.027483737
51	0xbe1c32b8	-0.15253723
52	0xbd4f9983	-0.05068351
53	0xbd9390d5	-0.07205359
54	0xbe0b3040	-0.13592625
55	0x3d1ee95e	0.038796775
56	0xbe6cf1b6	-0.2313908
57	0xbe309f09	-0.17248167
58	0xbd8ca9bc	-0.06868312
59	0xbe1b9240	-0.15192509
60	0xbdc5aa77	-0.09651654
61	0x3dddfc7a	0.10839172
62	0xbdb2dba7	-0.087333016
63	0xbd6e1cc6	-0.05813291

encoder.6.weight f4 [32, 64]
0	0x3e037a7a	0.1283969
1	0xbd50092e	-0.050790004
2	0x3ceb053d	0.028689021
3	0xbc9f6738	-0.019458398
4	0xbe0b8f13	-0.13628797
5	0xbd4d3819	-0.050102327
6	0xbd95fa9a	-0.07323189
7	0xbc992e6c	-0.018698893
8	0xbd84a8de	-0.06477521
9	0x3e22e3dc	0.15907234
10	0xbcc6c3a5	-0.024263212
11	0xbd6e2883	-0.058144104
12	0x3ca3f881	0.020015957
13	0x3ddf880e	0.10914622
14	0x3d3dd8bc	0.046349272
15	0x3c8e7270	0.017388552
16	0x3dbbddd7	0.09173172
17	0x3df571bc	0.11984584
18	0x3d4c09c5	0.049814004
19	0xbe06c1a4	-0.13159806
20	0x3bdb4711	0.0066918214
21	0x3dca92ea	0.09891303
22	0xbc410237	-0.011780313
23	0x3d68cc26	0.056835316
24	0xbda0dc2a	-0.07854493
25	0xbc20b2a8	-0.00980822
26	0xbdf326ed	-0.11872659
27	0xbbb471e7	-0.0055067423
28	0x3cd1f0a4	0.025627442
29	0x3e0a7461	0.13520958
30	0xbdf7e57e	-0.12104319
31	0x3aae0f8c	0.001327978
32	0x3d63218f	0.055451926
33	0x3dbe231f	0.092840426
34	0x3e0d6f1c	0.13811916
35	0x3d9374f0	0.072000384
36	0x3db47e6a	0.08813174
37	0x3d92af5d	0.07162354
38	0xbe0b224c	-0.13587302
39	0xbe3e7828	-0.18600523
40	0x3d34a222	0.044099934
41	0x3c334b26	0.01094321
42	0xbcd25e26	-0.02567966
43	0xbdeb0c21	-0.11476923
44	0x3e271726	0.16317424
45	0x3ddaedbd	0.10689876
46	0xbd4bfaa4	-0.049799576
47	0xbc2bc43d	-0.010483799
48	0xbd25ffdd	-0.040527213
49	0x3dd604bf	0.10450124
50	0x3d080830	0.033210933
51	0x3e10a732	0.1412628
52	0xbd94f9be	-0.07274197
53	0x3cf1b947	0.029507292
54	0xbd486e4d	-0.048933316
55	0xbd1702c3	-0.03686787
56	0x3ddd83cf	0.10816156
57	0x3d678106	0.05651953
58	0xbca5bf53	-0.020232832
59	0xbc351498	-0.011052273
60	0x3e2137e4	0.15743977
61	0x3d9b114c	0.075716585
62	0x3d6d1e73	0.057890367
63	0x3dd8cfc5	0.10586504
64	0xbc2574e7	-0.0100986725
65	0xbd2a9f15	-0.04165562
66	0x3dced145	0.10098509
67	0x3de20729	0.11036522
68	0x3d580e0e	0.05274778
69	0x3cdb85b3	0.026797151
70	0x3ced9bcc	0.029004954
71	0x3dc21ebc	0.09478518
72	0x3d8ffe8b	0.07030972
73	0xbe162590	-0.14662766
74	0xbcef660d	-0.029223466
75	0x3da46f29	0.080290146
76	0xbe0f2f75	-0.13982947
77	0xbcf8b198	-0.03035812
78	0x3c8f6c5f	0.01750773
79	0x3c8c1f9e	0.01710492
80	0x3c9d2858	0.019184276
81	0x3ce1b544	0.027552254
82	0x3d145d8e	0.036222033
83	0xbca1eccb	-0.019766232
84	0x3d2a43a2	0.041568406
85	0xbdb45d09	-0.088068075
86	0xbc8a5c54	-0.016889729
87	0xbe004fd2	-0.12530449
88	0x3df8bacd	0.121450044
89	0x3e2bc8dd	0.16775842
90	0x3d14bdea	0.03631393
91	0xbd2ed17e	-0.042680256
92	0xbdfe6666	-0.12421875
93	0x3d1a4e5c	0.037672386
94	0x3d9b351e	0.07578491
95	0x3c864c13	0.016393697
96	0xbd07d973	-0.03316636
97	0x3bed3eaf	0.0072401385
98	0xbdd9125d	-0.10599206
99	0xbd713c08	-0.05889514
100	0xbe09a00f	-0.13439964
101	0xbd5d7ae5	-0.05407228
102	0x3d239858	0.03994021
103	0x3dab14a4	0.08353546
104	0xbdf6e1a3	-0.120547555
105	0x3d8576dd	0.06516812
106	0xbd3056e6	-0.043051623
107	0x3daef545	0.08542875
108	0x3c928b16	0.017888587
109	0xbe18340d	-0.14863606
110	0x3d681015	0.056655962
111	0x3cbbff56	0.022948902
112	0xbdf31df7	-0.1187095
113	0xbda88894	-0.08229175
114	0xbd8ec599	-0.069712825
115	0xbd46e6d4	-0.04855998
116	0x3d5c5082	0.053787716
117	0xbdbcd0c4	-0.092195064
118	0xbd8c173d	-0.0684037
119	0xbdec3ff2	-0.11535634
120	0x3d4f2611	0.050573412
121	0xbd056224	-0.032564297
122	0x3dc51ad0	0.09624255
123	0xbdf83caa	-0.12120946
124	0xbe32aaf1	-0.17448021
125	0xbe563db4	-0.20921975
126	0x3c53ef58	0.012935482
127	0xbd7112a8	-0.058855683
128	0xbc839bdd	-0.016065532
129	0x3e110a28	0.1416403
130	0xba4e5847	-0.0007871431
131	0x3cdf2d52	0.02724329
132	0xbdc37f49	-0.09545762
133	0x3d5192fa	0.05116556
134	0x3db3a66d	0.087719776
135	0x3e01ed6c	0.12688226
136	0xbc8c1634	-0.017100431
137	0xbe07d34a	-0.13264194
138	0x3dc55302	0.09634973
139	0xbbad173f	-0.005282312
140	0xbd3456dc	-0.044028148
141	0x3d551906	0.052025817
142	0xbdc53c16	-0.09630601
143	0x3d2fbbaf	0.0429036
144	0x3de0fb0f	0.109853856
145	0xbca31a9e	-0.019910153
146	0x3de279ba	0.11058374
147	0xbdeea5e2	-0.116527334
148	0xbc77aeb4	-0.015117336
149	0x3d4422bf	0.0478847
150	0x3de2f20e	0.110813245
151	0x3e8cab62	0.27474505
152	0x3b323d12	0.0027197045
153	0xbd8c840f	-0.06861126
154	0xbc387979	-0.01125943
155	0xbd9c94a2	-0.07645537
156	0x3dd939a1	0.10606695
157	0x3df431d4	0.119235665
158	0xbd5fe985	-0.05466606
159	0x3c92a17d	0.01789927
160	0x3dd6296d	0.1045712
161	0x3dcf32a1	0.101170786
162	0x3ddeecae	0.10884987
163	0xbde6c7b3	-0.11268558
164	0xbd7286fa	-0.059210755
165	0xbd9c102f	-0.07620274
166	0xbcff4965	-0.031162927
167	0xbdccd80e	-0.10002147
168	0xbd2fefa8	-0.042953163
169	0xbd08b433	-0.033374976
170	0x3d9a19d1	0.07524455
171	0x3d01ff89	0.031737838
172	0xbd05aa2a	-0.032632984
173	0x3db3af9a	0.08773728
174	0x3d55e458	0.05221972
175	0x3d69f424	0.057117596
176	0x3dcdec3c	0.10054824
177	0x3d0a4adc	0.033762798
178	0xbc3acb2f	-0.011400982
179	0xbca5fec6	-0.020263087
180	0x3e0380a9	0.12842049
181	0xbc151fe9	-0.009101846
182	0xbddf3317	-0.108984165
183	0xbd917d40	-0.07103968
184	0x3ce3b545	0.027796397
185	0xbd8a9ba9	-0.06767971
186	0xbd68acc8	-0.056805402
187	0x3d3d1f59	0.046172474
188	0xbd07717c	-0.03306721
189	0x3e4d2da5	0.20036943
190	0x3d5995e2	0.053121455
191	0xbd4d589a	-0.050133325
192	0x3c2d77c7	0.010587639
193	0xbcf8a2d6	-0.030351084
194	0xbd39cc3b	-0.045360785
195	0x3cee450f	0.029085664
196	0xbe71ce1a	-0.23613778
197	0x3cf03410	0.0293217
198	0x3e0bfcf7	0.13670717
199	0x3dd21e2b	0.1025966
200	0xbdc2cf47	-0.09512191
201	0xbd9e38d5	-0.077256836
202	0x3dd41863	0.10356214
203	0xbdad582c	-0.08464083
204	0x3d3a64cc	0.045506284
205	0xbd9aed42	-0.075647846
206	0x3c9d55dd	0.019205982
207	0xbbef9b08	-0.0073121823
208	0x3c61b892	0.013776915
209	0xbdcf80f2	-0.10132016
210	0xbc955190	-0.018227369
211	0xbd04cad6	-0.032420002
212	0xbd5659f2	-0.052331872
213	0x3dcf3fc8	0.10119587
214	0xbdbb986c	-0.091599315
215	0x3e2debe9	0.16984524
216	0x3d8d6cc6	0.069055125
217	0xbe1b3992	-0.1515868
218	0xbddae24d	-0.10687695
219	0xbdb40dce	-0.087916955
220	0x3de0add4	0.10970655
221	0xbdd3d993	-0.10344233
222	0xbd14a44d	-0.036289502
223	0x3c8926aa	0.01674207
224	0xbe10bf6e	-0.14135525
225	0x3d968952	0.073504105
226	0x3bfb5f2d	0.007671258
227	0xbd985326	-0.07437734
228	0xbcd5bbeb	-0.026090583
229	0xbd148998	-0.036264032
230	0xbc6793f2	-0.014134394
231	0xbd33e7ea	-0.043922342
232	0x3bc9a1b6	0.0061533106
233	0x3d6f5e7b	0.058439713
234	0xbd8cfde6	-0.06884365
235	0x3d1f4059	0.038879726
236	0x3c21db92	0.00987901
237	0x3d000b95	0.031261045
238	0xbd83f606	-0.064434096
239	0xbe6cafbc	-0.23113912
240	0x3e47526d	0.19465037
241	0x3e02c76b	0.12771384
242	0x3da36b2c	0.07979426
243	0xbd37b27e	-0.044847958
244	0xbd981166	-0.074251935
245	0x3de9d31d	0.1141722
246	0x3d31e6f0	0.04343313
247	0xbde4b7a3	-0.111678384
248	0x3c779a2f	0.015112444
249	0x3b3e9f65	0.0029086706
250	0xbdaccc50	-0.08437407
251	0x3ddc0667	0.10743409
252	0x3d934a54	0.07191911
253	0x3db676e5	0.08909396
254	0xbd02127e	-0.031755917
255	0x3da64ec1	0.0812049

encoder.6.bias f4 [32]
0	0xbdbe7cb0	-0.09301126
1	0xbe511f9a	-0.20422211
2	0x3dd31e50	0.10308516
3	0x3d93af1d	0.072111346
4	0xbbd451f0	-0.0064794943
5	0x3d8494f5	0.06473724
6	0x3cdbced1	0.026832016
7	0x3d4445d0	0.04791814
8	0xbd5ce898	-0.053932756
9	0x3d744bde	0.059642665
10	0xbcfaa592	-0.030596528
11	0xbe04a336	-0.12952885
12	0xbddc9bea	-0.10771926
13	0xbdb6e18d	-0.08929739
14	0xbd1d36bb	-0.038382273
15	0x3dbc44b4	0.091927916
16	0x3da3f835	0.08006326
17	0xbe0686a3	-0.13137297
18	0xbdbc7eb2	-0.09203853
19	0x3da1e402	0.07904817
20	0xbdc77db0	-0.0974077
21	0xbd23a387	-0.039950874
22	0xbdfe511c	-0.12417814
23	0xbdb549f5	-0.08851997
24	0x3d50c79e	0.05097162
25	0xbd9d68b0	-0.07685983
26	0xbe06a031	-0.13147046
27	0x3d539ce6	0.051663302
28	0x3d2efcc3	0.04272152
29	0x3d031bf5	0.032009084
30	0xbe00ac07	-0.12565623
31	0x3da81014	0.08206192

encoder.9.weight f4 [4, 32]
0	0x3dfed081	0.12442113
1	0xbde10ebb	-0.10989138
2	0x3dd2796a	0.10277064
3	0x3e19870e	0.14992926
4	0x3be4e156	0.00698487
5	0x3cd3b3b8	0.025842533
6	0x3db845f4	0.089977175
7	0xbd452940	-0.048135042
8	0xbe2610e3	-0.1621738
9	0x3da3a295	0.079899944
10	0x3e1be7f0	0.15225196
11	0xbdbfe4f6	-0.09369843
12	0xbe2b11b0	-0.16705966
13	0xbe25b389	-0.16181768
14	0xbdb84670	-0.0899781
15	0x3e3b4889	0.18289389
16	0xbddc7c4a	-0.10765894
17	0xbc0fbfbc	-0.00877374
18	0x3de3e8aa	0.111283615
19	0xbe3841ed	-0.17993899
20	0xbd536b13	-0.051615786
21	0xbcfb8a3b	-0.030705562
22	0xbdc70ebe	-0.09719609
23	0x3e282595	0.16420586
24	0xbd47c421	-0.048771027
25	0x3db59451	0.0886618
26	0x3e05129b	0.12995379
27	0x3e4fe776	0.20303139
28	0xbe136b2b	-0.1439635
29	0x3da8ca27	0.082416825
30	0x3e4a4739	0.19753732
31	0x3d4bad5d	0.04972588
32	0xbdabbc66	-0.083855435
33	0x3d130fed	0.03590386
34	0xbdc8bd32	-0.09801711
35	0x3d0a83f3	0.033817243
36	0xbded6286	-0.115910575
37	0xbe29330e	-0.16523382
38	0xbd9b8b2c	-0.07594904
39	0xbe01a750	-0.12661481
40	0xbe0f9bb0	-0.14024234
41	0xbe14deaf	-0.14538072
42	0x3e0ba301	0.136364
43	0xbe003ecc	-0.12523955
44	0xbde2c382	-0.110724464
45	0xbdaf1e96	-0.08550756
46	0x3dfd5b50	0.12370932
47	0xbdf3c8ce	-0.11903535
48	0x3e562b0d	0.2091486
49	0xbe1acf19	-0.15118064
50	0x3d5302dc	0.0515164
51	0xbe25341e	-0.16133162
52	0x3be2d043	0.0069217994
53	0xbd8c673a	-0.068556264
54	0x3e43171d	0.19051786
55	0x3d6e02be	0.058108084
56	0xbda858f5	-0.08220092
57	0x3ded9973	0.11601534
58	0xbbb85447	-0.005625281
59	0x3df34126	0.118776605
60	0xbde218d3	-0.11039891
61	0xbe0fa4dc	-0.14027733
62	0x3e387193	0.18012075
63	0xbdde03eb	-0.10840591
64	0x3d1df08c	0.03855948
65	0x3d81f27a	0.06345077
66	0x3e111e42	0.14171699
67	0xbcc3f9de	-0.023922857
68	0x3df41601	0.119182594
69	0x3d609cf7	0.054837193
70	0xbe228fd9	-0.15875186
71	0xbd62a513	-0.05533321
72	0x3e326588	0.17421544
73	0x3d3793a4	0.044818535
74	0x3aadb593	0.0013252966
75	0x3e179bba	0.14805499
76	0xbd8bc1f6	-0.068241045
77	0xbdc3a331	-0.09552611
78	0x3e79c4be	0.24391457
79	0x3e1f0266	0.15528259
80	0xbe1d6925	-0.1537214
81	0xbc792eb1	-0.015208886
82	0xbca683f4	-0.020326592
83	0x3d8ea578	0.069651544
84	0xbdf2d35e	-0.11856721
85	0x3e2737b5	0.16329844
86	0x3c038402	0.008027079
87	0x3d28eff9	0.04124448
88	0x3d10f065	0.035385508
89	0xbd53b0ca	-0.05168227
90	0x3d8d0b55	0.06886927
91	0x3d818762	0.0632465
92	0xbd392b36	-0.045207225
93	0xbdbd1a5b	-0.092335425
94	0xbc7a653c	-0.015282925
95	0x3dae5097	0.08511465
96	0x3d113d58	0.035458893
97	0xbe22417e	-0.15845296
98	0x3b2a20a7	0.0025959404
99	0x3e350af9	0.17679967
100	0xbcba1c51	-0.02271858
101	0x3de6062e	0.112316474
102	0xbe422e62	-0.18963006
103	0x3d664300	0.05621624
104	0xbdf835e7	-0.12119656
105	0x3dc67c44	0.096916705
106	0x3dc89554	0.09794107
107	0xbdc8cf99	-0.09805221
108	0x3c31dc3f	0.010855733
109	0xbe2b8ee4	-0.16753727
110	0x3e0c3770	0.13693023
111	0x3e0237a7	0.12716542
112	0x3db5b1fc	0.088718385
113	0xbd9961de	-0.0748937
114	0x3e300237	0.17188345
115	0x3d8b6505	0.06806377
116	0x3db20948	0.086931765
117	0xbdffea6b	-0.124958836
118	0xbd9f5051	-0.07778991
119	0x3e26451d	0.16237302
120	0xbe00ca34	-0.12577134
121	0x3e18c5c2	0.14919189
122	0x3e2a734a	0.16645542
123	0xbd82bf86	-0.063841864
124	0x3b3ebb64	0.0029103393
125	0xbd917d5c	-0.071039885
126	0xbd52e071	-0.051483575
127	0x3cd9db7b	0.026593914

encoder.9.bias f4 [4]
0	0x3d4b6b62	0.049662955
1	0x3c68f3a5	0.014218246
2	0x3e1b8784	0.15188414
3	0xbe407cdf	-0.18797635

decoder.0.weight f4 [32, 4]
0	0x3eb1cf77	0.34728596
1	0x3b478798	0.003044581
2	0x3eb57280	0.3543892
3	0x3ec69c39	0.38791063
4	0x3ecd913f	0.40149876
5	0x3eb1abd8	0.3470142
6	0xbd9c0851	-0.07618774
7	0x3c73fa03	0.01489115
8	0x3efb2789	0.490536
9	0x3ed14176	0.40870255
10	0x3dbfeac2	0.093709484
11	0x3ebd5251	0.36976865
12	0x3ea21147	0.31653807
13	0x3ecda96f	0.4016833
14	0xbdbdb434	-0.09262887
15	0x3d2b18b2	0.0417716
16	0x3f04f654	0.51938367
17	0x3db4d493	0.08829608
18	0xbeb0babf	-0.34517476
19	0xbe60f1b3	-0.21967201
20	0x3d90ff6e	0.07079969
21	0xbf040a9e	-0.515787
22	0x3d5366f2	0.05161185
23	0xbeb6a8e7	-0.35675737
24	0x3e742296	0.23841318
25	0x3e7f313b	0.24921124
26	0xbeeb6121	-0.4597254
27	0x3ef08a17	0.46980354
28	0x3e5391b1	0.20661046
29	0xbebe7526	-0.37198752
30	0xbd5b4305	-0.05353071
31	0x3e7b4e6c	0.24541634
32	0xbedcd276	-0.4312932
33	0xbe06dd6d	-0.13170405
34	0x3ea6c4af	0.32571933
35	0x3e8a10d4	0.26965964
36	0x3e09632b	0.13416736
37	0x3ef2fd8e	0.47459072
38	0x3ee244ae	0.44193023
39	0xbcf165f1	-0.029467555
40	0x3dc6f275	0.09714214
41	0xbdea8279	-0.11450667
42	0xbec0a54d	-0.37626114
43	0x3e9fc475	0.31204572
44	0xbdbdccbd	-0.09267566
45	0x3ebe904a	0.3721946
46	0x3e8d0f38	0.27550673
47	0x3f045bb3	0.5170242
48	0xbd18bdbf	-0.03729033
49	0x3d8b65d8	0.068065345
50	0x3ea5c0f7	0.32373783
51	0xbed195a4	-0.4093448
52	0x3ee5e360	0.44900036
53	0xbf009397	-0.50225204
54	0x3e0041dd	0.12525125
55	0xbe40551d	-0.18782468
56	0xbdf7e5d1	-0.12104381
57	0xbd03ab71	-0.03214592
58	0x3eca47cf	0.3950791
59	0xbc83a429	-0.016069489
60	0xbd1241f7	-0.03570744
61	0xbe2676e5	-0.16256292
62	0xbe2471f7	-0.16059099
63	0xbe8d0441	-0.27542308
64	0xbe0e3620	-0.13887835
65	0x3eb6cb64	0.3570205
66	0xbf132181	-0.57473
67	0xbdc2a8ff	-0.0950489
68	0x3ea0a1ac	0.31373346
69	0x3e4353c3	0.19074921
70	0x3eb588e5	0.35456005
71	0xbcc4b6ac	-0.024012886
72	0xbe32a30b	-0.17445008
73	0xbef3fd0b	-0.47653994
74	0xbd909782	-0.07060148
75	0x3df9fa98	0.12206
76	0xbe7dfa6c	-0.2480256
77	0xbc0a8b41	-0.008456052
78	0x3ed90e8d	0.42393914
79	0x3ebb315f	0.36561105
80	0xbd163600	-0.036672592
81	0x3ed5ba8d	0.4174389
82	0x3dc348f1	0.09535397
83	0x3ef7787c	0.4833411
84	0xbecff6aa	-0.40617877
85	0x3ebaa227	0.36451837
86	0x3e372423	0.17884879
87	0xbdd8b701	-0.1058178
88	0xbedfc7ef	-0.43707225
89	0x3e907e9d	0.28221598
90	0xbebf93c4	-0.37417424
91	0xbf038353	-0.5137226
92	0xbe7b0540	-0.24513721
93	0xbd1335ff	-0.035940167
94	0xbb05a438	-0.0020392071
95	0x3ed15409	0.40884426
96	0x3ee4eaee	0.44710487
97	0x3e10b944	0.14133173
98	0x3cc02eba	0.023459781
99	0x3c0f984c	0.008764338
100	0x3eb462c0	0.3523159
101	0xbe24199a	-0.16025391
102	0xbefbbb8c	-0.49166524
103	0xbe0e64cd	-0.1390564
104	0x3eeb1da9	0.45921066
105	0xbee2fbe6	-0.44332808
106	0x3e580b60	0.21098089
107	0xbde838b0	-0.11338937
108	0x3d1514e6	0.036396883
109	0x3df528de	0.119706854
110	0xbe9635f4	-0.29338038
111	0xbd99e354	-0.075140625
112	0xbd149369	-0.036273394
113	0xbe8d9462	-0.2765227
114	0x3db7d370	0.089758754
115	0x3e3ae066	0.18249664
116	0x3eb4fe5b	0.35350308
117	0xbd7f2c69	-0.062298212
118	0x3edba72f	0.42900988
119	0xbe0a6422	-0.1351476
120	0x3e6c7d00	0.23094559
121	0xbde45ac6	-0.11150126
122	0x3e4efa1c	0.20212597
123	0x3e852aa4	0.26009095
124	0xbe3132f8	-0.173046
125	0xbe0c8bd9	-0.13725223
126	0x3eaec005	0.34130874
127	0xbe931ae0	-0.28731441

decoder.0.bias f4 [32]
0	0xbe14208b	-0.14465539
1	0xbe76f584	-0.24117094
2	0xbe9ef38b	-0.31045184
3	0xbee2ec9d	-0.44321147
4	0xbdb2ba87	-0.087269835
5	0x3ccafa2d	0.024777496
6	0x3efb93ad	0.49136105
7	0xbd9b343a	-0.07578321
8	0xbe69bcb5	-0.22825892
9	0x3eca0161	0.39454177
10	0x3efe2439	0.4963701
11	0xbefb67c3	-0.491026
12	0x3f019ee1	0.50633055
13	0xbee5e5ff	-0.44902036
14	0xbdb99416	-0.09061448
15	0x3dd6ae2e	0.10482441
16	0xbdf389bd	-0.11891506
17	0x3eef0ecc	0.46690977
18	0x3ec3f5e3	0.38273534
19	0x3e049f1d	0.12951322
20	0xbeaacc5a	-0.33359033
21	0xbd079808	-0.033103973
22	0x3ebe7c84	0.37204373
23	0x3ed65c9d	0.41867533
24	0x3d985991	0.074389584
25	0x3e326120	0.17419863
26	0x3d6c464c	0.057684228
27	0xbc3244f5	-0.010880698
28	0xbca835d4	-0.02053348
29	0xbdab216b	-0.08355983
30	0x3e473814	0.19454986
31	0x3ef10b7f	0.47079083

decoder.2.weight f4 [64, 32]
0	0x3dd22b11	0.102621205
1	0xbdac9be2	-0.0842817
2	0x3d10a159	0.035310123
3	0xbdaff3aa	-0.08591397
4	0xbe07bf1f	-0.132565
5	0x3d119ed8	0.035551876
6	0x3dde1cf1	0.10845364
7	0xbcaab419	-0.02083783
8	0x3d004442	0.031315096
9	0xbd134cfd	-0.035962094
10	0x3deee553	0.11664834
11	0x3dd7402e	0.10510288
12	0xbdb642ac	-0.088994354
13	0x3e47dfb4	0.1951893
14	0x3e1d0313	0.15333204
15	0x3e13dc8d	0.14439602
16	0x3d2cb5d1	0.04216558
17	0xbe1c32a6	-0.15253696
18	0xbd9b6bc4	-0.07588914
19	0x3d00fe46	0.031492494
20	0x3e23274d	0.15932961
21	0x3e40de5f	0.18834828
22	0x3d856831	0.065140136
23	0xbce005e6	-0.027346563
24	0xbe26dc6f	-0.16295026
25	0x3cc74db8	0.024329051
26	0xbbb6ba9e	-0.0055764457
27	0x3e6ad0e7	0.22931252
28	0x3ce981cf	0.02850428
29	0xbd829bf2	-0.063774005
30	0xbdf559fc	-0.11980054
31	0x3d6a3fbe	0.057189696
32	0xbbf78368	-0.0075535066
33	0x3e113315	0.14179642
34	0xbdb6d27b	-0.08926865
35	0xbd9dbc00	-0.07701874
36	0xbdf61b4f	-0.120169275
37	0xbe9bbe13	-0.30418453
38	0x3e058457	0.13038765
39	0xbe2fdc3f	-0.17173861
40	0x3e079a61	0.13242485
41	0xbdc99d0d	-0.09844408
42	0x3b65a532	0.003504109
43	0xbdcea385	-0.100897826
44	0xbd20bfb6	-0.03924533
45	0x3d0d6a18	0.034525007
46	0x3e058ca6	0.13041934
47	0xbcb4d1bf	-0.022072671
48	0x3dbdbecf	0.092649095
49	0xbd75e0f5	-0.06002899
50	0xbbac6e97	-0.005262207
51	0x3e644d43	0.22295098
52	0x3db394bf	0.087686054
53	0x3e59c8be	0.21267983
54	0xbddcf53b	-0.107889615
55	0x3e49f039	0.19720544
56	0xbdf0d881	-0.11760045
57	0xbd2c7044	-0.042099252
58	0xbe8b5a1d	-0.27217188
59	0x3c6fe828	0.014642753
60	0x3b4a1f84	0.0030841539
61	0x3cf13439	0.029443847
62	0x3de21971	0.11040009
63	0xbd39ddf1	-0.045377675
64	0x3c849392	0.016183648
65	0xbdfc4fbe	-0.12319897
66	0x3e0b56b8	0.136073
67	0x3e050644	0.12990671
68	0xbc0a46c4	-0.008439723
69	0x3d5ed961	0.054406527
70	0x3e1c958d	0.15291424
71	0x3d56792e	0.05236166
72	0x3d19777f	0.037467476
73	0x3e41bbac	0.18919247
74	0x3df8a7b9	0.121413656
75	0xbc41e6be	-0.011834798
76	0xbdd46cdc	-0.10372326
77	0x3e0c7f0f	0.13720344
78	0xbcb496fe	-0.022044655
79	0xbe135dcd	-0.14391251
80	0x3db37a7c	0.087635964
81	0x3e2523af	0.16126893
82	0x3cb67921	0.022274556
83	0xbd95d472	-0.07315911
84	0x3da721e0	0.08160758
85	0xbdc601ea	-0.09668334
86	0xbe667cf9	-0.22508611
87	0xbd44666e	-0.047949247
88	0xbde4c491	-0.111703046
89	0x3c9e3c73	0.019315934
90	0xbdc68aa3	-0.096944116
91	0x3a054b33	0.0005084753
92	0xbdbc1c67	-0.09185105
93	0x3cd2da88	0.02573897
94	0xbcae2189	-0.021256225
95	0xbdf8cf33	-0.12148895
96	0xbde78080	-0.11303806
97	0xbd12cce1	-0.03583992
98	0xbe11ed03	-0.14250569
99	0x3dc702cf	0.097173326
100	0x3db36bd2	0.087607995
101	0xbc05ba9b	-0.008162166
102	0x3e28c07e	0.1647968
103	0x3e060d09	0.1309091
104	0xbd81b83e	-0.063339695
105	0x3e4f3a8b	0.20237176
106	0x3e3ed4a7	0.18635808
107	0xbd9496a4	-0.07255295
108	0x3dc870eb	0.097871624
109	0xbc59487e	-0.013261912
110	0x3d2fd1ba	0.04292462
111	0x3c765178	0.015034072
112	0xbd03c472	-0.032169767
113	0x3e000acc	0.12504119
114	0x3cda9318	0.026681468
115	0x3d86d62e	0.0658382
116	0x3c065086	0.008197909
117	0x3e56c4c5	0.20973499
118	0x3e2aea2f	0.16690896
119	0x3dacfc36	0.08446543
120	0xbdf1cd50	-0.118067384
121	0x3d3c8549	0.046025548
122	0x3db053b4	0.08609715
123	0xbdbdc427	-0.09265929
124	0xbe5782be	-0.21045968
125	0xbdf57b7f	-0.11986446
126	0xbe0c3ffe	-0.13696286
127	0x3e113d4d	0.1418354
128	0xbdc3531a	-0.09537335
129	0x3e005a00	0.12534332
130	0x3e36711b	0.17816584
131	0x3c1cba2e	0.009565873
132	0x3e375a29	0.17905487
133	0x3d105bdd	0.035243858
134	0x3e02d4ad	0.12776442
135	0x3ce0e5f1	0.027453395
136	0xbd9dded5	-0.077085175
137	0xbc004326	-0.007828509
138	0xbd8dbebc	-0.06921145
139	0x3d71e253	0.05905373
140	0x3dbe959e	0.09305881
141	0xbddc70b7	-0.10763686
142	0xbe172844	-0.14761454
143	0xbe29cbcb	-0.16581647
144	0xbd7b7f8a	-0.061400928
145	0x3c8408c3	0.01611746
146	0x3d8d5a78	0.06902021
147	0x3d8c7064	0.06857374
148	0xbdead370	-0.1146611
149	0x3e34ace8	0.17644083
150	0xbce1d088	-0.027565256
151	0xbd5c08f4	-0.053719476
152	0xba95efc1	-0.001143925
153	0x3e3037a0	0.17208719
154	0xbce762b5	-0.02824531
155	0x3d7b0754	0.061286286
156	0x3cabab39	0.020955669
157	0x3da7eea9	0.08199818
158	0xbe10b0f9	-0.1413001
159	0x3e081efc	0.1329307
160	0xbdf5150a	-0.119669035
161	0xbc39d464	-0.011342142
162	0xbdafe864	-0.08589247
163	0xbe2b0e77	-0.16704737
164	0xbd0af60f	-0.033926066
165	0x3db184e1	0.08667923
166	0x3e2a7ab8	0.16648376
167	0x3e0b5b61	0.13609077
168	0x3da49e25	0.08037976
169	0xbdab7d61	-0.083735235
170	0x3c6bed80	0.014399886
171	0xbe1d8fe1	-0.15386917
172	0x3d0c6b3c	0.034281954
173	0xbc6dc713	-0.014512795
174	0x3db4e3ae	0.08832489
175	0x3e271035	0.16314776
176	0xbe0c5f8f	-0.13708328
177	0xbb9fb8ed	-0.00487434
178	0x3dc3f9a0	0.095690966
179	0x3d8aa729	0.067701645
180	0xbe2a9f1f	-0.16662262
181	0x3de72061	0.11285473
182	0x3dd6ff57	0.10497921
183	0xbc4c6aaf	-0.012476607
184	0x3df21f34	0.11822358
185	0x3de744fa	0.11292453
186	0xbe13971c	-0.14413112
187	0xbe6f2b80	-0.23356438
188	0x3cd827c6	0.026386153
189	0x3df37c69	0.11888964
190	0x3dad4e3c	0.08462188
191	0x3d34ed74	0.044171765
192	0x3dbc2c57	0.09188145
193	0x3c59c0c1	0.013290585
194	0x3dc4f0e6	0.0961626
195	0x3e04f34d	0.12983437
196	0x3db34ef3	0.08755293
197	0x3d98435c	0.07434723
198	0x3d53194c	0.051537797
199	0x3e329d25	0.17442758
200	0xbe584dde	-0.21123454
201	0xbe052b44	-0.13004786
202	0x3e86ae0e	0.26304668
203	0xbdd19e1f	-0.10235237
204	0x3cb0bd76	0.021574717
205	0xbe05191b	-0.12997858
206	0xbe46b135	-0.19403537
207	0xbd7d1d2b	-0.061795395
208	0xbdffd9b2	-0.12492694
209	0x3d9b010d	0.0756856
210	0xbddc95ba	-0.107707456
211	0xbe03c43d	-0.12867828
212	0xbd290df5	-0.041273076
213	0x3c250edf	0.010074346
214	0x3dbc9fb4	0.092101485
215	0xbc358aa1	-0.011080415
216	0xbdb5e231	-0.08881033
217	0x3de975c7	0.11399417
218	0x3dd04dae	0.10171066
219	0xbd343c2b	-0.044002693
220	0x3e1b729c	0.15180439
221	0xbdd5aafd	-0.10433004
222	0xbb3fbc77	-0.002925662
223	0xbda8f5d5	-0.08250014
224	0xbe2ebb88	-0.17063725
225	0xbe184ef4	-0.14873868
226	0x3d289ddd	0.041166175
227	0xbe5ee647	-0.21767531
228	0xbd4a5cc0	-0.04940486
229	0x3d904fa4	0.0704644
230	0x3bbf089a	0.005829883
231	0xbe05af77	-0.13055216
232	0xbc61c7f2	-0.013780581
233	0xbd823f27	-0.063597016
234	0x3e217c63	0.15770106
235	0x3d41532d	0.047198463
236	0xbd385ebe	-0.04501223
237	0x3dbd2766	0.0923603
238	0xbda66507	-0.08124738
239	0xbdcd8db8	-0.10036796
240	0xbcbd6846	-0.02312101
241	0x3d7be839	0.06150076
242	0xbce63a13	-0.028103864
243	0x3dfc3bf9	0.123161264
244	0xbdb9ecd4	-0.090783745
245	0xbce73a9c	-0.02822619
246	0x3dc047bf	0.093886845
247	0xbc971ba1	-0.018445792
248	0x3d9dfa8b	0.07713803
249	0x3e08ad02	0.13347247
250	0x3dbec0bf	0.09314107
251	0xbebaa06e	-0.36450523
252	0x3ddbad7f	0.10726451
253	0x3daa9ad4	0.08330312
254	0xbdf6a9c5	-0.120441
255	0x3dbc0a7f	0.091816895

decoder.2.bias f4 [64]
0	0xbe13abb8	-0.14420974
1	0xb9a0d9ce	-0.00030679855
2	0x3db7539c	0.08951494
3	0x3dc98166	0.09839134
4	0x3e492d90	0.19646287
5	0xbd9746d7	-0.073865585
6	0x3d0bb3df	0.034107085
7	0x3dcfc057	0.10144108
8	0xbe393f87	-0.1809064
9	0x3e5ff290	0.21869874
10	0x3e48d472	0.19612291
11	0xbe1e6831	-0.15469433
12	0x3df9fc46	0.122063205
13	0x3d932177	0.07184117
14	0xbc97ee58	-0.018546268
15	0xbcbf0091	-0.0233157
16	0xbe00ceae	-0.12578842
17	0xbe141d35	-0.14464267
18	0x3e054505	0.1301461
19	0x3d548850	0.05188781
20	0x3cff0837	0.031131847
21	0x3d70c6d2	0.05878336
22	0xbd61bb7b	-0.055110436
23	0x3e6716b0	0.22567248
24	0xbdb0aa3e	-0.08626221
25	0xbdafd1db	-0.08584949
26	0x3d87e15d	0.066347815
27	0x3e3fe40a	0.18739334
28	0xbc5c4983	-0.013445261
29	0xbe45802a	-0.19287172
30	0x3c2ce7a0	0.010553271
31	0x3dcc5dd3	0.09978833
32	0x3e51b673	0.20479755
33	0x3e6376cb	0.22213285
34	0xbd81af82	-0.063323036
35	0x3d84e181	0.06488324
36	0xbe2eec3f	-0.17082308
37	0xbc818a11	-0.015812906
38	0xbdfb1292	-0.122594014
39	0xbcdddb1a	-0.027082015
40	0xbe3de0b8	-0.18542755
41	0xbd7dbf98	-0.061950296
42	0x3dca48e0	0.09877181
43	0xbda990d1	-0.08279575
44	0x3c4d1427	0.012517012
45	0x3e2611c5	0.16217716
46	0x3de2a30a	0.110662535
47	0x3d72411c	0.059144124
48	0x3d609610	0.05483061
49	0xbdf8b60e	-0.12144099
50	0xbc8b969d	-0.017039591
51	0x3e13a90b	0.14419954
52	0x3c27ab7e	0.010233758
53	0xbd07a607	-0.03311732
54	0x3de2c9a3	0.110736154
55	0x3e120af1	0.14261986
56	0x3dfc7e4a	0.12328775
57	0x3dac9186	0.08426194
58	0x3cec8984	0.028874166
59	0xbe29f57d	-0.16597553
60	0x3c017f5c	0.0079039
61	0xbccc7997	-0.024960322
62	0x3e0a1e56	0.13488135
63	0xbe5510ea	-0.20807233

decoder.4.weight f4 [128, 64]
0	0x3db9c4e6	0.090707585
1	0xbdbd12e8	-0.09232122
2	0xbd371b5f	-0.044703837
3	0xbd05f12d	-0.032700706
4	0x3cdb1377	0.02674268
5	0xbd572d04	-0.052533165
6	0x3c78b5b4	0.01518004
7	0xbcb00177	-0.021485073
8	0xbd808a0b	-0.062763296
9	0x3dbc930e	0.09207736
10	0xbd3505ae	-0.04419487
11	0xbc37c333	-0.011215973
12	0x3d8adf4c	0.06780872
13	0xbe03f3c4	-0.12885958
14	0x3db6d2b6	0.08926909
15	0xbd922531	-0.07136
16	0x3cf8844d	0.030336523
17	0x3db1182c	0.086471885
18	0x3e0ff633	0.14058761
19	0xbdca75fc	-0.09885785
20	0xbe7e3e99	-0.24828567
21	0xbda13096	-0.07870595
22	0xbdd36d46	-0.10323577
23	0x3d73d638	0.059530467
24	0x3d32c911	0.043648783
25	0xbd351c4a	-0.04421643
26	0xbda38f00	-0.079862595
27	0x3d857a2a	0.065174416
28	0x3dd77ea9	0.105222054
29	0xbd469c56	-0.048488937
30	0xbcc53534	-0.02407322
31	0xbd81f5ff	-0.06345748
32	0xbbbc5c96	-0.005748342
33	0x3db06b98	0.08614272
34	0x3db6d4b7	0.08927291
35	0x3d199183	0.037492286
36	0xbce1aaf3	-0.027547335
37	0x3e043751	0.12911727
38	0xbe03c82f	-0.12869333
39	0x3dc4e751	0.096144326
40	0xbd0858a5	-0.033287663
41	0xbde70a07	-0.112812094
42	0x3cd69612	0.026194606
43	0x3d2291b9	0.039689753
44	0x3ddb5ed6	0.10711448
45	0x3d616f83	0.055037986
46	0x3d42750d	0.04747491
47	0x3dc86d7b	0.09786507
48	0x3e3fbd07	0.18724452
49	0x3d07c91b	0.033150773
50	0x3db83e00	0.089962006
51	0x3e073640	0.13204288
52	0x3dbf3bdb	0.093375884
53	0xbd43a05b	-0.04776035
54	0x3d9ca8f2	0.07649411
55	0x3d49765d	0.049185146
56	0xbdd33cfe	-0.10314368
57	0x3d551988	0.0520263
58	0xbdeacd43	-0.11464932
59	0x3cd2ba71	0.025723668
60	0xbcef92e7	-0.029244853
61	0xbdd3a420	-0.10334039
62	0xbdab816e	-0.08374296
63	0xbd34f0e3	-0.04417504
64	0xbd0ead6e	-0.034833364
65	0x3e5f9cef	0.21837209
66	0x3d0adb96	0.03390082
67	0x3d88b748	0.06675583
68	0xbd8fffa4	-0.070311815
69	0xbd8c0e93	-0.06838717
70	0x3d89a525	0.06720952
71	0x3da68a94	0.081319004
72	0x3dc3cda2	0.09560706
73	0xbc8bcfe3	-0.017066902
74	0x39ac35b5	0.0003284641
75	0xbc3c4eea	-0.011493424
76	0x3c08f00e	0.008358015
77	0xbe255b73	-0.16148166
78	0x3dba6554	0.09101358
79	0x3c71e3c4	0.014763776
80	0x3d4fb799	0.0507122
81	0xbddb923d	-0.10721252
82	0x3e1460aa	0.1449
83	0x3e0b449f	0.13600396
84	0xbc57cf78	-0.013172023
85	0xbd06b3cd	-0.032886315
86	0x3c9da02b	0.019241413
87	0xbd4869c7	-0.048929002
88	0x3d88a863	0.06672742
89	0x3da14002	0.07873537
90	0xbc83661a	-0.016039897
91	0xbdcbda27	-0.09953719
92	0x3dfc4ecd	0.123197176
93	0x3d858be8	0.065208256
94	0xbdc7bd86	-0.097529456
95	0xbd92ee0c	-0.0717431
96	0x3d3d4fdc	0.046218738
97	0xbad3ca4d	-0.0016158313
98	0x3dcb3124	0.09921482
99	0x3de5f1fd	0.11227796
100	0x3e0ef4e9	0.13960613
101	0xbd98f341	-0.07468272
102	0xbd9310c9	-0.07180936
103	0x3dff7c37	0.12474864
104	0x3c03bb2f	0.0080402335
105	0xbe023a19	-0.12717475
106	0x3bb0df9a	0.005397749
107	0xbdf19780	-0.117964745
108	0x3ae6d380	0.0017610639
109	0xbe02a5b9	-0.1275853
110	0xbd43875f	-0.04773652
111	0xbcffcf6b	-0.031226834
112	0x3db5091a	0.088396266
113	0x3c4349ac	0.01191942
114	0xbd6036aa	-0.05473963
115	0xbcd59424	-0.026071616
116	0xbd60f30e	-0.054919295
117	0xbcdf7e3a	-0.02728187
118	0xbd3b3210	-0.04570204
119	0x3d42a7b9	0.047523234
120	0x3b97c254	0.00463132
121	0x3d83a0ba	0.064271405
122	0xbd25da7a	-0.04049156
123	0x3d23ec5f	0.040020343
124	0x3c74fc25	0.014952694
125	0x3d8c0ee9	0.068387814
126	0xbd0e6b6a	-0.034770407
127	0x3d0c21a8	0.034211785
128	0xbddeb300	-0.10873985
129	0xbe71571f	-0.2356839
130	0xbde8a763	-0.113600515
131	0x3d6dea94	0.05808504
132	0xbd6d3654	-0.05791314
133	0x3dd5587c	0.10417268
134	0x3d386e92	0.045027323
135	0xbdab687c	-0.08369538
136	0x3d67c9b1	0.056588832
137	0x3db0e212	0.086368695
138	0x3e4661cd	0.19373246
139	0xbdc73b9f	-0.09728169
140	0x3d9b8ab6	0.075948164
141	0xbd715c65	-0.058926005
142	0x3dbeae98	0.09310645
143	0x3d5bc1a2	0.05365146
144	0xbe3d0271	-0.18457963
145	0x3da04472	0.07825555
146	0xbcf574f2	-0.02996299
147	0xbda57f03	-0.08080866
148	0xbda7c1c6	-0.08191256
149	0xbd0074b0	-0.031361282
150	0x3e10f72b	0.14156787
151	0xbcbeecf3	-0.023306346
152	0xbd990f35	-0.07473604
153	0xbda4a54e	-0.08039342
154	0x3dbc105a	0.09182806
155	0xbca13569	-0.019678788
156	0xbd88113f	-0.066439144
157	0xbdf575c4	-0.11985353
158	0x3ca0165b	0.01954191
159	0xbcaa25dc	-0.020770006
160	0x3d3e44d2	0.04645235
161	0x3e2e7891	0.1703818
162	0x3da6d97f	0.08146953
163	0xbe1b62a0	-0.15174341
164	0x3beae572	0.0071684653
165	0xbda2cec8	-0.07949597
166	0xbd5e01d4	-0.054200962
167	0xbda4231e	-0.080145106
168	0x3dab7e67	0.08373719
169	0x3ba02b31	0.0048879613
170	0xbdb2124b	-0.08694895
171	0x3da68efc	0.08132741
172	0x3d12c5c8	0.03583315
173	0x3cb8c981	0.022557022
174	0x3cf685ad	0.030093038
175	0xbdc397b5	-0.0955042
176	0x3dadc44f	0.084847085
177	0x3df2bb32	0.11852111
178	0xbdd2ec58	-0.10298985
179	0x3cafe28e	0.021470334
180	0x3d3b7e40	0.0457747
181	0xbd7c9560	-0.061665893
182	0xbcb97064	-0.0226366
183	0x3e0199ce	0.12656328
184	0xbd62470f	-0.055243548
185	0xbd92bb5c	-0.07164642
186	0xbdf5f1cd	-0.120090105
187	0xbc8877b7	-0.016658647
188	0xbdf99615	-0.12186829
189	0xbcc4d3e3	-0.024026817
190	0x3e10e0ce	0.14148256
191	0xbdc36820	-0.09541345
192	0x3dadeacd	0.0849205
193	0x3d168ba2	0.036754258
194	0xbdb6eeed	-0.0893229
195	0x3dec44f9	0.11536593
196	0x3df7d67d	0.12101457
197	0x3d4c9dc2	0.049955137
198	0x3de49602	0.11161424
199	0x3e05908d	0.13043423
200	0x3d138d89	0.03602365
201	0xbd293c06	-0.04131701
202	0xbd74b607	-0.059743907
203	0xbdcb0825	-0.09913663
204	0xbc831140	-0.015999436
205	0xbd3fe9f8	-0.04685399
206	0x3dd20313	0.102544926
207	0xbd982bc7	-0.07430225
208	0xbdbe91db	-0.093051635
209	0x3dd7612d	0.10516582
210	0x3dbbf40f	0.0917741
211	0xbc8f4bb8	-0.01749216
212	0xbd48ac5b	-0.048992496
213	0xbe0b8ee4	-0.13628727
214	0xbd7e288c	-0.062050387
215	0xbd8b3e17	-0.06798952
216	0xbde87ca1	-0.11351896
217	0x3dc54fc6	0.09634356
218	0x3caa7224	0.02080638
219	0x3d82f2c9	0.06393964
220	0xbc0291d8	-0.007969342
221	0xbdaf75af	-0.08567368
222	0x3cd5f6c6	0.026118647
223	0x3c894446	0.016756188
224	0x3dc4f7c4	0.0961757
225	0xbd22925f	-0.03969037
226	0xbd1e6d09	-0.038678203
227	0xbdb379d1	-0.08763469
228	0xbd0f2ace	-0.03495293
229	0x3db22854	0.08699098
230	0xbd84c302	-0.06482507
231	0x3df60a8c	0.120137304
232	0x3da0d1cf	0.07852518
233	0x3d75262c	0.059850857
234	0x3d813908	0.06309706
235	0x3d7c0f90	0.06153828
236	0xbdabd5e0	-0.08390403
237	0x3daafc2b	0.083488785
238	0xbdbe17f7	-0.09281915
239	0x3cbc0824	0.0229531
240	0x3d39c1c9	0.045350824
241	0xbd7d7bfc	-0.06188582
242	0x3da726af	0.08161675
243	0x3dfb4e85	0.12270836
244	0xbd1e45a3	-0.03864063
245	0xbdcdbc66	-0.100457
246	0xbd985b19	-0.074392505
247	0x3d5b6495	0.05356272
248	0x3d49d619	0.049276445
249	0x3d93b2a2	0.07211806
250	0xbcf15f43	-0.02946437
251	0x3dcbe0be	0.099549755
252	0x3d2502a3	0.040285718
253	0xbd7da67b	-0.061926346
254	0xbdbb892c	-0.09157023
255	0x3df2ceac	0.11855826
