Save-Models/model-lat7.pth (torch, 192482 bytes, 16 tensors)

encoder.0.weight f4 [128, 99]
-0.106827416 0.000485281 0.014350404 -0.001210346 -0.041673806 -0.01764432 0.0911049 -0.08886302
-0.06912095 0.079266 0.06751926 0.099317834 0.02556067 0.063443996 0.041619577 0.03466126
0.0659349 0.05536966 -0.022248037 0.041628674 -0.0565013 -0.07739757 0.068153866 0.08024753
0.08459894 0.055950988 0.08980133 -0.07808699 0.09011985 0.025972333 0.075168945 -0.072953865
0.09477891 0.08050131 -0.033492185 -0.027089313 0.017438475 0.075210996 -0.063095525 0.11383889
-0.017172804 0.03217384 -0.043409247 0.061693113 -0.051996756 0.025334308 0.03615887 -0.001603336
0.057426725 -0.050933093 -0.07003133 -0.014885666 -0.05624168 -0.026669865 0.028108457 0.08970263
0.05640656 0.0067106755 -0.02538087 0.067469604 0.005330686 0.0689592 0.028430328 -0.00430123
-0.042332124 0.111875966 0.097585164 -0.021705242 0.041719925 0.019581256 -0.0388687 0.019762194
0.1216928 -0.014761365 0.034208238 -0.038549475 0.031905297 0.076945335 0.057793826 0.017709566
-0.040242225 -0.06542615 -0.0022319295 0.11306521 -0.032149058 0.07526864 0.06890211 -0.044294566
0.017775169 -0.015450932 -0.07001721 -0.073723525 -0.014347915 -0.0018675295 0.093651526 0.06716196
0.039932553 0.06445148 0.009204471 0.04113961 0.031089047 0.0855162 0.06701932 0.00589223
0.053691555 0.033052545 -0.08195279 -0.08521818 -0.029585412 -0.042339057 -0.06053993 0.054809503
-0.09624997 0.0026494772 -0.054851048 -0.059003215 0.028279483 -0.042732257 -0.016548814 -0.07937487
-0.04057521 0.08389275 -0.040127274 0.025741883 0.0025479437 0.08908191 0.07505664 -0.043774027
-0.050489496 0.04603784 -0.024804993 0.000965304 -0.05473021 0.07122718 0.03023304 0.0969579
0.006165595 0.03523383 0.058307905 0.042761024 0.0717716 0.10045523 0.016456917 -0.022438454
0.047602046 0.093555056 0.038254894 -0.0021677464 0.11158495 0.0856342 -0.045448318 0.073003426
0.023107843 0.11844213 0.053242445 -0.050063863 0.08747864 -0.018890582 0.011420575 0.05592371
0.01031441 -0.0024336895 -0.06467785 -0.01149774 -0.079080015 0.042153932 0.0828348 -0.032537375
0.11751464 -0.035164166 0.047177233 0.08043733 -0.05154907 0.060012087 -0.07075762 0.021802202
-0.01836039 -0.029838383 0.11983684 -0.020794101 0.0934536 0.016267514 -0.011280211 0.107169665
0.022481948 0.029347902 0.019332752 -0.024721285 -0.06538514 -0.026943859 0.038347084 -0.029742092
0.00047187455 0.045666452 0.111161165 0.052087955 0.055337533 0.0028523137 -0.028314631 0.057735514
0.039664492 0.07837754 0.08644695 -0.0062032617 0.07153735 -0.0802962 -0.001449791 0.08241188
0.0044679507 -0.04002298 0.07894283 -0.01414248 -0.035121392 0.06131853 0.09182145 0.094270274
-0.07813942 0.060690425 -0.049708467 -0.02852332 -0.0006055028 -0.06857679 0.06693196 0.1022093
0.07029951 -0.06446118 -0.064280204 -0.038344152 -0.05368908 0.11099467 -0.03088836 0.01690951
0.009698956 -0.0625819 0.050090987 0.11216515 0.09691504 0.09066094 0.08958777 0.029862633
0.07994676 -0.022217173 0.090165205 0.018144373 0.03950494 0.0037426318 0.118330926 0.058990873
0.04771594 -0.073403776 0.10393838 -0.031252872 -0.0051830877 0.012313222 0.0968555 -0.047781236
00000000: 55c8 dabd 506d fe39 f51d 6b3c 79a4 9eba
00000010: 27b2 2abd d28a 90bc 3595 ba3d d1fd b5bd
00000020: 498f 8dbd 3656 a23d 8a47 8a3d 2667 cb3d
00000030: 9c64 d13c edee 813d 4a79 2a3d f7f8 0d3d
00000040: e008 873d 4ccb 623d 8441 b6bc d482 2a3d
00000050: e86d 67bd 9e82 9ebd 4194 8b3d d158 a43d
00000060: 3642 ad3d dd2c 653d c2e9 b73d 12ec 9fbd
00000070: c290 b83d eec3 d43c 2df2 993d d668 95bd
00000080: 721b c23d dfdd a43d 1a2f 09bd 68ea ddbc
00000090: 22db 8e3c 3908 9a3d 3a38 81bd 5d24 e93d
000000a0: fbad 8cbc b7c8 033d e5cd 31bd ebb1 7c3d
000000b0: 8dfa 54bd e589 cf3c 531b 143d 0727 d2ba
000000c0: 4938 6b3d 389f 50bd 966c 8fbd 02e3 73bc
000000d0: ad5d 66bd c37a dabc b543 e63c 03b6 b73d
000000e0: 910a 673d 3ae5 db3b 8beb cfbc 812d 8a3d
000000f0: 09ad ae3b 7b3a 8d3d b8e6 e83c 55f1 8cbb
00000100: 7364 2dbd 3a1f e53d bbda c73d 31cf b1bc
00000110: 83e2 2a3d df68 a03c c934 1fbd 53e4 a13c
00000120: 133a f93d a7d9 71bc f01d 0c3d 0ee6 1dbd
00000130: 21af 023d 8495 9d3d 38b9 6c3d a713 913c
00000140: 08d5 24bd 25fe 85bd 9045 12bb bc8e e73d
00000150: bbae 03bd 7226 9a3d 8d1c 8d3d 386e 35bd
00000160: 3b9d 913c e825 7dbc 2f65 8fbd 5cfc 96bd
00000170: 8413 6bbc e4c7 f4ba 5fcc bf3d 368c 893d
00000180: 5190 233d 23ff 833d 59ce 163c 0282 283d
00000190: 75ae fe3c 1e23 af3d 6d41 893d 9c13 c13b
000001a0: adeb 5b3d 1b62 073d ddd6 a7bd df86 aebd
000001b0: 1b5d f2bc b86b 2dbd b8f8 77bd ee7f 603d
000001c0: b41e c5bd daa2 2d3b 7eab 60bd 5bad 71bd
000001d0: 60aa e73c 0508 2fbd 6191 87bc 4b8f a2bd
000001e0: 3132 26bd f6cf ab3d 7f5c 24bd a4e0 d23c
000001f0: 67fb 263b 9470 b63d 4cb7 993d 654c 33bd
00000200: 13ce 4ebd 2d92 3c3d d733 cbbc 740c 7d3a
00000210: c92c 60bd 8edf 913d 48ab f73c dd91 c63d
00000220: c208 ca3b 5951 103d 45d4 6e3d 2f26 2f3d
00000230: fdfc 923d 79bb cd3d a8d0 863c d9d0 b7bc
00000240: 5dfa 423d cb99 bf3d 2ab1 1c3d c010 0ebb
00000250: a686 e43d fc60 af3d 0428 3abd d282 953d
00000260: a94c bd3c ca91 f23d c014 5a3d c40f 4dbd
00000270: 0028 b33d 6cc0 9abc 5d1d 3b3c 4310 653d
00000280: c5fd 283c 897e 1fbb d275 84bd 0461 3cbc
00000290: b4f4 a1bd 9aa9 2c3d 4ba5 a93d e945 05bd
000002a0: 84ab f03d 4d08 10bd ea3c 413d 54bc a43d
000002b0: 1e25 53bd 3ccf 753d 5fe9 90bd 889a b23c
000002c0: 8768 96bc a06f f4bc 046d f53d 6458 aabc
000002d0: 9a64 bf3d 7343 853c a2d0 38bc c57b db3d
000002e0: 102c b83c 036b f03c b85f 9e3c 4b84 cabc
000002f0: a5e8 85bd 5eb9 dcbc d511 1d3d b0a5 f3bc
00000300: ee65 f739 bf0c 3b3d 77a8 e33d 2e5a 553d
00000310: 9ca9 623d e2ed 3a3b 16f4 e7bc 137c 6c3d
00000320: 3c77 223d 6784 a03d 190b b13d bb44 cbbb
00000330: 2d82 923d 5672 a4bd ea06 beba 8fc7 a83d
00000340: e367 923b 23ef 23bd c7ac a13d dcb5 67bc
00000350: 73db 0fbd 2429 7b3d e20c bc3d c610 c13d
00000360: 8f07 a0bd 8696 783d 1b9b 4bbd bda9 e9bc
00000370: 9bba 1eba fd71 8cbd a013 893d 1c53 d13d
00000380: 31f9 8f3d 3904 84bd 57a5 83bd c20e 1dbd
00000390: 15e9 5bbd 2c51 e33d 9609 fdbc d085 8a3c
000003a0: 5fe8 1e3c f02a 80bd 352c 4d3d d8b6 e53d
000003b0: 647b c63d 71ac b93d cb79 b73d 7ba2 f43c
000003c0: 20bb a33d ca00 b6bc 89a8 b83d 82a3 943c
000003d0: efcf 213d f146 753b 7c57 f23d 6aa0 713d
000003e0: ca71 433d b854 96bd a5dd d43d 0303 00bd
000003f0: e4d6 a9bb 65bd 493c 2d5c c63d 42b6 43bd

encoder.0.bias f4 [128]
0.029969586 -0.07149688 -0.04802972 0.07162311 -0.015115107 0.00899363 -0.12544791 -0.028804151
0.024461847 0.08002939 0.0035655296 -0.096241765 0.07709115 -0.09884399 -0.05740066 0.0015998534
0.046899784 -0.11185624 0.0101998355 -0.014262176 -0.03155913 -0.058865715 -0.09040428 -0.04471942
-0.036560472 -0.09806025 -0.03566253 -0.12672237 0.10335794 -0.03648135 0.066367 -0.028649008
-0.08697923 -0.029699575 -0.067986384 -0.04949004 -0.028460443 -0.0358137 0.023824979 -0.027329337
-0.10834015 -0.03029555 0.071377955 -0.08333142 -0.124082096 0.038385022 -0.07423 0.05392182
-0.017032309 -0.10789363 -0.021874974 -0.020213298 -0.056392603 -0.129678 -0.10887305 -0.06073153
-0.09690002 -0.029144188 -0.076871306 -0.09537471 -0.100035205 -0.07115985 -0.07844002 -0.08967389
0.060817882 -0.10151629 -0.07480143 0.041162856 -0.06745726 -0.0009266223 -0.08133755 -0.06172465
-0.0292831 -0.12031228 -0.012392194 -0.11593216 0.08681876 -0.016685704 0.033915434 -0.04821604
-0.0049228854 -0.0035691631 -0.010588838 0.106647626 -0.11697747 -0.096561 -0.08128278 -0.10097775
0.06931091 0.04942261 0.03322044 -0.1347889 -0.008286546 -0.035104696 -0.016885607 -0.036779977
-0.04558092 0.05666172 -0.024305275 0.087447695 0.035983533 0.06884815 -0.017625418 -0.042407397
-0.0863204 0.03757212 -0.09171097 -0.067982614 -0.010483593 0.044106923 -0.052332584 -0.0026881602
-0.21665624 0.041295815 0.030326303 0.07001038 -0.03555545 -0.08906485 -0.046363566 -0.015483009
-0.08892457 0.07098833 -0.042619377 0.039966427 0.074043326 -0.13414325 -0.1192722 0.032794833
00000000: c782 f53c f56c 92bd d0ba 44bd 23af 923d
00000010: 5ba5 77bc 055a 133c 6b75 00be aff6 ebbc
00000020: 3664 c83c 73e6 a33d a9ab 693b 671a c5bd
00000030: f7e1 9d3d b86e cabd f41c 6bbd 2cb2 d13a
00000040: fd19 403d e214 e5bd 361d 273c e7ab 69bc
00000050: 2544 01bd 2d1d 71bd e125 b9bd b62b 37bd
00000060: 6fc0 15bd d0d3 c8bd e012 12bd 82c3 01be
00000070: 54ad d33d 786d 15bd 6ceb 873d 53b1 eabc
00000080: 2b22 b2bd 864c f3bc 723c 8bbd 11b6 4abd
00000090: e025 e9bc 63b1 12bd 9a2c c33c c6e1 dfbc
000000a0: 71e1 ddbd 602e f8bc 9b2e 923d aaa9 aabd
000000b0: c11e febd 9d39 1d3d e605 98bd 20dd 5c3d
000000c0: 5787 8bbc 56f7 dcbd 2533 b3bc 5c96 a5bc
000000d0: eefb 66bd 4fca 04be d5f8 debd a0c1 78bd
000000e0: 8573 c6bd cbbf eebc b46e 9dbd d153 c3bd
000000f0: 42df ccbd 41bc 91bd 29a5 a0bd f2a6 b7bd
00000100: 2c1c 793d c6e7 cfbd 7e31 99bd 629a 283d
00000110: 0827 8abd 92e8 72ba 4d94 a6bd fdd2 7cbd
00000120: 1de3 efbc 4966 f6bd a108 4bbc d76d edbd
00000130: 09ce b13d 75b0 88bc e9ea 0a3d 2f7e 45bd
00000140: 2850 a1bb 9fe8 69bb ce7c 2dbc 126a da3d
00000150: e291 efbd c6c1 c5bd 9677 a6bd 6ccd cebd
00000160: e1f2 8d3d 5d6f 4a3d 2812 083d 1a06 0abe
00000170: 4bc4 07bc f1c9 0fbd af53 8abc 9aa6 16bd
00000180: 0fb3 3abd 1f16 683d db1b c7bc c717 b33d
00000190: 7863 133d 4200 8d3d 2e63 90bc 61b3 2dbd
000001a0: c0c8 b0bd 39e5 193d f6d2 bbbd 783a 8bbd
000001b0: 60c3 2bbc 76a9 343d b15a 56bd d82b 30bb
000001c0: 22db 5dbe cd25 293d de6e f83c 9a61 8f3d
000001d0: 97a2 11bd a267 b6bd b9e7 3dbd 72ac 7dbc
000001e0: 161e b6bd 5462 913d a891 2ebd d6b3 233d
000001f0: 07a4 973d d95c 09be fc44 f4bd e053 063d

encoder.3.weight f4 [64, 128]
0.10297699 0.049734734 0.031486496 0.050806377 -0.0366784 -0.06682952 -0.031174336 -0.05951106
-0.061106354 -0.103346765 0.023831954 -0.038207896 0.0429686 0.101197034 -0.070241116 -0.030351076
-0.0021001264 -0.03222479 0.060212076 0.042306054 0.024835017 0.009239691 -0.07493598 -0.0751267
-0.058367956 -0.088763244 0.0046443646 0.077493906 0.04548026 -0.016704917 0.0020055396 -0.0071046436
0.03256878 0.018493094 -0.087905355 -0.07597224 0.029371243 0.023548843 0.019209584 -0.032222062
0.043685418 -0.017788539 0.050523628 -0.008448318 0.026990509 -0.09286325 0.011033122 -0.019182397
-0.037143506 0.09242027 -0.03889026 0.03724018 -0.024946425 0.0033658636 -0.053698406 -0.11510261
-0.056860633 0.02129934 0.05220313 -0.0778094 -0.032794405 -0.029118944 0.07140369 -0.08287856
0.09257452 -0.008460504 0.024234131 0.06854832 -0.049311265 0.067703456 0.1074793 0.09720657
-0.07591266 0.07699359 0.09454582 -0.04306655 -0.048381172 -0.018239213 0.05100744 -0.047585245
0.03136758 0.08956216 -0.047202144 -0.043817606 -0.013948465 -0.070756845 0.042042896 0.04540865
0.02570688 -0.041382737 0.05427398 0.039118756 -0.07606201 0.09606718 -0.055321652 0.10656627
-0.067175135 -0.035370663 0.060570605 0.016964763 0.046209797 0.051110044 -0.0129194325 0.07351447
-0.02703923 0.03395769 0.05029677 0.08550844 0.056289177 -0.1026597 -0.06719928 0.032649796
-0.07461616 0.04257025 -0.021140497 0.019017009 0.040005524 -0.028706467 0.074038796 -0.11139886
-0.06434522 -0.08482603 0.004094376 0.09109875 -0.05897259 -0.04363353 0.05232654 0.06318594
0.027335804 -0.0049358034 -0.04247984 0.020809598 -0.06392068 -0.09841936 0.023048498 0.07462601
-0.0042721597 -0.029317182 -0.027466262 -0.10744929 -0.016895361 0.06878689 -0.040296447 0.008359674
-0.05097228 0.024235042 0.020607993 0.00057791243 0.042846028 0.089205615 -0.09742168 -0.052400373
-0.08587607 0.023943372 0.011679148 0.04355878 0.011767509 0.09658622 0.05568627 -0.00777296
-0.18425654 -0.04994949 -0.084819295 -0.05129147 0.01865812 0.09666339 0.09893324 -0.016985124
-0.107817955 0.09180201 -0.037847698 0.084080875 0.07213413 -0.09357387 0.059715305 0.052021015
-0.015479091 0.047907416 -0.11708365 -0.0074660312 0.10494931 -0.033923298 -0.051036816 -0.004283148
0.07131203 0.05544084 0.024292056 -0.10803573 0.09189166 -0.071042106 0.06970876 0.0010653757
-0.044783413 0.0018952603 -0.15870753 0.08965946 0.063619435 0.019204104 -0.000582688 -0.025015805
-0.013609863 -0.0056216246 0.029296959 0.03949361 -0.015060528 -0.10555574 0.061247792 0.011013022
-0.062313803 -0.005956665 0.017230771 0.009126526 -0.064598605 0.092261605 0.013672267 0.034151044
0.0624871 -0.068417646 -0.11574459 0.053334363 -0.08186255 0.040970113 -0.022202106 0.09657535
0.0020395245 -0.13576631 -0.027407242 0.008740596 0.039548118 -0.0042566527 -0.014801211 0.07836999
0.03809456 -0.099305324 0.03504799 0.068039015 -0.03615627 -0.11768113 -0.09000674 0.07633721
-0.022008853 -0.0341991 -0.06655893 0.069033705 0.06220596 -0.006363156 -0.048092246 0.034525033
-0.024291562 0.0044226907 0.021926513 0.10322591 0.0014329036 -0.009749978 0.10522509 0.017195735
00000000: 9ae5 d23d a6b6 4b3d fcf7 003d 591a 503d
00000010: 173c 16bd eadd 88bd 5261 ffbc dfc1 73bd
00000020: a84a 7abd 78a7 d3bd 3b3b c33c e27f 1cbd
00000030: d8ff 2f3d 6440 cf3d 93da 8fbd d2a2 f8bc
00000040: 46a2 09bb 24fe 03bd f0a0 763d 1d49 2d3d
00000050: ce72 cb3c 1362 173c 0978 99bd 07dc 99bd
00000060: 3d13 6fbd 81c9 b5bd c12f 983b 20b5 9e3d
00000070: 8249 3a3d c0d8 88bc 5f6f 033b 12ce e8bb
00000080: d766 053d d47e 973c b907 b4bd 5597 9bbd
00000090: f69b f03c 81e9 c03c 6b5d 9d3c 48fb 03bd
000000a0: 7bef 323d 45b9 91bc ddf1 4e3d d06a 0abc
000000b0: 331b dd3c 162f bebd 45c4 343c 6724 9dbc
000000c0: ca23 18bd d746 bd3d 654b 1fbd 2989 183d
000000d0: 725c ccbc d295 5c3b dcf2 5bbd ebba ebbd
000000e0: b2e6 68bd f47b ae3c f3d2 553d 895a 9fbd
000000f0: 6d53 06bd da8a eebc 193c 923d 3cbc a9bd
00000100: b697 bd3d ed9d 0abc a886 c63c 1063 8c3d
00000110: 9cfa 49bd 1ca8 8a3d 1b1e dc3d 3d14 c73d
00000120: 1978 9bbd d1ae 9d3d 3da1 c13d 8d66 30bd
00000130: 562b 46bd 676a 95bc 2ded 503d bfe8 42bd
00000140: 4b7b 003d 5e6c b73d 0957 41bd 177a 33bd
00000150: 1a88 64bc f7e8 90bd 2c35 2c3d 6cfe 393d
00000160: 3c97 d23c f280 29bd 654e 5e3d fd3a 203d
00000170: 66c6 9bbd dfbe c43d f598 62bd 6b3f da3d
00000180: 1e93 89bd d4e0 10bd e218 783d b0f9 8a3c
00000190: 7c46 3d3d c458 513d 07ac 53bc c18e 963d
000001a0: 6081 ddbc 3817 0b3d fc03 4e3d 0d1f af3d
000001b0: 7b8f 663d 403f d2bd c79f 89bd cbbb 053d
000001c0: 5bd0 98bd 245e 2e3d d62e adbc 8fc9 9b3c
000001d0: d5dc 233d d329 ebbc a7a1 973d 1625 e4bd
000001e0: 6dc7 83bd 45b9 adbd 1e2a 863b fb91 ba3d
000001f0: 3e8d 71bd 13b9 32bd 5b54 563d a167 813d
00000200: 56ef df3c 85bc a1bb 57ff 2dbd e478 aa3c
00000210: d8e8 82bd 1790 c9bd 34d0 bc3c 86d5 983d
00000220: 79fd 8bbb 962a f0bc ed00 e1bc 600e dcbd
00000230: 2468 8abc 24e0 8c3d e30d 25bd 04f7 083c
00000240: 4fc8 50bd 9188 c63c 18d2 a83c 0c7f 173a
00000250: 517f 2f3d 6fb1 b63d 0585 c7bd c6a1 56bd
00000260: cbdf afbd e424 c43c e659 3f3c b16a 323d
00000270: 83cc 403c ffce c53d 4917 643d 50b4 febb
00000280: bfad 3cbe d697 4cbd bdb5 adbd 0117 52bd
00000290: ead8 983c 75f7 c53d 839d ca3d 6324 8bbc
000002a0: a9cf dcbd b102 bc3d 3006 1bbd 9832 ac3d
000002b0: 0fbb 933d a8a3 bfbd 0998 743d fd13 553d
000002c0: 039c 7dbc 913a 443d 8dc9 efbd 9ca5 f4bb
000002d0: aaef d63d 28f3 0abd fb0b 51bd a659 8cbb
000002e0: 0b0c 923d ef15 633d 2200 c73c d641 ddbd
000002f0: b231 bc3d 867e 91bd 77c3 8e3d 14a4 8b3a
00000300: d06e 37bd 626a f83a 3a84 22be 619f b73d
00000310: e84a 823d ed51 9d3c 88bf 18ba f2ed ccbc
00000320: e7fb 5ebc 9b35 b8bb 2d00 f03c 0dc4 213d
00000330: 6fc0 76bc 9c2d d8bd f7de 7a3d f66f 343c
00000340: c23c 7fbd 2130 c3bb 8c27 8d3c 6d87 153c
00000350: 464c 84bd a7f3 bc3d a501 603c f7e1 0b3d
00000360: 79f2 7f3d 8d1e 8cbd 800b edbd 2275 5a3d
00000370: 8da7 a7bd 47d0 273d 31e1 b5bc 4cc9 c53d
00000380: 8ba9 053b 5306 0bbe 2785 e0bc b734 0f3c
00000390: 35fd 213d 647b 8bbb c780 72bc 7280 a03d
000003a0: 0b09 1c3d 9760 cbbd 7b8e 0f3d 0a58 8b3d
000003b0: 9918 14bd ce02 f1bd 7455 b8bd af56 9c3d
000003c0: e94b b4bc 5b14 0cbd 0c50 88bd 8b61 8d3d
000003d0: adcb 7e3d 0582 d0bb 60fc 44bd 1f6a 0d3d
000003e0: 19ff c6bc 38ec 903b 3b9f b33c 1b68 d33d
000003f0: 44d0 bb3a 5fbe 1fbc 4180 d73d 12de 8c3c

encoder.3.bias f4 [64]
-0.046838004 -0.018789448 -0.109362274 0.05655843 -0.028401207 0.027941704 -0.047415856 -0.006490472
0.008051818 -0.084774785 -0.042767707 -0.07145503 0.061433613 0.024323894 0.055321928 -0.028479077
-0.060735125 0.016425464 -0.09611175 -0.13258071 -0.11195889 -0.026175572 -0.012784755 0.050171264
-0.004172835 -0.013979243 0.07186778 0.03893871 -0.08900703 -0.034269072 -0.04728192 0.030154238
0.03277928 0.0068280203 -0.08134378 -0.07423271 -0.13552506 0.0021825852 0.02017265 -0.014536918
-0.09882283 -0.06332992 -0.015283885 -0.07161449 0.010235963 -0.061610382 -0.05098411 -0.046739377
-0.061546843 -0.08349026 0.05331621 0.08953507 -0.065497465 0.031602036 -0.025082998 -0.059186712
-0.05787849 -0.102322765 0.049906436 0.051949594 0.04410759 -0.115634136 0.047967266 -0.07327834
00000000: 35d9 3fbd 54ec 99bc 54f9 dfbd d0a9 673d
00000010: a6a9 e8bc 00e6 e43c 2137 42bd 06ae d4bb
00000020: c6eb 033c 679e adbd 312d 2fbd 0457 92bd
00000030: d0a1 7b3d e742 c73c 3f99 623d f44c e9bc
00000040: 65c5 78bd b28e 863c 3dd6 c4bd 3dc3 07be
00000050: b44a e5bd 276e d6bc 2677 51bc 6280 4d3d
00000060: 47bc 88bb 3209 65bc 6a2f 933d 327e 1f3d
00000070: 5149 b6bd ba5d 0cbd b0aa 41bd 0506 f73c
00000080: 9143 063d 96bd df3b 9197 a6bd 5207 98bd
00000090: 15c7 0abe b409 0f3b 1d41 a53c 412c 6ebc
000000a0: a063 cabd 1eb3 81bd 4369 7abc 9eaa 92bd
000000b0: beb4 273c 2b5b 7cbd b7d4 50bd ca71 3fbd
000000c0: 8b18 7cbd f1fc aabd 1962 5a3d 2a5e b73d
000000d0: 8923 86bd 2371 013d dc7a cdbc c46d 72bd
000000e0: ff11 6dbd 998e d1bd b16a 4c3d 19c9 543d
000000f0: 29aa 343d 97d1 ecbd 5379 443d f412 96bd

encoder.6.weight f4 [32, 64]
-0.25235167 -0.24542394 0.025549207 0.059614673 -0.11201062 0.0027301589 -0.10404746 0.005415381
-0.10687549 -0.010909178 -0.004381558 0.06719305 -0.053945303 -0.0625071 0.16989733 0.043549843
0.1912254 -0.1305949 0.13988976 -0.043889545 -0.0841231 -0.113315806 0.033648413 0.0973974
-0.1170732 -0.071215406 -0.08875139 0.09318457 0.048195664 -0.1189799 -0.13233775 -0.0815535
0.13792905 -0.104170255 -0.07907099 -0.09427475 0.051551204 0.043703422 -0.028019356 0.035662085
0.07063823 -0.21615037 0.07006877 -0.11536243 -0.17626595 -0.049543444 -0.056687042 -0.02766455
0.0651321 -0.045031887 0.027159238 -0.093973674 0.08674743 0.092822015 0.12734762 -0.1614425
0.10811042 -0.1184202 -0.07851656 0.08645957 -0.20449814 -0.07097852 0.024592416 -0.101074286
-0.15537275 -0.056207124 0.00095413375 -0.05166095 -0.14205554 0.108859 -0.081861794 0.11187383
0.037487134 -0.16542049 0.1413482 -0.07732394 0.053543214 -0.021971196 0.082011014 0.005556709
0.13562307 0.09025647 -0.04522489 0.10717386 0.07970493 0.09402811 0.019649483 0.022173503
-0.0006871579 -0.100907505 -0.004944155 -0.0074666766 -0.098750465 -0.021007936 -0.049865592 -0.12130286
-0.022955889 0.07729894 -0.13991135 -0.07998375 0.07045658 -0.001836306 0.07483621 -0.002682954
0.0033538595 0.06466212 0.028132938 -0.03141644 -0.11817487 0.03169253 -0.11958298 0.023502478
0.03236562 0.10314548 0.03770541 0.15140764 -0.116317734 0.12634605 -0.08180832 -0.0718058
-0.047621798 -0.082175285 0.03879678 0.0914354 -0.036029402 0.023573674 0.116519 -0.121804655
0.018254498 -0.07977835 -0.033952054 -0.099726416 0.03979885 0.043910597 0.06390976 0.14967866
-0.037509996 0.090666525 0.08894255 -0.08046131 0.027475609 -0.14242218 0.144282 0.12803434
0.14463624 -0.10094289 -0.026837654 -0.013874557 0.12375618 0.12697613 -0.08820278 -0.018545872
0.11576493 -0.059550162 0.05432908 0.12654237 0.11608969 -0.021334842 -0.12745628 0.029720169
0.11551804 0.10377497 -0.16236699 -0.050460007 -0.08333705 0.0009950302 -0.01373888 0.03665419
0.009043474 -0.035327785 0.05845191 0.07694377 0.025568346 0.04508214 -0.073678546 -0.044935133
0.11003023 0.08696663 0.1296142 0.10348742 -0.109278254 0.08344035 0.14030747 -0.12358976
0.079692416 0.16323893 0.0881319 -0.092833735 -0.014269578 -0.13091655 0.028269503 -0.046973825
0.010946571 0.10920215 0.033595197 -0.06971615 -0.09696869 0.058683805 0.020691384 0.13585305
-0.055492155 -0.10263634 -0.10105955 0.12902352 0.009631662 0.053480376 -0.050081216 -0.08524897
0.019899271 0.08315686 0.012178639 0.039198 0.13740163 0.09914056 0.06888105 -0.016999714
0.015038923 -0.0027484044 0.14828698 0.020793743 0.03813697 -0.06854637 -0.054134466 0.020823952
-0.002044853 -0.019328615 -0.03971234 0.095102526 0.15199116 0.12813818 -0.009722869 -0.01000719
0.030231936 0.09990765 0.025197636 0.035361066 0.106566176 -0.018297661 0.13172336 0.039024424
-0.069489226 0.09614367 0.038111065 0.051914267 -0.09810047 -0.056155287 -0.06319976 0.117564596
-0.058343805 -0.07337191 -0.11237676 -0.032227304 0.06301359 0.14428192 0.1313144 0.12747933
00000000: 3d34 81be 6a50 7bbe 924c d13c 842e 743d
00000010: d365 e5bd 77ec 323b d616 d5bd 8273 b13b
00000020: 89e1 dabd 69bc 32bc 2c93 8fbb 839c 893d
00000030: c0f5 5cbd b903 80bd 91f9 2d3e 5261 323d
00000040: 97d0 433e abba 05be 433f 0f3e 86c5 33bd
00000050: bb48 acbd 1e12 e8bd ebd2 093d 4a78 c73d
00000060: 13c4 efbd 62d9 91bd 4ac3 b5bd 8dd7 be3d
00000070: d168 453d bcab f3bd 8c83 07be 8505 a7bd
00000080: 463d 0d3e 3757 d5bd f9ef a1bd 1f13 c1bd
00000090: 5b27 533d 5c02 333d d988 e5bc 6812 123d
000000a0: c7aa 903d 8656 5dbe 3780 8f3d 2343 ecbd
000000b0: 107f 34be 11ee 4abd ac30 68bd c4a0 e2bc
000000c0: fa63 853d 5b73 38bd 0d7d de3c 4575 c0bd
000000d0: a3a8 b13d 7819 be3d 6a67 023e 2f51 25be
000000e0: ff68 dd3d 4a86 f2bd 4acd a0bd b711 b13d
000000f0: f667 51be 305d 91bd 0976 c93c 0900 cfbd
00000100: 091a 1fbe 7139 66bd d51e 7a3a 6f9a 53bd
00000110: 0277 11be 78f1 de3d 28a7 a7bd 1b1e e53d
00000120: 1c8c 193d fd63 29be 95bd 103e 045c 9ebd
00000130: 2150 5b3d f0fc b3bc 64f5 a73d 0e15 b63b
00000140: c6e0 0a3e 62d8 b83d bc3d 39bd f87d db3d
00000150: 573c a33d cf91 c03d f4f7 a03c 35a5 b53c
00000160: 6322 34ba 98a8 cebd 9402 a2bb 06ab f4bb
00000170: af3d cabd d618 acbc dd3f 4cbd a26d f8bd
00000180: fd0d bcbc e84e 9e3d ec44 0fbe 85ce a3bd
00000190: 8a4b 903d 34b0 f0ba ba43 993d 80d4 2fbb
000001a0: 6dcc 5b3b 936d 843d 0c77 e63c 86ae 00bd
000001b0: ab05 f2bd 07d0 013d ece7 f4bd 4588 c03c
000001c0: d091 043d f03d d33d fd70 1a3d 9b0a 1b3e
000001d0: fe37 eebd dc60 013e 1f8b a7bd eb0e 93bd
000001e0: 130f 43bd 844b a8bd 5fe9 1e3d 7c42 bb3d
000001f0: 9193 13bd 941d c13c 83a1 ee3d b874 f9bd
00000200: 758a 953c d562 a3bd 4f11 0bbd 5d3d ccbd
00000210: 1e04 233d 99db 333d 1fe3 823d 5d45 193e
00000220: 15a4 19bd 5faf b93d 8327 b63d e6c8 a4bd
00000230: 8714 e13c 1fd7 11be a9be 133e 6f1b 033e
00000240: 861b 143e 25bb cebd a4da dbbc 1c52 63bc
00000250: e173 fd3d 0806 023e a9a3 b4bd 83ed 97bc
00000260: 2a16 ed3d dfea 73bd 2b88 5e3d 5394 013e
00000270: 6ec0 ed3d 68c6 aebc e683 02be b677 f33c
00000280: b994 ec3d f987 d43d 8843 26be 27af 4ebd
00000290: 9eac aabd ac6b 823a 0a19 61bc b422 163d
000002a0: 142b 143c deb3 10bd 456b 6f3d b294 9d3d
000002b0: b574 d13c 0da8 383d c7e4 96bd e70d 38bd
000002c0: 8757 e13d 8f1b b23d 96b9 043e 36f1 d33d
000002d0: 47cd dfbd c6e2 aa3d c3ac 0f3e a11c fdbd
000002e0: c735 a33d 1b28 273e 7f7e b43d 9d1f bebd
000002f0: f3ca 69bc fd0e 06be 7295 e73c a067 40bd
00000300: 3f59 333c 60a5 df3d 1e9b 093d 57c7 8ebd
00000310: 8597 c6bd 6e5e 703d fa80 a93c 101d 0b3e
00000320: be4b 63bd 0033 d2bd 4ff8 cebd be1e 043e
00000330: 1ece 1d3c 3d0e 5b3d f621 4dbd 0397 aebd
00000340: cc03 a33c 254e aa3d ea88 473c 158e 203d
00000350: 03b3 0c3e 350a cb3d 8211 8d3d fc42 8bbc
00000360: d165 763c 931e 34bb 8bd8 173e a457 aa3c
00000370: 8335 1c3d 0a62 8cbd 1abc 5dbd fe96 aa3c
00000380: f102 06bb 0b57 9ebc 68a9 22bd 1dc5 c23d
00000390: 92a3 1b3e a836 033e ab4c 1fbc 32f5 23bc
000003a0: f7a8 f73c 629c cc3d 466b ce3c c4d6 103d
000003b0: 5e3f da3d fae4 95bc 7de2 063e 13d8 1f3d
000003c0: 5e50 8ebd f9e6 c43d 591a 1c3d 0ea4 543d
000003d0: e6e8 c8bd 1603 66bd e06e 81bd b5c5 f03d
000003e0: eaf9 6ebd 0344 96bd c925 e6bd c700 04bd
000003f0: 450d 813d a4be 133e 4877 063e f189 023e

encoder.6.bias f4 [32]
0.14385064 0.13355225 -0.042311054 0.06705738 -0.024817007 0.09432944 0.13288425 0.05518693
0.059429605 -0.017146349 0.13577141 -0.08315898 0.090776786 -0.065372705 0.016627105 0.113175124
0.018159857 -0.10561859 -0.08627132 0.028730644 -0.11083449 -0.118481204 0.09607613 0.085877076
0.070206225 -0.047400497 -0.06377102 0.06817863 -0.11065653 -0.049601838 0.074607104 -0.13108794
00000000: 954d 133e ecc1 083e 5b4e 2dbd 6155 893d
00000010: 094d cbbc cb2f c13d cf12 083e b10b 623d
00000020: 756c 733d 8076 8cbc a907 0b3e 414f aabd
00000030: 2ee9 b93d 20e2 85bd 9135 883c 5cc8 e73d
00000040: fbc3 943c 8f4e d8bd 05af b0bd 875c eb3c
00000050: 31fd e2bd 46a6 f2bd 90c3 c43d 52e0 af3d
00000060: 48c8 8f3d 0627 42bd 619a 82bd 3da1 8b3d
00000070: e49f e2bd 4c2b 4bbd 9ccb 983d eb3b 06be

encoder.9.weight f4 [7, 32]
-0.1714179 -0.041793328 0.05706705 0.010329678 -0.18212822 -0.07756381 0.19489536 0.15047356
0.053790536 0.124313936 0.17744383 0.0033494157 -0.11284961 0.07816369 -0.1508986 -0.113321915
0.07902897 0.17173196 0.0746366 -0.08513762 -0.11337866 0.18456179 -0.14951494 -0.09727746
0.15718035 0.080496594 0.051366597 -0.10414379 -0.115188256 -0.0014080049 -0.15122354 -0.008021133
-0.022317577 -0.09199118 -0.12224648 0.036062855 0.10469933 -0.0859803 -0.14088613 0.13374938
0.14372772 0.11042585 -0.13426897 -0.041070145 0.1402283 0.025842285 -0.103946805 0.16366595
0.1419411 0.086364836 0.1038763 -0.09977661 0.13459891 0.100506335 -0.07371849 0.112598546
0.053174775 -0.12908503 0.12340567 0.028824914 -0.14794347 -0.0353349 -0.09490447 0.08580397
0.06438573 -0.0007830649 -0.051533088 -0.16058372 0.14816304 0.11402458 -0.058607686 -0.045027565
0.09332486 0.061748426 0.05244792 -0.036359936 0.06453792 -0.09556093 -0.16818856 0.12404418
-0.1547088 0.06495148 -0.0009244912 -0.14704548 -0.00979607 0.14479747 0.08907484 -0.093837075
0.053660378 -0.002540983 0.10573178 -0.07344245 -0.039919205 0.06467343 0.012105089 -0.1277491
0.18691087 0.08366138 -0.058993734 -0.088852115 0.013160333 0.058508735 -0.04600614 0.14697818
0.03963221 0.042370513 0.014008824 0.08864798 -0.109326236 0.06566821 -0.07925005 -0.1675675
-0.13656157 0.16772659 -0.11585513 0.11436725 -0.0004668496 -0.045265034 -0.10401824 -0.060219355
0.17581461 -0.09655308 0.14486404 -0.109241396 0.047077235 -0.047248665 -0.072749615 0.015522116
-0.012274263 -0.1472756 0.13099138 -0.104216956 -0.17831786 0.07880701 -0.17368479 0.06282075
-0.107528865 -0.07448653 -0.13233626 0.005912631 -0.012988142 0.0005740671 -0.012424389 0.175025
0.17720656 -0.060785577 -0.09023697 0.0077178627 -0.049306322 -0.016871367 0.071229525 0.036592916
-0.17628224 -0.0041065747 -0.12256841 0.07110413 -0.1623574 -0.049128126 -0.08616159 -0.06992849
0.064872436 0.09456662 0.13634308 0.07472475 -0.115465626 -0.018638598 0.023380464 0.14876837
0.093499266 0.124202855 -0.02826732 0.02694256 -0.008238248 0.11551016 -0.0036745018 0.06060978
-0.059502527 0.16586918 -0.07351689 0.1697365 -0.140586 -0.07410266 -0.087325715 -0.1494309
-0.008251735 0.16700017 0.07801796 -0.1524305 0.06421143 0.13732174 -0.09056775 -0.098356724
0.20383061 -0.0889404 0.19004253 -0.07727135 -0.12845147 -0.11566049 -0.08700922 -0.09963327
0.12606072 0.17383562 0.17855525 0.1607346 -0.118848905 -0.09228948 0.175452 0.04626065
-0.10329718 -0.10350856 -0.075259455 -0.1242803 -0.07156636 -0.06173811 -0.08939449 -0.016184868
0.01631484 -0.015677994 0.09047166 0.12795255 0.07130041 0.09736795 0.0063950955 -0.07063454
00000000: 2d88 2fbe 7b2f 2bbd 24bf 693d cf3d 293c
00000010: d27f 3abe c6d9 9ebd a692 473e be15 1a3e
00000020: 7753 5c3d 4e98 fe3d d6b3 353e df81 5b3b
00000030: b21d e7bd 4914 a03d 2a85 1abe 5215 e8bd
00000040: f1d9 a13d 81da 2f3e 13db 983d a25c aebd
00000050: 1233 e8bd c4fd 3c3e 721a 19be 6839 c7bd
00000060: e3f3 203e 66db a43d c865 523d 5749 d5bd
00000070: d2e7 ebbd ce8c b8ba 58da 1abe 126b 03bc
00000080: 5ad3 b6bc df65 bcbd 5d5c fabd a5b6 133d
00000090: 9a6c d63d 7116 b0bd 7444 10be 99f5 083e
000000a0: 5c2d 133e f326 e23d ce7d 09be 2b39 28bd
000000b0: 0298 0f3e 33b3 d33c 10e2 d4bd 0c98 273e
000000c0: 0259 113e 0ce0 b03d 19bd d43d ae57 ccbd
000000d0: 4cd4 093e 44d6 cd3d b8f9 96bd 119a e63d
000000e0: cbcd 593d de2e 04be 1dbc fc3d 3a22 ec3c
000000f0: 7e7e 17be 54bb 10bd 465d c2bd feb9 af3d
00000100: aadc 833d 9946 4dba 5c14 53bd 0f70 24be
00000110: 0db8 173e b885 e93d 9d0e 70bd d36e 38bd
00000120: 1b21 bf3d ebeb 7c3d a1d3 563d 28ee 14bd
00000130: 752c 843d 73b5 c3bd 9f39 2cbe e00a fe3d
00000140: fc6b 1ebe 4805 853d 8e59 72ba 1793 16be
00000150: b27f 20bc ca45 143e df6c b63d a72d c0bd
00000160: fcca 5b3d 9f86 26bb e789 d83d ff68 96bd
00000170: 5282 23bd 8173 843d 6c54 463c a9d0 02be
00000180: 9065 3f3e a856 ab3d 6aa3 71bd 19f8 b5bd
00000190: 709e 573c dba6 6f3d ef70 3cbd 7381 163e
000001a0: 6255 223d b48c 2d3d 4485 653c 128d b53d
000001b0: 6fe6 dfbd 0e7d 863d da4d a2bd d196 2bbe
000001c0: ccd6 0bbe 85c0 2b3e 7445 edbd 6039 ea3d
000001d0: 7ec3 f4b9 d467 39bd 8407 d5bd 92a8 76bd
000001e0: bf08 343e 9fbd c5bd 3d57 143e f4b9 dfbd
000001f0: 0fd4 403d d187 41bd c0fd 94bd 7950 7e3c
00000200: fe19 49bc 6acf 16be 9b22 063e b36f d5bd
00000210: f598 36be 9265 a13d 6dda 31be 2aa8 803d
00000220: 1838 dcbd 658c 98bd 2883 07be bebe c13b
00000230: 37cc 54bc fe7c 163a aa8f 4bbc c139 333e
00000240: a375 353e 4cfa 78bd 29ce b8bd 20e6 fc3b
00000250: 6df5 49bd d235 8abc c9e0 913d 74e2 153d
00000260: 5583 34be 7290 86bb 2605 fbbd 0b9f 913d
00000270: 0541 26be 933a 49bd 7d75 b0bd ab36 8fbd
00000280: d7db 843d 25ac c13d 859d 0b3e 4a09 993d
00000290: 3e79 ecbd f9af 98bc 6388 bf3c bc56 183e
000002a0: 8b7c bf3d 115e fe3d de90 e7bc a5b6 dc3c
000002b0: b7f9 06bc 9790 ec3d e9cf 70bb f641 783d
000002c0: ecb8 73bd 9cd9 293e 0690 96bd 68cf 2d3e
000002d0: c7f5 0fbe 23c3 97bd d3d7 b2bd 6a04 19be
000002e0: 4932 07bc 1802 2b3e e1c7 9f3d be16 1cbe
000002f0: 4881 833d 129e 0c3e 967b b9bd 406f c9bd
00000300: f9b8 503e 6226 b6bd 829a 423e 7140 9ebd
00000310: c888 03be 68df ecbd e431 b2bd 870c ccbd
00000320: 1016 013e f701 323e 30d7 363e 9c97 243e
00000330: 0e67 f3bd 4402 bdbd b0a9 333e cf7b 3d3d
00000340: 798d d3bd 4cfc d3bd a121 9abd ac86 febd
00000350: 6291 92bd 1ae1 7cbd 7514 b7bd 2196 84bc
00000360: b3a6 853c 236f 80bc 3549 b93d fe05 033e
00000370: f305 923d d968 c73d f38d d13b d7a8 90bd

encoder.9.bias f4 [7]
-0.11176676 0.16787413 -0.2023299 0.11992109 -0.08313924 0.13998477 -0.08772325
00000000: f9e5 e4bd 32e7 2b3e 922f 4fbe 3099 f53d
00000010: e844 aabd 2b58 0f3e 3fa8 b3bd

decoder.0.weight f4 [32, 7]
0.05083636 0.0033905043 -0.29372108 0.06524403 -0.2959362 -0.025508557 0.33500436 0.061021738
0.15960479 0.2786716 -0.26130542 -0.21006942 0.14341037 -0.14075679 0.110662214 -0.15887825
-0.0309859 -0.11274683 0.005447442 0.32566184 0.28550038 -0.1101106 0.27217346 -0.32737717
0.14086504 -0.3398342 0.20012096 0.35056737 -0.038188178 0.026074681 0.29975712 0.13735221
-0.13722865 -0.0491757 -0.08068077 -0.35031793 0.22191495 -0.22092253 0.38899004 -0.08317054
-0.0973203 0.26169688 -0.025989937 -0.1324874 -0.30834535 0.19377959 0.13854966 0.27216613
0.35118127 0.0046907472 -0.02157628 -0.29005453 0.04146364 0.107638165 -0.15110128 -0.3197522
-0.22703095 -0.07598754 -0.21074374 0.04745324 0.21575426 0.13667631 0.081082515 0.21311316
0.40296835 -0.18316439 0.32925072 -0.092245445 -0.047983356 -0.135045 0.36172867 -0.27775836
-0.17235613 -0.16333328 0.06938973 -0.1496428 -0.25830835 -0.34876317 -0.29741055 0.0317152
-0.2169317 0.3010308 0.26429477 0.26531124 -0.16473879 -0.30903876 -0.13148518 -0.3858709
-0.28060088 0.009908278 -0.2105618 0.19113311 0.1961286 -0.18782194 -0.36277977 0.12558101
-0.04091701 -0.08760465 0.05112268 0.09787551 -0.19773415 -0.36755002 -0.087269895 -0.12978217
-0.17503418 0.1424388 -0.051440686 -0.38021496 0.033449106 0.3825455 0.061565444 -0.2052271
0.23268065 0.2571686 -0.27537507 0.17074928 -0.23617832 -0.1782576 0.12679553 -0.18731786
0.1233514 -0.23497522 -0.3070131 -0.03795787 -0.16802746 -0.24334882 0.22517371 0.31796297
-0.034843136 0.0703432 0.41826868 -0.21164884 -0.1425036 -0.27429658 0.2909522 0.056542687
-0.32178497 -0.34814245 -0.37624872 0.03895545 0.38035038 -0.18371008 -0.13032527 0.34775302
-0.347759 0.21905918 -0.16792157 -0.115433 0.116817586 -0.29555136 0.052742552 0.11995503
0.20764175 -0.31563964 -0.12068407 0.2550051 -0.07388371 -0.27065107 0.32345313 -0.35329932
-0.3027301 -0.025524814 0.18003619 -0.21523872 -0.27915472 -0.12519853 -0.07063556 0.05593986
-0.04981472 -0.08019123 0.25113878 0.1900441 -0.091155656 -0.28768182 0.106380664 -0.2204187
-0.058808293 0.22796 -0.1791953 -0.07174079 0.13504674 -0.18346508 -0.3729348 0.22817929
-0.29121563 -0.30044138 0.1817945 0.065104865 -0.1571391 -0.11251646 -0.06226401 -0.33078855
-0.1765511 0.15406342 -0.39129928 0.18281657 -0.38770506 -0.013019505 -0.0687566 0.06557803
0.28361517 0.32220227 0.15333344 -0.23336953 -0.19208209 0.06904849 -0.1471563 -0.26228315
-0.11205228 -0.17489265 0.098184146 -0.31548315 -0.12682055 0.2745674 -0.27120745 -0.093557104
0.117067575 -0.11703632 -0.044324737 0.21297441 0.2559043 -0.32774946 0.29797164 0.23568071
00000000: c939 503d 3933 5e3b 9c62 96be a99e 853d
00000010: f384 97be 52f7 d0bc b185 ab3e eef1 793d
00000020: 706f 233e 0bae 8e3e d3c9 85be 701c 57be
00000030: 2bda 123e 8c22 10be dfa2 e23d fbb0 22be
00000040: 24d6 fdbc cfe7 e6bd 7580 b23b 26bd a63e
00000050: 1b2d 923e ab81 e1bd 525a 8b3e fb9d a7be
00000060: ed3e 103e c0fe adbe 82ec 4c3e 917d b33e
00000070: 356b 1cbd 929a d53c c479 993e 0fa6 0c3e
00000080: ab85 0cbe 756c 49bd f63b a5bd df5c b3be
00000090: ac3d 633e 8439 62be b429 c73e 5155 aabd
000000a0: de4f c7bd 22fd 853e d9e8 d4bc c7aa 07be
000000b0: 71df 9dbe 286e 463e f6df 0d3e 5c59 8b3e
000000c0: 08ce b33e d7b4 993b bdc0 b0bc 0782 94be
000000d0: c7d5 293d 6671 dc3d 4bba 1abe 8fb6 a3be
000000e0: cd7a 68be 5b9f 9bbd 35cd 57be 545e 423d
000000f0: afee 5c3e e0f4 0b3e 970e a63d 563a 5a3e
00000100: de51 ce3e 728f 3bbe 8d93 a83e 2eeb bcbd
00000110: 328a 44bd 3d49 0abe 8034 b93e 5836 8ebe
00000120: 207e 30be d740 27be 341c 8e3d f63b 19be
00000130: fe40 84be 1691 b2be 3246 98be cce7 013d
00000140: 5823 5ebe b620 9a3e a551 873e e0d6 873e
00000150: 49b1 28be 543a 9ebe 0da4 06be df90 c5be
00000160: ebaa 8fbe 5456 223c 839d 57be 66b8 433e
00000170: f0d5 483e 6554 40be 45be b9be 4f98 003e
00000180: 9898 27bd 116a b3bd 0466 513d f572 c83d
00000190: d27a 4abe 842f bcbe 8fba b2bd 9ee5 04be
000001a0: 293c 33be 7adb 113e 78b3 52bd 89ab c2be
000001b0: ee01 093d 01dd c33e 0c2c 7c3d 0e27 52be
000001c0: d643 6e3e 9aab 833e f6fd 8cbe e6d8 2e3e
000001d0: bbd8 71be 2989 36be b0d6 013e 41d0 3fbe
000001e0: a99f fc3d 589d 70be d230 9dbe b679 1bbd
000001f0: 640f 2cbe 6f30 79be f093 663e 0bcc a23e
00000200: adb7 0ebd 1810 903d 5027 d63e 79ba 58be
00000210: 77ec 11be 9a70 8cbe b0f7 943e 4e99 673d
00000220: 00c1 a4be ba3f b2be aca3 c0be c08f 1f3d
00000230: 49bd c23e 7f1e 3cbe fd73 05be af0c b23e
00000240: 780d b2be 0d51 603e a2f3 2bbe 2368 ecbd
00000250: 0f3e ef3d 8252 97be 9308 583d fcaa f53d
00000260: 0aa0 543e 859b a1be 3629 f7bd 0790 823e
00000270: 5850 97bd c792 8abe a69b a53e a6e3 b4be
00000280: 71ff 9abe 6a19 d1bc 685b 383e 8a67 5cbe
00000290: 5eed 8ebe 0b34 00be 60a9 90bd 3221 653d
000002a0: 850a 4cbd 4d3b a4bd 4395 803e ec9a 423e
000002b0: d1af babd 084b 93be 1bde d93d 71b5 61be
000002c0: f7e0 70bd 596e 693e f97e 37be d6ec 92bd
000002d0: b149 0a3e 45de 3bbe 4ff1 bebe d5a7 693e
000002e0: 371a 95be 74d3 99be 5628 3a3e b355 853d
000002f0: 12e9 20be 086f e6bd 8c08 7fbd 1e5d a9be
00000300: d0c9 34be cdc2 1d3e 6158 c8be 4434 3b3e
00000310: 4781 c6be c34f 55bc 43d0 8cbd c64d 863d
00000320: 0236 913e b2f7 a43e 7103 1d3e 6cf8 6ebe
00000330: 2bb1 44be 4b69 8d3d 24b0 16be fa49 86be
00000340: aa7b e5bd 0f17 33be c514 c93d 0287 a1be
00000350: 3fdd 01be 1994 8c3e b4db 8abe de9a bfbd
00000360: 20c1 ef3d bdb0 efbd db8d 35bd f715 5a3e
00000370: e305 833e c7ce a7be bd8f 983e 4956 713e

decoder.0.bias f4 [32]
0.04404889 -0.004373186 -0.021016125 0.3850181 -0.29333666 0.081988536 0.03043523 -0.26567897
0.07607179 -0.27260783 0.12912865 -0.19096488 0.0980675 -0.18821071 -0.22837777 0.012956509
0.2196956 -0.06355638 -0.04040819 0.16475578 -0.20831923 -0.18877055 0.43282202 0.086355396
0.36956772 0.20147906 0.20352791 0.17806713 0.39379266 -0.18708636 -0.16019635 0.058011025
00000000: 9c6c 343d f14c 8fbb 022a acbc 1821 c53e
00000010: 3930 96be 9be9 a73d 4e53 f93c 1307 88be
00000020: 87cb 9b3d 4193 8bbe 4d3a 043e 4c8c 43be
00000030: 9dd7 c83d 4fba 40be dddb 69be 8a47 543c
00000040: e2f7 603e d929 82bd 0f83 25bd bdb5 283e
00000050: a351 55be 114d 41be d99a dd3e 19db b03d
00000060: fb37 bd3e 8750 4e3e 9f69 503e 3b57 363e
00000070: 319f c93e 9193 3fbe 830a 24be f89c 6d3d

decoder.2.weight f4 [64, 32]
0.12618586 -0.07408074 -0.13615942 0.06583557 0.1595064 0.0291051 -0.023129549 0.054709505
0.025779614 0.04864408 0.094999686 -0.068109974 -0.020136397 -0.06461805 -0.033445798 -0.08639902
0.0021209922 0.064013235 0.16839178 0.15086253 0.098510325 0.20557074 -0.17322442 -0.13601811
-0.120393895 0.0029568393 -0.14334747 -0.18435432 -0.10189219 0.010086241 0.18111832 -0.13565277
0.07215002 0.096363105 -0.06610716 -0.03673189 -0.016590782 0.02536592 -0.1571104 -0.061812926
-0.041123748 0.10946414 0.13135792 0.00025390473 0.011468566 -0.054408107 -0.02612882 -0.09159744
-0.18996464 0.14524229 0.018467236 -0.09283991 0.10043332 -0.08875334 0.11189487 0.15104221
0.1556484 0.06465755 0.007146698 0.16957694 -0.16834283 -0.07131991 -0.068301395 -0.16791366
0.12787472 0.124537766 -0.1650569 0.08132836 0.106398545 -0.15921004 -0.094624996 -0.09085819
0.14471649 -0.20719813 -0.14974155 -0.053103022 0.17276673 -0.11481591 -0.115196936 -0.07364482
-0.14617129 -0.040967505 -0.10821866 -0.16305935 0.08164399 0.16471031 0.12816015 0.14907971
-0.11135351 -0.010037573 0.08487959 0.10971456 0.040966943 -0.144304 -0.18978767 0.1368981
0.016180316 0.16538915 0.0325589 -0.13030188 -0.1235364 -0.11843846 0.059514727 -0.09020634
0.037800387 -0.13041063 0.1774936 0.020771476 -0.014969993 -0.0008408737 -0.036987595 0.12682892
0.102852285 -0.009255842 -0.18695755 -0.08436221 0.054479025 0.21161394 -0.20118587 -0.035707507
0.075795025 0.122380525 0.056403007 -0.2064355 0.024958387 0.093147054 0.13766915 0.18308248
-0.04919687 0.17662393 -0.13099502 0.19363008 0.05855707 0.16732417 0.019542808 -0.13920204
-0.047712266 -0.07011561 0.2045557 0.19757622 0.17093387 0.09460572 -0.17744686 0.042050764
-0.027272075 -0.08682903 0.10007187 -0.20148093 0.13517767 0.070232466 -0.097777106 -0.18729737
-0.011702481 -0.043366708 -0.010486245 -0.13634124 0.08908389 -0.13925825 -0.087223314 0.13102926
0.019705951 0.0119977 -0.079002775 0.07350878 0.115795694 -0.07807659 0.104487255 0.1533947
0.0052780667 -0.009328852 -0.024546072 0.16549094 -0.08403721 0.14687401 -0.039989397 0.060752176
-0.11138246 -0.07633452 0.2331677 -0.028742662 -0.21176885 0.11729135 -0.0055976235 0.1249291
-0.21790017 -0.1560254 0.06626957 -0.06376943 0.11241494 0.048066463 -0.108717635 -0.06027197
-0.053259954 0.1565826 -0.051831286 0.13705711 0.006651143 0.22855939 -0.011221004 -0.18207337
0.21973106 0.19556652 -0.038969725 0.019013636 -0.07773507 -0.2292829 -0.20687342 0.0547181
-0.04575375 -0.097501546 -0.05226215 -0.12208016 -0.13350587 0.15226348 0.18583825 -0.16234799
0.05546959 -0.10349393 -0.059784822 -0.025297606 -0.06313677 -0.031187383 -0.019505266 0.11430114
-0.019224983 -0.16352414 0.032973267 0.13342285 0.2311565 -0.12742369 -0.08012995 0.08265601
-0.07817543 -0.058464624 -0.15100586 0.12052704 0.087714106 0.120562255 -0.15397601 -0.15776452
0.066878654 -0.015654616 -0.03061008 0.17224169 -0.19789128 0.09379219 -0.033270743 -0.11415798
0.13218111 -0.10540537 0.022454545 -0.015251127 -0.013543531 -0.06096956 -0.044293437 -0.050225392
00000000: de36 013e a5b7 97bd 606d 0bbe cdd4 863d
00000010: a555 233e d26d ee3c 2e7a bdbc 1317 603d
00000020: c52f d33c 043f 473d 328f c23d 3e7d 8bbd
00000030: 16f5 a4bc 7856 84bd 76fe 08bd f8f1 b0bd
00000040: 5800 0b3b 5f19 833d e56e 2c3e b57b 1a3e
00000050: c8bf c93d 2381 523e be61 31be 5548 0bbe
00000060: 1391 f6bd 88c7 413b aec9 12be 61c7 3cbe
00000070: daac d0bd c340 253c 1577 393e 8fe8 0abe
00000080: 64c3 933d 055a c53d 3163 87bd 2e74 16bd
00000090: 64e9 87bc 31cc cf3c 8ce1 20be 8d2f 7dbd
000000a0: 6071 28bd bc2e e03d b182 063e 841e 8539
000000b0: a7e6 3b3c 09db 5ebd 1b0c d6bc 7097 bbbd
000000c0: 1786 42be 65ba 143e 9a48 973c da22 bebd
000000d0: fcaf cd3d 50c4 b5bd 2329 e53d cfaa 1a3e
000000e0: 4b62 1f3e 2d6b 843d d92e ea3b 94a5 2d3e
000000f0: 1062 2cbe 2c10 92bd 9ae1 8bbd 8ff1 2bbe
00000100: 97f1 023e a80d ff3d ad04 29be 7c8f a63d
00000110: 7be7 d93d f507 23be c0ca c1bd dc13 babd
00000120: 8f30 143e bf2b 54be d955 19be 8e82 59bd
00000130: c3e9 303e 9b24 ebbd 5fec ebbd 18d3 96bd
00000140: edad 15be 8bcd 27bd bfa1 ddbd 08f9 26be
00000150: f734 a73d d2a9 283e 6a3c 033e 5aa8 183e
00000160: 4f0d e4bd a274 24bc 5ad5 ad3d 07b2 e03d
00000170: f4cc 273d 6ec4 13be b357 42be 042f 0c3e
00000180: 958c 843c c65b 293e 7b5c 053d db6d 05be
00000190: a700 fdbd dd8f f2bd b7c5 733d 1abe b8bd
000001a0: 94d4 1a3d 5d8a 05be e2c0 353e f128 aa3c
000001b0: b444 75bc 146e 5cba 4e80 17bd 71df 013e
000001c0: 38a4 d23d d1a5 17bc cd71 3fbe 18c6 acbd
000001d0: 6625 5f3d 53b1 583e ab03 4ebe 0942 12bd
000001e0: 6c3a 9b3d a4a2 fa3d d706 673d d463 53be
000001f0: 8875 cc3c e2c3 be3d 24f9 0c3e f979 3b3e
00000200: a882 49bd e7dc 343e 8f23 06be f746 463e
00000210: 8ad9 6f3d 0757 2b3e 3d18 a03c fb8a 0ebe
00000220: f06d 43bd c698 8fbd 0d77 513e 6c51 4a3e
00000230: 4a09 2f3e a5c0 c13d a1b4 35be 6c3d 2c3d
00000240: b069 dfbc 6bd3 b1bd 7bf2 cc3d 0451 4ebe
00000250: 046c 0a3e 0ad6 8f3d 5d3f c8bd e2ca 3fbe
00000260: c3bb 3fbc 4aa1 31bd 80ce 2bbc 0a9d 0bbe
00000270: 9d71 b63d b799 0ebe 23a2 b2bd 892c 063e
00000280: 606e a13c 0092 443c 35cc a1bd c58b 963d
00000290: 4b26 ed3d 9fe6 9fbd 6afd d53d 8013 1d3e
000002a0: a2f3 ac3b 0bd8 18bc d814 c9bc 7576 293e
000002b0: b31b acbd 2466 163e eccb 23bd 46d7 783d
000002c0: 7d1c e4bd 4655 9cbd 83c3 6e3e bb75 ebbc
000002d0: efd9 58be 7336 f03d 456c b7bb d4da ff3d
000002e0: 3921 5fbe 1fc5 1fbe 57b8 873d 8c99 82bd
000002f0: ce39 e63d 57e1 443d 5aa7 debd bedf 76bd
00000300: 1c27 5abd 3057 203e 0b4d 54bd b358 0c3e
00000310: d5f1 d93b 790b 6a3e 4dd8 37bc 7171 3abe
00000320: 2e01 613e 9742 483e b89e 1fbd 7cc2 9b3c
00000330: 9033 9fbd 23c9 6abe a0d6 53be 1620 603d
00000340: 4968 3bbd e4ae c7bd d610 56bd 2a05 fabd
00000350: c3b5 08be f5ea 1b3e 624c 3e3e 8d3e 26be
00000360: 1534 633d a0f4 d3bd eee0 74bd ed3c cfbc
00000370: da4d 81bd af7c ffbc 82c9 9fbc b716 ea3d
00000380: b67d 9dbc df72 27be fa0e 073d 00a0 083e
00000390: 4ab4 6c3e 5b7b 02be 2c1b a4bd 8e47 a93d
000003a0: 711a a0bd 9a78 6fbd 48a1 1abe e1d6 f63d
000003b0: 74a3 b33d 58e9 f63d e3ab 1dbe 068d 21be
000003c0: adf7 883d 1c3e 80bc fec1 fabc 2060 303e
000003d0: 03a4 4abe 1f16 c03d e746 08bd a9cb e9bd
000003e0: 7c5a 073e c5de d7bd 98f2 b73c dddf 79bc
000003f0: b0e5 5dbc 38bb 79bd 096d 35bd 24b9 4dbd

decoder.2.bias f4 [64]
0.032338716 0.047601473 0.019801402 0.17644985 0.10197951 -0.028146327 0.17900054 0.14697528
0.13067143 0.23415534 0.032298677 0.17461015 -0.12677397 -0.11272785 0.06847291 0.195543
-0.05628503 0.10813837 -0.103130214 -0.12371547 0.099908456 0.03464676 0.05955086 0.21712002
0.08731192 0.12681076 -0.08244606 -0.09951837 0.09898659 0.16925785 0.18975869 0.00021415106
-0.12127736 -0.18258841 -0.16382794 0.19356377 0.12532876 -0.08556149 -0.024263699 -0.14871113
0.1397267 0.15024227 0.095903516 0.115849406 0.15348288 -0.035395924 -0.1303534 -0.19418806
-0.109629594 0.19661188 -0.013224397 -0.1348021 -0.0894905 0.22324568 -0.13382357 -0.1861893
0.18570228 0.11440886 0.034160007 -0.07381212 0.10164587 -0.033572968 -0.09375541 0.08301573
00000000: 9a75 043d c3f9 423d 8d36 a23c 45af 343e
00000010: a2da d03d 2093 e6bc eb4b 373e b080 163e
00000020: bbce 053e 6bc6 6f3e 9e4b 043d 01cd 323e
00000030: 09d1 01be dcdd e6bd 863b 8c3d 6d3c 483e
00000040: 228b 66bd a677 dd3d ef35 d3bd 895e fdbd
00000050: ce9c cc3d c3e9 0d3d 9aeb 733d b654 5e3e
00000060: 98d0 b23d aeda 013e 7bd9 a8bd 4ad0 cbbd
00000070: 7bb9 ca3d ee51 2d3e 1a50 423e bd8d 6039
00000080: 4460 f8bd 75f8 3abe 83c2 27be 9535 463e
00000090: 2f56 003e dd3a afbd aac4 c6bc bb47 18be
000000a0: 8414 0f3e 1cd9 193e 1069 c43d 7442 ed3d
000000b0: 9e2a 1d3e 51fb 10bd 5d7b 05be 3cd9 46be
000000c0: 7b85 e0bd a054 493e 24ab 58bc 9009 0abe
000000d0: cc46 b7bd 849a 643e 0c09 09be 68a8 3ebe
000000e0: bd28 3e3e 314f ea3d 5deb 0b3d cf2a 97bd
000000f0: b62b d03d cf83 09bd d602 c0bd 2704 aa3d
