Save-Models/model-lat10.pth (torch, 193270 bytes, 16 tensors)

encoder.0.weight f4 [128, 99]
000000 7b d9 42 bd 04 b0 20 3c 44 13 94 3d f9 22 c3 bd
       -0.047570687 0.00980759 0.07230237 -0.09528155
000010 a2 35 47 3c 39 25 92 3d 1c cb f0 3c c6 35 8d 3c
       0.012158783 0.07136006 0.029393725 0.017237555
000020 2e 9f 96 3c 51 3d 08 bd d1 38 4e bc 21 a6 90 bd
       0.01838645 -0.0332616 -0.012586788 -0.070629366
000030 80 ca 97 3b fd 8f c8 3d fa 13 43 bc 13 4d b8 3d
       0.004632294 0.097930886 -0.011906618 0.08999076
000040 70 fb 25 3d e7 96 60 3d 22 e7 9d 3d d2 48 40 bd
       0.040522993 0.05483141 0.07710101 -0.046944447
000050 90 0a 93 bd f5 23 ce 3d b9 3b c3 3d 5b 67 50 bd
       -0.07179749 0.10065452 0.095328756 -0.050879817
000060 b4 52 e3 3d 78 a8 69 bd 15 9d c3 3c 44 31 32 3d
       0.11099759 -0.05704543 0.023878613 0.043504015
000070 6d b9 ab 3b 86 f0 ab 3a 16 8b 4f 3b 7c 8d 85 bd
       0.0052406103 0.0013117946 0.0031668595 -0.06521127
000080 99 84 3a 3d 3d 04 59 bc 9d e9 80 bd aa d3 6d 3d
       0.04553661 -0.013245639 -0.06294558 0.058063187
000090 ea a1 f2 3d ff c0 d8 3d ea 6f e9 3d 18 3e 29 3c
       0.11847289 0.10583686 0.11398299 0.010329746
0000a0 bd 04 91 bd b6 b3 93 bd 3f ba dc 3d 4e bd 4a 39
       -0.07080982 -0.072120115 0.10777711 0.00019334743
0000b0 51 5b da bc 88 4b 1d bd cc e0 8b 3d 3a c0 1c 3d
       -0.026654871 -0.03840211 0.06829986 0.03826926
0000c0 e0 37 0e 3d 46 fa d2 3d c5 be 8c bd 40 5f 24 3d
       0.034721255 0.10301642 -0.06872324 0.0401299
0000d0 26 55 e4 3d dd 54 dd 3d cc 40 d4 3d 58 f8 e7 3d
       0.11149053 0.10807202 0.103639215 0.11326665
0000e0 06 be b7 3d 63 16 8b 3d 1b de 1a 3d 23 8e 83 3d
       0.08971791 0.06791379 0.037809473 0.06423595
0000f0 a2 c0 3a 3d 9f cd 3d 3d ff 98 52 bc 33 88 1a 3d
       0.045593865 0.046338674 -0.01285386 0.037727546
000100 42 83 78 bd e3 79 55 bd 10 74 85 bc 6c f4 8f bd
       -0.060672052 -0.052118193 -0.016290694 -0.07029042
000110 5e 9c 01 3d cf 6c 24 bd 78 fd 01 3d bd 1a e4 3d
       0.031643264 -0.04014283 0.031735867 0.111379124
000120 68 d0 1f 3a ce 4b d1 3d a3 94 9d 3d cc 9c a5 3c
       0.00060964236 0.10219537 0.07694366 0.020216368
000130 02 91 25 bd de dd 80 bd 67 3b 76 3d 5f d8 04 bd
       -0.040421493 -0.06292318 0.060115244 -0.03243291
000140 4e 19 72 bb e9 9b e8 3c 9e 6b d7 3d 77 83 2d 3d
       -0.0036941352 0.028394656 0.10518573 0.042361703
000150 91 e8 92 3c 76 bb b6 3d db 18 80 3d f5 ba c6 3c
       0.017933162 0.08922474 0.06254741 0.02425907
000160 62 43 f8 3b 54 f6 40 3d 12 18 de 3d ce 6b cb 3d
       0.007576392 0.047109917 0.10844435 0.099326715
000170 cd cb de 3d 56 99 5d 3c 6a 5f 6c bc 71 35 dc 3d
       0.10878716 0.013525328 -0.014427045 0.10752381
000180 7a b8 e6 3d 87 c0 26 3c f8 7a fb bc 5a 6b a5 bd
       0.11265655 0.010177738 -0.030698285 -0.08077116
000190 f3 69 1a 3b e5 42 73 3d 8c d9 57 3d 5f 47 a4 3c
       0.0023561686 0.059389967 0.052697703 0.020053564
0001a0 48 c4 8b bd 58 3e 11 bd 29 e5 71 3d 4b 05 40 3d
       -0.06824547 -0.035459846 0.059056435 0.046880048
0001b0 56 9d 0b 3d 2f 32 01 bc f0 df 6a 3c 83 d5 80 bd
       0.034085594 -0.0078855 0.014335617 -0.06290724
0001c0 00 25 a8 3d 5c 1b 58 bc 3a 18 70 3d 4f 28 92 bd
       0.08210182 -0.013190117 0.058616854 -0.071365945
0001d0 c7 f2 85 3d 1e be 75 bd 53 ec b7 bd d5 60 9c bd
       0.06540447 -0.059995763 -0.08980622 -0.07635657
0001e0 28 e2 da 3d a2 2c 02 bd 53 20 7d bc 69 04 15 3d
       0.10687667 -0.031780846 -0.015449601 0.03638116
0001f0 5c 24 f3 bc 92 2f f1 ba a1 d9 a8 3d d7 ca ac 3c
       -0.029680423 -0.0018401018 0.082446344 0.021092815
000200 f8 52 9e 3c da 19 8e 3d 17 39 46 bd 2d a7 f8 bc
       0.019326672 0.069385245 -0.04839429 -0.030353153
000210 7d 26 8f bd 94 39 e3 3c b7 a4 5d 3d 7f 06 87 3c
       -0.06989763 0.027737416 0.054112162 0.01648259
000220 8b 84 7e bd c0 6a db 3c 90 a1 b5 3d c1 fe db 3d
       -0.06213812 0.0267843 0.08868706 0.1074195
000230 4e 14 ce bc ad 96 66 bd 69 b1 f6 3d d4 0e a2 3d
       -0.025156166 -0.05629604 0.12045557 0.079129845
000240 c2 6a 55 3c ac 22 be 3d ee 20 c0 3d 04 97 f2 bc
       0.013025941 0.09283957 0.09381281 -0.029613025
000250 a1 cc 9a 3d c3 57 c2 3c 37 95 2e 3d 06 14 83 bd
       0.07558561 0.023723489 0.04262277 -0.064003035
000260 3b 72 56 3d 00 6f a9 3d d2 2a 43 3d 04 af 3c 3d
       0.052355032 0.08273125 0.04764826 0.046065345
000270 0e 4e 58 bd f9 e3 97 3d d9 5b 97 3c ee 3a 75 ba
       -0.052808814 0.07416529 0.018476414 -0.00093547895
000280 3e 86 80 3d 62 c0 ed 3d 93 ae 7a 3c 3e 13 31 3d
       0.06275605 0.1160896 0.015300411 0.04323124
000290 48 81 c9 3d 30 42 14 3d cf 73 f6 3c 36 92 8d bc
       0.098391116 0.036195934 0.030084519 -0.017281633
0002a0 66 23 78 bc 2e 77 6c bd a5 50 88 3c 0e 47 36 bd
       -0.015145158 -0.057730846 0.016640017 -0.044501357
0002b0 a0 0c 82 3d dc 04 b1 3c 75 f3 cf 3b ff 90 4c 3d
       0.06350064 0.021608762 0.006346161 0.049942967
0002c0 39 a0 01 3d 69 92 05 bd 44 c8 c9 3d 9e 7c e0 bb
       0.03164694 -0.03261033 0.09852651 -0.006850793
0002d0 8b 7a b6 3d 15 17 a6 3d a1 8e d5 3d ad 83 81 3c
       0.08910092 0.08109871 0.10427595 0.015809858
0002e0 e1 ce c1 bc 1c 83 8f 3d 34 50 53 3c 46 19 bc 3c
       -0.023658218 0.07007429 0.01289754 0.02296127
0002f0 8f 13 49 bd 0a 6d 51 3d 49 9d 7e bb 17 0f 0e bd
       -0.04909092 0.05112938 -0.0038851073 -0.03468236
000300 d8 fd 1c bc 26 85 7b 3d b7 e6 a0 3d d1 d2 8b 3d
       -0.009582005 0.061406277 0.07856505 0.068273194
000310 41 4f 4d bd 45 8d ef 3d 72 20 03 3c 8b 24 91 bd
       -0.05012441 0.11696867 0.008003341 -0.07087048
000320 c0 ca 91 3d ba bd 4d bd a8 be 7b bc 0d d1 2d bd
       0.071187496 -0.050229765 -0.01536528 -0.042435694
000330 0e ec 39 bc bc a2 75 3d c6 9d e5 bd 83 a6 3b 3d
       -0.011347784 0.05996965 -0.112117335 0.045813095
000340 8c 42 d8 bd cc aa 87 3d 99 69 ae bd 01 d5 00 bb
       -0.10559568 0.06624374 -0.08516235 -0.001965821
000350 79 1c 29 bb f8 87 b6 bd 87 73 a7 bd 08 a5 1d 3a
       -0.0025804325 -0.08912653 -0.08176332 0.0006013666
000360 b4 ec 2a bd 99 0a 92 bd 89 43 a4 3d c2 5f ee bc
       -0.041729644 -0.071309276 0.08020694 -0.029098395
000370 2c 53 89 3d 75 6e 3e 3d 46 9a af 3c 1a 7c 9e bd
       0.06705317 0.04649206 0.021435868 -0.07738514
000380 f3 1b ee bd f4 88 4d 3d 0e 66 98 bd c6 c8 a2 bd
       -0.11626425 0.050179437 -0.074413404 -0.07948451
000390 10 2a b9 bd f0 82 5e bd 96 ae d8 bd 1b 77 47 3d
       -0.09041226 -0.05432409 -0.105801746 0.048697572
0003a0 1a a9 c0 3c 4a 89 e5 bb 7e 7a a6 bd e1 10 89 3d
       0.023518134 -0.0070048915 -0.08128832 0.066926725
0003b0 68 47 11 3d 2e 44 a5 bd 34 e8 f1 bd fc 9f 1c bd
       0.03546849 -0.08069645 -0.11811867 -0.03823851
0003c0 21 6c 88 3d fc 08 c5 3a 0b d6 6a bc b4 72 38 3d
       0.06661249 0.0015032585 -0.014333258 0.045031264
0003d0 29 fc dd 3c 46 01 22 3d c3 6a 9a bd d7 44 19 bd
       0.027097778 0.039551996 -0.075398944 -0.037419166
0003e0 22 a7 a9 bd c3 97 a5 3d 61 da 07 3d ca 77 9e bd
       -0.08283831 0.08085587 0.033167247 -0.07737692
0003f0 e3 40 44 bd 6e 07 c4 bd 4f 87 d0 bd 38 ee 86 3d
       -0.047913443 -0.095717296 -0.10182058 0.06588405

encoder.0.bias f4 [128]
000000 33 a1 99 bd 7a e8 0e 3d e9 90 c1 bc da a6 67 bd
       -0.075014494 0.034889676 -0.023628669 -0.056555606
000010 84 36 d1 3d 75 fd 95 3c 41 f0 05 bd 03 7a d5 bc
       0.10215476 0.018309334 -0.032699827 -0.026059156
000020 2f 67 de bd 25 22 38 bc ed 93 ef bd 7e a9 aa 3d
       -0.108595245 -0.011238609 -0.116981365 0.08333109
000030 14 b5 e5 bd 05 41 c0 3d 2a 87 66 3c fe 29 97 bd
       -0.112161785 0.093874015 0.014070312 -0.07381056
000040 3b e7 9d bd 55 41 52 bd 9d 65 6c bb b3 93 11 be
       -0.07710119 -0.051331837 -0.0036071308 -0.14216499
000050 aa 4e 15 be f0 f5 0c be 92 04 de bd 78 ff 97 bc
       -0.14580789 -0.13765693 -0.108407155 -0.018554434
000060 db 2c c0 bd e1 54 50 bd 52 14 0c 3c 8c 59 96 bd
       -0.093835555 -0.050862197 0.008549767 -0.073412985
000070 75 00 de bd 49 b6 ef bc ad b5 d7 bd d1 d5 2b 3e
       -0.10839931 -0.029261725 -0.10532699 0.16780783
000080 91 2b e6 3c 57 2f 70 3d 0f 90 12 be 0d 85 7e 3d
       0.028096946 0.058638897 -0.14312766 0.062138606
000090 a0 53 da bc 73 19 02 be 8e 77 90 bd 82 04 8d 3b
       -0.026651204 -0.1270502 -0.07054053 0.004303516
0000a0 2f 17 4c 3c c5 9c 58 3d f4 15 00 3d ec dd b1 bd
       0.012456699 0.052883882 0.031270936 -0.08684906
0000b0 01 48 99 bc 0b fc ff bd 10 40 ef bd bf c5 c6 bd
       -0.018711092 -0.12499245 -0.11682141 -0.09705686
0000c0 20 48 36 3c c1 0e f2 3c 68 05 b1 bd 4e 06 d6 bd
       0.011125594 0.02954805 -0.08643609 -0.10450421
0000d0 d8 5b 31 bc e7 66 03 be 35 35 ce 3b 6e 49 c2 bd
       -0.01082512 -0.12832223 0.006292964 -0.09486662
0000e0 aa 8c 1e bd 32 e6 a5 bd 19 5f 9c bd f9 0d 4b be
       -0.038708366 -0.08100547 -0.07635326 -0.19829549
0000f0 27 54 af bb e8 3a 35 3d cc be 35 3d b3 8c aa 3b
       -0.005350608 0.04424563 0.04437141 0.005204761
000100 4f c6 e6 3c 17 dd f6 bb 74 7d 30 be 83 51 16 be
       0.028170733 -0.00753368 -0.17235357 -0.14679532
000110 11 6e af bb 68 66 15 bd b5 9b 5c bd a8 8c 05 3d
       -0.005353697 -0.036474615 -0.05385943 0.032604843
000120 43 f4 28 bd 38 62 ed bd 9b 9d 05 ba 10 40 06 bd
       -0.04124857 -0.11590999 -0.00050970324 -0.03277594
000130 55 95 aa bd 33 14 12 3d 8b b6 f1 3c f7 53 67 bd
       -0.08329264 0.035663795 0.029505989 -0.05647656
000140 11 9d 09 bc b8 f4 be 3c 03 4c f2 bd 5c a8 94 bd
       -0.008399264 0.02331005 -0.11830904 -0.072586745
000150 16 c2 b8 bd 86 f1 ae bd 6e 30 84 ba c9 ef a5 bd
       -0.09021394 -0.08542161 -0.0010085234 -0.08102376
000160 c0 35 50 3d 7c b2 0e be fb 85 92 3c 96 a3 40 bd
       0.05083251 -0.13935274 0.017886152 -0.047031008
000170 22 69 df bc 1c 7e 75 3d 8d 48 c6 bc 95 7b cb ba
       -0.02727181 0.05993472 -0.024204517 -0.0015524501
000180 16 2b ae bd d9 e1 58 bd 7e 7e b3 3d bd 59 09 be
       -0.08504312 -0.05294976 0.08764361 -0.13413139
000190 fc d6 11 be bd 1d b7 bd 87 a6 43 bc 87 62 46 bc
       -0.14242166 -0.08941219 -0.011941559 -0.012108452
0001a0 27 9f d7 bd a2 9d ba bd 19 a8 3c bc 65 ea b0 3a
       -0.10528403 -0.09112097 -0.011514687 0.0013497589
0001b0 10 66 b8 bc cc e0 f3 3d 72 5e 52 bd f0 a2 0e 3d
       -0.022509605 0.11908111 -0.0513596 0.034823358
0001c0 30 e8 e4 bd 9c 4d ce bd 91 af 7c 3b 2c ca 29 be
       -0.11177099 -0.100733966 0.0038556794 -0.16581029
0001d0 bc 16 a9 bd 02 65 a5 3c ce 30 19 3d f6 f2 9c bd
       -0.08256289 0.020189766 0.03740006 -0.076635286
0001e0 16 df 4a be 2c 2f d2 bd 34 f6 04 be 4e 14 90 bc
       -0.19811663 -0.102629036 -0.12984544 -0.017587807
0001f0 84 1e 18 3d 86 53 28 3d 50 25 27 bd d0 a9 fa bc
       0.037138477 0.04109528 -0.04080707 -0.030598551

encoder.3.weight f4 [64, 128]
000000 04 8d d5 bc 94 63 e1 3c 44 a1 b7 bd 40 06 56 3c
       -0.026068218 0.027513303 -0.08966306 0.013063014
000010 4f 23 10 3d a8 30 cb 3d 9c a3 64 3c a8 11 51 bd
       0.035189923 0.0992139 0.013955023 -0.05104223
000020 2e 7f b7 3d b2 95 d5 3b 31 82 48 3d 58 38 77 bc
       0.089598045 0.006518089 0.048952285 -0.015089117
000030 db 47 ca bd 1a 2c 6c bd e4 b0 4c 3d 44 a1 54 3c
       -0.098769866 -0.057659246 0.049973384 0.012977902
000040 a2 1e 79 3b 10 38 ba bc 51 16 a9 bd 0c ff b6 3d
       0.0038012643 -0.02273181 -0.0825621 0.08935365
000050 69 4c c6 bd 17 9c 3a 3d 80 17 aa bd f9 59 4f 3d
       -0.09682543 0.045559015 -0.083052635 0.050622914
000060 d3 55 ca bd ed 14 df bd ce 18 6a bd c5 5b 51 3d
       -0.09879651 -0.10892663 -0.05715256 0.05111291
000070 5d db 8c 3d e0 0e 37 3c f0 62 99 bc 69 8c 0e 3d
       0.06877778 0.01117298 -0.018723935 0.034801874
000080 4c d9 c6 bd 60 50 b1 bc 5a b2 8d 3d 74 76 fc bc
       -0.09709415 -0.021644771 0.069187835 -0.030818202
000090 82 86 a8 bd f9 54 4b bd 97 49 63 bd e7 96 ad bd
       -0.0822878 -0.049641583 -0.055490103 -0.08476048
0000a0 7e e1 23 bd 78 73 38 bd 9b e2 cb bc a3 d6 a9 3c
       -0.040009968 -0.045031995 -0.024888327 0.02073223
0000b0 92 91 43 bd 67 c9 3d bc 66 9b 96 3c 1a 8e a5 bd
       -0.04774625 -0.011583663 0.018384647 -0.08083744
0000c0 cf 2c 03 bc 60 8e 3e bd 06 51 74 3d ae e8 d9 bc
       -0.008006289 -0.046522498 0.059647582 -0.026600208
0000d0 c9 0d a8 bd ee e5 17 bd 6d 7b 8c bd 36 00 bb bd
       -0.08205754 -0.037084512 -0.06859479 -0.091308996
0000e0 f9 ac 7e bd a0 af 85 bd 56 f4 a7 bd f5 a5 02 be
       -0.06217668 -0.065276384 -0.082009 -0.1275862
0000f0 cb 6b 6e bd 13 04 85 bd 3e 4e 53 3c fa b9 fc 3b
       -0.058208268 -0.06494918 0.012897072 0.0077126
000100 f8 24 6b bd af b6 a5 3c ba b2 31 bd 86 40 eb bd
       -0.057408303 0.020228712 -0.043383338 -0.11486916
000110 39 2c 09 3d 44 f8 ad 3d 88 c4 ce bd 35 6b a0 bd
       0.03348944 0.084946185 -0.10096079 -0.07832948
000120 db 14 64 bc 7c 71 8f bd bf 5f e5 bc 06 a2 03 ba
       -0.013920988 -0.07004067 -0.027999757 -0.0005021397
000130 f0 bd b6 3a 14 66 3e 3d 52 b7 cf bc d9 c8 2b 3b
       0.0013942104 0.046484068 -0.025355969 0.0026212244
000140 7e 92 52 3d e2 7c 4d bd ce 5d 53 bd 8c 00 62 bd
       0.051409237 -0.050167926 -0.05160313 -0.055176303
000150 21 fa 9d bd de 52 8d 3d 6b 0a 67 3d 79 fe b2 bd
       -0.07713724 0.06900571 0.05640642 -0.08739943
000160 36 15 9a bd 3b cb 56 bd 03 ed a0 bc b3 c0 30 3c
       -0.07523577 -0.05243991 -0.019644266 0.010788131
000170 17 de 3b bd 12 75 2e 3d ef c4 c2 3c e6 30 e5 3b
       -0.0458661 0.042592116 0.023775546 0.0069943545
000180 e7 6c 90 3d 99 8a 6b 3d a4 6c 2d 3d e8 57 0c bd
       0.070520215 0.057505224 0.042339936 -0.03426352
000190 5e 52 1e bd 7a ca 95 3d 8f aa 1b 3d 8a b4 29 3d
       -0.03865277 0.0731401 0.038004454 0.04143194
0001a0 b3 36 8b bd 19 75 3e bb 22 f7 8c bd 2a 48 d4 3c
       -0.067975424 -0.0029061495 -0.06883074 0.025913317
0001b0 e3 3e 96 3d fe 77 04 bd 24 21 c7 3c b2 9d 34 bd
       0.073362134 -0.032340996 0.024307795 -0.044095702
0001c0 57 7f 95 bd ba 84 8e 3d f6 86 5f 3d f6 da 3f 3c
       -0.07299679 0.06958909 0.05457207 0.011709919
0001d0 5b 6b 45 bd 20 67 4f 3d 3b 4e 38 3d ab bf ee bd
       -0.048198085 0.050635457 0.04499648 -0.116576515
0001e0 eb 07 1a 3d 29 3b 8e bd b4 8c cd bd dd 53 dc 3c
       0.037605207 -0.06944878 -0.100366026 0.026895458
0001f0 2c 98 d3 bd 66 d7 1d bd ff ce 29 3d 6e 99 01 bd
       -0.10331759 -0.038535498 0.041457172 -0.031640463
000200 30 18 dd 3d 26 d7 db 3d b9 70 24 3b d0 aa 99 3c
       0.10795629 0.10734396 0.0025091602 0.018758208
000210 99 b1 43 bd 02 91 4a 3d be cc eb bc 45 e6 80 bb
       -0.047776792 0.049454696 -0.028784152 -0.0039337003
000220 62 43 a5 bc 66 ff dd bc cc d3 e9 3d 02 3e 65 ba
       -0.020173732 -0.027099323 0.1141735 -0.00087448966
000230 e7 38 8e bc 57 e7 3c bd 7f b3 36 bb b3 fa 04 3d
       -0.017361118 -0.04611906 -0.0027877984 0.032465648
000240 0c 63 3d 3d 6f 76 26 3d 17 1f 31 3c 7a 1a 7e 3d
       0.046237037 0.04064029 0.010810635 0.06203697
000250 10 d7 b5 3b a6 70 58 bd 76 64 0f 3d d6 df d7 3d
       0.005549319 -0.052841805 0.035007916 0.1054074
000260 b3 44 08 be 9e 8b e6 bd 0a c0 8d bb e9 b6 d9 bd
       -0.13307457 -0.112570986 -0.0043258714 -0.106305905
000270 5e 98 a8 3d 8d 9c a5 3d 2f 9a 9d 3b 65 2a 85 3c
       0.08232187 0.080865 0.00480964 0.016255567
000280 c6 42 0a bd 80 1a 83 3d 07 dd e4 3c 87 7d b4 3d
       -0.033755086 0.06401539 0.027937425 0.08813005
000290 a8 67 b4 3d d3 76 fb 3d 7e 83 2e bc d8 d9 8c 3d
       0.08808833 0.12278523 -0.010651467 0.06877488
0002a0 de 37 4a bb 15 9b 15 3d 73 6d a8 bc 91 29 f3 3d
       -0.0030856053 0.03652485 -0.020560002 0.118731625
0002b0 2d 46 c6 bc c9 43 1f bd 7d a3 54 bd 33 b2 ea bd
       -0.024203384 -0.038883004 -0.051913727 -0.1145977
0002c0 44 ac ca 3d 22 4d 81 3d bf 42 bc bb 7d c7 46 bd
       0.09896138 0.0631354 -0.0057452614 -0.04853009
0002d0 a3 48 a2 bd 1f 9a b4 3d b6 2c bf 3d e5 62 74 bc
       -0.079240106 0.08818459 0.093347 -0.014916156
0002e0 bb 93 58 3d 83 e8 d0 bb 6d e9 5a bd 97 f0 b4 3d
       0.05287526 -0.006375374 -0.05344527 0.08834951
0002f0 a2 5d 31 bc 97 b8 e8 3c c0 62 a4 bb ec 3a 78 3b
       -0.010825546 0.028408332 -0.0050166547 0.0037876917
000300 75 60 6a bd bd ad dd bc d3 68 ce 3d d8 f0 fb bd
       -0.057220895 -0.027060384 0.100785874 -0.12301797
000310 92 24 11 bc 31 60 26 3c 14 6e 89 3d a3 4a 56 3d
       -0.008858817 0.01015477 0.06710449 0.052317273
000320 e5 72 97 bd a4 08 a4 3d 09 d7 18 bd f2 a3 55 3c
       -0.07394961 0.080094606 -0.03731445 0.013039576
000330 23 14 03 be 62 f6 e5 bd f8 4d ae 3c 38 8f 03 3d
       -0.1280065 -0.112286344 0.021277413 0.032119006
000340 9a 79 b3 3c bf 32 a5 3d 98 3e 81 3c 9c f0 31 bc
       0.02190857 0.0806632 0.015776917 -0.010860588
000350 54 22 27 bc 2b fd d0 3d 4b 93 b6 3c 4e dd 96 3d
       -0.010201056 0.10204538 0.022287032 0.07366429
000360 af 71 bf 3d 33 8b 30 3d ac 92 ef bd 16 aa e3 3d
       0.09347855 0.0431015 -0.11697897 0.11116426
000370 22 59 f8 3c bf 8c 15 3c b9 2d 8b bd a6 ab 7b 3c
       0.03031594 0.009127795 -0.0679583 0.015360748
000380 63 9d 81 bd 9c 21 bb 3d b7 b7 80 3d e8 af b6 3d
       -0.06328847 0.0913727 0.06285041 0.0892027
000390 42 6f db 3d 16 a3 98 3c 22 1d fc 3c 1c f9 f8 3b
       0.1071458 0.018632453 0.03077561 0.0075980555
0003a0 62 48 32 be 7d 22 84 3d 75 71 04 3c 13 e2 2c bd
       -0.17410424 0.064518906 0.008083691 -0.04220779
0003b0 de 14 db 3d 31 a6 ff bc aa 27 92 bd 4a ca 52 bd
       0.106973395 -0.031207176 -0.071364716 -0.05146245
0003c0 33 2d 41 3d d7 c8 e9 3c 1e 48 af 3c ae 51 93 3c
       0.047162246 0.02853815 0.021396693 0.017983284
0003d0 6b 1e f2 bc b2 c6 26 bc fd 57 a5 3d bd e7 49 3b
       -0.02955552 -0.010179209 0.08073423 0.0030808293
0003e0 56 f7 4d 3d 73 6a 67 bc 0d 9a fe bc e8 b1 8e 3d
       0.050284706 -0.014124501 -0.031079317 0.06967527
0003f0 db f7 d7 bc 4c 2a 9e bd 62 09 07 3c 76 d0 ff bd
       -0.026363304 -0.07722911 0.008241983 -0.12490933

encoder.3.bias f4 [64]
000000 62 ef f4 3c 0c 01 89 bc 54 ef d0 bb 30 9a ff bd
       0.029899303 -0.016724132 -0.0063761864 -0.12480581
000010 f5 ea a3 3b 63 b2 a0 bd 55 7f 3d bc 3e 59 b6 3c
       0.0050023743 -0.078465246 -0.011566003 0.02225935
000020 95 4a 07 3d 73 50 a8 bd 63 54 c3 bd a4 72 ad 3d
       0.03303011 -0.082184695 -0.0953758 0.084691316
000030 b7 2b a7 bd 05 18 b0 3d 24 05 7d 3d 7c 3f d8 38
       -0.08162635 0.08598331 0.06177248 0.000103115075
000040 1f 08 8b bd 89 4c d0 bd 49 fd 23 bd 0a 93 88 bd
       -0.06788658 -0.10170848 -0.040036473 -0.066686705
000050 a7 f5 bc 3c f7 a5 50 3d d2 e7 62 3d d8 d2 ec 3c
       0.023066355 0.050939526 0.055396862 0.028909132
000060 09 ce d3 3c 1c 67 25 3c 23 e5 f8 bd 77 36 74 3d
       0.025855081 0.010095384 -0.12153079 0.059622254
000070 42 3e b2 3d 61 97 3c bd 04 85 e3 bd 52 99 9c bd
       0.08703281 -0.046042804 -0.11109355 -0.07646431
000080 1e 25 8e 3d 1d 31 fe 3b 65 cd ef bc db bd a9 bd
       0.06940673 0.0077573196 -0.029272744 -0.08288165
000090 8a f0 f6 bc ed 26 d8 bd cc 6c 5e be 12 92 d1 bc
       -0.030143995 -0.105542995 -0.2172119 -0.025582347
0000a0 b0 45 0e 3c 60 f1 04 bc 76 78 bc 3d 47 79 48 3d
       0.008683607 -0.008114189 0.092026636 0.048943784
0000b0 fa 2b ad bd a0 27 ee bc 14 f5 7a bd c2 f5 7c 3d
       -0.084556535 -0.029071629 -0.06126888 0.06175781
0000c0 81 d0 ce 3d 06 80 7b 3d 38 50 da 3c 1c 59 b0 3d
       0.10098363 0.06140139 0.02664958 0.08610746
0000d0 91 63 85 bd 2f b3 0b bd 86 ca 8a bd f1 1f 4c be
       -0.065131314 -0.03410643 -0.067769095 -0.1993406
0000e0 98 9f eb bd 7b 7f 0b bd c6 f7 c6 3c c5 6a 86 3d
       -0.115050495 -0.03405712 0.02428807 0.065633334
0000f0 90 d9 05 3d e5 4c 5b 3d 59 16 39 3d 9e 96 16 3d
       0.032678187 0.05354013 0.045187328 0.036764733

encoder.6.weight f4 [32, 64]
000000 42 dc ba 3c f7 7c 12 3e ef 95 c0 3d bc da 5d bb
       0.022810105 0.14305483 0.094035976 -0.00338523
000010 b4 f1 bf bd 4d e7 54 3d 17 80 e6 3d fb 89 2a 3d
       -0.09372273 0.051978398 0.112549 0.041635495
000020 7d 5a 26 be 74 06 90 3e b1 ad 85 3d 09 18 63 bd
       -0.16245456 0.28129923 0.0652727 -0.055442844
000030 fc 3c 5f bd f8 93 1f 3b 2f ae 96 3d 9f 34 11 be
       -0.05450152 0.002434967 0.07357442 -0.1418023
000040 58 c9 81 3b 38 51 e8 3d 35 17 87 bd 75 8b 4e 3d
       0.0039607696 0.11343616 -0.06596223 0.050425965
000050 1f ce 1e be e4 71 4e 3d 24 51 56 bd 68 51 cc 3d
       -0.15508316 0.050401583 -0.052323475 0.099764645
000060 ce 1e 92 3d b2 51 e1 bc 35 7c 0c 3e 0a 9e 9d bd
       0.07134782 -0.027504776 0.13719256 -0.07696159
000070 63 e5 28 be 41 10 f9 bd 99 04 81 3d 46 a1 be 3d
       -0.16493754 -0.12161303 0.06299705 0.09308104
000080 f3 38 27 3d 04 dd 67 bd bc 00 d1 3c da b6 19 3c
       0.040825795 -0.05660726 0.025513045 0.009381974
000090 e4 a6 77 bd 04 f3 ad bd 3e 6c 34 bd 4f 36 a7 bd
       -0.060461894 -0.08493617 -0.04404854 -0.081646554
0000a0 8f a7 1d 3d ba 5e 59 bd 61 74 eb bd 74 27 90 bd
       0.038489874 -0.053068854 -0.11496807 -0.07038775
0000b0 1a 2f 9b 3c e9 7c d1 bd a0 8d 50 bd 67 af 2d bd
       0.018943358 -0.10228903 -0.050916314 -0.042403605
0000c0 a5 f1 06 3d 94 e2 85 bd cc 17 b6 3d 87 17 e0 bd
       0.032945294 -0.06537357 0.08891258 -0.109419875
0000d0 23 87 4c 3d 8e 0b 1c 3e 94 80 19 3e df 58 a3 3a
       0.049933564 0.15238783 0.14990455 0.0012462399
0000e0 39 9b 5a bd 2b df 06 3e 57 07 03 be 3f b5 92 bc
       -0.053370688 0.1317107 -0.12795769 -0.01790869
0000f0 a1 0f ef bd 6c 42 18 3e ce 23 4c ba 35 34 86 bd
       -0.11672903 0.14869088 -0.0007787318 -0.065529265
000100 e6 bd b2 bd b0 0c b8 bb 98 93 e0 bd e0 e6 ba bd
       -0.087276265 -0.005616747 -0.10965651 -0.09126067
000110 9a fa 90 bd d7 9a 96 3d 63 65 a5 bc d5 c3 0d 3e
       -0.070790485 0.07353752 -0.020189947 0.13844235
000120 ac 75 61 bc fb e5 90 be 8d 93 96 bd aa f2 45 3e
       -0.013760965 -0.2830046 -0.07352362 0.1933085
000130 74 10 55 bc 18 8e 94 be 2c bc df 3d c2 58 d7 3d
       -0.013004411 -0.2901466 0.10924563 0.10514976
000140 3b 5b ea bb 30 b4 93 be 1c c2 03 be 98 06 d8 3d
       -0.007151989 -0.2884841 -0.12867016 0.10548133
000150 80 c1 8c 3d d4 a4 ca bd a2 6d 6f 3d ce 55 b8 3d
       0.06872845 -0.0989472 0.058454163 0.09000741
000160 82 9f 67 bd 35 67 52 be 3c 71 e2 bd 22 4f 4f bc
       -0.056548603 -0.20547183 -0.11056754 -0.012653144
000170 5e 7a d7 3d 12 fb 09 bd a0 f1 1a bd e0 e1 89 3d
       0.105213866 -0.033686705 -0.037828088 0.06732535
000180 55 c0 4b 3d ff be 3b 3d 1c 16 01 3d 5f fc d9 3d
       0.04974397 0.045836445 0.031515226 0.10643839
000190 60 b5 b0 bb be a2 09 bd 1a 2c a2 be 76 e0 a3 3d
       -0.0053927153 -0.03360247 -0.31674272 0.08001797
0001a0 a0 8a 61 3d bf f7 e9 3d 8c 1d 6f bd 84 e7 af bd
       0.055063844 0.11424207 -0.058377787 -0.0858908
0001b0 b3 20 29 bd 9b 98 e8 bd 40 5b 84 bd d7 60 29 be
       -0.04129095 -0.11357232 -0.06462717 -0.16540848
0001c0 30 ff 91 bd 33 ee b6 3c ce 65 66 3d 16 7f 4c 3d
       -0.07128751 0.02233038 0.056249432 0.049925886
0001d0 2f 3b 94 bc 2f 86 bf bd 44 a1 53 3e 84 c7 27 bb
       -0.018094627 -0.09351765 0.20666987 -0.0025601098
0001e0 28 b7 17 bd c0 e2 32 bd a9 2e ce 3d 88 c6 87 3c
       -0.037039906 -0.043673277 0.100674935 0.01657416
0001f0 05 5e 20 bd c7 61 ba 3d 15 b7 87 3d d5 02 dc 3c
       -0.039152164 0.09100681 0.06626717 0.02685682
000200 fc 33 96 3b 42 79 67 bc e5 b9 c6 bc 7d 85 fb 3c
       0.0045838337 -0.014128031 -0.024258563 0.0307033
000210 cb c7 c4 3d 46 53 b0 bd d2 9f 07 3e d0 1e 6d be
       0.0960842 -0.08609633 0.1324456 -0.23156285
000220 e0 c7 0f 3e 84 44 3f 3e ad d9 01 bc b6 32 ce bd
       0.1404109 0.1867848 -0.007925433 -0.10068266
000230 95 b0 1c 3e 26 0b ce 3d 77 a1 df 3d bc fb 23 be
       0.15301736 0.1006072 0.10919469 -0.16013998
000240 7f d9 df 3d 55 37 58 3d 6d 33 a5 bd 3d c7 9a 3b
       0.10930156 0.052787144 -0.08066449 0.004723458
000250 4a 08 f6 bc 73 65 f6 3d 58 d1 cf bc 9e 7b 1d be
       -0.03003325 0.12031069 -0.025368378 -0.15379187
000260 e0 6b a1 bd fb c2 9c bd 87 0c 1b 3d 14 e4 ca 3d
       -0.07881904 -0.07654377 0.037853744 0.09906784
000270 af 17 e8 3d d6 30 7c 3d 9a bf 9d bd 00 e2 71 bc
       0.11332642 0.06157001 -0.07702561 -0.014763355
000280 68 23 ba bd 2c 45 f0 3c 16 a6 08 be a7 c3 1e be
       -0.090887845 0.029329859 -0.13344607 -0.15504323
000290 ec c1 98 bb e5 ca 1c 3e f1 5c fd 3d 94 d2 23 be
       -0.004661789 0.15311773 0.12371243 -0.15998298
0002a0 ae 13 9d 3d 61 ca 46 3b 21 1d 1f bc 9f b2 0b 3e
       0.07669769 0.003033303 -0.009711535 0.13642357
0002b0 6a 45 4a 3d ab 99 87 3c 75 5c 6f bd 37 de 39 3d
       0.049382605 0.016552767 -0.058437783 0.045377936
0002c0 78 75 90 bd 4e 75 11 be 2d 43 55 bd ef 93 46 bd
       -0.070536554 -0.14204904 -0.052066017 -0.048480924
0002d0 a6 c1 08 3e 23 6c e7 3d 4e 18 7a be f8 73 c9 3b
       0.13355121 0.11299922 -0.24423334 0.0061478578
0002e0 b8 ef 94 bd 72 e7 11 bd 2c 2e 00 3e fa aa 66 bc
       -0.07272285 -0.035621114 0.12517613 -0.01407885
0002f0 fd 7e 03 3e d6 68 4f 3d 4c e2 de 3d ba 95 10 be
       0.12841411 0.05063709 0.108830065 -0.14119616
000300 87 ca aa ba 2c 48 4e bc bc fc 03 3e 8c a5 89 3d
       -0.0013030329 -0.012590449 0.1288938 0.06721029
000310 8e 39 62 bd b2 c1 aa 3d d2 29 fb 3d 6d 48 2d 3e
       -0.05523067 0.08337726 0.12263836 0.1692216
000320 41 c8 97 3d a0 75 25 be 8c 10 f1 bd 93 56 76 3d
       0.07411242 -0.16158152 -0.11770734 0.060141157
000330 d6 9c 05 3d eb 82 a0 be c8 d0 a3 3d da 75 82 3d
       0.032620274 -0.31349882 0.07998806 0.06370135
000340 6e 10 a2 bd d6 c1 3d bd a1 2a 4a 3d 51 4f 99 bd
       -0.0791329 -0.046327434 0.04935706 -0.074858315
000350 d9 7d f5 3d 18 82 e0 3d 1a f4 2e 3d 00 73 32 bc
       0.11986894 0.109623134 0.042713262 -0.010891676
000360 a6 36 dc 3c d0 df a1 3d 4d fe a7 bd 75 20 96 bb
       0.026881527 0.07904017 -0.08202801 -0.004581506
000370 12 33 03 bd 82 9f 88 bc 27 f1 f0 3d 6b cd 96 38
       -0.032031126 -0.016677622 0.11764746 7.1908195e-05
000380 2c 65 92 bc 16 fb 75 bd 3e 63 87 bd 8b d5 43 3e
       -0.017870508 -0.060053907 -0.06610726 0.19124429
000390 b8 52 ef 3d 68 fb 27 bd 98 7f d1 bd b0 c5 13 3e
       0.11685699 -0.041011244 -0.10229415 0.1443088
0003a0 3f ab 51 bd 05 5f d7 bd 43 fe 66 bd 5d 3d c6 bc
       -0.051188704 -0.105161704 -0.056394827 -0.024199182
0003b0 68 f5 03 be 9d 8e c9 bd cb 8b ba 3d 61 44 e1 3c
       -0.12886584 -0.098416544 0.09108695 0.027498426
0003c0 07 4a a9 bd b5 cf ae bc f8 a9 fd bd 5c c0 d5 3d
       -0.08266073 -0.021339277 -0.123859346 0.1043708
0003d0 5d 4e a2 bb 14 d3 18 be f7 41 0d bd 8e c6 89 bd
       -0.0049531893 -0.1492427 -0.034486737 -0.067273244
0003e0 15 20 98 bd 4c 11 54 bc cf cf d9 3b 14 85 a1 3d
       -0.07427994 -0.012943577 0.006647087 0.07886711
0003f0 65 fa d7 3d 0e 15 04 3e 40 0c 80 bd ed 9d 73 bd
       0.10545806 0.12898657 -0.062523365 -0.05947678

encoder.6.bias f4 [32]
000000 5a e5 74 bd b3 33 59 bd aa cf fd bd 12 0b a0 bb
       -0.05978904 -0.05302782 -0.123931244 -0.004884132
000010 3a d6 fa 3d 39 78 5c bd 27 1e 55 bd 29 92 2d be
       0.12247892 -0.05382559 -0.05203071 -0.16950287
000020 1e d5 f4 bd 2d 3e 10 be 57 bc 0a bc ef 13 70 bd
       -0.119547114 -0.14086218 -0.008467755 -0.05861276
000030 b8 37 d8 3d f0 9c 7d bd 12 59 ed 3c 36 10 91 bd
       0.105575025 -0.061917245 0.028973136 -0.0708317
000040 ff 7c 66 3d 3b 53 e5 bd a7 b1 92 3d 59 0a b7 3d
       0.05627155 -0.111975156 0.07162791 0.089375205
000050 eb 6b c0 3d 5d 4f 03 3d ce 7b ef bb 6d af 8a bc
       0.09395584 0.03205811 -0.00730846 -0.016929353
000060 6d 95 19 be 39 2a 1b be 63 bb 0b be 5c 81 1c 3e
       -0.14998408 -0.15152825 -0.13645701 0.15283722
000070 f2 ae e7 bd 15 1c 3a 3d e3 b9 fd 3d bf 6c 7a 3d
       -0.11312665 0.045436937 0.12388971 0.061138865

encoder.9.weight f4 [10, 32]
000000 3f 22 c6 bd 76 83 ce bd 37 d2 be 3c 27 fb ba bd
       -0.09674501 -0.10083668 0.023293598 -0.09129935
000010 6c 8f ff bd 7c 48 28 be a5 da 10 be c7 29 1f be
       -0.124785274 -0.164339 -0.14145906 -0.1554328
000020 19 d8 0c be b1 1b 66 bd 09 06 16 3e 28 43 e7 3d
       -0.1375431 -0.056178752 0.1465074 0.11292106
000030 3e b4 f8 3d 03 eb 7c bd 67 2d 7b 3c 25 3e 54 3b
       0.121437535 -0.061747562 0.015330649 0.0032385674
000040 2a d2 1c 3d 8e f3 dd 3d 35 35 6a be a0 0e 0f 3e
       0.038286366 0.1083747 -0.2287186 0.13970423
000050 46 9d a3 bd eb 9c 60 3d ef ca 49 bd 25 8f 67 3d
       -0.07988982 0.05483715 -0.0492658 0.056532998
000060 43 c5 d7 3d fa 69 ed 3d 2d 06 f8 3d 5e fd f0 bc
       0.105356716 0.11592479 0.12110553 -0.02941769
000070 79 22 8e 3d 3c 39 0e 3d b5 14 90 3c 17 d0 42 bd
       0.06940169 0.03472255 0.017587999 -0.04756173
000080 39 89 9c 3d a3 ec 1d be 60 b1 99 bd cc 5b cb 3d
       0.07643361 -0.15422301 -0.07504535 0.09929618
000090 bb 31 00 be 9e 86 c5 bd e3 06 48 bc 42 cd 40 3e
       -0.1251897 -0.09644817 -0.012208673 0.188283
0000a0 58 e6 2f 3e ed a8 7e bc d1 cb 11 3e ce 2c 00 3b
       0.17177713 -0.015543205 0.14237906 0.0019557956
0000b0 ce 0f 2b 3e 0e 93 b7 bc 15 8c 81 bc 07 78 ea bd
       0.16705248 -0.022408988 -0.015813867 -0.11448675
0000c0 04 56 11 3e 5a 34 b8 3b ee 4b aa 3d a7 21 3c be
       0.14192969 0.005621475 0.08315264 -0.18372212
0000d0 97 6c 12 3e 3d 16 c3 3d 68 07 11 bd a5 31 83 3c
       0.14299236 0.09525726 -0.035407454 0.016014883
0000e0 bf bb ef bd df 22 e7 3d 64 28 db 3d 08 81 46 bc
       -0.117057316 0.11285948 0.10701063 -0.012115724
0000f0 5e 06 95 3d 30 4f 72 bd d6 e2 92 3d f4 42 40 bd
       0.07276605 -0.05915755 0.07172172 -0.04693885
000100 98 0a 2d 3e c6 bc 25 be 71 22 0c 3c cb 9e 87 bc
       0.16898572 -0.16185293 0.008553133 -0.01655521
000110 81 c9 bb bc ab 9d f4 3d 04 55 30 3b 6e ac 00 3e
       -0.022923233 0.11944135 0.0026906142 0.12565777
000120 f7 a8 0f 3d c4 d8 c7 bd d1 a9 a6 3d 10 e0 ee 3c
       0.035073247 -0.09758142 0.08137859 0.029159576
000130 23 b1 12 bd bb a0 2f bd 94 b0 85 3b e3 90 f1 bc
       -0.035813462 -0.042877894 0.0040798876 -0.029488033
000140 88 62 88 3b c7 65 10 3e 3c fe d4 3d 87 9c 08 be
       0.0041621365 0.14101325 0.10400054 -0.1334096
000150 c2 2f ce 3c 6a a8 af bd da b8 2c 3c 8a 74 eb bc
       0.025169257 -0.08577044 0.010542119 -0.028742094
000160 ac 50 fa bd ca ce ef 3d 12 72 10 bd 56 a4 54 bd
       -0.12222418 0.11709364 -0.035265036 -0.051914535
000170 44 2a 77 3e 85 9e 1f 3b 6e 17 38 3e c7 ae 20 3b
       0.24137217 0.002435596 0.17977688 0.0024518238
000180 86 c5 1d 3d a3 af 86 3d 0e c1 2c 3d db a2 4a bd
       0.03851845 0.06576469 0.0421763 -0.049471717
000190 d8 b6 2a 3e 77 73 2f be d7 e9 54 3c e0 7d 21 bd
       0.16671312 -0.1713389 0.012995205 -0.039426684
0001a0 06 65 d5 3d 65 b4 43 be 5f ef 34 3d 28 71 4c bd
       0.10419659 -0.19111784 0.044173595 -0.0499126
0001b0 07 ec 0c 3d fd 55 98 3d 41 46 0b 3e 15 8c 3a be
       0.03440478 0.07438276 0.13601018 -0.182175
0001c0 d5 34 2c bd c5 e5 af bd 5c 6a 47 bb 6a 1b 3d be
       -0.042042572 -0.08588747 -0.0030428385 -0.18467489
0001d0 cd ba d7 bd 37 18 5e 3c c2 82 e4 3d 8b c2 0e 3e
       -0.10533676 0.013555578 0.111577526 0.139414
0001e0 03 8b 33 3e 54 fa 0f be 9f 0d 0e 3e fc 49 4c 3c
       0.17533498 -0.14060336 0.13872384 0.012468811
0001f0 2c bc 0c 3e 29 bd 48 be db e4 0f 3e 8d 5f af bc
       0.13743657 -0.19603409 0.14052145 -0.021407867
000200 ce f0 a4 3a 2e b4 35 3b c3 20 f2 bd 77 44 0a 3e
       0.0012583972 0.0027725804 -0.11822655 0.1350268
000210 17 b4 6c 3d 1c a9 f1 3d e0 fc fb bc b3 4a a2 bc
       0.057788935 0.11799833 -0.030760229 -0.01981101
000220 08 b5 13 be dc 6c aa bd ba aa ca 3d d8 5f 92 3d
       -0.14424527 -0.083215445 0.09895845 0.07147187
000230 67 8f e1 3d 64 0d 1d 3e d0 2b 16 3e d6 04 3e bd
       0.1101368 0.1533714 0.1466515 -0.04639133
000240 97 08 97 3d d0 b8 64 bd e9 30 ab 3d ad 90 e2 bc
       0.07374685 -0.055840313 0.08358938 -0.027656877
000250 65 77 f6 3c 1b 94 43 be b9 85 b4 bd 6c ce 0e 3d
       0.030086229 -0.19099467 -0.08814568 0.034864828
000260 22 6c f3 bd b2 73 07 be 66 75 2c bd 28 18 05 3e
       -0.11885859 -0.13227728 -0.042104147 0.12997496
000270 dc 94 b1 3d 99 47 cf 3c 70 c9 25 3e 9b cf 3d be
       0.08670971 0.025302695 0.16190124 -0.18536226
000280 35 f2 b4 3d 6e 45 27 be fd 58 cd 3d 85 4a 0f be
       0.0883526 -0.16335079 0.10026739 -0.1399327
000290 32 e7 a9 bd c3 b4 f4 3d f4 b5 42 bd 21 8a 0c 3d
       -0.0829605 0.1194854 -0.047536805 0.034311417
0002a0 32 b0 0d be 4c 6d be 3d a0 d2 c3 3d f5 bd ea 3d
       -0.13836744 0.092981905 0.09561658 0.11462013
0002b0 4a 6c 65 3c 44 e8 24 3c 65 43 3b bc 9a 0d 5d bd
       0.014002869 0.010065142 -0.011429642 -0.05396805
0002c0 be 84 02 be 55 c1 8e bd fe 78 10 be 4d e5 8b bd
       -0.1274595 -0.06970469 -0.14108655 -0.06830845
0002d0 f7 1f 0b 3e 60 07 05 be 44 df ff 3d c4 a0 b1 3d
       0.13586412 -0.12991095 0.124937564 0.08673242
0002e0 ee 02 3c 3c 18 03 08 3d ff 60 2e 3d 4f 19 a7 3a
       0.011475308 0.033206075 0.04257297 0.0012748631
0002f0 d8 82 75 be 1f 1a 20 be 44 3d 8f 3d 92 44 a1 bd
       -0.23975694 -0.15634964 0.06994107 -0.07874407
000300 3e 3a 6b 3d ff 08 84 3b df 0d 34 bb 25 d6 b4 bd
       0.05742859 0.0040293927 -0.0027474088 -0.08829907
000310 47 3a 17 3e 96 0f 23 be b9 4c a1 3d ac 42 10 3e
       0.14768325 -0.15923914 0.07875962 0.14087933
000320 d8 ec a6 3c cd 45 89 3d b4 5e 59 3d 39 4a f4 bd
       0.020376608 0.067027666 0.05306883 -0.11928219
000330 a2 cb 8b 3d fb 6c ba 3d e0 88 90 bd f9 12 71 bd
       0.06825949 0.091028176 -0.07057357 -0.058855984
000340 18 84 06 be 35 f8 04 be ad 36 f8 3d 20 8f a2 bd
       -0.13136327 -0.12985308 0.121198036 -0.07937455
000350 92 17 27 be 70 c3 11 be 4b e9 4e 3e 47 be 8c 3d
       -0.16317585 -0.1423471 0.20206182 0.0687223
000360 36 16 3e 3d bc 26 c6 bd 32 d9 02 3d 49 4b 19 3d
       0.0464079 -0.09675357 0.031945415 0.037425313
000370 86 de 4c 3e 9f cc c9 bc 96 a8 b0 bd 11 30 0b be
       0.20006761 -0.024633704 -0.08625905 -0.13592555
000380 1c 0b 66 bd 07 1a d3 bd 47 47 46 be 47 5f 71 3d
       -0.05616294 -0.10307699 -0.19363128 0.058928754
000390 65 8a 0c 3e 1c 44 f3 3d 68 d9 28 be 8c e7 6f 3e
       0.13724668 0.11878225 -0.16489184 0.23428172
0003a0 ea b6 04 3e e3 18 10 3e 19 9e fe 3c 3c 25 f3 bd
       0.12960401 0.14071994 0.031081246 -0.11872336
0003b0 a7 22 cb bd c0 1f e7 bd 8c a6 15 3e 9b 8e 15 3e
       -0.09918719 -0.11285353 0.14614314 0.14605181
0003c0 8e f7 bd bd f1 47 aa bd da 80 0d be ba 57 18 be
       -0.09275733 -0.08314503 -0.13818684 -0.14877215
0003d0 70 70 f3 3d 9c 07 0e 3c 7f 86 22 3e fa 1d 4b 3e
       0.1188668 0.008668806 0.15871619 0.19835654
0003e0 44 b9 b0 bc 7a dd 96 3d 5e db 64 3c 96 3f 42 be
       -0.021572717 0.07366462 0.013968317 -0.18969569
0003f0 1a 76 48 3e cd b7 41 be ca 2b 99 bd 92 2c 80 3c
       0.19576302 -0.1891777 -0.07479055 0.015646253

encoder.9.bias f4 [10]
000000 b4 5a 89 3d 0d a9 13 be 53 8c cf 3d 98 46 1c be
       0.067067534 -0.14419957 0.101341866 -0.15261304
000010 3a ed 93 bd d1 4a 31 3d 17 36 51 be 14 67 83 be
       -0.07222982 0.04328424 -0.2043079 -0.2566458
000020 67 57 42 3d 00 8c fa bd
       0.047446635 -0.12233734

decoder.0.weight f4 [32, 10]
000000 94 76 6e be ad d0 a0 be 22 5e f9 bd e8 f2 81 3e
       -0.23287421 -0.31409207 -0.121761575 0.25380635
000010 e9 13 ac bb cd 97 58 be a9 f9 0a bd d2 36 d2 bd
       -0.005251397 -0.21151657 -0.0339295 -0.102643624
000020 da 70 6f 3e 5c b9 55 be c3 28 e2 bc 37 7a 03 3e
       0.23382893 -0.2087149 -0.027607327 0.1283959
000030 8e f2 32 be 95 ff c2 bd 8f fa e9 bd ec de a1 3e
       -0.1747534 -0.09521405 -0.114247434 0.31615388
000040 07 52 9f bd a1 f7 c0 3e cf 8d 9a 3e f0 52 88 be
       -0.07779317 0.37688926 0.30186316 -0.26625776
000050 4b a6 5c 3e db 32 d6 3d c6 cc 45 be 79 c1 8f 3e
       0.2154781 0.10458919 -0.19316396 0.28077295
000060 c0 7c 61 3d 21 5e d5 bd 8b 61 98 3e 53 87 68 be
       0.05505061 -0.10418344 0.2976192 -0.22707872
000070 c0 96 7b 3e 08 3d 41 be 0e 4d 51 3e d0 c0 7e 3e
       0.24569225 -0.18870938 0.2043955 0.2487824
000080 da 81 04 3e b4 0a 85 3e c0 e8 a1 3e 23 e5 1c 3d
       0.1294016 0.25984728 0.31622887 0.03830446
000090 f8 56 58 bc 9e a1 5b 3e 1a dd 8e be 52 96 ac 3d
       -0.013204329 0.21448371 -0.27903062 0.08427109
0000a0 e2 9f 54 3e 1c db 97 bd ee 20 84 be ec 20 e3 bd
       0.20764115 -0.07414839 -0.25806373 -0.11090264
0000b0 b4 c6 39 be 78 ee 27 be 2f 86 8a be f7 c8 16 bd
       -0.18142205 -0.16399562 -0.270555 -0.03681275
0000c0 9b 9a 87 3e eb 70 1a be 70 57 96 3e 6e d5 c8 3d
       0.26485142 -0.15082137 0.29363585 0.098063335
0000d0 26 bc d0 3c 45 77 4d be a6 9b 62 be 4c cf 52 3e
       0.025480341 -0.20065029 -0.22129688 0.2058689
0000e0 d8 b8 73 be fd af 4f be ca e2 21 3e d9 19 99 be
       -0.23800981 -0.20281978 0.1580917 -0.29902533
0000f0 a5 34 24 be 4c 34 e3 bc 26 f5 63 be 62 49 81 3c
       -0.16035707 -0.027734898 -0.22261485 0.015782062
000100 29 f3 99 3e d9 fc 8d bd f3 0d a9 be 16 67 bb be
       0.3006833 -0.069329925 -0.33018455 -0.36602086
000110 fc fb a2 3e 8b ce 35 3e 94 2d 96 3e 2f 41 63 bc
       0.31832874 0.17754571 0.29331648 -0.013870521
000120 20 a7 8a be a5 fb 5f 3e 31 dc 05 3e 25 71 56 be
       -0.2708063 0.21873339 0.13072278 -0.20941599
000130 80 5a 8e bd 59 9b 6b be 96 25 db 3d c6 b1 97 be
       -0.06950855 -0.23008479 0.10700528 -0.29627818
000140 8e fe 0b be 8e 11 c7 bd 76 20 09 3e 0e dd 8f 3e
       -0.13671324 -0.09720145 0.13391289 0.2809834
000150 8b 74 3b 3e 9e 7c 8c 3e 1b de 97 3d 8b 44 7f 3e
       0.18306176 0.27438825 0.0741541 0.24928491
000160 3e 04 3c bb ff ab 59 bb 6d 12 90 3e eb d9 f6 bb
       -0.0028689052 -0.003321409 0.28139058 -0.007533302
000170 09 f5 5c 3d 72 ee 81 3e eb 37 98 be 5c e8 04 be
       0.05394462 0.25377232 -0.29730162 -0.12979263
000180 b3 e0 24 bc ca 3e ff bd 62 ee 5d 3e 52 9b b8 bd
       -0.010063338 -0.12463148 0.21672967 -0.09014
000190 1f 65 b0 be a0 38 90 3d 35 9b 60 3e 0f 02 c4 bc
       -0.3445215 0.0704205 0.21934207 -0.023926763
0001a0 07 4a fa 3d d7 ac 66 3e c6 0c c6 bd d7 ea 56 3c
       0.12221151 0.2252687 -0.09670405 0.013117514
0001b0 3d ff 34 3e 32 f1 b2 3d 2b 78 4e 3d 95 ef 69 be
       0.1767549 0.087374106 0.05040757 -0.228453
0001c0 ca e6 be 3d b5 bf 70 be 6c 12 ca bd d9 eb 58 bc
       0.09321363 -0.2351063 -0.09866795 -0.013239824
0001d0 8d 54 81 be 31 7f 6a 3d 07 7b 5f 3e 5c 33 47 be
       -0.2525982 0.057250205 0.21824275 -0.19453186
0001e0 45 e1 e4 bc 62 a3 33 be 87 72 7b 3e 26 e7 14 bd
       -0.027939448 -0.17542794 0.24555407 -0.036353253
0001f0 8b e1 0d 3e 73 66 0c 3e 27 3d 0c be 8b 35 18 3b
       0.13855569 0.13710956 -0.13695203 0.0023225273
000200 d9 32 80 bd 45 61 91 be 54 18 2f 3e 19 75 57 bd
       -0.062596984 -0.28394523 0.17099124 -0.052601907
000210 d8 5f 9f bd ac 60 c9 3d d8 84 b5 3d 88 4d 67 be
       -0.077819526 0.09832892 0.088632286 -0.2258817
000220 dc 25 38 be 72 65 7a 3e 94 1a 03 3e 8c 9e aa be
       -0.17983192 0.24452761 0.12803108 -0.33324087
000230 96 4f 07 be 43 51 84 3d bd 4c aa 3c d9 b8 5e 3e
       -0.13213953 0.06460812 0.020788545 0.21750201
000240 cf ab c0 3d be 8b 80 be 85 11 45 be 94 a3 32 3e
       0.0940777 -0.25106615 -0.19244964 0.17445213
000250 ec a8 4c bb dd bc 61 be 5b 4d 80 3d 8c 4c c9 3d
       -0.0031228615 -0.22044702 0.062647544 0.09829053
000260 0b 43 17 3e 95 ad 92 be f2 96 1f 3c 31 34 86 bd
       0.14771669 -0.28648058 0.009740578 -0.065529235
000270 e5 9d c8 bc c6 50 ff 3d 83 37 71 be 9e 49 3f be
       -0.024489352 0.12466578 -0.23556332 -0.18680426
000280 a3 79 97 3e c9 61 95 be a6 55 95 be 9f 66 38 bc
       0.2958499 -0.29176167 -0.29166907 -0.0112549355
000290 41 1e 1d be ea 7a 05 3e 26 5b 5f be e3 45 01 be
       -0.15343572 0.13035169 -0.21812114 -0.12624316
0002a0 7b a0 54 3e d9 c5 a2 3d 3a 66 8f 3c f1 1f 0b be
       0.20764343 0.07947893 0.0175048 -0.13586403
0002b0 48 55 68 3e 40 7a 85 bd a2 8a 7a 3e 68 3b 0f 3e
       0.22688782 -0.06517458 0.24466947 0.13987505
0002c0 69 b6 2a 3e 09 cb 58 be 5d f1 2e 3c bd 54 26 be
       0.16671146 -0.21171202 0.010677663 -0.16243263
0002d0 e9 e8 57 be 3d f5 ec bd a2 d0 b2 bd 9c 52 9d bd
       -0.21084942 -0.11570213 -0.087312 -0.07681772
0002e0 c8 bb 1b be 94 b5 c7 bd 37 45 82 bd af 29 62 3e
       -0.15208352 -0.0975143 -0.06360858 0.22086214
0002f0 36 35 9e be 29 93 88 be a9 ca 4c be fe b2 86 3e
       -0.30899972 -0.26674774 -0.19999184 0.26308435
000300 09 b6 86 3e 60 4d 7b be 3d 05 97 be 27 eb 06 bd
       0.26310757 -0.24541235 -0.29496184 -0.032939103
000310 aa f5 76 3d 0b e4 5b 3e bb 95 20 3d 7b 43 30 be
       0.060292877 0.2147371 0.039205294 -0.17213242
000320 29 f6 31 3e 7f 11 0b 3e e6 7f a1 3e 21 f7 6d 3e
       0.17379059 0.13580893 0.3154289 0.23238803
000330 de 30 10 3e 82 ad 66 be 9b ad 50 3e 85 ab 63 bd
       0.14081141 -0.22527125 0.20378725 -0.055583496
000340 2b 71 09 bd 72 b1 65 be d2 aa 20 be 6c ab 13 3e
       -0.03355519 -0.22430971 -0.15690163 0.14420861
000350 16 33 98 be f3 2e 87 3e e6 9c a8 3e 2d a8 9d bd
       -0.29726475 0.26403007 0.32932204 -0.076980926
000360 00 9f 56 3e e4 f3 4c be b1 33 66 3e ac ac 04 3d
       0.20959091 -0.20014912 0.22480656 0.032391235
000370 5a 50 07 3e 06 d3 7c 3e 8f 68 c9 bd 35 bf 6c 3e
       0.13214245 0.24689874 -0.09834396 0.23119815
000380 0e 3f 29 be 67 33 8b bd 0b 18 0d 3e 79 56 d5 3d
       -0.1652796 -0.067969136 0.13778703 0.10416884
000390 65 0f c9 3d 1d 37 25 be fe ed f3 bd be 5c 30 be
       0.098173894 -0.16134305 -0.11910628 -0.17222878
0003a0 1d 8f 2a 3e f5 4b f7 bc 49 88 83 3e ea 68 39 bd
       0.16656156 -0.030187586 0.25689915 -0.04526607
0003b0 28 2a 70 be 71 44 c8 bd 43 33 c4 be 02 64 97 3e
       -0.23453581 -0.09778679 -0.3832036 0.29568487
0003c0 a1 8f 24 be c0 82 93 3e 60 b4 3f 3e 43 aa ca 3d
       -0.16070415 0.28810692 0.18721151 0.09895756
0003d0 9c e1 85 3e 42 1a 54 be 1f e9 94 3e 4b 99 dd bc
       0.2614869 -0.20713142 0.29084107 -0.027050635
0003e0 b3 df 41 3e 3b 06 9d 3e 7e da 3b 3d 48 81 0f 3e
       0.1893299 0.30668816 0.045862667 0.1401416
0003f0 f5 ea 9a be c7 75 04 bd b2 34 ad be ec a2 55 be
       -0.30257383 -0.032338884 -0.33829266 -0.20862931

decoder.0.bias f4 [32]
000000 ea cf 29 3d b2 41 1d be f3 ca bb bd bd 38 ae 3e
       0.041458048 -0.15357092 -0.09169569 0.34027663
000010 e0 50 00 3e fc 59 3d bc 2e 48 29 3d 9e bb 57 3e
       0.12530851 -0.0115570985 0.0413286 0.21067664
000020 1f 89 87 3e 98 d8 4a 3e 19 ce 1f bd 62 b5 c3 bd
       0.26471803 0.19809186 -0.03901491 -0.095560804
000030 ef 3c 58 be 20 5a 33 be 1d 3e a8 3e 1e 45 ed bd
       -0.21116994 -0.17514849 0.3285989 -0.11585449
000040 f1 52 45 3e 32 9e b0 3e ed 12 8c 3e 4a 66 4d 3e
       0.19269921 0.34495693 0.2735819 0.20058551
000050 32 1d 86 3e 2e 3b 85 3e a0 2f 8d bd 54 af 37 be
       0.2619415 0.26021713 -0.068938494 -0.17937976
000060 f2 be 34 be b9 15 2c be 8f 9b 70 bd aa bc 51 be
       -0.17650965 -0.16805162 -0.058742102 -0.20482126
000070 7f 82 7a bc a8 3a b3 bd a7 d2 00 3d e2 69 63 be
       -0.015289902 -0.08751422 0.031450894 -0.2220836

decoder.2.weight f4 [64, 32]
000000 0b 0f 34 bc bb 8b 37 3e ee 17 f4 3c 83 f8 1d be
       -0.010989915 0.17924397 0.029796567 -0.15426831
000010 7e a8 17 3e 95 de b9 bc e4 25 64 3c 40 01 42 3e
       0.14810368 -0.022689143 0.013925049 0.1894579
000020 33 30 60 bd 64 ad 87 bc 21 61 55 bd bd ef 8e bd
       -0.054733466 -0.016562171 -0.052094582 -0.0697932
000030 fe 22 d6 3c 49 48 04 3e 1f 1d 30 3e 73 af 0d be
       0.026139732 0.129182 0.17198609 -0.1383646
000040 0e f7 e1 3d 64 10 36 bc 17 bb ca 3d d5 6d 66 bd
       0.1103345 -0.011112306 0.09898966 -0.056257088
000050 0a 90 9b bd a9 80 06 3e 94 72 07 3e 49 8c 3f 3d
       -0.07595833 0.13135017 0.13227302 0.046764646
000060 2b 67 c2 3d b5 22 3e bd 5e 76 60 3e c7 c0 84 bb
       0.09492334 -0.046419818 0.21920153 -0.004051301
000070 21 51 22 bd 77 d1 d4 3d 13 a6 89 bd 48 f1 8f 3d
       -0.03962815 0.10391515 -0.06721129 0.070284426
000080 19 be 0f 3e 41 88 88 3d 55 2b 95 bd bf 2c 39 3e
       0.1403736 0.06666613 -0.072836556 0.18083476
000090 d2 f9 29 bd d7 d0 1d 3d 1f 20 53 be 84 80 3e 3d
       -0.041498013 0.038529243 -0.20617722 0.04650928
0000a0 ba db e0 3d fc ba a3 3d a6 53 9a 3c 0f f5 fb bd
       0.109794095 0.07994649 0.018838715 -0.123026006
0000b0 a1 cc 31 bd 96 31 80 bd 94 7f 35 3e 1c 4e 04 3e
       -0.04340804 -0.06259458 0.17724448 0.12920421
0000c0 88 16 f9 3d ff 96 0a bc 41 f1 a4 bd bb 55 4c bc
       0.121625006 -0.008458852 -0.08053828 -0.012471612
0000d0 9d 86 5b 3d 0f c5 18 bc 17 16 08 bd a4 df 96 3e
       0.053595174 -0.009324326 -0.03322419 0.294675
0000e0 fa e7 01 3e 5a 15 39 be ac 68 05 3e 4d 89 6d bd
       0.12686148 -0.18074551 0.1302821 -0.05799227
0000f0 2a 20 dc 3d 0a 15 df 3d ae 8a ce bd 59 72 e9 3d
       0.10748322 0.10892685 -0.10085045 0.11398763
000100 d7 ad a8 bd 30 27 38 3e ca c7 1b be 9a a9 3d be
       -0.08236282 0.17983699 -0.15212932 -0.18521729
000110 df 86 3a 3e 8a 63 20 3e 05 ee 65 bd 34 11 3a 3d
       0.18215512 0.15662971 -0.056135196 0.045426562
000120 ac 2d ca 3c 3b d0 6f 3d 33 f8 6c 3d 0a ec 34 bd
       0.024679981 0.058548193 0.05785389 -0.044170417
000130 8b 91 d6 3b b8 13 18 be ec d2 b6 3d 89 b6 5d bc
       0.006548112 -0.14851272 0.08926949 -0.013532289
000140 b6 45 ee bd d0 be 9f 3d 32 fd 15 3e 11 7e 9e 3d
       -0.1163439 0.078000665 0.14647368 0.07738889
000150 08 25 35 bd 5e 55 b2 3d c6 b5 c2 3d a8 d8 44 3e
       -0.04422477 0.08707689 0.09507327 0.19223273
000160 08 70 ca 3d 76 1f 5a 3d 3f 31 eb bd e5 55 ec bd
       0.098846495 0.05325266 -0.11484002 -0.115398206
000170 fd 5e 05 3e fd 26 af bc 55 07 15 3c f9 51 cb 3d
       0.13024516 -0.021380896 0.009095986 0.099277444
000180 bb aa 7e 3c 35 51 51 3c 5c d3 8b bd d8 a7 af 3c
       0.015543635 0.012775709 -0.06827423 0.021442339
000190 d9 87 68 3d d4 b7 7a 3d 5e 20 39 3d 8f 12 96 3d
       0.05677018 0.06121047 0.045196883 0.073277585
0001a0 11 9d de bc 7a ab fe bd d5 d6 a7 bd ec 88 e0 3d
       -0.027174504 -0.1243505 -0.08195273 0.10963616
0001b0 44 3b 62 3d e1 cd ff bc 09 fb 2f 3e 25 6d e5 bc
       0.0552323 -0.0312261 0.17185606 -0.028006146
0001c0 07 21 96 3d 51 b7 f6 bd 49 75 0d be e9 29 f5 bd
       0.07330518 -0.120466836 -0.13814272 -0.11970884
0001d0 67 49 61 bb 29 97 66 3d 87 6c 1f be b3 c8 49 3e
       -0.0034376027 0.0562965 -0.15568744 0.19705467
0001e0 2c ca 96 3d a8 6f a2 3c 05 fa 8c 3d 2b b0 0b 3e
       0.0736278 0.019828632 0.06883625 0.13641421
0001f0 57 62 db 3d b7 cd 6a 3d c6 ab 2e bd 65 5f 0a be
       0.10712116 0.05732509 -0.042644285 -0.13512953
000200 0e 42 e4 bc 02 8e 44 3e 1b 7e 66 3d 53 ab 02 3e
       -0.027863529 0.19194797 0.056272607 0.12760668
000210 fc 5c 4e be 46 77 e8 3d 7d 9e b6 3b 10 d4 31 3e
       -0.20152658 0.113508746 0.0055730925 0.17366052
000220 1e f5 03 bd c6 63 04 bd 1d 1c 82 bd 29 67 ae bd
       -0.032216184 -0.032321714 -0.063530184 -0.0851577
000230 1b eb 54 3e 77 4d 0e be cc 78 f7 3d bb 9f 09 3e
       0.2079281 -0.13896738 0.12083587 0.13439839
000240 ee 50 d1 bc 5b b8 a4 bd 79 8a f9 3d e9 ca ee 3c
       -0.025551286 -0.080429755 0.12184615 0.02914949
000250 6c 21 4f bd 21 fd 07 3d 4f 5b 28 3e f5 3d 85 3e
       -0.050568983 0.033200387 0.16441081 0.26023832
000260 00 b8 bd 3d 9f c9 22 3d db 1a c1 3b 08 7a 22 3d
       0.09263611 0.039743062 0.005893094 0.03966716
000270 b7 fb 46 3e 26 fc bc bd 1c b1 39 bc 10 38 16 3e
       0.19431959 -0.09227781 -0.01133373 0.14669824
000280 10 06 9d bc a0 e6 d6 bc a2 29 ed bc f9 b3 81 3c
       -0.01916793 -0.026233017 -0.028950516 0.015832888
000290 7f da ca bd bb 8c 26 be d9 0d 21 3e 83 5c ed 3d
       -0.09904956 -0.16264622 0.15727939 0.11589911
0002a0 78 13 07 be 7b df 77 bd 48 4e 27 3e 77 8b a3 bd
       -0.1319102 -0.060515862 0.16338456 -0.07985585
0002b0 14 3b 4f be b9 07 bc 3c 0f 0e ab 3d e8 ea 96 3d
       -0.2023738 0.022952901 0.08352291 0.073690236
0002c0 5e f6 3c bb 25 99 c3 bc e7 0d 7f 3d 5c e9 56 be
       -0.002883337 -0.023876736 0.062269118 -0.20987457
0002d0 a9 4d 4f bd 07 c4 4e 3e c2 c4 da bd 93 45 02 be
       -0.050611172 0.20191966 -0.1068206 -0.12721853
0002e0 f3 98 24 be 8f af a1 3d 26 d6 32 3d 1e 3c 0d bc
       -0.1607397 0.07894813 0.04366126 -0.00862029
0002f0 94 ad 4b be 1e 6f 63 3d e6 69 bc 3d 75 b5 a8 bd
       -0.19890434 0.05552589 0.09199886 -0.08237735
000300 8f f3 e1 bd e6 9f 90 3d 03 89 f2 bd 28 2b a3 3d
       -0.11032783 0.07061748 -0.11842539 0.07967216
000310 6b e9 cf bd 05 12 6c 3d 51 8b 23 be 38 a4 a3 bd
       -0.10151943 0.057634372 -0.15971114 -0.079903066
000320 f7 ac 2a be 03 4c 38 be 15 8a df 3d 82 6c 93 bd
       -0.16667543 -0.17997746 0.10915009 -0.071984306
000330 c1 82 cb 3c b1 7c 5d 3d e1 6a 31 3e 3e ec ce 3d
       0.024842622 0.054073993 0.17325927 0.10103653
000340 99 bc e1 bc 5a 2f fc 3b 90 de 00 3d 23 17 9b 3d
       -0.02755575 0.0076960744 0.031462252 0.07572772
000350 ee 62 00 3d a2 55 e5 bd c2 ae da bd 55 da 93 3e
       0.031344347 -0.11197974 -0.10677864 0.28877512
000360 b4 ca ac bc 12 c6 2d be d0 67 50 3e c9 e2 29 3e
       -0.02109275 -0.16970089 0.20352101 0.16590418
000370 a1 ad aa 3d f2 56 8c bb a6 d8 26 3e 22 32 7c bd
       0.08333898 -0.0042828256 0.16293582 -0.061571248
000380 21 26 88 bd 80 ef dc 3d 23 eb 45 3d c3 74 d0 bc
       -0.066478975 0.107878685 0.048319947 -0.025446301
000390 55 c9 6b 3c 72 02 05 3d a1 12 80 3d 41 bb 9f 3d
       0.014391263 0.032473035 0.06253553 0.07799388
0003a0 d1 89 2a be bf 14 c9 bc 74 1b a9 bc 5a df f3 ba
       -0.16654135 -0.024546025 -0.020642973 -0.0018605993
0003b0 ad dd b3 3d ec c9 2f be 29 72 88 bd 95 4d 38 3e
       0.08782516 -0.17166871 -0.06662399 0.17998345
0003c0 30 ed 74 be d5 30 b4 bd 1e aa 3d 3e 49 08 81 3d
       -0.23918605 -0.087983765 0.18521926 0.063004084
0003d0 b0 c3 c2 3d 1f 99 9e bd 1e d1 ac 3d 86 9e a4 3e
       0.09509981 -0.07744049 0.084383234 0.32152194
0003e0 cc b2 a1 3d be 06 35 3e 65 15 10 3e ba 3d 08 be
       0.07895431 0.17678353 0.14070661 -0.13304797
0003f0 f2 a8 83 3e d8 34 1d bd 2d d5 62 be 7e 39 0a be
       0.25714833 -0.038380474 -0.22151633 -0.13498494
